models/ddpg_model_episode_450_actor.pth (torch, 631313 bytes, 6 tensors)

layer_1.weight f4 [400, 11]
0.089478105 -0.20343569 -0.07781732 -0.2640711 0.159816 0.21572071 -0.27374837 -0.17871842
-0.07415348 0.06786439 -0.20800704 -0.3094786 0.07165788 -0.14917481 0.17287156 -0.2273123
0.17831507 0.17013389 0.026634768 0.12503138 0.21622825 -0.1320712 0.4252794 0.21640223
-0.02309893 -0.024797646 -0.05810555 0.14157642 0.054691687 0.016155556 0.29024163 -0.2404494
-0.08529991 -0.23539044 -0.24768807 -0.09413621 0.25263095 -0.27937743 0.020624042 0.1151312
0.19232485 -0.13740665 -0.06842251 -0.037489176 0.18207504 -0.22779265 -0.17490391 0.1301658
-0.1121494 -0.017679086 -0.060863927 0.046364926 -0.13483058 -0.03294967 0.25016734 -0.053909943
-0.16920465 -0.23532958 -0.24878171 -0.0103191435 -0.111623004 0.051646024 -0.2769937 0.17659622
0.26731348 -0.26560965 0.05243294 -0.03783866 -0.008142436 0.15857399 -0.043588933 0.08452248
-0.22167937 -0.30805182 0.23279934 -0.07592407 0.10687325 -0.27522346 0.12918843 -0.1811862
0.115753256 -0.055380814 0.01613999 0.045756735 -0.14076324 -0.13394134 -0.21690392 -0.16780356
-0.07529245 -0.24713069 -0.35691282 -0.20530067 0.16236545 0.032913066 -0.0038360318 0.21885093
-0.24648696 0.2059924 -0.11387457 -0.08917138 -0.01789233 0.11021131 -0.22245766 -0.27318123
-0.16722761 -0.023970604 0.2392121 -0.24811788 -0.2661158 -0.0663715 0.21240908 -0.0012676729
0.20238681 -0.18659171 -0.087172545 -0.13627471 -0.29526773 0.27333543 0.26107863 0.10515758
0.10199368 -0.22859052 0.14315657 -0.12061109 0.06299969 -0.20226441 0.28056195 0.27917406
0.066935465 0.06461701 0.039854974 -0.2078945 -0.15915012 -0.19097272 -0.17918307 -0.22901616
0.2457885 -0.10426125 0.083486825 -0.20963682 0.014249116 0.050003827 -0.059505537 -0.09254359
0.15556762 0.041851297 -0.2507947 -0.22496815 -0.0846996 -0.03259577 -0.11325792 0.084701315
-0.040002998 0.13893098 0.36132693 0.20219703 -0.013338206 -0.16626057 0.13717473 0.05717778
-0.22789398 0.13821474 0.117444254 0.07836947 0.16384941 0.1493718 -0.18749833 -0.29050082
0.12462011 -0.25285888 0.086679846 0.15526381 -0.24887869 0.18219838 -0.17759308 -0.21683475
-0.31606257 0.13128132 -0.26164263 0.30591816 -0.16714244 0.29053897 0.0006785703 -0.18240766
0.094142616 0.038496137 -0.047430754 0.03507993 -0.020497557 -0.21119191 -0.29586235 0.06359606
-0.19190662 -0.108718276 0.117149346 0.27574116 -0.05657076 0.10151142 -0.0695853 0.2647567
0.15476052 -0.21331145 -0.15795979 0.11216409 0.08175887 -0.0335584 0.030982466 -0.29752517
-0.097268075 -0.106562 0.0070464 0.21577123 -0.18424505 0.07164918 -0.26898944 -0.24163453
-0.29816964 -0.15851094 -0.05863193 0.020552678 -0.28641793 -0.24740875 0.26139906 -0.24422559
0.23409648 0.11549951 -0.12081802 0.10124502 -0.043462235 -0.13631122 0.23146676 -0.039692968
-0.18601309 -0.22437328 -0.27068612 -0.042363405 -0.13091175 -0.10739258 -0.21336819 0.28667986
0.034220666 -0.2333408 0.2761307 0.14957747 0.10400795 0.03734235 -0.15653555 0.084804714
-0.010448232 0.09598156 0.28293085 0.0015048125 -0.035573315 0.3697074 -0.04852888 0.16701205
00000000: 4c40 b73d 7251 50be b05e 9fbd 5434 87be
00000010: cea6 233e e4e5 5c3e bf28 8cbe f601 37be
00000020: c8dd 97bd 7cfc 8a3d ccff 54be fb73 9ebe
00000030: 5ec1 923d 48c1 18be 3e05 313e 8ec4 68be
00000040: 3a98 363e 9437 2e3e 2831 da3c 3a08 003e
00000050: f06a 5d3e ac3d 07be 39be d93e 8c98 5d3e
00000060: f839 bdbc 6f24 cbbc 1600 6ebd 69f9 103e
00000070: 6404 603d a858 843c 8d9a 943e 5e38 76be
00000080: b8b1 aebd 310a 71be f1a1 7dbe 7cca c0bd
00000090: d858 813e 8f0a 8fbe c0f3 a83c e8c9 eb3d
000000a0: cef0 443e 54b4 0cbe 1a21 8cbd 408e 19bd
000000b0: e171 3a3e 7a42 69be 031a 33be 2f4a 053e
000000c0: 96ae e5bd bbd3 90bc 744c 79bd 26e9 3d3d
000000d0: 0711 0abe 3cf6 06bd ef15 803e acd0 5cbd
000000e0: fc43 2dbe 3dfa 70be a2c0 7ebe a011 29bc
000000f0: 9a9a e4bd c88a 533d 1ed2 8dbe a4d5 343e
00000100: 50dd 883e fdfd 87be ecc3 563d b6fc 1abd
00000110: da67 05bc 3861 223e 4f8a 32bd 1f1a ad3d
00000120: ebff 62be f8b8 9dbe f362 6e3e 147e 9bbd
00000130: 5de0 da3d 17ea 8cbe f949 043e e088 39be
00000140: 0b10 ed3d fed6 62bd 0338 843c 6a6b 3b3d
00000150: 3d24 10be eb27 09be 101c 5ebe b2d4 2bbe
00000160: ee32 9abd d40f 7dbe 47bd b6be 573a 52be
00000170: 2143 263e dacf 063d ef65 7bbb 751a 603e
00000180: 1467 7cbe acef 523e 1237 e9bd 7c9f b6bd
00000190: f092 92bc 78b6 e13d f1cb 63be 69de 8bbe
000001a0: b73d 2bbe 005e c4bc 04f4 743e 9d12 7ebe
000001b0: 5540 88be c8ed 87bd c481 593e 0b28 a6ba
000001c0: 7d3e 4f3e e611 3fbe 8587 b2bd 998b 0bbe
000001d0: 552d 97be 9ff2 8b3e 19ac 853e db5c d73d
000001e0: 10e2 d03d a213 6abe a397 123e f202 f7bd
000001f0: fb05 813d 671e 4fbe d1a5 8f3e e7ef 8e3e
00000200: 7615 893d ec55 843d f83e 233d 4ce2 54be
00000210: 40f8 22be 5a8e 43be c47b 37be 3683 6abe
00000220: fbaf 7b3e ec86 d5bd 24fb aa3d 09ab 56be
00000230: 2075 693c d0d0 4c3d 14bc 73bd 7e87 bdbd
00000240: 1e4d 1f3e 446c 2b3d 2a68 80be 0d5e 66be
00000250: fc76 adbd 2483 05bd c5f3 e7bd e277 ad3d
00000260: 2fda 23bd ec43 0e3e d8ff b83e bd0c 4f3e
00000270: 7e88 5abc 3640 2abe 8877 0c3e 3f33 6a3d
00000280: 0a5d 69be 2a88 0d3e 9d86 f03d 2c80 a03d
00000290: 24c8 273e ecf4 183e 90ff 3fbe 86bc 94be
000002a0: d438 ff3d b876 81be 3485 b13d 7afd 1e3e
000002b0: 0eda 7ebe 3692 3a3e f6da 35be ee09 5ebe
000002c0: f4d2 a1be 9c6e 063e 06f6 85be 4ea1 9c3e
000002d0: 6327 2bbe 86c1 943e 15e2 313a 13c9 3abe
000002e0: d8cd c03d 20ae 1d3d c046 42bd f9af 0f3d
000002f0: 7eea a7bc b142 58be 457b 97be a73e 823d
00000300: 2b83 44be b0a7 debd ffeb ef3d f22d 8d3e
00000310: beb6 67bd 38e5 cf3d bd82 8ebd 318e 873e
00000320: 8b79 1e3e 516e 5abe 36c0 21be 49b6 e53d
00000330: 3271 a73d 8874 09bd f1ce fd3c 3855 98be
00000340: 7c34 c7bd 2e3d dabd 7de5 e63b 22f3 5c3e
00000350: bcaa 3cbe cebc 923d fcb8 89be 0b6f 77be
00000360: b1a9 98be b150 22be 0928 70bd 175e a83c
00000370: 5fa5 92be b858 7dbe 19d6 853e 4616 7abe
00000380: fdb6 6f3e 028b ec3d 706f f7bd 8d59 cf3d
00000390: 7505 32bd 2b95 0bbe 9f05 6d3e 1895 22bd
000003a0: 377a 3ebe 1cc2 65be 5f97 8abe 4085 2dbd
000003b0: bb0d 06be a4f0 dbbd 317d 5abe b4c7 923e
000003c0: f82a 0c3d e4f0 6ebe 0161 8d3e d62a 193e
000003d0: 1f02 d53d 4bf4 183d db4a 20be 18ae ad3d
000003e0: 102f 2bbc fb91 c43d 50dc 903e 213d c53a
000003f0: 53b5 11bd 4a4a bd3e 38c6 46bd 3505 2b3e

layer_1.bias f4 [400]
-0.27283937 -0.15548222 -0.2954846 -0.017482966 0.046461668 0.018410593 0.023457278 0.14767112
-0.25914454 0.1995725 -0.19919075 -0.1304745 -0.243949 -0.17905419 -0.28856668 0.24842364
-0.12481673 -0.07330931 -0.19289967 -0.202837 -0.04106853 -0.009630024 -0.19741724 0.16229233
-0.055893395 -0.21842168 -0.2488904 -0.23161067 -0.084282875 -0.22508577 -0.28821436 -0.2847146
-0.025501093 0.028320292 0.20747226 -0.27973443 0.24081726 -0.03650662 -0.25002813 0.27463603
0.21132812 0.09326908 0.23578526 -0.07868591 -0.2862881 -0.128096 0.16125962 -0.105374984
0.06764871 -0.13103306 -0.13476096 0.064244784 -0.12369242 0.13313031 0.10294898 0.118639946
-0.22817798 0.019194901 -0.099927284 0.045859367 -0.30261993 -0.21630386 -0.19743027 0.03547726
0.12959594 0.23730749 -0.006326757 -0.15724643 0.067031205 0.061438873 -0.21933885 0.20843881
-0.24831933 0.14177185 -0.04778093 -0.08969496 -0.16448553 -0.1804597 0.28737393 -0.1451773
-0.27520722 0.068973556 -0.29263395 0.17291519 -0.2312147 0.1461525 0.12966844 0.28767455
0.08530519 0.02011535 0.15190282 -0.20628133 -0.1323164 0.0027086735 -0.25172052 -0.1723501
0.15267406 -0.20318389 -0.03885094 0.12804188 -0.16359407 -0.052317575 -0.11632291 0.06785261
-0.3083418 0.26243004 -0.29168227 -0.27737176 -0.09365827 -0.25249073 0.15393928 -0.26212993
-0.04198402 0.25498828 0.12018798 -0.05305876 -0.073210955 0.0509644 0.108599335 -0.27686092
0.30485865 -0.25947303 -0.20930177 -0.21259832 0.19499028 -0.114833735 -0.2329476 0.16238376
-0.017015481 0.21227252 -0.067560814 -0.2928273 0.22901253 0.10764722 0.14627849 0.07636669
-0.026761532 -0.041870244 -0.18340336 0.128897 -0.12521872 0.20138328 0.29464394 0.013364952
-0.02025229 -0.12035954 -0.23651643 -0.15194373 -0.029259434 0.063809425 -0.10423565 -0.28142455
0.06371998 0.056902945 0.09720653 0.09795594 0.26606977 -0.01490195 -0.11628781 0.006272167
0.19891334 0.21305035 -0.06773109 0.19093433 0.055839114 -0.0522442 0.07609105 0.15665951
-0.27144152 -0.14584899 0.21265885 -0.17781761 -0.24276723 -0.05571312 0.20285428 -0.2926326
-0.15545289 0.16826703 0.19792984 0.18657221 0.20756091 -0.08204931 -0.22533655 0.09249666
0.22836794 0.27936462 0.07224062 0.15894979 -0.1719978 0.06560713 0.121446595 -0.25839865
0.015996316 0.17075121 -0.25960132 0.30103934 -0.24846944 -0.21759175 -0.2983015 0.18274873
-0.0672593 0.28551787 0.15980011 -0.108759984 -0.029518247 -0.09890353 -0.0057573747 0.16422682
-0.12563045 -0.10330621 -0.28561714 -0.099422984 0.2523538 0.28352994 0.1289531 0.023688596
-0.18175282 -0.21795815 0.1836996 -0.029548267 -0.14623205 0.13851736 -0.10902129 0.3015108
0.2204533 0.025300965 -0.0009306215 -0.1572272 0.14957464 0.15726964 -0.3107664 0.04295683
0.22439755 0.18413484 0.22357327 0.23753677 -0.15777886 0.08881191 -0.2903245 -0.096948974
-0.1680579 -0.007899941 0.28592658 0.0059909266 -0.2698847 -0.17250377 0.18475513 0.099446416
-0.0051598735 -0.13543941 -0.07730301 -0.1779434 0.25162068 0.27444753 0.28373086 0.28059506
00000000: 9ab1 8bbe bb36 1fbe c249 97be 7038 8fbc
00000010: 974e 3e3d d0d1 963c 7a29 c03c 1937 173e
00000020: 98ae 84be bc5c 4c3e a9f8 4bbe 1b9b 05be
00000030: c4cd 79be fb59 37be 03bf 93be c462 7e3e
00000040: ea9f ffbd 3123 96bd 7e87 45be 81b4 4fbe
00000050: 7a37 28bd 40c7 1dbc bf27 4abe f62f 263e
00000060: 79f0 64bd efa9 5fbe 20dd 7ebe 592b 6dbe
00000070: 809c acbd e27c 66be d590 93be 1dc6 91be
00000080: abe7 d0bc f5ff e73c 9c73 543e 5a39 8fbe
00000090: cd98 763e f787 15bd b003 80be 189d 8c3e
000000a0: 6666 583e dc03 bf3d b171 713e 1426 a1bd
000000b0: 5b94 92be 992b 03be 3e21 253e d7ce d7bd
000000c0: 688b 8a3d 882d 06be c7fe 09be c592 833d
000000d0: 7452 fdbd 5053 083e ead6 d23d 80f9 f23d
000000e0: 7da7 69be a03e 9d3c ada6 ccbd 08d7 3b3d
000000f0: 00f1 9abe c27e 5dbe 292b 4abe 9a50 113d
00000100: ccb4 043e bc00 733e af50 cfbb 3505 21be
00000110: a847 893d 54a7 7b3d 5d9a 60be fc70 553e
00000120: 6c47 7ebe a42c 113e f0b5 43bd feb1 b7bd
00000130: e56e 28be 6dca 38be ad22 933e 5ca9 14be
00000140: f6e7 8cbe 0242 8d3d 1ed4 95be ae10 313e
00000150: 8cc3 6cbe 00a9 153e cec7 043e 144a 933e
00000160: 7db4 ae3d f2c8 a43c 6a8c 1b3e 6a3b 53be
00000170: f37d 07be 0084 313b 83e1 80be 8b7c 30be
00000180: 9756 1c3e 700f 50be 2a22 1fbd 691d 033e
00000190: 3485 27be f44a 56bd b53a eebd 4ff6 8a3d
000001a0: fade 9dbe 3b5d 863e 6157 95be ac03 8ebe
000001b0: e8cf bfbd 7746 81be 42a2 1d3e e535 86be
000001c0: 70f7 2bbd d38d 823e 1e25 f63d 2454 59bd
000001d0: a0ef 95bd 0cc0 503d 5469 de3d b7c0 8dbe
000001e0: 6f16 9c3e a6d9 84be 3453 56be 60b3 59be
000001f0: 88ab 473e f32d ebbd d189 6ebe ee47 263e
00000200: 0d64 8bbc f85d 593e 535d 8abd 76ed 95be
00000210: 4382 6a3e 2576 dc3d 07ca 153e 2466 9c3d
00000220: 003b dbbc 2280 2bbd 17ce 3bbe 93fd 033e
00000230: 5639 00be 6b37 4e3e 92db 963e acf8 5a3c
00000240: 21e8 a5bc 107f f6bd 5d31 72be 2397 1bbe
00000250: 7bb1 efbc 84ae 823d 8079 d5bd e116 90be
00000260: 9f7f 823d 1013 693d 3814 c73d 209d c83d
00000270: 4c3a 883e 4f27 74bc 4e28 eebd c086 cd3b
00000280: f0af 4b3e df29 5a3e 99b6 8abd 4a84 433e
00000290: 8eb7 643d 04fe 55bd a0d5 9b3d 5a6b 203e
000002a0: 62fa 8abe 7059 15be 3ec3 593e d215 36be
000002b0: f997 78be 7133 64bd 08b9 4f3e f1d3 95be
000002c0: 0b2f 1fbe 314e 2c3e 1fae 4a3e c90c 3f3e
000002d0: d98a 543e 7809 a8bd a0be 66be e46e bd3d
000002e0: 49d9 693e e108 8f3e e4f2 933d bcc3 223e
000002f0: 3120 30be 085d 863d feb8 f83d d44c 84be
00000300: b50a 833c 68d9 2e3e 77ea 84be d421 9a3e
00000310: c66e 7ebe 5fd0 5ebe f9ba 98be 7c22 3b3e
00000320: 3ebf 89bd 662f 923e a4a2 233e 8ebd debd
00000330: 40d0 f1bc ef8d cabd 5ca8 bcbb 132b 283e
00000340: 45a5 00be 3592 d3bd 693c 92be 479e cbbd
00000350: 8434 813e d62a 913e 480c 043e 960e c23c
00000360: 691d 3abe 6c30 5fbe bf1b 3c3e 350f f2bc
00000370: dbbd 15be 7fd7 0d3e 8e46 dfbd a05f 9a3e
00000380: 83be 613e f843 cf3c f4f4 73ba 2b00 21be
00000390: 182a 193e 4b0b 213e c61c 9fbe 80f3 2f3d
000003a0: 79c8 653e d88d 3c3e 64f0 643e d73c 733e
000003b0: c890 21be 05e3 b53d 6aa5 94be 2f8d c6bd
000003c0: 5f17 2cbe c16e 01bc f864 923e 894f c43b
000003d0: 542e 8abe d4a4 30be 7330 3d3e 90aa cb3d
000003e0: 2814 a9bb a1b0 0abe 0a51 9ebd cb36 36be
000003f0: 6dd4 803e 6384 8c3e 2c45 913e 28aa 8f3e

layer_2.weight f4 [300, 400]
-0.045565136 -0.045280516 0.021818897 0.010889452 -0.013872139 0.016832862 -0.049743295 0.02577319
-0.0226902 0.013218898 0.027673338 -0.018229958 0.03641491 -0.023147536 -0.052734483 -0.014669407
-0.027854867 0.01670641 -0.011310694 -0.033576954 0.031800844 0.03944591 0.009022109 -0.020422136
-0.013206529 -0.04202796 -0.020390606 0.043247465 -0.035260785 0.017275807 0.019224739 0.0069132117
0.011980816 -0.03260912 -0.037485853 -0.018855326 0.032653056 0.00622625 -0.007428416 0.024884798
0.033209793 -0.044966772 0.0010947 0.016710754 -0.034083445 -0.033803195 0.0067237406 -0.036806773
-0.009747535 -0.02322247 -0.04954887 0.0057909265 -0.015773207 -0.03242638 -0.0006805137 -0.020497667
0.020723773 0.007919134 0.0025738543 0.032896344 -0.014507626 -0.042360947 0.04064691 0.019023584
-0.04380214 -0.018429894 -0.031040275 0.043407608 0.017848488 0.01248651 -0.045551285 -0.027763816
0.009652237 -0.029958675 0.035531964 -0.045336336 -0.02276029 -0.009100405 -0.0057063703 0.04082937
-0.047572833 0.00037631392 -0.044749726 0.04420609 0.025522325 -0.048342444 -0.045037407 -0.014811523
0.03319556 -0.029045468 0.017238725 -0.028909992 -0.01992761 0.0074403062 0.035518117 0.043126572
-0.041839648 0.022968858 -0.027004328 -0.03240424 -0.009329954 0.0055728327 0.036119234 0.044345
-0.005146834 -0.005497798 0.023139063 -0.032067176 -0.019577958 0.006061636 -0.045133106 0.026246697
-0.01925139 -0.01789742 -0.035451822 0.0031204745 -0.007793544 0.008613519 0.040920023 -0.021285146
0.016159583 -0.012693266 0.00027482206 0.017609183 0.028680215 -0.022534296 0.02241357 0.02930567
-0.03378451 -0.01703928 0.019959446 -0.03113587 0.00566765 0.026448995 -0.027057119 -0.04059838
0.024979424 -0.048591293 -0.01641811 -0.017889647 -0.006209849 -0.012167651 -0.018636525 -0.0031148975
-0.016122388 0.018915143 0.03053758 -0.04483593 -0.027903276 0.00997293 -0.0013245754 0.027791876
0.024574524 0.031943243 0.02600747 -0.042782307 -0.004606556 -0.023994759 -0.04593396 0.008290045
-0.039192326 -0.009304512 -0.010344227 -0.010046177 -0.043133676 0.03275216 -0.0150074065 -0.024921602
-0.004010938 0.0037383668 0.025778737 -0.029610725 -0.02426849 0.036046676 -0.028841669 -0.022411495
0.026156126 -0.029911295 -0.036909174 0.0063381083 0.016887292 0.02191465 0.004333564 0.039432246
-0.018982286 -0.007834804 0.008617062 0.04522029 -0.038138058 0.008808378 -0.021668222 0.047532935
-0.0005077645 0.01444969 0.021873172 0.00086865574 -0.015169699 -0.0021465644 0.013483921 -0.013105355
-0.024776125 -0.012625925 0.045810767 0.043633748 0.03240353 -0.012249041 -0.009058537 -0.0395571
-0.010222292 -0.053707696 0.042297367 -0.035570513 -0.0022766069 -0.03460064 -0.04754091 -0.019308696
0.005757711 -0.026879994 0.02748018 -0.0116097145 -0.0033795447 0.016850073 0.03816338 0.0094687
0.0027207562 0.016856553 -0.023180194 0.0013093948 -0.019168848 -0.029995764 0.0024604015 0.035268668
0.009685143 -0.01031195 0.042339083 0.0129519785 -0.037401102 0.019138629 0.04027732 0.003186591
-0.018172735 -0.037695233 0.009744357 -0.05274739 0.022788856 -0.004530967 -0.04437254 -0.030777192
-0.049496043 0.0015952773 0.009046756 0.042687237 0.044524368 0.010616338 0.007593274 -0.012039825
00000000: 82a2 3abd 1078 39bd 8bbd b23c ac69 323c
00000010: f847 63bc 12e5 893c a0bf 4bbd 4c22 d33c
00000020: cce0 b9bc 1494 583c 32b3 e23c fe56 95bc
00000030: cd27 153d e79f bdbc 1d00 58bd f457 70bc
00000040: e42f e4bc e2db 883c 7d50 39bc fd87 09bd
00000050: 9a41 023d 0992 213d 78d1 133c 534c a7bc
00000060: 3360 58bc 8325 2cbd 330a a7bc 4124 313d
00000070: 9d6d 10bd fe85 8d3c 337d 9d3c 3988 e23b
00000080: 2f4b 443c 2491 05bd c48a 19bd 7c76 9abc
00000090: 36bf 053d 9205 cc3b 126a f3bb 34db cb3c
000000a0: fe06 083d 142f 38bd 097c 8f3a fee4 883c
000000b0: 159b 0bbd 3875 0abd d352 dc3b b3c2 16bd
000000c0: 20b4 1fbc 0d3d bebc c2f3 4abd d0c1 bd3b
000000d0: d036 81bc 86d1 04bd 8064 32ba b9ea a7bc
000000e0: e7c4 a93c 41bf 013c 1cae 283b 51be 063d
000000f0: 65b1 6dbc ac82 2dbd 607d 263d 59d7 9b3c
00000100: df69 33bd 4afa 96bc 2d48 febc 2dcc 313d
00000110: fe36 923c 3894 4c3c fc93 3abd f170 e3bc
00000120: 6b24 1e3c e56b f5bc f789 113d 98b2 39bd
00000130: ca73 babc dd19 15bc 81fc babb b33c 273d
00000140: bbdb 42bd 004c c539 7d4b 37bd 7211 353d
00000150: 3214 d13c ba02 46bd 2579 38bd 08ac 72bc
00000160: 11f8 073d c3f0 edbc 3a38 8d3c a6d4 ecbc
00000170: 3a3f a3bc d0cd f33b 727b 113d 7da5 303d
00000180: 0d60 2bbd 3029 bc3c 2e38 ddbc 4fba 04bd
00000190: aadc 18bc 4f9c b63b c3f1 133d 1aa3 353d
000001a0: c6a6 a8bb df26 b4bb 228e bd3c df58 03bd
000001b0: f461 a0bc b0a0 c63b 7edd 38bd 5003 d73c
000001c0: 17b5 9dbc 9c9d 92bc ee35 11bd e080 4c3b
000001d0: fc60 ffbb b81f 0d3c c19b 273d 305e aebc
000001e0: 1a61 843c 6bf7 4fbc fe15 9039 2241 903c
000001f0: c5f2 ea3c d899 b8bc aa9c b73c 7212 f03c
00000200: a061 0abd f695 8bbc fe81 a33c a710 ffbc
00000210: b2b7 b93b 90ab d83c e4a6 ddbc 7d4a 26bd
00000220: a6a1 cc3c aa07 47bd 467f 86bc 4f8d 92bc
00000230: fd7b cbbb d45a 47bc a0ab 98bc 4f23 4cbb
00000240: 1913 84bc eef3 9a3c f229 fa3c e1a5 37bd
00000250: 6995 e4bc 8065 233c 609d adba caab e33c
00000260: 8350 c93c ebd6 023d 9e0d d53c 803c 2fbd
00000270: 98f2 96bb a890 c4bc 3f25 3cbd f8d2 073c
00000280: 2288 20bd f471 18bc d57a 29bc b898 24bc
00000290: f0ac 30bd 2127 063d a0e1 75bc 6328 ccbc
000002a0: 306e 83bb 63ff 743b ee2d d33c 3192 f2bc
000002b0: b6ce c6bc aea5 133d 5d45 ecbc 5098 b7bc
000002c0: 5f45 d63c 8808 f5bc 132e 17bd e8af cf3b
000002d0: 3857 8a3c 5a86 b33c 9200 8e3b b583 213d
000002e0: bd80 9bbc 8d5d 00bc 942e 0d3c e938 393d
000002f0: a736 1cbd 0451 103c 8e81 b1bc e5b1 423d
00000300: 801b 05ba 64be 6c3c 5e2f b33c 80b6 633a
00000310: 548a 78bc 60ad 0cbb aaeb 5c3c d8b7 56bc
00000320: 4df7 cabc f8dc 4ebc 12a4 3b3d 4db9 323d
00000330: 90b9 043d 34b0 48bc 426a 14bc a006 22bd
00000340: 667b 27bc 9afc 5bbd 0140 2d3d 63b2 11bd
00000350: 2033 15bb 67b9 0dbd 42ba 42bd 452d 9ebc
00000360: 2eab bc3b 6f33 dcbc 1d1e e13c ac36 3ebc
00000370: 5a7b 5dbb 2a09 8a3c 3451 1c3d 9b22 1b3c
00000380: b74e 323b c116 8a3c 64e4 bdbc 00a0 ab3a
00000390: fd07 9dbc adb9 f5bc b03e 213b e175 103d
000003a0: 6fae 1e3c 74f3 28bc bf6b 2d3d 8934 543c
000003b0: e631 19bd 9dc8 9c3c d5f9 243d 20d6 503b
000003c0: fdde 94bc 5166 1abd cca6 1f3c a60d 58bd
000003d0: b2af ba3c 8278 94bb fbbf 35bd 7320 fcbc
000003e0: 5dbc 4abd a018 d13a d838 143c d0d8 2e3d
000003f0: 2f5f 363d 26f0 2d3c 00d1 f83b b042 45bc

layer_2.bias f4 [300]
-0.050732516 -0.05031276 -0.028938048 0.04287747 0.0044500367 -0.031277414 -0.019516004 -0.052916557
0.014879929 -0.0053460747 0.03561465 0.0045218756 -0.047316767 -0.0313268 -0.035253763 0.044732276
-0.008205141 -0.04304869 -0.014950931 -0.02381963 0.0081611145 0.042931195 -0.014193878 0.04693902
0.0155194 0.017778678 0.06352754 -0.025717307 -0.023615548 0.040835004 -0.01984829 -0.021994375
-0.0047711576 -0.03292302 0.024644855 -0.030545985 0.028480818 0.014558718 -0.021965811 -0.0324439
0.03895752 -0.028664516 0.0448475 0.02013475 -0.005892857 0.040851403 0.040706523 -0.05223007
-0.020234466 0.007452304 -0.018808993 -0.014831869 -0.022114016 -0.027170258 -0.028627075 -0.042278547
0.021082547 -0.019462753 0.03598414 -0.020583196 -0.037796214 0.009453122 0.042697005 0.034573648
0.02833662 -0.0035623654 0.009286213 0.033752657 0.0384326 -0.035354692 0.002898034 -0.049448878
-0.04369376 -0.029958764 0.01014764 -0.041817937 0.039305653 -0.051122587 0.017668564 -0.011041783
-0.018390862 -0.01791266 -0.018689906 -0.046855073 -0.047885634 0.04880515 0.026444223 0.048040606
-0.047118593 -0.021924471 -0.0026469238 0.022000767 0.00035717338 -0.042237993 -0.008646556 -0.00016908202
0.017442796 -0.042867646 -0.01861562 0.025939343 0.033293914 0.039951127 0.022817345 -0.0035949594
-0.043974962 -0.052913215 0.021909136 -0.05562527 0.035701025 -0.018023312 0.042019855 0.003014386
0.005399622 0.03296971 -0.03551247 0.0141246505 -0.018877711 -0.028861854 -0.025904413 -0.020426137
-0.03372934 -0.022649782 -0.03943668 0.03244606 0.028464068 -0.04044206 -0.051155075 -0.02846815
0.036913183 -0.015634473 -0.013180236 0.036759123 0.015896952 0.027556635 -0.030406166 -0.011503449
0.02647569 -0.045006286 0.027654458 -0.048138168 0.0019959565 -0.02919684 -0.007855513 -0.024441494
0.01728153 0.00117226 -0.053870592 -0.041190896 0.045564864 0.013846671 -0.017415464 -0.030763526
-0.033028696 0.015842237 -0.050488215 0.03324594 -0.03391172 -0.04342272 -0.043684453 -0.033178717
-0.020680636 -0.04541058 0.0070956354 -0.027586361 -0.00016386 0.018141039 -0.029407227 -0.042193953
-0.026601179 -0.023922693 0.036400493 -0.0159265 -0.010650204 -0.057179037 -0.026356967 -0.020370767
0.042984195 0.018559648 0.00751276 0.0066840993 -0.045514204 -0.007723753 0.04603534 -0.03168639
-0.049738973 -0.04183539 -0.007588779 0.013856817 0.041332223 -0.019583384 0.021571066 -0.00824401
0.037787214 -0.0086469585 0.024438946 -0.037490178 0.0430355 -0.04810847 -0.009016261 -0.016718855
-0.0029136348 -0.03910324 0.03840043 0.027234139 -0.054575447 0.03423162 -0.005575694 -0.027940175
-0.01578146 0.0053577945 0.04961065 -0.021601917 -0.04005258 0.03713414 0.01821911 -0.015778001
-0.034703884 0.009040888 0.0020690153 -0.031307086 0.034807764 -0.017601319 -0.035996288 0.018585727
-0.0470809 -0.05165524 0.0113963485 0.044510197 0.0015474155 -0.016139155 -0.034090564 0.02989399
-0.013032183 0.009942923 0.032571413 0.034655068 -0.021909919 0.02376892 -0.013560479 0.048738163
0.019978998 0.028663855 0.03618185 -0.007929271 0.010630088 0.021112584 -0.04018836 0.039379023
0.023908082 -0.04893179 0.05942465 -0.047635097 0.010575062 -0.016035222 -0.004228403 0.035684682
00000000: e6cc 4fbd c114 4ebd 7c0f edbc 49a0 2f3d
00000010: 9dd1 913b bf1c 00bd 07e0 9fbc 08bf 58bd
00000020: f2ca 733c 202e afbb abe0 113d 3e2c 943b
00000030: 3acf 41bd 8850 00bd 4066 10bd 3139 373d
00000040: db6e 06bc d353 30bd c0f4 74bc 6221 c3bc
00000050: 32b6 053c 9fd8 2f3d 708d 68bc 2143 403d
00000060: 1545 7e3c 97a4 913c ba1a 823d 1aad d2bc
00000070: 6575 c1bc 9b42 273d e298 a2bc 8c2d b4bc
00000080: 5f57 9cbb 4ada 06bd 02e4 c93c 933b fabc
00000090: 9b50 e93c b087 6e3c a5f1 b3bc e5e3 04bd
000000a0: ec91 1f3d d9d1 eabc 03b2 373d a2f1 a43c
000000b0: de18 c1bb cd53 273d e2bb 263d 33ef 55bd
000000c0: c0c2 a5bc 7532 f43b 5115 9abc 5e01 73bc
000000d0: 7428 b5bc 2994 debc 5483 eabc 452c 2dbd
000000e0: 4eb5 ac3c 5a70 9fbc 1b64 133d 179e a8bc
000000f0: 34d0 1abd 44e1 1a3c 0ee3 2e3d 199d 0d3d
00000100: 3322 e83c 9376 69bb 3325 183c 3a40 0a3d
00000110: 816b 1d3d 15d0 10bd f1ec 3d3b e88a 4abd
00000120: 3af8 32bd 156c f5bc 4942 263c 4949 2bbd
00000130: f7fe 203d eb65 51bd aabd 903c 98e8 34bc
00000140: 6fa8 96bc 92bd 92bc 931b 99bc 1beb 3fbd
00000150: ba23 44bd e9e7 473d 8ea1 d83c 3ac6 443d
00000160: 6dff 40bd f39a b3bc 0378 2dbb f43a b43c
00000170: 0043 bb39 bf01 2dbd 49aa 0dbc 9c4b 31b9
00000180: 32e4 8e3c fc95 2fbd c97f 98bc bf7e d43c
00000190: 335f 083d cba3 233d 71eb ba3c 6999 6bbb
000001a0: 171f 34bd 87bb 58bd ca7a b33c 53d7 63bd
000001b0: 3d3b 123d a0a5 93bc 031d 2c3d 018d 453b
000001c0: 50ef b03b 3f0b 073d 8675 11bd 146b 673c
000001d0: 6ea5 9abc b26f ecbc 7e35 d4bc b754 a7bc
000001e0: c727 0abd 098c b9bc 5b88 21bd 29e6 043d
000001f0: 7a2d e93c 93a6 25bd fc87 51bd 0a36 e9bc
00000200: 4732 173d de13 80bc ebf1 57bc bc90 163d
00000210: 533a 823c 74be e13c 5a16 f9bc f678 3cbc
00000220: 8ce3 d83c 8358 38bd 9a8b e23c 872c 45bd
00000230: 98ce 023b 362e efbc 69b4 00bc 8739 c8bc
00000240: ff91 8d3c 85a6 993a 69a7 5cbd c9b7 28bd
00000250: 39a2 3a3d 26dd 623c e0aa 8ebc ca03 fcbc
00000260: 1949 07bd 94c7 813c bbcc 4ebd e52c 083d
00000270: 04e7 0abd 06dc 31bd 78ee 32bd 68e6 07bd
00000280: 706a a9bc 7200 3abd 8182 e83b cbfc e1bc
00000290: d5d1 2bb9 849c 943c 6de7 f0bc 91d3 2cbd
000002a0: b7ea d9bc 86f9 c3bc af18 153d 4b78 82bc
000002b0: 317e 2ebc 9134 6abd 91ea d7bc 98e0 a6bc
000002c0: 3210 303d 670a 983c 992d f63b 4a06 db3b
000002d0: 1a6d 3abd 8917 fdbb 8d8f 3c3d 97c9 01bd
000002e0: 18bb 4bbd 965b 2bbd 4bab f8bb b407 633c
000002f0: fa4b 293d 556d a0bc ceb5 b03c e211 07bc
00000300: c4c6 1a3d f9ab 0dbc 2f34 c83c 4d8f 19bd
00000310: fe45 303d 630d 45bd f1b8 13bc fbf5 88bc
00000320: aef2 3ebb b82a 20bd c549 1d3d 211a df3c
00000330: 818a 5fbd 7536 0c3d 50b4 b6bb cbe2 e4bc
00000340: 1f48 81bc 7090 af3b 8934 4b3d 81f6 b0bc
00000350: 2d0e 24bd f819 183d 3e40 953c de40 81bc
00000360: a925 0ebd 3c20 143c 5198 073b dc3b 00bd
00000370: 9692 0e3d a430 90bc d870 13bd 1841 983c
00000380: e7d7 40bd 7294 53bd c0b7 3a3c 5350 363d
00000390: a6d2 ca3a 4336 84bc 8ca2 0bbd 3ee4 f43c
000003a0: f084 55bc a4e7 223c 9a69 053d 79f2 0d3d
000003b0: 6e7c b3bc 0ab7 c23c c52c 5ebc aba1 473d
000003c0: ffaa a33c 76d0 ea3c 6b33 143d c6e9 01bc
000003d0: d229 2e3c 4cf4 ac3c 8d9c 24bd e64b 213d
000003e0: e2da c33c b36c 48bd 4367 733d 051d 43bd
000003f0: 0643 2d3c 4c5c 83bc 6a8e 8abb 1a2a 123d

layer_3.weight f4 [106, 300]
0.048857696 0.0030419652 0.020698935 -0.05675236 -0.036650024 -0.0150113795 0.03582459 0.05569159
-0.05673135 0.001003262 -0.039223526 0.035227664 0.044987857 -0.04109042 -0.054424223 -0.04354199
-0.03774361 0.005753178 -0.031674713 -0.03939394 -0.031872366 0.007982366 0.03301706 -0.009605572
-0.04408361 -0.0073747933 -0.04920696 0.021655537 -0.042762145 -0.034634244 -0.017114323 0.04577773
-0.004134562 0.012515485 0.037379988 -0.016081046 -0.037408482 -0.04748614 0.030736946 0.011763997
-0.013959672 0.0108098835 -0.05512473 -0.017418325 0.016005196 -0.04075858 -0.025543632 0.0023599043
0.03432668 -0.0033439696 0.05464828 -0.042906012 -0.03616508 -0.027520165 0.042987548 -0.024628624
-0.020510256 0.0031787304 0.004871755 0.0198901 0.04696376 -0.04878118 0.0050231516 0.04047919
0.04672678 0.034509867 0.04227584 0.03230361 0.05051224 0.023110792 0.04947152 -0.052660506
0.03083834 -0.00058530644 0.04429157 0.030444935 0.018201582 -0.02202665 0.0491576 -0.040405206
0.014991127 -0.02300023 0.04040788 -0.049696825 -0.002299535 -0.006442543 0.053752042 -0.00084507465
0.022852309 0.0046733506 0.05590097 0.032900862 -0.030336725 -0.043200783 0.011386968 0.014954969
-0.048109755 0.039851137 0.03522469 0.018991299 0.053461645 -0.014505722 0.041486412 0.014799364
-0.028029386 0.020008042 -0.028426101 0.007058218 0.0110075325 -0.05279484 -0.02547291 -0.024272397
-0.040285148 -0.018232167 0.00861498 -0.003986463 0.010263152 0.034240052 -0.044799916 -0.012566198
-0.007894136 0.015393645 0.010136418 0.017816365 -0.027122738 -0.034774654 0.042364463 0.028227456
-0.04546168 -0.04379587 0.020675734 0.03300292 -0.034084577 -0.0075134537 0.03134425 0.016466774
0.05896625 0.061186537 -0.035339154 0.036242798 -0.036606543 -0.017190885 -0.025838852 0.018238984
-0.0060138423 0.04703342 0.024031572 -0.040807143 -0.038414337 -0.050406985 -0.026244793 0.013591148
0.007638164 0.0400436 0.010000199 0.014980744 -0.038372364 0.026012376 0.028565757 0.023526981
0.011226387 0.045329683 -0.01950767 -0.043229565 -0.021129854 -0.012502003 -0.015571214 0.04965917
0.022157207 0.022827735 0.0009798259 -0.021907462 -0.0006925091 -0.04741267 -0.03179772 -0.051819287
0.011479594 0.05277794 -0.038619176 -0.02871186 0.01966013 -0.04210501 -0.0476055 -0.004839725
0.04400353 -0.030377297 0.020110972 -0.03249818 -0.05366517 0.049605556 -0.0077343024 0.049672082
0.011255391 -0.0029986575 0.007223442 -0.01712408 0.020078897 -0.048248682 -0.04430817 0.027800865
0.020011 -0.0081006065 0.027743943 -0.043154113 0.044687435 -0.024709329 -0.025597475 0.042887576
0.012774845 0.0011545122 -0.003826011 0.04252865 0.018277315 -0.005056467 -0.010058586 0.029866237
0.008225869 0.0343498 0.047026258 0.01027151 -0.020051356 -0.038295925 -0.009169608 -0.009634005
0.05665648 -0.011782808 0.023300707 0.033129297 -0.029942553 0.011608458 0.019153468 0.054328814
0.023897914 0.03271418 0.04773862 0.056558773 -0.030518176 -0.005935382 0.03177794 0.0056539103
-0.0033778767 -0.0073333457 -0.019562311 -0.036248505 -0.0083515495 -0.011856062 -0.05660153 -0.02499548
0.012444131 -0.04929737 0.03978416 -0.04661399 0.025116835 -0.013067219 0.00491743 -0.026577162
00000000: 021f 483d b55b 473b d090 a93c 2a75 68bd
00000010: 561e 16bd 4af2 75bc cebc 123d dd1c 643d
00000020: 225f 68bd e37f 833a d9a8 20bd e24a 103d
00000030: 3045 383d 6e4e 28bd efeb 5ebd 1659 32bd
00000040: 0b99 1abd 2885 bc3b 58bd 01bd 8a5b 21bd
00000050: 998c 02bd 78c8 023c e63c 073d b060 1dbc
00000060: 0491 34bd 40a8 f1bb 3d8d 49bd f466 b13c
00000070: 5c27 2fbd a3dc 0dbd 5633 8cbc 6e81 3b3d
00000080: 387b 87bb c00d 4d3c c21b 193d 66bc 83bc
00000090: a339 19bd d480 42bd 0ccc fb3c c8bd 403c
000000a0: 1cb7 64bc f01b 313c 78ca 61bd e0b0 8ebc
000000b0: 541d 833c 78f2 26bd e140 d1bc a0a8 1a3b
000000c0: 229a 0c3d 8026 5bbb e0d6 5f3d 37be 2fbd
000000d0: d621 14bd f871 e1bc b613 303d f8c1 c9bc
000000e0: 2005 a8bc 3f52 503b 3ea3 9f3b 90f0 a23c
000000f0: 125d 403d c6ce 47bd 4099 a43b 82cd 253d
00000100: 9464 3f3d 385a 0d3d 6e29 2d3d ca50 043d
00000110: ece5 4e3d d852 bd3c a6a2 4a3d 8bb2 57bd
00000120: b0a0 fc3c 406f 19ba 146b 353d a867 f93c
00000130: 7c1b 953c 3c71 b4bc 7b59 493d ee7f 25bd
00000140: 589d 753c fa6a bcbc bc82 253d e68e 4bbd
00000150: ccb3 16bb f81b d3bb 1a2b 5c3d 0088 5dba
00000160: c434 bb3c e822 993b 6af8 643d 0ec3 063d
00000170: b984 f8bc 4ef3 30bd 6890 3a3c b005 753c
00000180: bc0e 45bd f23a 233d c447 103d a493 9b3c
00000190: 99fa 5a3d 68a9 6dbc a8ed 293d 0879 723c
000001a0: e29d e5bc e8e7 a33c dbdd e8bc a048 e73b
000001b0: f058 343c 673f 58bd 90ac d0bc e8d6 c6bc
000001c0: 0a02 25bd a05b 95bc d825 0d3c e0a0 82bb
000001d0: c826 283c 4c3f 0c3d 1e80 37bd 74e2 4dbc
000001e0: 6856 01bc a035 7c3c 3813 263c a0f3 913c
000001f0: 8130 debc de6f 0ebd 5c86 2d3d 443d e73c
00000200: 0736 3abd 4c63 33bd 2860 a93c 122e 073d
00000210: 459c 0bbd 6b33 f6bb d462 003d 54e5 863c
00000220: 9886 713d bc9e 7a3d cabf 10bd 5473 143d
00000230: bef0 15bd e6d3 8cbc 00ac d3bc ec69 953c
00000240: c40f c5bb 1ea6 403d dcdd c43c 6425 27bd
00000250: 5a58 1dbd 8e77 4ebd 52ff d6bc 68ad 5e3c
00000260: 9049 fa3b c204 243d e0d7 233c cb71 753c
00000270: 572c 1dbd e817 d53c bc02 ea3c a8bb c03c
00000280: e1ee 373c 9eab 393d 8dce 9fbc 7c11 31bd
00000290: 8418 adbc 34d5 4cbc 681e 7fbc 6a67 4b3d
000002a0: 0883 b53c 3b01 bb3c 806d 803a 4777 b3bc
000002b0: 8089 35ba ca33 42bd 533e 02bd 7640 54bd
000002c0: e814 3c3c ae2d 583d 242f 1ebd 2235 ebbc
000002d0: 480e a13c 4e76 2cbd fcfd 42bd 8e96 9ebb
000002e0: 0c3d 343d cfd9 f8bc c4bf a43c d01c 05bd
000002f0: 02d0 5bbd 322f 4b3d 0870 fdbb f474 4b3d
00000300: 8868 383c 2085 44bb a0b2 ec3b cc47 8cbc
00000310: 807c a43c 69a0 45bd 7c7c 35bd a4be e33c
00000320: 1cee a33c 68b8 04bc 4447 e33c 5ec2 30bd
00000330: 2c0a 373d 386b cabc ccb1 d1bc e2aa 2f3d
00000340: 954d 513c 0053 973a d0bd 7abb 8632 2e3d
00000350: 4fba 953c b8b0 a5bb c4cc 24bc 0aaa f43c
00000360: ccc5 063c 60b2 0c3d 9b9e 403d d649 283c
00000370: be42 a4bc 30dc 1cbd 203c 16bc f2d7 1dbc
00000380: a010 683d ae0c 41bc 20e1 be3c 96b2 073d
00000390: 164a f5bc 6731 3e3c bce7 9c3c e487 5e3d
000003a0: 8fc5 c33c 4eff 053d 9289 433d 2caa 673d
000003b0: 4101 fabc 987d c2bb 9629 023d 7044 b93b
000003c0: 5e5f 5dbb 904c f0bb 2441 a0bc 5079 14bd
000003d0: f0d4 08bc ee3f 42bc 02d7 67bd 52c3 ccbc
000003e0: 78e2 4b3c 0aec 49bd b7f4 223d 50ee 3ebd
000003f0: d2c1 cd3c e417 56bc 6522 a13b 59b8 d9bc

layer_3.bias f4 [106]
0.05882317 0.05085399 -0.050545424 0.020613817 0.010626325 -0.016956266 -0.031807832 -0.0062695458
-0.008584564 0.02888115 0.02321281 -0.053349677 -0.026103506 -0.05372755 0.01956146 0.0069718454
0.064077765 -0.0498828 -0.051840425 0.03922207 0.005539532 0.0345144 -0.05393345 0.05154317
0.0023127627 -0.01897985 -0.009664876 0.04278331 -0.03707349 -0.033235066 -0.041093495 0.01186336
0.019812634 0.012260829 -0.05672562 -0.048299 -0.050503124 0.029948033 -0.035549097 0.03899123
-0.031743813 0.03791694 -0.016043814 0.016338686 0.031121373 -0.058245864 -0.02666064 0.0073935655
0.05407743 0.03243216 -0.03318114 0.0243556 -0.06306354 0.04058864 -0.019490577 -0.02034219
0.05059593 0.043146316 0.009818395 0.05579143 -0.050761268 -0.03510173 0.008548538 -0.05397665
-0.045803927 -0.046638 -0.03642816 -0.033600997 0.057172924 -0.0073122154 -0.0022483035 -0.04614745
0.04788733 -0.03823831 0.057438716 -0.04234625 -0.051271893 -0.04290083 -0.021406336 0.032585572
-0.011577972 -0.017468601 0.054248586 -0.0036904758 -0.029819809 0.061689943 -0.0221549 -0.05260713
-0.015046275 -0.04000908 0.011002112 -0.00409191 0.0066831876 0.030037679 0.050980303 -0.034142956
-0.03177034 -0.050585527 0.011862882 0.03684018 0.023083895 0.009495451 0.037776783 -0.032780077
-0.025892807 0.0152766295
00000000: 90f0 703d 464c 503d b808 4fbd 4fde a83c
00000010: 0a1a 2e3c dee7 8abc ee48 02bd c370 cdbb
00000020: 45a6 0cbc 2998 ec3c ca28 be3c 3185 5abd
00000030: 05d7 d5bc 6b11 5cbd 5b3f a03c 1474 e43b
00000040: 343b 833d e851 4cbd a056 54bd 52a7 203d
00000050: f684 b53b f95e 0d3d 52e9 5cbd ee1e 533d
00000060: b891 173b a17b 9bbc 6e59 1ebc 8d3d 2f3d
00000070: 5fda 17bd 7e21 08bd a751 28bd 8a5e 423c
00000080: 1b4e a23c a5e1 483c 2059 68bd 2cd5 45bd
00000090: 5ddc 4ebd 9455 f53c ee9b 11bd 45b5 1f3d
000000a0: cd05 02bd cb4e 1b3d 516e 83bc b5d8 853c
000000b0: 40f2 fe3c 3793 6ebd 6a67 dabc b945 f23b
000000c0: 4c80 5d3d 96d7 043d f2e8 07bd 6585 c73c
000000d0: 7527 81bd 4640 263d b4aa 9fbc aaa4 a6bc
000000e0: ae3d 4f3d 31ba 303d 55dd 203c 8e85 643d
000000f0: 0ceb 4fbd d5c6 0fbd 2b0f 0c3c 9f16 5dbd
00000100: e69c 3bbd 7d07 3fbd b235 15bd 33a1 09bd
00000110: 282e 6a3d 4f9b efbb 4658 13bb 1c05 3dbd
00000120: 8125 443d c69f 1cbd dc44 6b3d 4373 2dbd
00000130: 7a02 52bd c8b8 2fbd 575c afbc 7378 053d
00000140: 89b1 3dbc 501a 8fbc c433 5e3d e9db 71bb
00000150: ac48 f4bc 98ae 7c3d 317e b5bc 937a 57bd
00000160: a784 76bc 90e0 23bd 3442 343c 6e15 86bb
00000170: a4fe da3b 9411 f63c b9d0 503d 7cd9 0bbd
00000180: 9e21 02bd c532 4fbd 895c 423c bbe5 163d
00000190: 701a bd3c cf92 1b3c d4bb 1a3d 6744 06bd
000001a0: 271d d4bc d44a 7a3c
