models/ddpg_model_episode_50_actor.pth (torch, 631301 bytes, 6 tensors)

layer_1.weight f4 [400, 11]
0.089478105 -0.20343569 -0.07781732 -0.2640711 0.159816 0.21572071 -0.27374837 -0.17871842
-0.07415348 0.06786439 -0.20800704 -0.14994141 0.085976034 -0.11105926 0.16390693 -0.21798062
0.18764663 0.17946556 0.035965376 0.12503138 0.21622825 -0.1320712 0.27211425 0.21728934
-0.07954261 0.007424155 -0.048703555 0.15097871 0.06409364 0.02555744 0.27687734 -0.25333017
-0.11354156 -0.23539044 -0.24768807 -0.09413621 0.25263095 -0.27937743 0.020624042 0.1151312
0.19232485 -0.13740665 -0.06842251 -0.037489176 0.19199426 -0.2155183 -0.16521889 0.12680815
-0.09442623 3.9103656e-05 -0.043140702 0.064080514 -0.1317986 -0.030034894 0.245923 -0.053909943
-0.16920465 -0.23532958 -0.24878171 -0.0103191435 -0.111623004 0.051646024 -0.2769937 0.17659622
0.26731348 -0.26560965 0.05729407 -0.031674054 -0.0021680123 0.14919406 -0.034061126 0.09404898
-0.21215262 -0.29852784 0.23604558 -0.07263175 0.09312782 -0.13238016 0.13184275 -0.14819506
0.0960856 -0.056954972 0.014565708 0.044182517 -0.14233777 -0.13394134 -0.21690392 -0.16780356
0.11849377 -0.2210498 -0.27531454 -0.21613996 0.17876263 0.04930899 0.012560252 0.23524775
-0.24648696 0.2059924 -0.11387457 -0.08917138 -0.01789233 0.11021131 -0.22245766 -0.27318123
-0.16722761 -0.023970604 0.2392121 -0.24811788 -0.2661158 -0.0663715 0.20455058 -0.00505286
0.19455768 -0.17286317 -0.08293727 -0.13204642 -0.29103282 0.2775601 0.26460359 0.10871696
0.11426287 -0.16143368 0.123513445 -0.106142364 0.059274282 -0.22442672 0.25840044 0.25701132
0.04477475 0.06461701 0.039854974 -0.2078945 -0.20284225 -0.19601911 -0.12636738 -0.23513563
0.22866441 -0.121387914 0.06636273 -0.22676302 0.014249116 0.050003827 -0.059505537 -0.077146016
0.16942954 0.0581709 -0.26786256 -0.21310769 -0.072845414 -0.020735063 -0.101406895 0.08888781
-0.03594397 0.13357095 0.26095158 0.22064306 -0.04520541 -0.11758971 0.16674252 0.086744286
-0.19832619 0.16778116 0.09715531 0.058371052 0.14783101 0.1493718 -0.18749833 -0.29050082
0.12462011 -0.25285888 0.086679846 0.15526381 -0.24887869 0.18219838 -0.17759308 -0.21683475
-0.1810104 0.11658058 -0.2263016 0.2712922 -0.1851132 0.27256927 -0.017292812 -0.20037791
0.094142616 0.038496137 -0.047430754 0.03367908 -0.027171668 -0.21315145 -0.29474124 0.04915494
-0.20633729 -0.123159066 0.10272255 0.277637 -0.054550067 0.11069829 -0.13700491 0.27497655
0.14929181 -0.18355437 -0.14360195 0.12652205 0.096117556 -0.019200703 0.039639354 -0.28885394
-0.086915985 -0.08181084 0.031361777 0.24080867 -0.20450127 0.09608804 -0.24455748 -0.2171955
-0.27374217 -0.14281432 -0.043244444 0.024075422 -0.23825328 -0.2563061 0.27166235 -0.26971865
0.21893257 0.10034171 -0.13598277 0.0860902 -0.043480784 -0.13661727 0.22339232 -0.039692968
-0.18601309 -0.22437328 -0.27068612 -0.042363405 -0.13091175 -0.10739258 -0.21336819 0.28667986
0.034220666 -0.2333408 0.13398416 0.1463459 0.056394566 0.055012144 -0.15103365 0.0903074
-0.004945337 0.101483986 0.26712316 -0.013743341 -0.05791104 0.24688807 -0.039136324 0.12309934
00000000: 4c40 b73d 7251 50be b05e 9fbd 5434 87be
00000010: cea6 233e e4e5 5c3e bf28 8cbe f601 37be
00000020: c8dd 97bd 7cfc 8a3d ccff 54be 3e8a 19be
00000030: 3414 b03d 0a73 e3bd 38d7 273e 5036 5fbe
00000040: 7026 403e d2c5 373e 6e50 133d 3a08 003e
00000050: f06a 5d3e ac3d 07be 8f52 8b3e 1981 5e3e
00000060: 3ce7 a2bd 5346 f33b 617d 47bd 2a9a 1a3e
00000070: 8743 833d d65d d13c dec2 8d3e 7eb4 81be
00000080: 7a88 e8bd 310a 71be f1a1 7dbe 7cca c0bd
00000090: d858 813e 8f0a 8fbe c0f3 a83c e8c9 eb3d
000000a0: cef0 443e 54b4 0cbe 1a21 8cbd 408e 19bd
000000b0: 259a 443e d4b0 5cbe 242f 29be ffd9 013e
000000c0: 8a62 c1bd 3b03 2438 4eb4 30bd a53c 833d
000000d0: 36f6 06be bd0b f6bc 3dd3 7b3e acd0 5cbd
000000e0: fc43 2dbe 3dfa 70be a2c0 7ebe a011 29bc
000000f0: 9a9a e4bd c88a 533d 1ed2 8dbe a4d5 343e
00000100: 50dd 883e fdfd 87be 30ad 6a3d a7bc 01bd
00000110: 3615 0ebb 54c6 183e ae83 0bbd c09c c03d
00000120: 893e 59be a4d8 98be efb5 713e f4bf 94bd
00000130: ccb9 be3d aa8e 07be c901 073e 72c0 17be
00000140: 87c8 c43d 9e49 69bd 02a5 6e3c baf8 343d
00000150: fec0 11be eb27 09be 101c 5ebe b2d4 2bbe
00000160: ddac f23d e15a 62be 07f6 8cbe cb53 5dbe
00000170: 8d0d 373e 39f8 493d 84c9 4d3c c9e4 703e
00000180: 1467 7cbe acef 523e 1237 e9bd 7c9f b6bd
00000190: f092 92bc 78b6 e13d f1cb 63be 69de 8bbe
000001a0: b73d 2bbe 005e c4bc 04f4 743e 9d12 7ebe
000001b0: 5540 88be c8ed 87bd b575 513e 7692 a5bb
000001c0: 213a 473e 0b03 31be 04db a9bd 2d37 07be
000001d0: 4102 95be 5c1c 8e3e 1f7a 873e ffa6 de3d
000001e0: a702 ea3d df4e 25be 9ef4 fc3d 2b61 d9bd
000001f0: 97c9 723d 1ed0 65be 104d 843e fd96 833e
00000200: ba65 373d ec55 843d f83e 233d 4ce2 54be
00000210: e1b5 4fbe 3cb9 48be 7366 01be 65c7 70be
00000220: 0127 6a3e 3a9a f8bd 2fe9 873d 9134 68be
00000230: 2075 693c d0d0 4c3d 14bc 73bd bbfe 9dbd
00000240: f07e 2d3e 9c44 6e3d 4825 89be e738 5abe
00000250: fa2f 95bd 94dc a9bc 6bae cfbd d00a b63d
00000260: fc39 13bd d3c6 083e 729b 853e 41f0 613e
00000270: 4f29 39bd e0d2 f0bd 8dbe 2a3e fda6 b13d
00000280: 0516 4bbe d3ce 2b3e 5df9 c63d 7c16 6f3d
00000290: 0361 173e ecf4 183e 90ff 3fbe 86bc 94be
000002a0: d438 ff3d b876 81be 3485 b13d 7afd 1e3e
000002b0: 0eda 7ebe 3692 3a3e f6da 35be ee09 5ebe
000002c0: ca5a 39be cdc1 ee3d 9bbb 67be d0e6 8a3e
000002d0: 518e 3dbe 338e 8b3e a8a9 8dbc de2f 4dbe
000002e0: d8cd c03d 20ae 1d3d c046 42bd 13f3 093d
000002f0: 1e97 debc 6044 5abe 53e8 96be b156 493d
00000300: 154a 53be d23a fcbd 3360 d23d 7026 8e3e
00000310: e46f 5fbd c9b5 e23d 044b 0cbe bac9 8c3e
00000320: f4df 183e adf5 3bbe 640c 13be ff8e 013e
00000330: 48d9 c43d cb4a 9dbc e05c 223d aae4 93be
00000340: 0201 b2bd 718c a7bd 3575 003d 8c96 763e
00000350: c868 51be cec9 c43d 476d 7abe 7f68 5ebe
00000360: ef27 8cbe eb3d 12be 1621 31bd d239 c53c
00000370: abf8 73be 8e3a 83be 5417 8b3e 9018 8abe
00000380: dc2f 603e f47f cd3d 113f 0bbe 0f50 b03d
00000390: e818 32bd 66e5 0bbe f5c0 643e 1895 22bd
000003a0: 377a 3ebe 1cc2 65be 5f97 8abe 4085 2dbd
000003b0: bb0d 06be a4f0 dbbd 317d 5abe b4c7 923e
000003c0: f82a 0c3d e4f0 6ebe 2533 093e b3db 153e
000003d0: fdfd 663d 6a54 613d 91a8 1abe 16f3 b83d
000003e0: 7e0c a2bb d6d6 cf3d 5ec4 883e c02b 61bc
000003f0: 2034 6dbd 3ad0 7c3e 694d 20bd 821b fc3d

layer_1.bias f4 [400]
-0.27283937 -0.14622872 -0.28612104 -0.017482966 0.06263942 0.018410593 0.03270616 0.14611955
-0.24283539 0.1995725 -0.19646516 -0.15228455 -0.26115867 -0.16868636 -0.25926742 0.24842364
-0.14275622 -0.085239746 -0.1787909 -0.18087427 -0.054566544 -0.009630024 -0.1919496 0.17964226
-0.04793555 -0.20728967 -0.2488904 -0.20781405 -0.0644008 -0.22508577 -0.24816824 -0.27099627
-0.014017451 0.04882282 0.23314473 -0.27952158 0.2649122 -0.0075468505 -0.25375378 0.28037754
0.22582746 0.1080085 0.22728749 -0.057143953 -0.27703252 -0.121949956 0.11336333 -0.102825664
0.06764871 -0.13103306 -0.12678383 0.08608191 -0.12369242 0.121717215 0.118423074 0.13336308
-0.2166469 0.025332209 -0.08131622 0.045859367 -0.27018285 -0.21112671 -0.2003216 0.03143144
0.11522758 0.24001989 -0.0006514462 -0.1564388 0.067031205 0.058215566 -0.20180562 0.21275203
-0.22529376 0.15151326 -0.04778093 -0.08969496 -0.18164636 -0.17450926 0.29419282 -0.13074371
-0.25413975 0.061897784 -0.26508477 0.1898345 -0.22542308 0.15424928 0.12966844 0.28767455
0.10977576 -0.028791843 0.13337341 -0.19095157 -0.13338484 0.0027086735 -0.2575834 -0.1723501
0.16691765 -0.1852013 -0.035948616 0.15806621 -0.16359407 -0.056674562 -0.12671523 0.08715888
-0.29498982 0.27675784 -0.2908199 -0.26797238 -0.09597958 -0.25712353 0.16153038 -0.27186105
-0.04198402 0.24538147 0.13821128 -0.056057636 -0.07242557 0.06954569 0.108599335 -0.26671052
0.2799797 -0.27461419 -0.19171695 -0.23546484 0.19376825 -0.10147621 -0.21635377 0.17414689
-0.004780629 0.21227252 -0.053285617 -0.2928273 0.24493197 0.123250976 0.13264245 0.07636669
-0.026761532 -0.0071799145 -0.14842187 0.14975587 -0.13016698 0.2157084 0.27624932 -0.002514686
-0.006931366 -0.12035954 -0.23338975 -0.14831339 -0.03195907 0.063809425 -0.1037549 -0.26217607
0.08565239 0.056902945 0.09720653 0.123790205 0.26606977 -0.009405597 -0.11628781 0.006272167
0.20410644 0.20145057 -0.08186836 0.19093433 0.04907067 -0.0522442 0.08182518 0.15260631
-0.27144152 -0.1325971 0.22485195 -0.14689375 -0.20771053 -0.054961864 0.20285428 -0.2849557
-0.13461478 0.18845904 0.21129943 0.15628512 0.22259773 -0.08204931 -0.23988967 0.091756165
0.22241604 0.27776986 0.07224062 0.15894979 -0.17678319 0.015082596 0.13993305 -0.25839865
0.010628253 0.21402068 -0.27063087 0.30103934 -0.24369411 -0.20683013 -0.24951853 0.18274873
-0.0672593 0.28551787 0.16717143 -0.07693262 -0.002660084 -0.093504205 0.015690008 0.18176208
-0.10956885 -0.119763464 -0.2735541 -0.095191725 0.2927331 0.28505942 0.1289531 0.0020210338
-0.18404579 -0.2098826 0.18911517 -0.036076713 -0.13956283 0.15199646 -0.075337544 0.29627526
0.23868644 0.048002027 -0.031433355 -0.13926202 0.14960568 0.15800782 -0.30184066 0.027828937
0.2187933 0.17922859 0.22357327 0.23724808 -0.15777886 0.13815533 -0.2909806 -0.10294823
-0.23202789 0.0037056538 0.28592658 0.0077870134 -0.2556212 -0.19032909 0.17837964 0.099446416
-0.009251035 -0.13543941 -0.045965564 -0.17657793 0.24759425 0.28220755 0.28373086 0.2979564
00000000: 9ab1 8bbe fbbc 15be 757e 92be 7038 8fbc
00000010: 1949 803d d0d1 963c e5f6 053d 5da0 153e
00000020: d7a9 78be bc5c 4c3e 2a2e 49be 7bf0 1bbe
00000030: 97b6 85be 1ebc 2cbe b3be 84be c462 7e3e
00000040: b02e 12be 2d92 aebd f614 37be 1b37 39be
00000050: 2b81 5fbd 40c7 1dbc 708e 44be 24f4 373e
00000060: 1158 44bd be43 54be 20dd 7ebe 35cd 54be
00000070: 91e4 83bd e27c 66be d11f 7ebe 06c0 8abe
00000080: 73a9 65bc 70fa 473d 7ebd 6e3e 741d 8fbe
00000090: 92a2 873e 924b f7bb 04ec 81be a58d 8f3e
000000a0: 503f 673e 8f33 dd3d 0dbe 683e c70f 6abd
000000b0: 35d7 8dbe e6c0 f9bd 092b e83d 4396 d2bd
000000c0: 688b 8a3d 882d 06be 9fd3 01be b64b b03d
000000d0: 7452 fdbd e046 f93d cc87 f23d 5590 083e
000000e0: afd8 5dbe 7e85 cf3c 1e89 a6bd 08d7 3b3d
000000f0: 6855 8abe 9a31 58be 1b21 4dbe 41be 003d
00000100: 70fc eb3d c6c7 753e d0c5 2aba 7e31 20be
00000110: a847 893d 7273 6e3d 22a6 4ebe abdb 593e
00000120: 68b3 66be 4b26 1b3e f0b5 43bd feb1 b7bd
00000130: 8101 3abe 8eb2 32be 71a0 963e aee1 05be
00000140: 9b1e 82be 8888 7d3d 31b9 87be fa63 423e
00000150: 4fd5 66be 86f3 1d3e cec7 043e 144a 933e
00000160: 1dd2 e03d dfdc ebbc 0a93 083e cf88 43be
00000170: 0996 08be 0084 313b f9e1 83be 8b7c 30be
00000180: 76ec 2a3e 69a5 3dbe db3e 13bd 1cdc 213e
00000190: 3485 27be 9623 68bd a3c1 01be 5b80 b23d
000001a0: e808 97be 34b3 8d3e 59e6 94be ad33 89be
000001b0: f190 c4bd b2a5 83be 3868 253e 5f31 8bbe
000001c0: 70f7 2bbd 4845 7b3e 4287 0d3e b19c 65bd
000001d0: db53 94bd f96d 8e3d 5469 de3d 488e 88be
000001e0: 8059 8f3e 3b9a 8cbe 7351 44be b21d 71be
000001f0: 2f6b 463e c2d2 cfbd d88b 5dbe 9053 323e
00000200: d3a6 9cbb f85d 593e 0542 5abd 76ed 95be
00000210: 72cf 7a3e 026b fc3d 6cd3 073e 2466 9c3d
00000220: 003b dbbc 7d45 ebbb e7fb 17be 9a59 193e
00000230: 7e4a 05be aae2 5c3e 8d70 8d3e 6ecd 24bb
00000240: 8320 e3bb 107f f6bd b9fd 6ebe 77df 17be
00000250: 84e7 02bd 84ae 823d 737d d4bd f13b 86be
00000260: 856a af3d 1013 693d 3814 c73d b885 fd3d
00000270: 4c3a 883e ef19 1abc 4e28 eebd c086 cd3b
00000280: 4701 513e 0f49 4e3e 99aa a7bd 4a84 433e
00000290: 54fe 483d 04fe 55bd f693 a73d d444 1c3e
000002a0: 62fa 8abe 89c7 07be 973f 663e 516b 16be
000002b0: 12b2 54be b11f 61bd 08b9 4f3e b7e5 91be
000002c0: 75d8 09be 68fb 403e e15e 583e 3509 203e
000002d0: a9f0 633e 7809 a8bd a3a5 75be a8ea bb3d
000002e0: 08c1 633e da37 8e3e e4f2 933d bcc3 223e
000002f0: a706 35be fe1c 773c 9c4a 0f3e d44c 84be
00000300: 2022 2e3c 3d28 5b3e 2190 8abe d421 9a3e
00000310: f38a 79be 47cb 53be c981 7fbe 7c22 3b3e
00000320: 3ebf 89bd 662f 923e fd2e 2b3e d98e 9dbd
00000330: ce54 2ebb 227f bfbd 5588 803c d71f 3a3e
00000340: a265 e0bd 8c46 f5bd 480f 8cbe e1f3 c2bd
00000350: 1de1 953e 4ff3 913e 480c 043e 5273 043b
00000360: 8076 3cbe 77eb 56be 68a7 413e 2dc5 13bd
00000370: 8fe9 0ebe f6a4 1b3e 924a 9abd 64b1 973e
00000380: 386a 743e c69d 443d 43c0 00bd b49a 0ebe
00000390: 3b32 193e cdcc 213e dc8a 9abe 83f9 e33c
000003a0: 5a0b 603e b387 373e 64f0 643e 29f1 723e
000003b0: c890 21be 9778 0d3e 69fb 94be 86d6 d2bd
000003c0: b898 6dbe 8eda 723b f864 923e 342a ff3b
000003d0: c8e0 82be a1e5 42be 27a9 363e 90aa cb3d
000003e0: a791 17bc a1b0 0abe 6346 3cbd d8d0 34be
000003f0: 5989 7d3e 827d 903e 2c45 913e be8d 983e

layer_2.weight f4 [300, 400]
-0.045565136 -0.04211256 0.024990305 0.010889452 -0.013872139 0.016832862 -0.049743295 0.028861042
-0.019517375 0.013218898 0.027673338 -0.015057101 0.039581347 -0.023147536 -0.049566794 -0.014669407
-0.024717743 0.01670641 -0.011310694 -0.033576954 0.03496818 0.03944591 0.009022109 -0.017253108
-0.010034169 -0.03886959 -0.020390606 0.043247465 -0.035260785 0.017275807 0.022397209 0.010087691
0.015155527 -0.029434767 -0.034311716 -0.01568278 0.035827912 0.00622625 -0.0042768987 0.02804986
0.036382373 -0.04179779 0.0042626075 0.0198818 -0.034083445 -0.030638406 0.0098719895 -0.036806773
-0.009747535 -0.02322247 -0.046377122 0.0057909265 -0.015773207 -0.029258715 -0.0006805137 -0.01732351
0.023888925 0.01109267 0.005740969 0.032896344 -0.01133884 -0.039268088 0.04381814 0.022195667
-0.040648334 -0.018429894 -0.027866641 0.046581734 0.017848488 0.015661018 -0.042378753 -0.024596738
0.012816747 -0.02679187 0.035531964 -0.045336336 -0.019586615 -0.005927018 -0.0025317683 0.04082937
-0.0443986 0.00037631392 -0.044749726 0.047378175 0.028695313 -0.048342444 -0.045037407 -0.014811523
0.03319556 -0.029045468 0.020407462 -0.025739959 -0.01992761 0.0074403062 0.038686413 0.043126572
-0.038670827 0.026129436 -0.023829466 -0.02923844 -0.009329954 0.008695915 0.036119234 0.047519382
-0.0019776372 -0.002328488 0.023139063 -0.032067176 -0.016404847 0.006061636 -0.041958813 0.029417066
-0.01925139 -0.01789742 -0.035451822 0.0031204745 -0.0046199188 0.011783869 0.040920023 -0.021285146
0.019332815 -0.009535212 0.003448357 0.017609183 0.031851772 -0.022534296 0.02241357 0.02930567
-0.03378451 -0.01703928 0.019959446 -0.03113587 0.008820729 0.029623808 -0.023891859 -0.04059838
0.024979424 -0.04541678 -0.01641811 -0.014720865 -0.006209849 -0.012167651 -0.018636525 -0.0031148975
-0.016122388 0.018915143 0.03053758 -0.04166211 -0.024729772 0.00997293 -0.0013245754 0.027791876
0.02773419 0.031943243 0.02600747 -0.042782307 -0.004606556 -0.020820698 -0.04593396 0.008290045
-0.039192326 -0.009304512 -0.007169771 -0.010046177 -0.039975565 0.03275216 -0.011840467 -0.024921602
-0.004010938 0.0069128494 0.025778737 -0.02694478 -0.021098915 0.039220866 -0.028841669 -0.019238787
0.029330118 -0.026748652 -0.033734743 0.0063381083 0.02004025 0.02191465 0.0074695423 0.04257172
-0.018982286 -0.0046599433 0.008617062 0.04522029 -0.03496859 0.011968166 -0.01849788 0.047532935
-0.0005077645 0.01444969 0.021873172 0.00086865574 -0.015169699 -0.0021465644 0.016658947 -0.013105355
-0.024776125 -0.012625925 0.048985112 0.043633748 0.035577532 -0.012249041 -0.009058537 -0.0364068
-0.00705031 -0.0505366 0.042297367 -0.035570513 -0.0022766069 -0.031426612 -0.04754091 -0.016141884
0.008926396 -0.023705596 0.030655148 -0.0116097145 -0.00020660105 0.016850073 0.041336495 0.012634132
0.00585408 0.020029526 -0.02001294 0.0013093948 -0.019168848 -0.029995764 0.0024604015 0.035268668
0.012844998 -0.01031195 0.042339083 0.016115366 -0.037401102 0.022310194 0.04027732 0.003186591
-0.015006281 -0.03471925 0.009744357 -0.04958317 0.022788856 -0.0013561861 -0.04437254 -0.030777192
-0.04632415 0.0015952773 0.009046756 0.04585186 0.047695447 0.013790354 0.007593274 -0.008891545
00000000: 82a2 3abd 387e 2cbd 78b8 cc3c ac69 323c
00000010: f847 63bc 12e5 893c a0bf 4bbd fe6d ec3c
00000020: e7e2 9fbc 1494 583c 32b3 e23c 0fb2 76bc
00000030: 0d20 223d e79f bdbc 8d06 4bbd f457 70bc
00000040: dd7c cabc e2db 883c 7d50 39bc fd87 09bd
00000050: cb3a 0f3d 0992 213d 78d1 133c 6456 8dbc
00000060: 5b66 24bc b835 1fbd 330a a7bc 4124 313d
00000070: 9d6d 10bd fe85 8d3c 5a7a b73c d846 253c
00000080: e34e 783c 2e21 f1bc 718a 0cbd 2c79 80bc
00000090: 4ac0 123d 9205 cc3b 3a25 8cbb d2c8 e53c
000000a0: af05 153d 2934 2bbd 58ad 8b3b 28df a23c
000000b0: 159b 0bbd 65fd fabc 20be 213c b3c2 16bd
000000c0: 20b4 1fbc 0d3d bebc f0f5 3dbd d0c1 bd3b
000000d0: d036 81bc f9af efbc 8064 32ba 09ea 8dbc
000000e0: b5b2 c33c 08be 353c bd1e bc3b 51be 063d
000000f0: 8bc6 39bc 93d7 20bd a67a 333d b0d3 b53c
00000100: de7e 26bd 4afa 96bc 9548 e4bc 7dcc 3e3d
00000110: fe36 923c 894b 803c 5895 2dbd 197f c9bc
00000120: 55fd 513c a07a dbbc f789 113d 98b2 39bd
00000130: 1c74 a0bc 6e37 c2bb 06ec 25bb b33c 273d
00000140: 4edb 35bd 004c c539 7d4b 37bd 9e0f 423d
00000150: 6f12 eb3c ba02 46bd 2579 38bd 08ac 72bc
00000160: 11f8 073d c3f0 edbc 8d2d a73c 9bdc d2bc
00000170: 3a3f a3bc d0cd f33b a575 1e3d 7da5 303d
00000180: 4d65 1ebd 660d d63c 0336 c3bc 7485 efbc
00000190: aadc 18bc 5079 0e3c c3f1 133d afa3 423d
000001a0: 3f9b 01bb 8c99 18bb 228e bd3c df58 03bd
000001b0: 7563 86bc b0a0 c63b 01dd 2bbd 0ffc f03c
000001c0: 17b5 9dbc 9c9d 92bc ee35 11bd e080 4c3b
000001d0: b062 97bb 2111 413c c19b 273d 305e aebc
000001e0: da5f 9e3c 9439 1cbc d5fd 613b 2241 903c
000001f0: 0177 023d d899 b8bc aa9c b73c 7212 f03c
00000200: a061 0abd f695 8bbc fe81 a33c a710 ffbc
00000210: d284 103c a1ad f23c dcb8 c3bc 7d4a 26bd
00000220: a6a1 cc3c f206 3abd 467f 86bc c82f 71bc
00000230: fd7b cbbb d45a 47bc a0ab 98bc 4f23 4cbb
00000240: 1913 84bc eef3 9a3c f229 fa3c e3a5 2abd
00000250: 1796 cabc 8065 233c 609d adba caab e33c
00000260: d032 e33c ebd6 023d 9e0d d53c 803c 2fbd
00000270: 98f2 96bb 2b90 aabc 3f25 3cbd f8d2 073c
00000280: 2288 20bd f471 18bc 66f0 eabb b898 24bc
00000290: 6bbd 23bd 2127 063d 85fe 41bc 6328 ccbc
000002a0: 306e 83bb 2f85 e23b ee2d d33c 4dbb dcbc
000002b0: a2d7 acbc 0fa6 203d 5d45 ecbc a99a 9dbc
000002c0: b745 f03c fd1f dbbc 712d 0abd e8af cf3b
000002d0: 732b a43c 5a86 b33c 10c3 f43b af5f 2e3d
000002e0: bd80 9bbc 70b2 98bb 942e 0d3c e938 393d
000002f0: 393b 0fbd 2016 443c de88 97bc e5b1 423d
00000300: 801b 05ba 64be 6c3c 5e2f b33c 80b6 633a
00000310: 548a 78bc 60ad 0cbb 5878 883c d8b7 56bc
00000320: 4df7 cabc f8dc 4ebc 9da4 483d 4db9 323d
00000330: bfb9 113d 34b0 48bc 426a 14bc 4c1f 15bd
00000340: 4906 e7bb 77ff 4ebd 0140 2d3d 63b2 11bd
00000350: 2033 15bb 31b9 00bd 42ba 42bd fc3b 84bc
00000360: 0540 123c 3d32 c2bc 8120 fb3c ac36 3ebc
00000370: 0ca3 58b9 2a09 8a3c 7550 293d 64ff 4e3c
00000380: 95d3 bf3b f614 a43c 2df2 a3bc 00a0 ab3a
00000390: fd07 9dbc adb9 f5bc b03e 213b e175 103d
000003a0: d473 523c 74f3 28bc bf6b 2d3d 5f04 843c
000003b0: e631 19bd dec3 b63c d5f9 243d 20d6 503b
000003c0: e8dc 75bc c635 0ebd cca6 1f3c b917 4bbd
000003d0: b2af ba3c 0ec2 b1ba fbbf 35bd 7320 fcbc
000003e0: 64be 3dbd a018 d13a d838 143c 29cf 3b3d
000003f0: 4d5c 433d f0f0 613c 00d1 f83b d8ad 11bc

layer_2.bias f4 [300]
-0.047792446 -0.039826486 -0.027239919 0.043006513 0.0045263246 -0.020105569 -0.019516004 -0.048690796
0.01869263 -0.01520405 0.048817042 0.0048955237 -0.047316767 -0.0313268 -0.035253763 0.025071012
-0.00628509 -0.05372887 -0.014950931 -0.02381963 0.012313771 0.04568272 -0.014026534 0.04693902
0.019388719 0.036322024 0.059846383 -0.02625061 -0.023615548 0.015750604 -0.016708711 -0.009734073
-0.0047711576 -0.029045034 0.024644855 -0.030505823 0.0069269994 0.017200302 -0.021965811 -0.0324439
0.03895752 -0.028664516 0.041798174 0.02013475 -0.005892857 0.040851403 0.028374774 -0.05223007
-0.020234466 0.007452304 -0.024486074 -0.014807 -0.022111876 -0.025664544 -0.028627075 -0.042278547
0.021082547 -0.007637047 0.04013211 -0.015315662 -0.034456015 0.009453122 0.042697005 0.034804564
0.02833662 -0.016074406 0.01243145 0.043001816 0.0384326 -0.035354692 0.002898034 -0.046277136
-0.04369376 -0.029824043 0.016615124 -0.026833469 0.03996014 -0.04871576 0.0042881765 -0.011041783
-0.017511016 -0.01791266 -0.02295367 -0.046096712 -0.04183419 0.04880515 0.026444223 0.048040606
-0.04688164 -0.037448898 -0.0018897316 0.016044306 0.00035717338 -0.03887289 -0.0061089685 0.0017481424
0.017442796 -0.0426284 -0.015305561 0.026003322 0.041707497 0.039951127 0.024907438 -0.0035949594
-0.03374601 -0.052913215 0.021909136 -0.05467793 0.036123846 -0.018023312 0.042019855 0.003014386
0.005399622 0.03296971 -0.03551247 0.0147275515 -0.008380685 -0.028852249 -0.025904413 -0.019577783
-0.030340474 -0.02086345 -0.03943668 0.03244606 0.028464068 -0.04044206 -0.049007073 -0.02846815
0.036913183 -0.008462599 -0.013180236 0.036759123 0.016127573 0.010800771 -0.030406166 -0.009078913
0.041175786 -0.028756361 0.027654458 -0.022988146 0.0022099058 -0.02919684 -0.007855513 -0.0073971683
0.017090471 0.001385225 -0.053870592 -0.040280327 0.045564864 0.028095866 -0.017415464 -0.030746257
-0.031080956 0.015462579 -0.049246628 0.03561757 -0.03391172 -0.045704097 -0.043684453 -0.032030765
-0.012724116 -0.031414248 -0.028132971 -0.027586361 0.004514361 0.018141039 -0.026649635 -0.041783284
-0.026601179 -0.04877039 0.037386097 -0.013393077 -0.010650204 -0.047467634 -0.030276004 -0.020370767
0.046100955 0.018559648 0.015893558 0.017516484 -0.042368498 -0.00025254715 0.046241846 -0.050134692
-0.049574167 -0.04183539 -0.0054322327 0.013856817 0.04166464 -0.0103434 0.021571066 -0.00824401
0.037787214 -0.005916212 0.024438946 -0.02965988 0.043887265 -0.04810847 -0.0047226846 -0.016718855
0.0041381544 -0.03910324 0.03840043 0.027557112 -0.054575447 0.03423162 -0.005575694 -0.025926368
-0.014046055 0.0053577945 0.04961065 -0.02085612 -0.013712771 0.037171643 0.01821911 0.0035802291
-0.04854505 0.009040888 -0.00400991 -0.046451297 0.0361184 -0.010661059 -0.035996288 -0.00236259
-0.046504695 -0.033990987 0.0113963485 0.040273298 0.001902122 -0.009266298 -0.034090564 0.031259526
-0.020382294 0.012338091 0.032574303 0.034655068 -0.021909919 0.02376892 -0.013560479 0.048738163
0.0107742995 0.028663855 0.03618185 -0.006972547 0.012862609 0.016777106 -0.03675946 0.04194118
0.023908082 -0.04486085 0.032883584 -0.046782393 0.034269433 -0.016035222 0.006081071 0.029141711
00000000: 03c2 43bd 1921 23bd 4026 dfbc 9927 303d
00000010: 9051 943b 6fb4 a4bc 07e0 9fbc 0070 47bd
00000020: 4921 993c 681a 79bc 61f4 473d a16a a03b
00000030: 3acf 41bd 8850 00bd 4066 10bd b961 cd3c
00000040: 28f3 cdbb ce12 5cbd c0f4 74bc 6221 c3bc
00000050: b3bf 493c ce1d 3b3d 8ccf 65bc 2143 403d
00000060: 17d5 9e3c 67c6 143d 7b21 753d 850b d7bc
00000070: 6575 c1bc 6907 813c b5e0 88bc a97b 1fbc
00000080: 5f57 9cbb daef edbc 02e4 c93c 59e7 f9bc
00000090: e2fb e23b a6e7 8c3c a5f1 b3bc e5e3 04bd
000000a0: ec91 1f3d d9d1 eabc 9034 2b3d a2f1 a43c
000000b0: de18 c1bb cd53 273d 3772 e83c 33ef 55bd
000000c0: c0c2 a5bc 7532 f43b 0597 c8bc 0f99 72bc
000000d0: f723 b5bc 733e d2bc 5483 eabc 452c 2dbd
000000e0: 4eb5 ac3c 3240 fabb 9161 243d 8bee 7abc
000000f0: c021 0dbd 44e1 1a3c 0ee3 2e3d 3b8f 0e3d
00000100: 3322 e83c 79ae 83bc 48ad 4b3c ac22 303d
00000110: 816b 1d3d 15d0 10bd f1ec 3d3b 188d 3dbd
00000120: 3af8 32bd 8d51 f4bc 711c 883c ddd1 dbbc
00000130: 3ead 233d 2d8a 47bd d583 8c3b 98e8 34bc
00000140: 4373 8fbc 92bd 92bc 5609 bcbc e8cf 3cbd
00000150: 545a 2bbd e9e7 473d 8ea1 d83c 3ac6 443d
00000160: f606 40bd 0464 19bd dfb0 f7ba 596f 833c
00000170: 0043 bb39 2e39 1fbd be2d c8bb ed21 e53a
00000180: 32e4 8e3c 1e9b 2ebd 2dc4 7abc eb04 d53c
00000190: 7bd5 2a3d cba3 233d af0a cc3c 6999 6bbb
000001a0: 4239 0abd 87bb 58bd ca7a b33c f7f5 5fbd
000001b0: 99f6 133d a0a5 93bc 031d 2c3d 018d 453b
000001c0: 50ef b03b 3f0b 073d 8675 11bd d44b 713c
000001d0: 244f 09bc 8d5b ecbc 7e35 d4bc 9661 a0bc
000001e0: 968c f8bc d3e9 aabc 5b88 21bd 29e6 043d
000001f0: 7a2d e93c 93a6 25bd a4bb 48bd 0a36 e9bc
00000200: 4732 173d b6a6 0abc ebf1 57bc bc90 163d
00000210: f91d 843c b8f5 303c 5a16 f9bc b9bf 14bc
00000220: f1a7 283d 7692 ebbc 9a8b e23c a351 bcbc
00000230: 11d4 103b 362e efbc 69b4 00bc f263 f2bb
00000240: 5101 8c3c 7090 b53a 69a7 5cbd fcfc 24bd
00000250: 39a2 3a3d 4d29 e63c e0aa 8ebc 93df fbbc
00000260: 7d9d febc c256 7d3c d5b6 49bd bbe3 113d
00000270: 04e7 0abd 3834 3bbd 78ee 32bd b132 03bd
00000280: d078 50bc 3aac 00bd 1e77 e6bc cbfc e1bc
00000290: 34ed 933b 849c 943c 5650 dabc f324 2bbd
000002a0: b7ea d9bc 76c3 47bd 2a22 193d a36e 5bbc
000002b0: 317e 2ebc 6c6d 42bd 6205 f8bc 98e0 a6bc
000002c0: 5bd4 3c3d 670a 983c 3533 823c bb7e 8f3c
000002d0: 978a 2dbd 4e68 84b9 1768 3d3d 095a 4dbd
000002e0: 480e 4bbd 965b 2bbd df00 b2bb b407 633c
000002f0: 8ba8 2a3d 5d77 29bc ceb5 b03c e211 07bc
00000300: c4c6 1a3d c9dc c1bb 2f34 c83c 47f9 f2bc
00000310: 22c3 333d 630d 45bd c0c0 9abb fbf5 88bc
00000320: 5b99 873b b82a 20bd c549 1d3d 74bf e13c
00000330: 818a 5fbd 7536 0c3d 50b4 b6bb 8963 d4bc
00000340: 6d21 66bc 7090 af3b 8934 4b3d 74da aabc
00000350: 88ab 60bc 4b41 183d 3e40 953c 47a2 6a3b
00000360: 2dd7 46bd 3c20 143c 9065 83bb b743 3ebd
00000370: e3f0 133d b9ab 2ebc d870 13bd afd5 1abb
00000380: b57b 3ebd 223a 0bbd c0b7 3a3c 9df5 243d
00000390: a050 f93a acd1 17bc 8ca2 0bbd fd09 003d
000003a0: c5f8 a6bc b425 4a3c a26c 053d 79f2 0d3d
000003b0: 6e7c b3bc 0ab7 c23c c52c 5ebc aba1 473d
000003c0: b086 303c 76d0 ea3c 6b33 143d f779 e4bb
000003d0: b1bd 523c 2470 893c 1691 16bd 84ca 2b3d
000003e0: e2da c33c 03c0 37bd f0b0 063d e59e 3fbd
000003f0: 1b5e 0c3d 4c5c 83bc b943 c73b 99ba ee3c

layer_3.weight f4 [106, 300]
0.048857696 0.0030292943 0.020698935 -0.05675236 -0.036650024 -0.016981106 0.03582459 0.055540293
-0.05673135 -0.0010536403 -0.03938622 0.034965456 0.044987857 -0.04109042 -0.054424223 -0.046037782
-0.03774361 0.003929388 -0.031674713 -0.03939394 -0.031872366 0.007982366 0.03301706 -0.009605572
-0.04408361 -0.0073747933 -0.0497547 0.021655537 -0.042762145 -0.035328962 -0.017114323 0.044689327
-0.004134562 0.012515485 0.037379988 -0.016081046 -0.040892016 -0.04748614 0.030736946 0.011763997
-0.013959672 0.0108098835 -0.05512473 -0.017418325 0.016005196 -0.04075858 -0.028788963 0.0023599043
0.03432668 -0.0033439696 0.05464828 -0.042906012 -0.03616508 -0.027520165 0.042987548 -0.024628624
-0.020510256 0.0031024627 0.0025769698 0.0198901 0.04696376 -0.04878118 0.0050231516 0.04047919
0.04672678 0.034509867 0.04227584 0.031546764 0.05051224 0.023110792 0.04947152 -0.052660506
0.03083834 -0.00058530644 0.04429157 0.02995318 0.018201582 -0.02202665 0.046184942 -0.040405206
0.014991127 -0.02300023 0.03768818 -0.049696825 -0.0023198314 -0.006442543 0.053752042 -0.00084507465
0.022852309 0.0046733506 0.05590097 0.03194683 -0.030336725 -0.043200783 0.011386968 0.014954969
-0.048109755 0.039851137 0.03522469 0.018991299 0.05167243 -0.014505722 0.041486412 0.014799364
-0.028037705 0.020008042 -0.028426101 0.007058218 0.0110075325 -0.05279484 -0.02547291 -0.024272397
-0.040285148 -0.018232167 0.00861498 -0.003986463 0.010263152 0.034240052 -0.044799916 -0.012566198
-0.007945771 0.015393645 0.010136418 0.017816365 -0.027122738 -0.034774654 0.042364463 0.028227456
-0.04546168 -0.04379745 0.020675734 0.03300292 -0.034084577 -0.009013502 0.03134425 0.016466774
0.058658123 0.06112917 -0.035339154 0.036242798 -0.036606543 -0.017190885 -0.025838852 0.016780283
-0.0075925477 0.04703342 0.024031572 -0.040807143 -0.038414337 -0.051137585 -0.026244793 0.013591148
0.007638164 0.03804707 0.010000199 0.011484771 -0.038372364 0.026012376 0.028565757 0.023526981
0.011207776 0.044569958 -0.023781268 -0.043229565 -0.021129854 -0.012502003 -0.015571214 0.04965917
0.022157207 0.02091378 0.0009798259 -0.021908846 -0.0006925091 -0.04741267 -0.03179772 -0.051819287
0.011479594 0.05277794 -0.03929375 -0.029049706 0.01966013 -0.042854685 -0.0476055 -0.0049223937
0.04400353 -0.030377297 0.020110972 -0.03249818 -0.05366517 0.04958135 -0.0077343024 0.049672082
0.011255391 -0.0029986575 0.007223442 -0.017744359 0.020078897 -0.048248682 -0.04430817 0.027800865
0.020011 -0.0081006065 0.027743943 -0.043154113 0.044687435 -0.024709329 -0.025597475 0.042887576
0.012774845 0.0011545122 -0.003826011 0.04252865 0.017550802 -0.005056467 -0.010058586 0.029866237
0.008109603 0.0343498 0.04597994 0.010079689 -0.020051356 -0.038822874 -0.009169608 -0.010867562
0.05665648 -0.014979456 0.023300707 0.030468283 -0.029942553 0.010061796 0.019153468 0.054328814
0.02105504 0.03271418 0.04773862 0.056558773 -0.030518176 -0.005935382 0.03177794 0.0056539103
-0.005866559 -0.0073333457 -0.019562311 -0.036248505 -0.0083515495 -0.01347047 -0.05660153 -0.02499548
0.012444131 -0.04929737 0.03734564 -0.04661399 0.024595076 -0.013067219 0.004643803 -0.028850162
00000000: 021f 483d 2087 463b d090 a93c 2a75 68bd
00000010: 561e 16bd f61b 8bbc cebc 123d 387e 633d
00000020: 225f 68bd 4d1a 8aba 7253 21bd f037 0f3d
00000030: 3045 383d 6e4e 28bd efeb 5ebd 1d92 3cbd
00000040: 0b99 1abd 18c2 803b 58bd 01bd 8a5b 21bd
00000050: 998c 02bd 78c8 023c e63c 073d b060 1dbc
00000060: 0491 34bd 40a8 f1bb 96cb 4bbd f466 b13c
00000070: 5c27 2fbd 1ab5 10bd 5633 8cbc 280c 373d
00000080: 387b 87bb c00d 4d3c c21b 193d 66bc 83bc
00000090: 637e 27bd d480 42bd 0ccc fb3c c8bd 403c
000000a0: 1cb7 64bc f01b 313c 78ca 61bd e0b0 8ebc
000000b0: 541d 833c 78f2 26bd d5d6 ebbc a0a8 1a3b
000000c0: 229a 0c3d 8026 5bbb e0d6 5f3d 37be 2fbd
000000d0: d621 14bd f871 e1bc b613 303d f8c1 c9bc
000000e0: 2005 a8bc b052 4b3b 61e2 283b 90f0 a23c
000000f0: 125d 403d c6ce 47bd 4099 a43b 82cd 253d
00000100: 9464 3f3d 385a 0d3d 6e29 2d3d 2e37 013d
00000110: ece5 4e3d d852 bd3c a6a2 4a3d 8bb2 57bd
00000120: b0a0 fc3c 406f 19ba 146b 353d 5f60 f53c
00000130: 7c1b 953c 3c71 b4bc 6c2c 3d3d ee7f 25bd
00000140: 589d 753c fa6a bcbc ec5e 1a3d e68e 4bbd
00000150: 5008 18bb f81b d3bb 1a2b 5c3d 0088 5dba
00000160: c434 bb3c e822 993b 6af8 643d aeda 023d
00000170: b984 f8bc 4ef3 30bd 6890 3a3c b005 753c
00000180: bc0e 45bd f23a 233d c447 103d a493 9b3c
00000190: 78a6 533d 68a9 6dbc a8ed 293d 0879 723c
000001a0: 54af e5bc e8e7 a33c dbdd e8bc a048 e73b
000001b0: f058 343c 673f 58bd 90ac d0bc e8d6 c6bc
000001c0: 0a02 25bd a05b 95bc d825 0d3c e0a0 82bb
000001d0: c826 283c 4c3f 0c3d 1e80 37bd 74e2 4dbc
000001e0: fb2e 02bc a035 7c3c 3813 263c a0f3 913c
000001f0: 8130 debc de6f 0ebd 5c86 2d3d 443d e73c
00000200: 0736 3abd f464 33bd 2860 a93c 122e 073d
00000210: 459c 0bbd 5ead 13bc d462 003d 54e5 863c
00000220: 8043 703d 9562 7a3d cabf 10bd 5473 143d
00000230: bef0 15bd e6d3 8cbc 00ac d3bc ce76 893c
00000240: e8ca f8bb 1ea6 403d dcdd c43c 6425 27bd
00000250: 5a58 1dbd a575 51bd 52ff d6bc 68ad 5e3c
00000260: 9049 fa3b 3fd7 1b3d e0d7 233c 9f2a 3c3c
00000270: 572c 1dbd e817 d53c bc02 ea3c a8bb c03c
00000280: d2a0 373c fd8e 363d efd0 c2bc 7c11 31bd
00000290: 8418 adbc 34d5 4cbc 681e 7fbc 6a67 4b3d
000002a0: 0883 b53c 6053 ab3c 806d 803a 2e7a b3bc
000002b0: 8089 35ba ca33 42bd 533e 02bd 7640 54bd
000002c0: e814 3c3c ae2d 583d 7cf2 20bd a6f9 edbc
000002d0: 480e a13c 6588 2fbd fcfd 42bd 084c a1bb
000002e0: 0c3d 343d cfd9 f8bc c4bf a43c d01c 05bd
000002f0: 02d0 5bbd d015 4b3d 0870 fdbb f474 4b3d
00000300: 8868 383c 2085 44bb a0b2 ec3b 9e5c 91bc
00000310: 807c a43c 69a0 45bd 7c7c 35bd a4be e33c
00000320: 1cee a33c 68b8 04bc 4447 e33c 5ec2 30bd
00000330: 2c0a 373d 386b cabc ccb1 d1bc e2aa 2f3d
00000340: 954d 513c 0053 973a d0bd 7abb 8632 2e3d
00000350: b3c6 8f3c b8b0 a5bb c4cc 24bc 0aaa f43c
00000360: 24de 043c 60b2 0c3d 7655 3c3d 4825 253c
00000370: be42 a4bc bc04 1fbd 203c 16bc dc0d 32bc
00000380: a010 683d 646c 75bc 20e1 be3c 9f98 f93c
00000390: 164a f5bc 3bda 243c bce7 9c3c e487 5e3d
000003a0: 9f7b ac3c 4eff 053d 9289 433d 2caa 673d
000003b0: 4101 fabc 987d c2bb 9629 023d 7044 b93b
000003c0: 443c c0bb 904c f0bb 2441 a0bc 5079 14bd
000003d0: f0d4 08bc 3fb3 5cbc 02d7 67bd 52c3 ccbc
000003e0: 78e2 4b3c 0aec 49bd bef7 183d 50ee 3ebd
000003f0: 9d7b c93c e417 56bc 0b2b 983b 2d57 ecbc

layer_3.bias f4 [106]
0.05880353 0.05085399 -0.053479552 0.020629488 0.012894348 -0.016956266 -0.03176167 -0.010063826
0.003148888 0.02075887 0.02321281 -0.053349677 -0.0262541 -0.05372755 0.01628786 0.0069419746
0.051853653 -0.0498828 -0.05505589 0.042145845 0.005539532 0.03381683 -0.05075608 0.05154317
0.0023127627 -0.02095394 -0.0051392308 0.0493012 -0.03709146 -0.037595123 -0.041093495 0.011030654
0.01189868 0.012467411 -0.054865733 -0.04822648 -0.05558359 0.02952065 -0.048902586 0.038446873
-0.03481683 0.03791694 -0.016043814 0.016562419 0.029283127 -0.058245864 -0.015400715 0.007388085
0.048885424 0.03243216 -0.030829204 0.010493854 -0.06295196 0.053981483 -0.019679343 -0.01444598
0.039604984 0.043146316 0.009413124 0.05579143 -0.047749978 -0.03510173 0.010043643 -0.051414013
-0.035573635 -0.04054219 -0.040625297 -0.028678896 0.049969804 -0.004114982 0.012265209 -0.041277554
0.044803116 -0.03506813 0.057438716 -0.045516398 -0.051271893 -0.04290083 -0.021415118 0.027235765
-0.014735196 -0.020750929 0.054308288 -0.014296038 -0.025816375 0.061689943 -0.0221549 -0.05260713
-0.031470235 -0.039963 0.019987553 -0.0021926109 0.0066831876 0.030037679 0.050980303 -0.03165646
-0.03177034 -0.05120344 0.011862882 0.0327697 0.023083895 0.012678638 0.037784103 -0.03382604
-0.02332277 0.009321543
00000000: f8db 703d 464c 503d 600d 5bbd 2cff a83c
00000010: d142 533c dee7 8abc 8618 02bd bfe2 24bc
00000020: 935d 4e3b 810e aa3c ca28 be3c 3185 5abd
00000030: d712 d7bc 6b11 5cbd 1e6e 853c 8179 e33b
00000040: 7f64 543d e851 4cbd 4982 61bd 1fa1 2c3d
00000050: f684 b53b 8483 0a3d 9be5 4fbd ee1e 533d
00000060: b891 173b 99a7 abbc fe66 a8bb 0ef0 493d
00000070: 37ed 17bd 58fd 19bd a751 28bd ebb9 343c
00000080: aef2 423c 1d44 4c3c e4ba 60bd 2189 45bd
00000090: 9eab 63bd 4ad5 f13c 144e 48bd 787a 1d3d
000000a0: 189c 0ebd cb4e 1b3d 516e 83bc e9ad 873c
000000b0: 2be3 ef3c 3793 6ebd 4853 7cbc c017 f23b
000000c0: 153c 483d 96d7 043d 878d fcbc 6aee 2b3c
000000d0: f5ec 80bd b01b 5d3d 9336 a1bc d5ae 6cbc
000000e0: d638 223d 31ba 303d 8139 1a3c 8e85 643d
000000f0: 7b95 43bd d5c6 0fbd 188e 243c 8097 52bd
00000100: a9b5 11bd 910f 26bd b666 26bd 01f0 eabc
00000110: 23ad 4c3d f9d6 86bb 04f4 483c a712 29bd
00000120: 7983 373d 99a3 0fbd dc44 6b3d 676f 3abd
00000130: 7a02 52bd c8b8 2fbd c26e afbc 8a1d df3c
00000140: e46b 71bc dafd a9bc 5e72 5e3d ee39 6abc
00000150: dd7c d3bc 98ae 7c3d 317e b5bc 937a 57bd
00000160: efe6 00bd 3eb0 23bd f0bc a33c e8b1 0fbb
00000170: a4fe da3b 9411 f63c b9d0 503d 34aa 01bd
00000180: 9e21 02bd b3ba 51bd 895c 423c 8539 063d
00000190: 701a bd3c 10ba 4f3c 81c3 1a3d 2c8d 0abd
000001a0: 650f bfbc 63b9 183c
