models/ddpg_model_episode_250_actor.pth (torch, 631313 bytes, 6 tensors)

layer_1.weight f4 [400, 11]
0	0x3db7404c	0.089478105
1	0xbe505172	-0.20343569
2	0xbd9f5eb0	-0.07781732
3	0xbe873454	-0.2640711
4	0x3e23a6ce	0.159816
5	0x3e5ce5e4	0.21572071
6	0xbe8c28bf	-0.27374837
7	0xbe3701f6	-0.17871842
8	0xbd97ddc8	-0.07415348
9	0x3d8afc7c	0.06786439
10	0xbe54ffcc	-0.20800704
11	0xbe6ffde3	-0.23436694
12	0x3d8fe0f8	0.07025331
13	0xbe16cdcf	-0.14726947
14	0x3e2573bb	0.16157429
15	0xbe6a918c	-0.22907084
16	0x3e34cb46	0.17655668
17	0x3e2c6a96	0.16837534
18	0x3ccbc7ee	0.024875607
19	0x3e00083a	0.12503138
20	0x3e5d6af0	0.21622825
21	0xbe073dac	-0.1320712
22	0x3eb422a7	0.35182688
23	0x3e682bf2	0.22673014
24	0xbce966f1	-0.02849147
25	0x3b0fd0b9	0.0021944477
26	0xbd38b24c	-0.045091912
27	0x3e1e4d02	0.15459064
28	0x3d8aa91e	0.06770538
29	0x3ceef40b	0.029169103
30	0x3e920a87	0.28523657
31	0xbe7aeb50	-0.24503827
32	0xbdcd54a2	-0.10025908
33	0xbe710a31	-0.23539044
34	0xbe7da1f1	-0.24768807
35	0xbdc0ca7c	-0.09413621
36	0x3e8158d8	0.25263095
37	0xbe8f0a8f	-0.27937743
38	0x3ca8f3c0	0.020624042
39	0x3debc9e8	0.1151312
40	0x3e44f0ce	0.19232485
41	0xbe0cb454	-0.13740665
42	0xbd8c211a	-0.06842251
43	0xbd198e40	-0.037489176
44	0x3e470f8c	0.19439524
45	0xbe5c2e2d	-0.2150199
46	0xbe265b1c	-0.16245693
47	0x3df8dd45	0.12151579
48	0xbdcce3b9	-0.10004372
49	0xbbb6d2cb	-0.0055793277
50	0xbd47b6dd	-0.048758376
51	0x3d6f7556	0.05846151
52	0xbe06738a	-0.13130012
53	0xbcf15b53	-0.029462492
54	0x3e80a5c8	0.2512648
55	0xbd5cd0ac	-0.053909943
56	0xbe2d43fc	-0.16920465
57	0xbe70fa3d	-0.23532958
58	0xbe7ec0a2	-0.24878171
59	0xbc2911a0	-0.0103191435
60	0xbde49a9a	-0.111623004
61	0x3d538ac8	0.051646024
62	0xbe8dd21e	-0.2769937
63	0x3e34d5a4	0.17659622
64	0x3e88dd50	0.26731348
65	0xbe87fdfd	-0.26560965
66	0x3d57cdcb	0.052686494
67	0xbd06eb04	-0.032938972
68	0xbbc11a54	-0.005893031
69	0x3e22a333	0.15882568
70	0xbd095818	-0.03353128
71	0x3dc1b3a2	0.0945809
72	0xbe58b3a0	-0.21162271
73	0xbe9892c8	-0.29799485
74	0x3e6f15c2	0.23348144
75	0xbd9a0c01	-0.07521821
76	0x3dc0064e	0.093762025
77	0xbe25a501	-0.16176225
78	0x3e038f9b	0.1284775
79	0xbe196a2f	-0.14981912
80	0x3dc54476	0.096321985
81	0xbd722c8e	-0.059124522
82	0x3c4b1918	0.01239612
83	0x3d2c15db	0.04201303
84	0xbe13f9e3	-0.14450793
85	0xbe0927eb	-0.13394134
86	0xbe5e1c10	-0.21690392
87	0xbe2bd4b2	-0.16780356
88	0x3cf30652	0.0296661
89	0xbe6e329b	-0.23261492
90	0xbea14804	-0.31500256
91	0xbe5bb79e	-0.21456763
92	0x3e2fad0c	0.17155856
93	0x3d2c76e9	0.04210559
94	0x3baf8862	0.0053568343
95	0x3e698449	0.22804369
96	0xbe7c6714	-0.24648696
97	0x3e52efac	0.2059924
98	0xbde93712	-0.11387457
99	0xbdb69f7c	-0.08917138
100	0xbc9292f0	-0.01789233
101	0x3de1b678	0.11021131
102	0xbe63cbf1	-0.22245766
103	0xbe8bde69	-0.27318123
104	0xbe2b3db7	-0.16722761
105	0xbcc45e00	-0.023970604
106	0x3e74f404	0.2392121
107	0xbe7e129d	-0.24811788
108	0xbe884055	-0.2661158
109	0xbd87edc8	-0.0663715
110	0x3e4cecc1	0.2001219
111	0xbc3c4409	-0.01149083
112	0x3e4323fa	0.19056693
113	0xbe2fa78e	-0.17153761
114	0xbdb93a8e	-0.090443715
115	0xbe0ee711	-0.13955332
116	0xbe98da17	-0.2985389
117	0x3e8a4453	0.27005252
118	0x3e8278dd	0.25482836
119	0x3dcaebf4	0.09908286
120	0x3dd70f28	0.10500938
121	0xbe65aa41	-0.22428228
122	0x3de7fcd0	0.11327517
123	0xbe205732	-0.15658262
124	0x3d80e18c	0.0629302
125	0xbe6ae6c7	-0.22939597
126	0x3e81c1bf	0.2534313
127	0x3e810ba5	0.25204197
128	0x3d230b31	0.039805595
129	0x3d8455ec	0.06461701
130	0x3d233ef8	0.039854974
131	0xbe54e24c	-0.2078945
132	0xbe54b65e	-0.20772693
133	0xbe49900c	-0.19683856
134	0xbdfa9924	-0.122362405
135	0xbe71c90f	-0.23611854
136	0x3e67882d	0.2261054
137	0xbdfdd4ca	-0.12394102
138	0x3d82ab41	0.0638032
139	0xbe6ad125	-0.22931345
140	0x3c697520	0.014249116
141	0x3d4cd0d0	0.050003827
142	0xbd73bc14	-0.059505537
143	0xbdb8708a	-0.0900584
144	0x3e23500a	0.15948501
145	0x3d375833	0.044761848
146	0xbe80b812	-0.25140435
147	0xbe5ff840	-0.21872044
148	0xbda0ad9c	-0.07845613
149	0xbcd7d871	-0.026348324
150	0xbddb2b86	-0.10701661
151	0x3db1f0f0	0.08688533
152	0xbd1b4e3e	-0.037916414
153	0x3e0bb8e6	0.13644752
154	0x3ea11052	0.31457764
155	0x3e60a87c	0.21939272
156	0xbca51632	-0.020152185
157	0xbdff004a	-0.12451227
158	0x3e27305d	0.16327043
159	0x3daa8a9a	0.083272174
160	0xbe4ea435	-0.20179828
161	0x3e2840ad	0.16430922
162	0x3dd84ea0	0.105618715
163	0x3d88a934	0.06672898
164	0x3e23603f	0.15954684
165	0x3e18f4ec	0.1493718
166	0xbe3fff90	-0.18749833
167	0xbe94bc86	-0.29050082
168	0x3dff38d4	0.12462011
169	0xbe8176b8	-0.25285888
170	0x3db18534	0.086679846
171	0x3e1efd7a	0.15526381
172	0xbe7eda0e	-0.24887869
173	0x3e3a9236	0.18219838
174	0xbe35daf6	-0.17759308
175	0xbe5e09ee	-0.21683475
176	0xbe56c2de	-0.20972773
177	0x3e0306be	0.1279554
178	0xbe749d78	-0.23888195
179	0x3e914865	0.28375545
180	0xbe31a13e	-0.17346665
181	0x3e9184d2	0.28421646
182	0xbbb8fe08	-0.0056455173
183	0xbe4142cb	-0.18873136
184	0x3dc0cdd8	0.094142616
185	0x3d1dae20	0.038496137
186	0xbd4246c0	-0.047430754
187	0x3d0b2de2	0.033979304
188	0xbcd24787	-0.025668873
189	0xbe5a4fe4	-0.21319538
190	0xbe98cad3	-0.29842243
191	0x3d57f687	0.05272534
192	0xbe4fa42c	-0.2027747
193	0xbdf4eb39	-0.11958928
194	0x3dd9aa6c	0.106282085
195	0x3e8bec2c	0.27328622
196	0xbd715b03	-0.058924686
197	0x3dd3b9ec	0.10338196
198	0xbe00f6e0	-0.12594175
199	0x3e8bee08	0.2733004
200	0x3e157dd6	0.14598784
201	0xbe41176a	-0.18856588
202	0xbe15c65e	-0.14626452
203	0x3dfdaa5a	0.123860076
204	0x3dbf6566	0.09345512
205	0xbcb31908	-0.021862522
206	0x3d110602	0.03540612
207	0xbe9607f5	-0.29302946
208	0xbdc74a01	-0.09730912
209	0xbd9fcab3	-0.07802334
210	0x3d1448ed	0.03620236
211	0x3e7ada4c	0.24497336
212	0xbe555fa8	-0.20837271
213	0x3dca4143	0.09875729
214	0xbe77b1da	-0.24188939
215	0xbe5bacbf	-0.21452616
216	0xbe8aca2b	-0.27107367
217	0xbe0ef1c1	-0.1395941
218	0xbd2421cf	-0.040071305
219	0x3d00c39b	0.031436544
220	0xbe8d20d4	-0.27564108
221	0xbe7b67a9	-0.24551262
222	0x3e850d23	0.25986585
223	0xbe7c3970	-0.24631286
224	0x3e75388d	0.23947354
225	0x3df78db5	0.12087575
226	0xbdec6c9a	-0.115441516
227	0x3dda5bff	0.10662078
228	0xbd1f4b47	-0.03889015
229	0xbe071986	-0.1319333
230	0x3e6a6169	0.22888722
231	0xbd229518	-0.039692968
232	0xbe3e7a37	-0.18601309
233	0xbe65c21c	-0.22437328
234	0xbe8a975f	-0.27068612
235	0xbd2d8540	-0.042363405
236	0xbe060dbb	-0.13091175
237	0xbddbf0a4	-0.10739258
238	0xbe5a7d31	-0.21336819
239	0x3e92c7b4	0.28667986
240	0x3d0c2af8	0.034220666
241	0xbe6ef0e4	-0.2333408
242	0x3e66ecea	0.22551313
243	0x3e1f2b4a	0.15543857
244	0x3dc9aaf0	0.09847057
245	0x3d47eab3	0.04880781
246	0xbe182e84	-0.14861494
247	0x3dbde6bf	0.09272527
248	0xbb25a3a2	-0.0025274535
249	0x3dd4ca85	0.1039019
250	0x3e8c7d88	0.27439523
251	0xbbd60783	-0.006531657
252	0xbd4b68b6	-0.049660407
253	0x3ea27f31	0.31737664
254	0xbd1a1c5d	-0.037624706
255	0x3e1c6e47	0.15276442

layer_1.bias f4 [400]
0	0xbe8bb19a	-0.27283937
1	0xbe2108aa	-0.15725961
2	0xbe90a762	-0.28252703
3	0xbc8f3870	-0.017482966
4	0x3d696e43	0.05698992
5	0x3c96d1d0	0.018410593
6	0x3d095641	0.033529524
7	0x3e1363a3	0.14393477
8	0xbe800483	-0.25003442
9	0x3e4c5cbc	0.1995725
10	0xbe50e347	-0.203992
11	0xbe210363	-0.15723948
12	0xbe866382	-0.26247793
13	0xbe31fe36	-0.1738213
14	0xbe867f9e	-0.2626924
15	0x3e7e62c4	0.24842364
16	0xbe0645c5	-0.13112552
17	0xbdaac3ab	-0.08338102
18	0xbe39a881	-0.18130685
19	0xbe367f50	-0.17822003
20	0xbd13006d	-0.035889078
21	0xbc1dc740	-0.009630024
22	0xbe420fcc	-0.18951339
23	0x3e358a78	0.17728603
24	0xbd69e13c	-0.057099566
25	0xbe53d6f0	-0.20687461
26	0xbe7edd20	-0.2488904
27	0xbe561d11	-0.20909525
28	0xbd782085	-0.060577888
29	0xbe667ce2	-0.22508577
30	0xbe7b2f76	-0.24529824
31	0xbe8bd270	-0.2730899
32	0xbca8189c	-0.020519547
33	0x3d2b4f8c	0.04182391
34	0x3e601630	0.21883464
35	0xbe91ae53	-0.2845331
36	0x3e7ccfdc	0.24688667
37	0xbcb0d4f6	-0.021585923
38	0xbe873a8f	-0.26411864
39	0x3e950de9	0.29112175
40	0x3e6117a6	0.21981677
41	0x3ddc1205	0.107456245
42	0x3e73863f	0.2378168
43	0xbd6e2532	-0.05814094
44	0xbe8c593e	-0.27411836
45	0xbe01b5d7	-0.12667023
46	0x3e27e581	0.16396143
47	0xbdd7ced7	-0.105374984
48	0x3d8a8b68	0.06764871
49	0xbe062d88	-0.13103306
50	0xbe05edbc	-0.1307897
51	0x3d9fd65a	0.07804556
52	0xbdfd5274	-0.12369242
53	0x3df9cc1f	0.12197136
54	0x3de2c44e	0.110725984
55	0x3e0088c6	0.12552175
56	0xbe638d74	-0.22221929
57	0x3cd029c2	0.025410537
58	0xbda72971	-0.08162201
59	0x3d3bd708	0.045859367
60	0xbe891404	-0.26773083
61	0xbe553954	-0.2082265
62	0xbe48a29f	-0.19593285
63	0x3cd41467	0.025888635
64	0x3e03ad86	0.12859163
65	0x3e7300bc	0.23730749
66	0xbc214af7	-0.009844533
67	0xbe23bef6	-0.15990815
68	0x3d8947a8	0.067031205
69	0x3d6e029d	0.05810796
70	0xbe48bea7	-0.19603978
71	0x3e52649d	0.20546193
72	0xbe631359	-0.2217535
73	0x3e22fa9b	0.15915911
74	0xbd43b5f0	-0.04778093
75	0xbdb7b1fe	-0.08969496
76	0xbe3e855b	-0.18605559
77	0xbe35a200	-0.1773758
78	0x3e8f53f9	0.27993754
79	0xbe14d5e8	-0.14534724
80	0xbe8189fd	-0.2530059
81	0x3d879031	0.06619299
82	0xbe8d13cd	-0.2755417
83	0x3e3ce263	0.18445735
84	0xbe6d2669	-0.23159184
85	0x3e1caf5d	0.15301271
86	0x3e04c7ce	0.12966844
87	0x3e934a14	0.28767455
88	0x3dcb0f58	0.09915036
89	0x3cc3ecd5	0.023916641
90	0x3e0d30ee	0.13788196
91	0xbe4b42f6	-0.19849762
92	0xbe015596	-0.12630305
93	0x3b318400	0.0027086735
94	0xbe83f994	-0.2577635
95	0xbe307c8b	-0.1723501
96	0x3e270c65	0.16313322
97	0xbe444cc7	-0.19169913
98	0xbd2d779c	-0.042350397
99	0x3e18592f	0.14877771
100	0xbe278534	-0.16359407
101	0xbd707dac	-0.0587136
102	0xbde1c77a	-0.11024375
103	0x3db57529	0.08860237
104	0xbe955405	-0.29165664
105	0x3e91abf9	0.28451517
106	0xbe94f1e8	-0.2909081
107	0xbe8d47e3	-0.27593908
108	0xbdc9a261	-0.098454244
109	0xbe847426	-0.25869864
110	0x3e20995c	0.15683502
111	0xbe8b127d	-0.27162543
112	0xbd2bf770	-0.04198402
113	0x3e7f7deb	0.24950378
114	0x3e00f307	0.12592708
115	0xbd6c6587	-0.05771401
116	0xbda398e4	-0.07988146
117	0x3d6d9665	0.058004756
118	0x3dde6954	0.108599335
119	0xbe8a7f90	-0.27050447
120	0x3e92626f	0.28590724
121	0xbe80f957	-0.2519023
122	0xbe49daf2	-0.19712427
123	0xbe3d1593	-0.18465261
124	0x3e4302ab	0.19043986
125	0xbdd24d3e	-0.10268639
126	0xbe602481	-0.21888925
127	0x3e26a9ef	0.16275762
128	0xbc05b514	-0.008160848
129	0x3e595df8	0.21227252
130	0xbd727561	-0.059193972
131	0xbe95ed76	-0.2928273
132	0x3e7b1e69	0.2452332
133	0x3debe134	0.115175635
134	0x3e10157e	0.14070699
135	0x3d9c6624	0.07636669
136	0xbcdb3b00	-0.026761532
137	0xbc8eff13	-0.017455613
138	0xbe288fc4	-0.16461092
139	0x3e2051ae	0.15656158
140	0xbe0cd005	-0.13751228
141	0x3e590386	0.2119275
142	0x3e8f584d	0.27997056
143	0xbb878895	-0.004136155
144	0xbc46d814	-0.012136478
145	0xbdf67f10	-0.12035954
146	0xbe67d7e2	-0.22640947
147	0xbe1f310f	-0.15546058
148	0xbd077192	-0.033067293
149	0x3d82ae84	0.063809425
150	0xbddca78b	-0.10774144
151	0xbe8875b6	-0.26652306
152	0x3dbd8a28	0.09254867
153	0x3d691310	0.056902945
154	0x3dc71438	0.09720653
155	0x3defc8dc	0.11708233
156	0x3e883a4c	0.26606977
157	0xbc1a0ef2	-0.009402977
158	0xbdee284e	-0.11628781
159	0x3bcd86c0	0.006272167
160	0x3e527002	0.2055054
161	0x3e5b50a0	0.21417475
162	0xbdaf3415	-0.08554856
163	0x3e43844a	0.19093433
164	0x3d90d614	0.07072082
165	0xbd55fe04	-0.0522442
166	0x3d9a0ea4	0.07522324
167	0x3e1d2239	0.15345086
168	0xbe8afa62	-0.27144152
169	0xbe0a72bb	-0.13520329
170	0x3e606849	0.21914782
171	0xbe1bb35b	-0.15205137
172	0xbe628423	-0.22120719
173	0xbd6b4707	-0.057440784
174	0x3e4fb908	0.20285428
175	0xbe9bea73	-0.30452308
176	0xbe0c4101	-0.13696672
177	0x3e2b7b5c	0.16746277
178	0x3e446121	0.19177677
179	0x3e45b177	0.19305979
180	0x3e628c15	0.2212375
181	0xbda80978	-0.08204931
182	0xbe6123b7	-0.2198628
183	0x3dd305d7	0.10303848
184	0x3e607ccb	0.21922605
185	0x3e89086a	0.26764232
186	0x3d93f2e4	0.07224062
187	0x3e22c3bc	0.15894979
188	0xbe3e887b	-0.1860675
189	0x3d8e5051	0.06948913
190	0x3e05c506	0.1306344
191	0xbe844cd4	-0.25839865
192	0x3c2e2220	0.010628253
193	0x3e4bff8e	0.19921705
194	0xbe8b0dd9	-0.27159002
195	0x3e9a21d4	0.30103934
196	0xbe7ce790	-0.24697709
197	0xbe5c2356	-0.21497855
198	0xbe8c0209	-0.27345303
199	0x3e3b227c	0.18274873
200	0xbd89bf3e	-0.0672593
201	0x3e922f66	0.28551787
202	0x3e24593a	0.16049662
203	0xbdadd375	-0.08487598
204	0xbc84aec7	-0.016196622
205	0xbdba4455	-0.090950646
206	0x3c456504	0.01204801
207	0x3e2e5c05	0.1702729
208	0xbdecbb7c	-0.11559197
209	0xbdfe047a	-0.124031976
210	0xbe8df5e5	-0.27726665
211	0xbdb2d6fc	-0.08732411
212	0x3e8e38c0	0.27777672
213	0x3e8e0b50	0.27743006
214	0x3e040c48	0.1289531
215	0x3ce9d598	0.028544232
216	0xbe3ae158	-0.18250024
217	0xbe4eebf5	-0.20207198
218	0x3e3c9d4f	0.18419383
219	0xbd152b13	-0.036418032
220	0xbe13f2f7	-0.14448152
221	0x3e1ac146	0.1511279
222	0xbdb2614a	-0.08709963
223	0x3e9eb28d	0.30995598
224	0x3e70d122	0.23517278
225	0x3cf25b78	0.029584631
226	0x3bbf169c	0.0058315527
227	0xbe15a150	-0.14612317
228	0x3e1e0fd1	0.15435721
229	0x3e44956d	0.19197626
230	0xbe9abaf4	-0.3022076
231	0x3d498f6c	0.049209043
232	0x3e65d125	0.22443064
233	0x3e4490b9	0.19195832
234	0x3e64f064	0.22357327
235	0x3e69c920	0.2283063
236	0xbe2190c8	-0.15777886
237	0x3e04ba6e	0.12961742
238	0xbe92d93f	-0.2868137
239	0xbdd2e34f	-0.10297262
240	0xbe246eaa	-0.1605784
241	0xbbeeb2ba	-0.0072844895
242	0x3e9264f8	0.28592658
243	0x3c4e5753	0.012594062
244	0xbe84d5b3	-0.2594429
245	0xbe43a287	-0.19104968
246	0x3e437dab	0.19090907
247	0x3dcbaa90	0.099446416
248	0xbc600f8d	-0.013675583
249	0xbe0ab0a1	-0.13543941
250	0xbd671c75	-0.056423623
251	0xbe2a114c	-0.1660816
252	0x3e7cdb8e	0.24693128
253	0x3e91940e	0.2843327
254	0x3e91452c	0.28373086
255	0x3e930607	0.28715536

layer_2.weight f4 [300, 400]
0	0xbd3aa282	-0.045565136
1	0xbd2c7e38	-0.04211256
2	0x3cccb878	0.024990305
3	0x3c3269ac	0.010889452
4	0xbc6347f8	-0.013872139
5	0x3c89e512	0.016832862
6	0xbd4bbfa0	-0.049743295
7	0x3cec6dfe	0.028861042
8	0xbc9fe2e7	-0.019517375
9	0x3c589414	0.013218898
10	0x3ce2b332	0.027673338
11	0xbc76b20f	-0.015057101
12	0x3d22200d	0.039581347
13	0xbcbd9fe7	-0.023147536
14	0xbd4b068d	-0.049566794
15	0xbc7057f4	-0.014669407
16	0xbcca7cdd	-0.024717743
17	0x3c88dbe2	0.01670641
18	0xbc39507d	-0.011310694
19	0xbd0987fd	-0.033576954
20	0x3d0f3acb	0.03496818
21	0x3d219209	0.03944591
22	0x3c13d178	0.009022109
23	0xbc8d5664	-0.017253108
24	0xbc24665b	-0.010034169
25	0xbd1f35b8	-0.03886959
26	0xbca70a33	-0.020390606
27	0x3d312441	0.043247465
28	0xbd106d9d	-0.035260785
29	0x3c8d85fe	0.017275807
30	0x3cb77a5a	0.022397209
31	0x3c2546d8	0.010087691
32	0x3c784ee3	0.015155527
33	0xbcf1212e	-0.029434767
34	0xbd0c8a71	-0.034311716
35	0xbc80792c	-0.01568278
36	0x3d12c04a	0.035827912
37	0x3bcc0592	0.00622625
38	0xbb8c253a	-0.0042768987
39	0x3ce5c8d2	0.02804986
40	0x3d1505af	0.036382373
41	0xbd2b3429	-0.04179779
42	0x3b8bad58	0.0042626075
43	0x3ca2df28	0.0198818
44	0xbd0b9b15	-0.034083445
45	0xbcfafd65	-0.030638406
46	0x3c21be20	0.0098719895
47	0xbd16c2b3	-0.036806773
48	0xbc1fb420	-0.009747535
49	0xbcbe3d0d	-0.02322247
50	0xbd3df5f0	-0.046377122
51	0x3bbdc1d0	0.0057909265
52	0xbc8136d0	-0.015773207
53	0xbcefaff9	-0.029258715
54	0xba326480	-0.0006805137
55	0xbc8dea09	-0.01732351
56	0x3cc3b2b5	0.023888925
57	0x3c35be08	0.01109267
58	0x3bbc1ebd	0.005740969
59	0x3d06be51	0.032896344
60	0xbc39c68b	-0.01133884
61	0xbd20d793	-0.039268088
62	0x3d337aa6	0.04381814
63	0x3cb5d3b0	0.022195667
64	0xbd267ede	-0.040648334
65	0xbc96fa4a	-0.018429894
66	0xbce44895	-0.027866641
67	0x3d3ecc7d	0.046581734
68	0x3c9236fe	0.017848488
69	0x3c804b89	0.015661018
70	0xbd2d9558	-0.042378753
71	0xbcc97f19	-0.024596738
72	0x3c51fd55	0.012816747
73	0xbcdb7aa0	-0.02679187
74	0x3d1189f7	0.035531964
75	0xbd39b298	-0.045336336
76	0xbca0741c	-0.019586615
77	0xbbc2376e	-0.005927018
78	0xbb25ec06	-0.0025317683
79	0x3d273cb3	0.04082937
80	0xbd35db4e	-0.0443986
81	0x39c54c00	0.00037631392
82	0xbd374b7d	-0.044749726
83	0x3d420f9e	0.047378175
84	0x3ceb126f	0.028695313
85	0xbd4602ba	-0.048342444
86	0xbd387925	-0.045037407
87	0xbc72ac08	-0.014811523
88	0x3d07f811	0.03319556
89	0xbcedf0c3	-0.029045468
90	0x3ca72d8d	0.020407462
91	0xbcd2dc9b	-0.025739959
92	0xbca33f3a	-0.01992761
93	0x3bf3cdd0	0.0074403062
94	0x3d1e75a5	0.038686413
95	0x3d30a57d	0.043126572
96	0xbd1e654d	-0.038670827
97	0x3cd60d66	0.026129436
98	0xbcc33603	-0.023829466
99	0xbcef8574	-0.02923844
100	0xbc18dcaa	-0.009329954
101	0x3c0e7950	0.008695915
102	0x3d13f1c3	0.036119234
103	0x3d42a3af	0.047519382
104	0xbb019b3f	-0.0019776372
105	0xbb18998c	-0.002328488
106	0x3cbd8e22	0.023139063
107	0xbd0358df	-0.032067176
108	0xbc866375	-0.016404847
109	0x3bc6a0b0	0.006061636
110	0xbd2bdd01	-0.041958813
111	0x3cf0fc0f	0.029417066
112	0xbc9db517	-0.01925139
113	0xbc929d9c	-0.01789742
114	0xbd1135ee	-0.035451822
115	0x3b4c80e0	0.0031204745
116	0xbb9762b0	-0.0046199188
117	0x3c411121	0.011783869
118	0x3d279bc1	0.040920023
119	0xbcae5e30	-0.021285146
120	0x3c9e5fda	0.019332815
121	0xbc1c3994	-0.009535212
122	0x3b61fdd5	0.003448357
123	0x3c904122	0.017609183
124	0x3d027701	0.031851772
125	0xbcb899d8	-0.022534296
126	0x3cb79caa	0.02241357
127	0x3cf01272	0.02930567
128	0xbd0a61a0	-0.03378451
129	0xbc8b95f6	-0.01703928
130	0x3ca381fe	0.019959446
131	0xbcff10a7	-0.03113587
132	0x3c1084d2	0.008820729
133	0x3cf2ada1	0.029623808
134	0xbcc3b8dc	-0.023891859
135	0xbd264a7d	-0.04059838
136	0x3ccca1a6	0.024979424
137	0xbd3a06f2	-0.04541678
138	0xbc867f46	-0.01641811
139	0xbc712fc8	-0.014720865
140	0xbbcb7bfd	-0.006209849
141	0xbc475ad4	-0.012167651
142	0xbc98aba0	-0.018636525
143	0xbb4c234f	-0.0031148975
144	0xbc841319	-0.016122388
145	0x3c9af3ee	0.018915143
146	0x3cfa29f2	0.03053758
147	0xbd2aa5e3	-0.04166211
148	0xbcca9617	-0.024729772
149	0x3c236580	0.00997293
150	0xbaad9d60	-0.0013245754
151	0x3ce3abca	0.027791876
152	0x3ce332d0	0.02773419
153	0x3d02d6eb	0.031943243
154	0x3cd50d9e	0.02600747
155	0xbd2f3c80	-0.042782307
156	0xbb96f298	-0.004606556
157	0xbcaa902b	-0.020820698
158	0xbd3c253f	-0.04593396
159	0x3c07d2f8	0.008290045
160	0xbd208822	-0.039192326
161	0xbc1871f4	-0.009304512
162	0xbbeaf066	-0.007169771
163	0xbc2498b8	-0.010046177
164	0xbd23bd6b	-0.039975565
165	0x3d062721	0.03275216
166	0xbc41fe85	-0.011840467
167	0xbccc2863	-0.024921602
168	0xbb836e30	-0.004010938
169	0x3be2852f	0.0069128494
170	0x3cd32dee	0.025778737
171	0xbcdcbb4d	-0.02694478
172	0xbcacd7a2	-0.021098915
173	0x3d20a60f	0.039220866
174	0xbcec455d	-0.028841669
175	0xbc9d9aa9	-0.019238787
176	0x3cf045b7	0.029330118
177	0xbcdb1ffd	-0.026748652
178	0xbd0a2d71	-0.033734743
179	0x3bcfafe8	0.0063381083
180	0x3ca42b73	0.02004025
181	0x3cb3865a	0.02191465
182	0x3bf4c310	0.0074695423
183	0x3d2e5faf	0.04257172
184	0xbc9b80bd	-0.018982286
185	0xbb98b270	-0.0046599433
186	0x3c0d2e94	0.008617062
187	0x3d3938e9	0.04522029
188	0xbd0f3b39	-0.03496859
189	0x3c441620	0.011968166
190	0xbc9788de	-0.01849788
191	0x3d42b1e5	0.047532935
192	0xba051b80	-0.0005077645
193	0x3c6cbe64	0.01444969
194	0x3cb32f5e	0.021873172
195	0x3a63b680	0.00086865574
196	0xbc788a54	-0.015169699
197	0xbb0cad60	-0.0021465644
198	0x3c887858	0.016658947
199	0xbc56b7d8	-0.013105355
200	0xbccaf74d	-0.024776125
201	0xbc4edcf8	-0.012625925
202	0x3d48a49d	0.048985112
203	0x3d32b94d	0.043633748
204	0x3d11b9bf	0.035577532
205	0xbc48b034	-0.012249041
206	0xbc146a42	-0.009058537
207	0xbd151f4c	-0.0364068
208	0xbbe70649	-0.00705031
209	0xbd4eff77	-0.0505366
210	0x3d2d4001	0.042297367
211	0xbd11b263	-0.035570513
212	0xbb153320	-0.0022766069
213	0xbd00b931	-0.031426612
214	0xbd42ba42	-0.04754091
215	0xbc843bfc	-0.016141884
216	0x3c124005	0.008926396
217	0xbcc2323d	-0.023705596
218	0x3cfb2081	0.030655148
219	0xbc3e36ac	-0.0116097145
220	0xb958a30c	-0.00020660105
221	0x3c8a092a	0.016850073
222	0x3d295075	0.041336495
223	0x3c4eff64	0.012634132
224	0x3bbfd395	0.00585408
225	0x3ca414f6	0.020029526
226	0xbca3f22d	-0.02001294
227	0x3aaba000	0.0013093948
228	0xbc9d07fd	-0.019168848
229	0xbcf5b9ad	-0.029995764
230	0x3b213eb0	0.0024604015
231	0x3d1075e1	0.035268668
232	0x3c5273d4	0.012844998
233	0xbc28f374	-0.01031195
234	0x3d2d6bbf	0.042339083
235	0x3c84045f	0.016115366
236	0xbd1931e6	-0.037401102
237	0x3cb6c3de	0.022310194
238	0x3d24f9d5	0.04027732
239	0x3b50d620	0.003186591
240	0xbc75dce8	-0.015006281
241	0xbd0e35c6	-0.03471925
242	0x3c1fa6cc	0.009744357
243	0xbd4b17b9	-0.04958317
244	0x3cbaafb2	0.022788856
245	0xbab1c20e	-0.0013561861
246	0xbd35bffb	-0.04437254
247	0xbcfc2073	-0.030777192
248	0xbd3dbe64	-0.04632415
249	0x3ad118a0	0.0015952773
250	0x3c1438d8	0.009046756
251	0x3d3bcf29	0.04585186
252	0x3d435c4d	0.047695447
253	0x3c61f0f0	0.013790354
254	0x3bf8d100	0.007593274
255	0xbc11add8	-0.008891545

layer_2.bias f4 [300]
0	0xbd43c203	-0.047792446
1	0xbd212efe	-0.039351456
2	0xbced0f7c	-0.028938048
3	0x3d2fa049	0.04287747
4	0x3b91d19d	0.0044500367
5	0xbcd684bb	-0.026186338
6	0xbc9fe007	-0.019516004
7	0xbd44ebd3	-0.048076462
8	0x3c73caf2	0.014879929
9	0xbc42d809	-0.011892327
10	0x3d306d24	0.043072835
11	0x3bc6eccf	0.0060707103
12	0xbd41cf3a	-0.047316767
13	0xbd005088	-0.0313268
14	0xbd106640	-0.035253763
15	0x3cb5feb2	0.022216175
16	0xbc052687	-0.008126861
17	0xbd5fc526	-0.054631375
18	0xbc74f4c0	-0.014950931
19	0xbcc32162	-0.02381963
20	0x3c49bfb3	0.012313771
21	0x3d3b1dce	0.04568272
22	0xbc661754	-0.014043648
23	0x3d404321	0.04693902
24	0x3c7e4515	0.0155194
25	0x3cd963ac	0.026536785
26	0x3d8815e0	0.06644797
27	0xbcd2ad1a	-0.025717307
28	0xbcc17565	-0.023615548
29	0x3cc2e711	0.023791822
30	0xbca298e2	-0.01984829
31	0xbc45e264	-0.0120779015
32	0xbb9c575f	-0.0047711576
33	0xbcedefda	-0.029045034
34	0x3cc9e402	0.024644855
35	0xbcfa3b93	-0.030545985
36	0x3bbefee3	0.0058287247
37	0x3c8ce7a6	0.017200302
38	0xbcb3f1a5	-0.021965811
39	0xbd04e3e5	-0.0324439
40	0x3d1f91ec	0.03895752
41	0xbcead1d9	-0.028664516
42	0x3d37b203	0.0448475
43	0x3ca4f1a2	0.02013475
44	0xbbc118de	-0.005892857
45	0x3d2753cd	0.040851403
46	0x3d015af7	0.03158089
47	0xbd55ef33	-0.05223007
48	0xbca5c2c0	-0.020234466
49	0x3bf43275	0.007452304
50	0xbc96e958	-0.018421814
51	0xbc72990f	-0.014807
52	0xbcb523f7	-0.022111876
53	0xbcde9429	-0.027170258
54	0xbcea8354	-0.028627075
55	0xbd2d2c45	-0.042278547
56	0x3cacb54e	0.021082547
57	0x3b722cd2	0.0036952985
58	0x3d2106f3	0.039313268
59	0xbca89e17	-0.020583196
60	0xbd0d217f	-0.034455772
61	0x3c1ae144	0.009453122
62	0x3d2ee30e	0.042697005
63	0x3d0da2f3	0.03457923
64	0x3ce82233	0.02833662
65	0xbc67751f	-0.014127045
66	0x3c182533	0.009286213
67	0x3d53664f	0.05161124
68	0x3d1d6b81	0.0384326
69	0xbd10d015	-0.035354692
70	0x3b3decf1	0.002898034
71	0xbd4a8ae8	-0.049448878
72	0xbd32f83a	-0.04369376
73	0xbcf4640c	-0.029832862
74	0x3c707bae	0.014677925
75	0xbcd2d17a	-0.025734652
76	0x3d20fef7	0.039305653
77	0xbd5165eb	-0.051122587
78	0x3b29d59a	0.002591467
79	0xbc34e898	-0.011041783
80	0xbc96a86f	-0.018390862
81	0xbc92bd92	-0.01791266
82	0xbc90001a	-0.017578173
83	0xbd3feb1b	-0.046855073
84	0xbd16c10f	-0.03680521
85	0x3d47e7e9	0.04880515
86	0x3cd8a18e	0.026444223
87	0x3d44c63a	0.048040606
88	0xbd4006f6	-0.04688164
89	0xbd18f74f	-0.037345227
90	0xbb2d7803	-0.0026469238
91	0x3cabda1d	0.020978028
92	0x39bb4300	0.00035717338
93	0xbd2d01bf	-0.042237993
94	0xbc0daa49	-0.008646556
95	0x3bfb018d	0.007660097
96	0x3c8ee432	0.017442796
97	0xbd2f95fc	-0.042867646
98	0xbc987fc9	-0.01861562
99	0x3cd504eb	0.026003322
100	0x3d3f5c4d	0.046718884
101	0x3d23a3cb	0.039951127
102	0x3cbaeb71	0.022817345
103	0xbb6b9969	-0.0035949594
104	0xbd0fc6af	-0.03510159
105	0xbd58bb87	-0.052913215
106	0x3cb37aca	0.021909136
107	0xbd63d753	-0.05562527
108	0x3d123b3d	0.035701025
109	0xbc93a5a0	-0.018023312
110	0x3d2c1d03	0.042019855
111	0x3b458d01	0.003014386
112	0x3bb0ef50	0.005399622
113	0x3d070b3f	0.03296971
114	0xbd117586	-0.03551247
115	0x3cbac092	0.022796903
116	0xbc094f24	-0.008380685
117	0xbcec5b8d	-0.028852249
118	0xbcd4357e	-0.025904413
119	0xbca2713c	-0.019829385
120	0xbd004e21	-0.03132451
121	0xbcb98c09	-0.022649782
122	0xbd21885b	-0.03943668
123	0x3d04e629	0.03244606
124	0x3ce92d7a	0.028464068
125	0xbd25a693	-0.04044206
126	0xbd48bba4	-0.049007073
127	0xbce9360a	-0.02846815
128	0x3d173247	0.036913183
129	0xbc765f39	-0.015037351
130	0xbc57f1eb	-0.013180236
131	0x3d1690bc	0.036759123
132	0x3c823a53	0.015896952
133	0x3c683480	0.014172673
134	0xbcf9165a	-0.030406166
135	0xbc3c78f6	-0.011503449
136	0x3d2758f3	0.040856313
137	0xbcf2e823	-0.029651707
138	0x3ce28b9a	0.027654458
139	0xbcf94f17	-0.03043322
140	0x3b10d411	0.0022099058
141	0xbcef2e36	-0.02919684
142	0xbc00b469	-0.007855513
143	0xbc8651ee	-0.016396489
144	0x3c8c0151	0.017090471
145	0x3ab59070	0.001385225
146	0xbd5ca769	-0.053870592
147	0xbd28b7c9	-0.041190896
148	0x3d3aa239	0.045564864
149	0x3cc650f3	0.024208521
150	0xbc8eaae0	-0.017415464
151	0xbcfbdf93	-0.030746257
152	0xbd074919	-0.033028696
153	0x3c279912	0.010229366
154	0xbd4eccbb	-0.050488215
155	0x3d17e8dc	0.037087306
156	0xbd0ae704	-0.03391172
157	0xbd3b3438	-0.045704097
158	0xbd32ee78	-0.043684453
159	0xbd07e668	-0.033178717
160	0xbc08cbbc	-0.008349355
161	0xbd1c37c4	-0.03813912
162	0xbcb36bec	-0.021902047
163	0xbce1fccb	-0.027586361
164	0xb92bd1d5	-0.00016386
165	0x3c949c84	0.018141039
166	0xbcda5056	-0.026649635
167	0xbd2cd391	-0.042193953
168	0xbcd9eab7	-0.026601179
169	0xbd47c7f0	-0.04877466
170	0x3d18ebf7	0.03733441
171	0xbc82784b	-0.0159265
172	0xbc2e7e31	-0.010650204
173	0xbd59798c	-0.05309443
174	0xbcf88484	-0.030336626
175	0xbca6e098	-0.020370767
176	0x3d301032	0.042984195
177	0x3c980a67	0.018559648
178	0x3c81b60d	0.015833879
179	0x3c78390e	0.015150322
180	0xbd3a6d1a	-0.045514204
181	0x3b10f1cb	0.0022116776
182	0x3d3c8f8d	0.04603534
183	0xbd100db4	-0.03516932
184	0xbd4bbb18	-0.049738973
185	0xbd2b5b96	-0.04183539
186	0xbbf8ab4b	-0.007588779
187	0x3c6307b4	0.013856817
188	0x3d294bfa	0.041332223
189	0xbc108a7e	-0.008822082
190	0x3cb0b5ce	0.021571066
191	0xbc0711e2	-0.00824401
192	0x3d1ac6c4	0.037787214
193	0xbc0dabf9	-0.0086469585
194	0x3cc8342f	0.024438946
195	0xbd1c765f	-0.038198825
196	0x3d33c322	0.043887265
197	0xbd450d63	-0.04810847
198	0xbc13b8f1	-0.009016261
199	0xbc88f5fb	-0.016718855
200	0x3b4609ad	0.003021817
201	0xbd202ab8	-0.03910324
202	0x3d1d49c5	0.03840043
203	0x3cdf1a21	0.027234139
204	0xbd5f8a81	-0.054575447
205	0x3d0c3675	0.03423162
206	0xbbb6b450	-0.005575694
207	0xbce4e2cb	-0.027940175
208	0xbc81481f	-0.01578146
209	0x3baf9070	0.0053577945
210	0x3d4b3489	0.04961065
211	0xbcb0f681	-0.021601917
212	0xbc5e0f9a	-0.013553524
213	0x3d18414b	0.037171643
214	0x3c95403e	0.01821911
215	0x3b619191	0.003441904
216	0xbd1ff0c8	-0.039047986
217	0x3c14203c	0.009040888
218	0xbadfd03a	-0.0017075606
219	0xbd112e20	-0.03544438
220	0x3d0e9296	0.034807764
221	0xbbd9f403	-0.006651403
222	0xbd1370d8	-0.035996288
223	0xbac7c836	-0.0015242163
224	0xbd3e7bb5	-0.046504695
225	0xbd1544b0	-0.03644246
226	0x3c3ab7c0	0.0113963485
227	0x3d3d2a4e	0.046182923
228	0x3acad2a6	0.0015474155
229	0xbb7dbd81	-0.003871769
230	0xbd0ba28c	-0.034090564
231	0x3cf99cca	0.03047027
232	0xbca54345	-0.020173678
233	0x3c4a25b4	0.012338091
234	0x3d056ca2	0.032574303
235	0x3d0df279	0.034655068
236	0xbcb37c6e	-0.021909919
237	0x3cc2b70a	0.02376892
238	0xbc5e2cc5	-0.013560479
239	0x3d47a1ab	0.048738163
240	0x3c7fa38c	0.015602957
241	0x3cead076	0.028663855
242	0x3d14336b	0.03618185
243	0xbc01e9c6	-0.007929271
244	0x3c2e29d2	0.010630088
245	0x3ccb9c13	0.024854695
246	0xbd249c8d	-0.04018836
247	0x3d214be6	0.039379023
248	0x3cc3dae2	0.023908082
249	0xbd3a1d34	-0.045438007
250	0x3d478d5c	0.048718795
251	0xbd431d05	-0.047635097
252	0x3cc6f0e3	0.024284786
253	0xbc835c4c	-0.016035222
254	0xbadcada8	-0.0016836422
255	0x3d1f8744	0.03894736

layer_3.weight f4 [106, 300]
0	0x3d481f02	0.048857696
1	0x3b475bb5	0.0030419652
2	0x3ca990d0	0.020698935
3	0xbd68752a	-0.05675236
4	0xbd161e56	-0.036650024
5	0xbc884ffc	-0.016639702
6	0x3d12bcce	0.03582459
7	0x3d641942	0.05568815
8	0xbd685f22	-0.05673135
9	0xba0f04f7	-0.0005455757
10	0xbd20a8d9	-0.039223526
11	0x3d104ae2	0.035227664
12	0x3d384530	0.044987857
13	0xbd284e6e	-0.04109042
14	0xbd5eebef	-0.054424223
15	0xbd3b212d	-0.045685936
16	0xbd1a990b	-0.03774361
17	0x3b80c218	0.003929388
18	0xbd01bd58	-0.031674713
19	0xbd215b8a	-0.03939394
20	0xbd028c99	-0.031872366
21	0x3c02c878	0.007982366
22	0x3d073ce6	0.03301706
23	0xbc1d60b0	-0.009605572
24	0xbd349104	-0.04408361
25	0xbbf1a840	-0.0073747933
26	0xbd4bcb96	-0.0497547
27	0x3cb166f4	0.021655537
28	0xbd2f275c	-0.042762145
29	0xbd10b51a	-0.035328962
30	0xbc8c3356	-0.017114323
31	0x3d3a324d	0.045458127
32	0xbb877b38	-0.004134562
33	0x3c4d0dc0	0.012515485
34	0x3d191bc2	0.037379988
35	0xbc83bc66	-0.016081046
36	0xbd242215	-0.040071566
37	0xbd4280d4	-0.04748614
38	0x3cfbcc0c	0.030736946
39	0x3c40bdc8	0.011763997
40	0xbc64b71c	-0.013959672
41	0x3c311bf0	0.0108098835
42	0xbd61ca78	-0.05512473
43	0xbc8eb0e0	-0.017418325
44	0x3c831d54	0.016005196
45	0xbd26f278	-0.04075858
46	0xbce28a78	-0.027653918
47	0x3b1aa8a0	0.0023599043
48	0x3d0c9a22	0.03432668
49	0xbb5b2680	-0.0033439696
50	0x3d5fd6e0	0.05464828
51	0xbd2fbe37	-0.042906012
52	0xbd1421d6	-0.03616508
53	0xbce171f8	-0.027520165
54	0x3d3013b6	0.042987548
55	0xbcc9c1f8	-0.024628624
56	0xbca80520	-0.020510256
57	0x3b50523f	0.0031787304
58	0x3b51ccb8	0.003201289
59	0x3ca2f090	0.0198901
60	0x3d405d12	0.04696376
61	0xbd47cec6	-0.04878118
62	0x3ba49940	0.0050231516
63	0x3d25cd82	0.04047919
64	0x3d3f6494	0.04672678
65	0x3d0d5a38	0.034509867
66	0x3d2d296e	0.04227584
67	0x3d0450ca	0.03230361
68	0x3d4ee5ec	0.05051224
69	0x3cbd52d8	0.023110792
70	0x3d4aa2a6	0.04947152
71	0xbd57b28b	-0.052660506
72	0x3cfca0b0	0.03083834
73	0xba196f40	-0.00058530644
74	0x3d356b14	0.04429157
75	0x3cf967a8	0.030444935
76	0x3c951b7c	0.018201582
77	0xbcb4713c	-0.02202665
78	0x3d415881	0.047203545
79	0xbd257fee	-0.040405206
80	0x3c759d58	0.014991127
81	0xbcbc6afa	-0.02300023
82	0x3d1e4493	0.038639616
83	0xbd4b8ee6	-0.049696825
84	0xbb16b3cc	-0.002299535
85	0xbbd31bf8	-0.006442543
86	0x3d5c2b1a	0.053752042
87	0xba5d8800	-0.00084507465
88	0x3cbb34c4	0.022852309
89	0x3b9922e8	0.0046733506
90	0x3d64f86a	0.05590097
91	0x3d0449b9	0.03229687
92	0xbcf884b9	-0.030336725
93	0xbd30f34e	-0.043200783
94	0x3c3a9068	0.011386968
95	0x3c7505b0	0.014954969
96	0xbd450ebc	-0.048109755
97	0x3d233af2	0.039851137
98	0x3d1047c4	0.03522469
99	0x3c9b93a4	0.018991299
100	0x3d568563	0.0523733
101	0xbc6da968	-0.014505722
102	0x3d29eda8	0.041486412
103	0x3c727908	0.014799364
104	0xbce59de2	-0.028029386
105	0x3ca3e7e8	0.020008042
106	0xbce8dddb	-0.028426101
107	0x3be748a0	0.007058218
108	0x3c3458f0	0.0110075325
109	0xbd583f67	-0.05279484
110	0xbcd0ac90	-0.02547291
111	0xbcc6d6e8	-0.024272397
112	0xbd25020a	-0.040285148
113	0xbc955ba0	-0.018232167
114	0x3c0d25d8	0.00861498
115	0xbb82a0e0	-0.003986463
116	0x3c2826c8	0.010263152
117	0x3d0c3f4c	0.034240052
118	0xbd37801e	-0.044799916
119	0xbc4de274	-0.012566198
120	0xbc015668	-0.007894136
121	0x3c7c35a0	0.015393645
122	0x3c261338	0.010136418
123	0x3c91f3a0	0.017816365
124	0xbcde3081	-0.027122738
125	0xbd0e6fde	-0.034774654
126	0x3d2d865c	0.042364463
127	0x3ce73d44	0.028227456
128	0xbd3a3607	-0.04546168
129	0xbd33634c	-0.04379587
130	0x3ca96028	0.020675734
131	0x3d072e12	0.03300292
132	0xbd0b9c45	-0.034084577
133	0xbc0abedc	-0.008468356
134	0x3d0062d4	0.03134425
135	0x3c86e554	0.016466774
136	0x3d7161e3	0.058931243
137	0x3d7a9ebc	0.061186537
138	0xbd10bfca	-0.035339154
139	0x3d147354	0.036242798
140	0xbd15f0be	-0.036606543
141	0xbc8cd3e6	-0.017190885
142	0xbcd3ac00	-0.025838852
143	0x3c8c5162	0.01712865
144	0xbbf8cae8	-0.0075925477
145	0x3d40a61e	0.04703342
146	0x3cc4dddc	0.024031572
147	0xbd272564	-0.040807143
148	0xbd1d585a	-0.038414337
149	0xbd4f1847	-0.050560262
150	0xbcd6ff52	-0.026244793
151	0x3c5ead68	0.013591148
152	0x3bfa4990	0.007638164
153	0x3d1f5516	0.038899504
154	0x3c23d7e0	0.010000199
155	0x3c53ba5e	0.012922851
156	0xbd1d2c57	-0.038372364
157	0x3cd517e8	0.026012376
158	0x3cea02bc	0.028565757
159	0x3cc0bba8	0.023526981
160	0x3c37a0d2	0.011207776
161	0x3d386adb	0.04502378
162	0xbcb7a286	-0.022416364
163	0xbd31117c	-0.043229565
164	0xbcad1884	-0.021129854
165	0xbc4cd534	-0.012502003
166	0xbc7f1e68	-0.015571214
167	0x3d4b676a	0.04965917
168	0x3cb58308	0.022157207
169	0x3cab5360	0.02091378
170	0x3a806d80	0.0009798259
171	0xbcb37747	-0.021907462
172	0xba358980	-0.0006925091
173	0xbd4233ca	-0.04741267
174	0xbd023e53	-0.03179772
175	0xbd544076	-0.051819287
176	0x3c3c14e8	0.011479594
177	0x3d582dae	0.05277794
178	0xbd1f8f64	-0.038955107
179	0xbceb3522	-0.02871186
180	0x3ca10e48	0.01966013
181	0xbd2c764e	-0.04210501
182	0xbd42fdfc	-0.0476055
183	0xbba0bb65	-0.0049051517
184	0x3d343d0c	0.04400353
185	0xbcf8d9cf	-0.030377297
186	0x3ca4bfc4	0.020110972
187	0xbd051cd0	-0.03249818
188	0xbd5bd002	-0.05366517
189	0x3d4b2f32	0.049605556
190	0xbbfd7008	-0.0077343024
191	0x3d4b74f4	0.049672082
192	0x3c386888	0.011255391
193	0xbb448520	-0.0029986575
194	0x3becb2a0	0.007223442
195	0xbc8c47cc	-0.01712408
196	0x3ca47c80	0.020078897
197	0xbd45a069	-0.048248682
198	0xbd357c7c	-0.04430817
199	0x3ce3bea4	0.027800865
200	0x3ca3ee1c	0.020011
201	0xbc04b868	-0.0081006065
202	0x3ce34744	0.027743943
203	0xbd30c25e	-0.043154113
204	0x3d370a2c	0.044687435
205	0xbcca6b38	-0.024709329
206	0xbcd1b1cc	-0.025597475
207	0x3d2faae2	0.042887576
208	0x3c514d95	0.012774845
209	0x3a975300	0.0011545122
210	0xbb7abdd0	-0.003826011
211	0x3d2e3286	0.04252865
212	0x3c95ba4f	0.018277315
213	0xbba5b0b8	-0.005056467
214	0xbc24ccc4	-0.010058586
215	0x3cf4aa0a	0.029866237
216	0x3c05dc06	0.008170133
217	0x3d0cb260	0.0343498
218	0x3d3c5928	0.045983464
219	0x3c260c04	0.010134701
220	0xbca442be	-0.020051356
221	0xbd1cdc30	-0.038295925
222	0xbc163c20	-0.009169608
223	0xbc320ddc	-0.010867562
224	0x3d6810a0	0.05665648
225	0xbc627257	-0.013821206
226	0x3cbee120	0.023300707
227	0x3d007de5	0.031370062
228	0xbcf54a16	-0.029942553
229	0x3c30c677	0.010789505
230	0x3c9ce7bc	0.019153468
231	0x3d5e87e4	0.054328814
232	0x3cb16317	0.021653695
233	0x3d05ff4e	0.03271418
234	0x3d438992	0.04773862
235	0x3d67aa2c	0.056558773
236	0xbcfa0141	-0.030518176
237	0xbbc27d98	-0.005935382
238	0x3d022996	0.03177794
239	0x3bb94470	0.0056539103
240	0xbbae2d11	-0.005315431
241	0xbbf04c90	-0.0073333457
242	0xbca04124	-0.019562311
243	0xbd147950	-0.036248505
244	0xbc08d4f0	-0.0083515495
245	0xbc45a524	-0.012063298
246	0xbd67d702	-0.05660153
247	0xbcccc352	-0.02499548
248	0x3c4be278	0.012444131
249	0xbd49ec0a	-0.04929737
250	0x3d18f7be	0.03734564
251	0xbd3eee50	-0.04661399
252	0x3ccdc1d2	0.025116835
253	0xbc5617e4	-0.013067219
254	0x3b9db03d	0.004812269
255	0xbce68f2e	-0.028144445

layer_3.bias f4 [106]
0	0x3d70e238	0.05880949
1	0x3d504c46	0.05085399
2	0xbd5b0d60	-0.053479552
3	0x3ca8de4f	0.020613817
4	0x3c3d7e87	0.011565811
5	0xbc8ae7de	-0.016956266
6	0xbd02488b	-0.031807464
7	0xbc24e2bf	-0.010063826
8	0x3b8d8aef	0.0043195407
9	0x3caa0e81	0.02075887
10	0x3cbe28ca	0.02321281
11	0xbd5a8531	-0.053349677
12	0xbcd62a07	-0.026143087
13	0xbd5c116b	-0.05372755
14	0x3ca03f5b	0.01956146
15	0x3be37981	0.0069419746
16	0x3d467e42	0.048460253
17	0xbd4c51e8	-0.0498828
18	0xbd61725e	-0.05504071
19	0x3d2d43b6	0.042300902
20	0x3bb584f6	0.005539532
21	0x3d0a8384	0.03381683
22	0xbd4fe59b	-0.05075608
23	0x3d531eee	0.05154317
24	0x3b1791b8	0.0023127627
25	0xbcaba537	-0.020952804
26	0xbc156b24	-0.009119783
27	0x3d2df98a	0.042474307
28	0xbd17da5f	-0.03707349
29	0xbd0d4289	-0.03448728
30	0xbd2851a7	-0.041093495
31	0x3c425e8a	0.01186336
32	0x3c335eb6	0.010947874
33	0x3c4c441d	0.012467411
34	0xbd61d571	-0.055135194
35	0xbd458921	-0.04822648
36	0xbd63ab9e	-0.05558359
37	0x3cf55594	0.029948033
38	0xbd514fc4	-0.05110146
39	0x3d1fa2a8	0.03897348
40	0xbd0e9c18	-0.03481683
41	0x3d1b4ecb	0.03791694
42	0xbc836e51	-0.016043814
43	0x3c85d8b5	0.016338686
44	0x3cefe32b	0.029283127
45	0xbd6e9337	-0.058245864
46	0xbc7a84e8	-0.015290476
47	0x3bf217c0	0.007388085
48	0x3d476f19	0.048689935
49	0x3d04d796	0.03243216
50	0xbd0761e9	-0.03305236
51	0x3c462243	0.01209313
52	0xbd80ecf5	-0.06295196
53	0x3d50f1f0	0.05101198
54	0xbc9faab4	-0.019490577
55	0xbc832c32	-0.016012285
56	0x3d2632e0	0.040575862
57	0x3d30ba31	0.043146316
58	0x3c20dd55	0.009818395
59	0x3d64858e	0.05579143
60	0xbd4feb0c	-0.050761268
61	0xbd0fc6d5	-0.03510173
62	0x3c248e18	0.010043643
63	0xbd5d169f	-0.05397665
64	0xbd11b5a9	-0.035573635
65	0xbd252f80	-0.040328503
66	0xbd1d16a2	-0.038351662
67	0xbceaf001	-0.028678896
68	0x3d39e104	0.045380607
69	0xbb86d6f9	-0.004114982
70	0x39c730bd	0.0003799255
71	0xbd3a7c78	-0.04552886
72	0x3d378379	0.044803116
73	0xbd1c9fc6	-0.03823831
74	0x3d6b44dc	0.057438716
75	0xbd3a6f67	-0.045516398
76	0xbd52027a	-0.051271893
77	0xbd2fb8c8	-0.04290083
78	0xbcaf6ec2	-0.021415118
79	0x3d057873	0.032585572
80	0xbc3db189	-0.011577972
81	0xbc8f1a50	-0.017468601
82	0x3d5e511d	0.054276574
83	0xbc6a39ee	-0.014296038
84	0xbced165d	-0.028941328
85	0x3d7cae98	0.061689943
86	0xbcb57e31	-0.0221549
87	0xbd577a93	-0.05260713
88	0xbd07d394	-0.03316076
89	0xbd23b03e	-0.039963
90	0x3ca6de6d	0.020369733
91	0xbb0fb1e8	-0.0021926109
92	0x3bdafea4	0.0066831876
93	0x3cf61194	0.030037679
94	0x3d50d0b9	0.050980303
95	0xbd01aa6a	-0.03165666
96	0xbd02219e	-0.03177034
97	0xbd51babd	-0.051203478
98	0x3c425c89	0.011862882
99	0x3d127aae	0.035761528
100	0x3cbd1a70	0.023083895
101	0x3c4f87af	0.012666627
102	0x3d1abbd4	0.037776783
103	0xbd064757	-0.03278288
104	0xbcb78d55	-0.02240626
105	0x3c4a0307	0.012329823
