models/ddpg_model_episode_450_critic.pth (torch, 674589 bytes, 5 tensors)

layer_1.weight f4 [400, 117]
0	0x3f94d9be	1.162895
1	0x3dcf4cb7	0.10122054
2	0x3ecb9f8c	0.39770162
3	0xbde9efe9	-0.11422712
4	0x3c62f13d	0.013851461
5	0xbc4c6896	-0.012476107
6	0x3e18a0b1	0.14905049
7	0xbcf89eeb	-0.030349215
8	0xbf888745	-1.0666281
9	0xbf85872e	-1.0431879
10	0xbdedd338	-0.116125524
11	0x3b7aa965	0.003824794
12	0x3f40c03c	0.75293326
13	0x3f2165e5	0.63046104
14	0xbedccfbb	-0.43127236
15	0xbfccd7fb	-1.6003412
16	0xbf981d16	-1.1883876
17	0xbe8d3778	-0.27581382
18	0xbec33a41	-0.38130382
19	0xbd291c26	-0.04128661
20	0xbf53a2bf	-0.82670206
21	0x3eec2f7b	0.46129975
22	0xbe25a8de	-0.16177699
23	0xbe6ef790	-0.23336625
24	0x3e0fa057	0.14026009
25	0xbf0328c8	-0.512341
26	0xbdf69c90	-0.12041581
27	0xbe03d350	-0.12873578
28	0x3d93b642	0.07212497
29	0x3f43ab30	0.76433086
30	0x3e669e26	0.22521266
31	0x3c40ff83	0.011779669
32	0x3f50a7b3	0.8150589
33	0xbe247c37	-0.16063009
34	0x3ed0d6e1	0.4078894
35	0x3d937afa	0.0720119
36	0x3efc9433	0.49331817
37	0x3db210db	0.08694621
38	0xbecd960c	-0.4015354
39	0x3f18490e	0.5948647
40	0x3e2581c9	0.1616279
41	0x3f99901d	1.1997105
42	0x3ed366c4	0.4128934
43	0x3e9d364a	0.30705482
44	0xbda5673a	-0.080763295
45	0x3e29ab7a	0.1656932
46	0xbcbf448e	-0.02334812
47	0xbe5a69e1	-0.21329452
48	0xbf0b4075	-0.5439523
49	0xbe5b16c0	-0.21395397
50	0x3e4a206c	0.1973893
51	0x3c14edf9	0.00908994
52	0x3fe2f9cc	1.7732482
53	0xbec84d9b	-0.39121708
54	0xbe78aa61	-0.24283744
55	0x3fc0c63d	1.5060498
56	0x3e451817	0.19247471
57	0xbd3b2556	-0.045689903
58	0x3f8f96be	1.1217878
59	0x3e04d4c1	0.12971784
60	0x3ee38a1d	0.4444131
61	0xbddc1bae	-0.10747467
62	0xbe9c5292	-0.30531746
63	0xbf18cd1a	-0.5968796
64	0xbd3839a4	-0.044976845
65	0x3f387d76	0.7206644
66	0xbf5bf3b6	-0.8591875
67	0x3ebf82fc	0.3740462
68	0xbf13d91d	-0.57753164
69	0x3e4b38d6	0.198459
70	0xbe8ae4e0	-0.27127743
71	0xbecc800f	-0.3994145
72	0xbf72db33	-0.9486572
73	0x3e6f9700	0.23397446
74	0xbdeafbb4	-0.1147379
75	0x3f4d7d61	0.8026944
76	0xbf38efa3	-0.72240657
77	0x3e128a9e	0.14310691
78	0x3f2d5d45	0.67720443
79	0xbc2b93bc	-0.010472234
80	0xbf5863d9	-0.84527355
81	0xbf269e51	-0.6508532
82	0xbebe7c8c	-0.37204397
83	0xbd7ad821	-0.061241273
84	0x3e7a71ef	0.24457525
85	0xbf33cd41	-0.7023507
86	0xbee7da07	-0.4528353
87	0x3e3b49ae	0.18289825
88	0x3e7f5755	0.24935658
89	0xbe4284e3	-0.18996005
90	0x3e3db561	0.18526222
91	0xbe83d736	-0.2575013
92	0xbe97dbe1	-0.29659942
93	0x3dd4fadb	0.103994094
94	0xbde397dd	-0.1111295
95	0x3e396b77	0.18107401
96	0x3c226a6c	0.009913068
97	0xbe69b87f	-0.22824286
98	0x3e9a610e	0.30152172
99	0xbea332ed	-0.3187479
100	0xbe002e30	-0.12517619
101	0x3f187ba7	0.5956368
102	0xbf7897cd	-0.9710663
103	0xbf6fa011	-0.93603617
104	0x3df81e45	0.121151485
105	0xbf50f93c	-0.816303
106	0x3da5c076	0.0809335
107	0xbed07b53	-0.4071909
108	0xbf3f7ee2	-0.7480298
109	0xbe13b7e5	-0.14425619
110	0x3f25f9b6	0.64834154
111	0xbf671bfb	-0.9027707
112	0xbeda2673	-0.4260746
113	0xbeb113d8	-0.34585452
114	0x3d47b8d4	0.04876025
115	0xbe96b67c	-0.294361
116	0x3ef68773	0.48150215
117	0x3fb3bc5e	1.404186
118	0xbdea644f	-0.114449136
119	0xbf034b91	-0.5128718
120	0xbe85db5f	-0.2614393
121	0xbd4bbe84	-0.049742237
122	0x3d7a2836	0.061073504
123	0x3d6f023e	0.058351748
124	0x3c90a52b	0.017656883
125	0x3e4b2bd9	0.19840945
126	0x3eb11cf5	0.34592405
127	0xbdb2210f	-0.08697712
128	0xbe0f3b22	-0.13987401
129	0xbe2c9060	-0.1685195
130	0xbe98497b	-0.2974356
131	0xbee468bb	-0.44611153
132	0xbfeffc96	-1.8748958
133	0xbe809012	-0.25109917
134	0xbe2e6662	-0.17031243
135	0xbef1a470	-0.47195768
136	0xbe10ebf2	-0.14152506
137	0x3eb4d8b7	0.3532159
138	0xbec116b1	-0.37712625
139	0xbf8c805d	-1.0976673
140	0xbe6f75b1	-0.2338474
141	0xbf36f42e	-0.7146634
142	0xbf34327b	-0.7038953
143	0xbe7ff0fd	-0.24994273
144	0xbee2e4cb	-0.4431518
145	0xbd9d49c5	-0.07680086
146	0xbc3ed2e9	-0.011646965
147	0x3e6a4cd4	0.2288087
148	0x3dfbf39c	0.12302324
149	0x3d3d450a	0.04620842
150	0xbbc55ff7	-0.006023403
151	0xbf078141	-0.529316
152	0x3f5e2308	0.86772203
153	0xbeda02d3	-0.4258028
154	0x3ea95586	0.33073062
155	0xbeaa627f	-0.33278272
156	0xbe9013b0	-0.2814002
157	0xbd55636e	-0.052096777
158	0x3e949db8	0.2902658
159	0xbf08b740	-0.5340462
160	0xbf052958	-0.5201621
161	0xbdf7ce31	-0.12099875
162	0xbd0caef2	-0.03434653
163	0x3f317860	0.693243
164	0xbd92ddc0	-0.07171202
165	0xbfbc1ac8	-1.4695673
166	0x3ecde18b	0.40211138
167	0xbdb5d21c	-0.08877966
168	0x3d75851f	0.059941407
169	0x3f3e3019	0.7429214
170	0x3f17628d	0.5913475
171	0xbe132e5c	-0.14373153
172	0x3f219be2	0.63128483
173	0x3f8863cf	1.0655459
174	0x3c94b5bd	0.018153066
175	0x3d2e2f4a	0.042525567
176	0x3e71153f	0.23543261
177	0x3ef18f0c	0.4717945
178	0x3e81d8cf	0.25360724
179	0xbdd04107	-0.10168653
180	0xbe466fcc	-0.19378585
181	0x3daa72fb	0.08322712
182	0xbe17d0cd	-0.14825745
183	0x3e1a829f	0.1508889
184	0xbed50609	-0.41606167
185	0x3eff798c	0.4989742
186	0x3db15b81	0.08660031
187	0x3ed721b3	0.42017898
188	0x3ef410ca	0.4766906
189	0x3d829516	0.06376092
190	0x3e3b0d5e	0.18266818
191	0x3f57eebe	0.84348667
192	0xbdbb69f5	-0.09151069
193	0xbfd33642	-1.6500933
194	0x3cf55085	0.029945621
195	0xbe44d07a	-0.19220152
196	0x3dc1cd8c	0.09463033
197	0xbfa42e15	-1.2826563
198	0xbed30e52	-0.41221863
199	0x3ecfad46	0.40561885
200	0xbe286573	-0.1644495
201	0x3e3f9057	0.18707405
202	0xbfce1123	-1.609898
203	0xbef49f4b	-0.4777778
204	0xbf12bffe	-0.57324207
205	0x3f540484	0.8281939
206	0xbec24da9	-0.37949875
207	0xbee4d53e	-0.4469394
208	0xbeb23b97	-0.34811088
209	0xbf070869	-0.5274721
210	0x3e314ded	0.17314883
211	0x3e817041	0.25280955
212	0x3faadb10	1.3348103
213	0xbf57a3d4	-0.84234357
214	0x3f17af44	0.5925181
215	0xbeed88dd	-0.4639348
216	0xbec30e9f	-0.38097093
217	0xbd9c6722	-0.076368585
218	0xbe78dfd2	-0.2430413
219	0xbca97906	-0.020687591
220	0x3e957e2f	0.29197833
221	0xbd8ef5f3	-0.06980505
222	0x3cbb818f	0.022888927
223	0xbc2ee677	-0.010675064
224	0xbfc88f29	-1.5668689
225	0x3db0eb61	0.08638645
226	0xbf75ef48	-0.9606824
227	0x3f84f164	1.0386167
228	0x3e5c722a	0.21527925
229	0xbf68adb0	-0.90890026
230	0x3f25682d	0.64612085
231	0xbce84a26	-0.02835567
232	0x3dad312d	0.08456645
233	0xbea01fb3	-0.31274185
234	0xbfc8bf8f	-1.5683459
235	0xbdb90f78	-0.090361536
236	0x3e7fcd9c	0.24980778
237	0x3d554577	0.0520682
238	0x3c0ad70d	0.008474124
239	0x3c370d0f	0.011172547
240	0x3cb54863	0.022129243
241	0xbe11dcf1	-0.14244439
242	0x3c60f01a	0.01372912
243	0xbd8ab7c4	-0.06773332
244	0xbdc4873b	-0.09596106
245	0x3e4dd9f2	0.20102671
246	0x3c268d06	0.010165459
247	0xbd54321d	-0.051805604
248	0x3e5a2536	0.21303257
249	0x400caa51	2.1978953
250	0xbeb4b382	-0.35293204
251	0x3e718773	0.23586826
252	0xbbf03fae	-0.00733181
253	0xbe6f47e8	-0.23367274
254	0x3df05f5d	0.11736939
255	0x3e0a86a1	0.1352792

layer_1.bias f4 [400]
0	0x3d8da297	0.06915777
1	0xbcdf23cf	-0.027238755
2	0xbe0e866d	-0.13918467
3	0xbc881025	-0.01660926
4	0xbd7c6bda	-0.061626293
5	0x3cb8eb22	0.022573058
6	0x3d141e3a	0.03616164
7	0xbdda8613	-0.10670104
8	0xbdbb13b1	-0.09134615
9	0xbcfeb9f3	-0.031094527
10	0xbd3df9af	-0.046380695
11	0x3d8f1563	0.06986501
12	0xbd9ad3c7	-0.075599246
13	0x3d2511d2	0.040300198
14	0x3fabbd6e	1.3417184
15	0xbaa4e836	-0.0012581411
16	0xbfa3880f	-1.2775897
17	0xbde2eee9	-0.11080725
18	0xbd852abd	-0.06502292
19	0xbf4f37df	-0.8094463
20	0xbcdc1225	-0.02686412
21	0x3ecb11a2	0.3966189
22	0xbdf7556c	-0.1207684
23	0xbdb8fbb8	-0.090323865
24	0xbe5a789e	-0.21335074
25	0x3d786f2a	0.06065289
26	0xbd7eb762	-0.062186606
27	0xbd8dd913	-0.06926169
28	0xbd114997	-0.03547057
29	0xbd151eaa	-0.036406197
30	0x3dbe14a5	0.092812814
31	0xbe32a108	-0.17444241
32	0x3dbcb34f	0.09213888
33	0xbc99909c	-0.018745713
34	0x3da978bf	0.082749836
35	0x3be197dc	0.006884558
36	0xbdc56472	-0.09638299
37	0xbe46c447	-0.19410811
38	0xbd7b45fe	-0.061346047
39	0xbe05efe8	-0.13079798
40	0xbde8a27f	-0.11359119
41	0xbf14e717	-0.58165115
42	0xbd88eef9	-0.066862054
43	0xbe8c808c	-0.27441823
44	0x3d1e1e06	0.03860285
45	0xbda4a0d5	-0.08038489
46	0x3c9b2610	0.018939048
47	0x3e5356d5	0.20638593
48	0xbc99540a	-0.01871683
49	0xbda56acb	-0.0807701
50	0x3dbd4c7d	0.092431046
51	0xbea7b3b3	-0.32754287
52	0xbdc984a8	-0.09839755
53	0xbf865f15	-1.0497767
54	0xbc635314	-0.013874788
55	0x3cc126a4	0.023577996
56	0xbe7b79eb	-0.24558227
57	0xbf353ec9	-0.7079893
58	0xbe03d46f	-0.12874006
59	0xbdda5d64	-0.10662344
60	0xbea59422	-0.3233958
61	0xba958d34	-0.001140988
62	0xbad5e273	-0.0016318097
63	0xbe6c4114	-0.230717
64	0x3e4c4193	0.1994689
65	0xbd53eeae	-0.051741295
66	0xbeaa2358	-0.3323009
67	0x3efdee6b	0.4959596
68	0xbd663874	-0.05620618
69	0x3d11f995	0.03563841
70	0xbd721451	-0.059101406
71	0xbed9badd	-0.42525378
72	0x3e9941e3	0.2993308
73	0xbd9ca94c	-0.07649478
74	0x3c4a41c0	0.012344778
75	0xbd58e750	-0.05295497
76	0xbd48ff8c	-0.049071833
77	0x3e3ca0e7	0.18420754
78	0xbc8f169c	-0.017466836
79	0x3c8c5384	0.017129667
80	0x3f7895b7	0.97103447
81	0x3db0f833	0.0864109
82	0xbda13a74	-0.07872477
83	0xbba6be26	-0.0050885854
84	0xbdf64d77	-0.12026494
85	0xbd3fe13f	-0.04684567
86	0x3b53b360	0.003230296
87	0xbf1a564b	-0.6028792
88	0xbe23a740	-0.1598177
89	0xbe04df6c	-0.12975854
90	0x3c187300	0.009304762
91	0x3db6ed25	0.089319505
92	0xbdd78038	-0.10522503
93	0xbcdd1ab3	-0.02699027
94	0xbd9586e8	-0.07301122
95	0x3ef9cc68	0.48788762
96	0x3cf30cac	0.029669128
97	0xbc8ca287	-0.017167343
98	0xbab928c0	-0.0014126524
99	0x3d37a182	0.04483176
100	0xbeb59fca	-0.35473472
101	0xbddc13ad	-0.1074594
102	0xbd6c1ca5	-0.057644505
103	0x3d1fa8f6	0.038979493
104	0x3bd0df91	0.0063743074
105	0x3d39af14	0.045332983
106	0x3d0258c4	0.031822935
107	0xbd9d0ae6	-0.07668094
108	0xbd83ff13	-0.06445136
109	0xbde2fec9	-0.11083753
110	0x3aac1836	0.0013129774
111	0xbf670a3b	-0.90249985
112	0xbeb5d305	-0.35512558
113	0xbd95a714	-0.07307258
114	0x3e8bb031	0.2728286
115	0x3ca781fc	0.020447724
116	0x3e25a31c	0.16175503
117	0x3d0ca180	0.034333706
118	0xbe9749e1	-0.29548553
119	0xbd7fee21	-0.062482957
120	0x3dad0b25	0.08449391
121	0x3cb7f6e6	0.022456598
122	0xbbcb66ba	-0.0062073143
123	0x3bb8cf2b	0.0056399307
124	0x3c002de0	0.007823437
125	0x3e35538c	0.17707652
126	0x3c59857f	0.013276457
127	0x3d05e5e6	0.03268995
128	0xbc94fad4	-0.01818601
129	0x3f00bbe4	0.502867
130	0xbf0b41eb	-0.5439746
131	0xbf35f06a	-0.7106997
132	0xbd84165c	-0.06449577
133	0x3d6a7bff	0.05724716
134	0xbd07172a	-0.032981075
135	0x3bfefc60	0.0077815503
136	0xbda59f7c	-0.0808706
137	0x3b930241	0.0044863527
138	0x3aae3fea	0.0013294194
139	0xbd568006	-0.052368186
140	0xbdbbd5e5	-0.091716565
141	0xbb329a54	-0.0027252631
142	0x3c2fd57e	0.010732053
143	0xbd7fc057	-0.06243929
144	0x3d8523b3	0.0650095
145	0xbe33d7d5	-0.17562802
146	0x3dbe35d7	0.09287613
147	0x3d1108f4	0.03540893
148	0x3d858bd8	0.06520814
149	0xbe407699	-0.18795241
150	0x3cbff181	0.023430588
151	0xbd420578	-0.047368497
152	0x3c83ecf3	0.016104197
153	0xbc8bbc08	-0.017057434
154	0xbdba5fe6	-0.091003224
155	0xbd685b51	-0.05672771
156	0xbdb14da9	-0.086573906
157	0xbbb99a10	-0.0056641176
158	0x3d01886f	0.031624254
159	0xbdc3bb43	-0.09557202
160	0x3d56625f	0.052339908
161	0xbe1215f5	-0.14266188
162	0xbd2d2d45	-0.0422795
163	0xbd8b0622	-0.06788279
164	0xbdd78441	-0.10523272
165	0xbd146662	-0.036230452
166	0x3d70848b	0.058720153
167	0xbd28b981	-0.041192535
168	0xbc277f30	-0.010223195
169	0xbd07db99	-0.03316841
170	0xbc1a4ba2	-0.009417446
171	0x3d333226	0.043748997
172	0xbd6de3d2	-0.058078595
173	0xbdb19f22	-0.0867293
174	0xbded5f7d	-0.115904786
175	0xbda0f56f	-0.07859313
176	0x3d59f47d	0.053211678
177	0x3ec2380e	0.3793339
178	0x3db1d82c	0.0868381
179	0xbdcc22a1	-0.099675424
180	0x3d9cae32	0.076504126
181	0x3c9aa96c	0.018879615
182	0xbf18d626	-0.59701765
183	0x3b6fb5b2	0.0036576805
184	0xbe024d70	-0.12724853
185	0xbd2f3278	-0.04277274
186	0xbbc34cdf	-0.0059600915
187	0xbdbe391b	-0.09288236
188	0xbe1c6fa8	-0.15276968
189	0x3ca085ab	0.019594988
190	0x3d7bba18	0.06145677
191	0x3cb9b98c	0.022671483
192	0xbe7379ce	-0.23776934
193	0xbfa21db6	-1.2665317
194	0xbe3d87ea	-0.18508878
195	0xbcf0c433	-0.02939043
196	0x3d1a60af	0.03768986
197	0xbdf9b797	-0.1219322
198	0x3d8ca128	0.068666756
199	0xbed28884	-0.41119778
200	0xbda711d1	-0.08157695
201	0xbe830c75	-0.2559544
202	0xbda9f102	-0.08297922
203	0xbdf1a5d5	-0.11799208
204	0xbf06c49c	-0.5264375
205	0xbeb95d61	-0.36204055
206	0x3df0ee3a	0.11764188
207	0x3d29ce22	0.04145635
208	0xbd6d3c4c	-0.05791883
209	0xbdf11007	-0.11770635
210	0x3d036dca	0.032087125
211	0x3e82e2a5	0.2556354
212	0xbca60158	-0.020264313
213	0xbe03c0e3	-0.12866549
214	0x3c35bdc9	0.011092612
215	0x3bf846a3	0.00757678
216	0xbd88feaf	-0.06689202
217	0xbf0c051d	-0.546953
218	0x3d54a760	0.051917434
219	0xbe45d84e	-0.19320795
220	0xbe077a6a	-0.13230291
221	0x3ba17ce6	0.004928219
222	0xbe5ad671	-0.21370865
223	0xbc9007d6	-0.017581861
224	0xbdb33cb7	-0.08751815
225	0xbdd93091	-0.106049664
226	0xbb983e31	-0.0046460857
227	0x3af08e0d	0.0018352881
228	0x3d2cfc51	0.042232815
229	0x3dae6851	0.085159905
230	0x3cc88d80	0.024481535
231	0x3dc3c27f	0.095585816
232	0x3d823ef9	0.06359667
233	0xbd5fe710	-0.054663718
234	0x3db8e8cb	0.09028777
235	0xbd8b85d1	-0.06812633
236	0xbd9c62b2	-0.07636012
237	0xbdb0620a	-0.086124495
238	0xbd9d5909	-0.07682998
239	0xbce76ed0	-0.028251082
240	0x3f9514d3	1.164698
241	0x3d321f11	0.04348666
242	0xbd9ed874	-0.07756129
243	0x3cce3cb5	0.025175432
244	0xbd356c60	-0.044292808
245	0xbd50b967	-0.050958063
246	0x3c9f8710	0.019473583
247	0x3d17e8aa	0.03708712
248	0x3d7af392	0.061267443
249	0xbe00a669	-0.1256348
250	0x3d8142db	0.0631158
251	0xbe92923f	-0.28627202
252	0x3c9ac744	0.018893845
253	0x3d742305	0.05960371
254	0x3e959963	0.29218587
255	0x3d0c3211	0.034227435

layer_2.weight f4 [300, 400]
0	0xbddf5d99	-0.10906524
1	0xbde854d2	-0.11344303
2	0xbdde411b	-0.10852262
3	0xbd379157	-0.04481634
4	0xbbe5f287	-0.007017437
5	0x3d8eb149	0.06967408
6	0xbc8b2b35	-0.016988376
7	0xbbbd4857	-0.005776446
8	0xbc7c77ba	-0.015409404
9	0xbe04b980	-0.12961388
10	0x3d18be6b	0.03729097
11	0xbcd18f13	-0.025580918
12	0xbceb303a	-0.02870952
13	0x3c80d286	0.015725385
14	0xbf14d597	-0.5813841
15	0xbe04140b	-0.12898271
16	0xbda57dd0	-0.080806375
17	0xbde3c838	-0.11122173
18	0xbe1c8af2	-0.15287378
19	0xbd937765	-0.07200507
20	0xbdab9716	-0.08378427
21	0xbd7c06fa	-0.06153009
22	0x3c2d3d5c	0.010573711
23	0xbde2df32	-0.110777274
24	0xbbbe0433	-0.0057988404
25	0xbbc8b658	-0.0061252527
26	0xbda62e81	-0.08114339
27	0x3d5fcdfd	0.054639805
28	0x3c32a500	0.010903597
29	0xbc9c246a	-0.019060332
30	0xbd12c552	-0.03583271
31	0xbd1bfbad	-0.038081814
32	0x3d4b3783	0.049613487
33	0xbb848de2	-0.004045234
34	0x3ca4c776	0.020114642
35	0xbe174147	-0.14770995
36	0x3ca71bf1	0.020399066
37	0xba1103e8	-0.0005531893
38	0x3d27aa03	0.04093362
39	0xbddaef97	-0.106902294
40	0xbddf0d4a	-0.108912066
41	0xbd177dd3	-0.03698523
42	0xbd1e3691	-0.038626257
43	0xbc519bf4	-0.01279353
44	0x3ad04360	0.001588922
45	0xbd9767cc	-0.073928446
46	0x3d1137bd	0.035453547
47	0xbd9090d6	-0.07058875
48	0xbcbe2bc0	-0.023214221
49	0xbe1fe5de	-0.15615031
50	0x3bcd77a8	0.0062703677
51	0xbca2017d	-0.0197761
52	0xbd4176dd	-0.047232497
53	0xbd4d6800	-0.05014801
54	0x3d3f853f	0.046757933
55	0xbc714194	-0.014725108
56	0xbb9a9c91	-0.004718371
57	0xbcf81ce4	-0.030287214
58	0xbc71cda1	-0.014758498
59	0xbd301b22	-0.042994626
60	0xbd0375bc	-0.032094702
61	0xbb50f300	-0.003188312
62	0xbcfcc29a	-0.030854512
63	0xbcfe67f0	-0.03105542
64	0xbc4d6ceb	-0.012538175
65	0x3c4f3eb4	0.012649227
66	0x3b5bc2bc	0.0033532819
67	0x3c16c6de	0.009202687
68	0xbd0aefb5	-0.03392001
69	0x3de93846	0.113876864
70	0xbda7607c	-0.081727
71	0x3d17fb1f	0.037104722
72	0xbd8acf1e	-0.06777786
73	0xbb86da30	-0.0041153654
74	0xbd1e85b4	-0.038701728
75	0x39e80500	0.00044254214
76	0xbd13d039	-0.03608725
77	0xbe28a686	-0.16469774
78	0x3cc68a3e	0.02423584
79	0x3c55e704	0.013055567
80	0xbd7d9129	-0.061906014
81	0x3c191118	0.009342454
82	0xbcc98d40	-0.024603486
83	0xbd28fa7c	-0.041254506
84	0xbde448e7	-0.111467175
85	0x3c89f40a	0.01684
86	0xbd3b32e0	-0.045702815
87	0x3bb252a0	0.0054419786
88	0xbd3a72cf	-0.045519646
89	0xbd297f18	-0.04138097
90	0xbd4a463a	-0.04938338
91	0xbc1b44e8	-0.009476878
92	0xbbc369be	-0.005963533
93	0xbdbd8d6d	-0.092554905
94	0xbe0fe418	-0.14051855
95	0x3cd9c2ed	0.026582206
96	0x3c37f8b4	0.011228729
97	0xbc8dd126	-0.017311644
98	0xbe44638b	-0.19178598
99	0x3c15a5c3	0.009133759
100	0xbc4c40ed	-0.012466651
101	0xbe2596a1	-0.16170742
102	0xbb88c743	-0.0041741445
103	0xbd1da6ca	-0.03848914
104	0x3cd4fed2	0.026000414
105	0xbe291eed	-0.16515703
106	0x3c556fca	0.013027141
107	0x3ce50997	0.027958674
108	0xbdf6d3d9	-0.120521255
109	0xbca767d0	-0.020435244
110	0xbe070ae4	-0.13187748
111	0xbcbe5bc3	-0.023237115
112	0xbca05bc2	-0.019575004
113	0x3d4b8b61	0.04969347
114	0x3d8fdb24	0.0702422
115	0xbd549e22	-0.05190862
116	0xbc95292f	-0.018208114
117	0xbde1948b	-0.110146604
118	0x3c9674c7	0.01836623
119	0xbe2039c2	-0.15647033
120	0xb97a8a00	-0.00023893267
121	0xbd3c166f	-0.04591983
122	0xbc347762	-0.011014791
123	0xbd9a318b	-0.07528981
124	0x3ce65322	0.028115813
125	0x3ca15af6	0.019696694
126	0x3cc2f412	0.023798022
127	0x3c44771e	0.01199129
128	0x3d0e8cd1	0.03480226
129	0xbca51e82	-0.020156149
130	0xbd3f17e6	-0.04665365
131	0xbd92a056	-0.07159488
132	0x3c944102	0.018097404
133	0xbcb389c2	-0.021916274
134	0x3cb4175e	0.021983799
135	0xbcdcf5da	-0.0269727
136	0xbd7704e4	-0.0603074
137	0x3c8093e5	0.015695522
138	0xbc96d9dd	-0.018414432
139	0xbd0b1685	-0.033957023
140	0x3d1e92d9	0.038714264
141	0xbbb2305a	-0.005437893
142	0xbe0de201	-0.13855745
143	0xbd51610f	-0.051117953
144	0xbb555000	-0.0032548904
145	0x3d37e2e5	0.044894118
146	0x3d3e3e84	0.04644634
147	0x3bcc1881	0.006228507
148	0xbd11e6f7	-0.035620656
149	0x3c37dfb0	0.011222765
150	0x3e0da2b7	0.13831602
151	0xbd787ad8	-0.060664028
152	0x3cdda221	0.027054848
153	0x3d409889	0.04702047
154	0x3d0e2837	0.03470632
155	0x3cc5390a	0.02407505
156	0xbd41fe85	-0.04736187
157	0xbc294ae8	-0.0103328
158	0x3d30c048	0.043152124
159	0xbe42d1ea	-0.19025388
160	0x3cb9531a	0.022622634
161	0xbe4f3a48	-0.20237076
162	0x3c8cd532	0.017191503
163	0xbca27093	-0.01982907
164	0x3c9f18af	0.01942095
165	0x3c333305	0.010937457
166	0x3c878978	0.016545042
167	0xbce22dc9	-0.027609723
168	0x3d1795f1	0.03700823
169	0xbe3ce246	-0.18445691
170	0xbbe2db9b	-0.0069231517
171	0xbd243556	-0.040089928
172	0x3cef584f	0.029216914
173	0xbdda9518	-0.106729686
174	0xbd3ed1f8	-0.04658696
175	0xbc87b30a	-0.016564865
176	0xbd116075	-0.03549238
177	0xbd4d7da2	-0.05016864
178	0xbd197d0f	-0.03747278
179	0xbd34ff48	-0.044188768
180	0x3ca762b4	0.020432808
181	0xbd99b57a	-0.07505317
182	0xbcf1d8c3	-0.029522305
183	0xbd44019d	-0.0478531
184	0xbddf6d7d	-0.10909555
185	0xbd408dc4	-0.0470102
186	0xbdb40498	-0.08789939
187	0x3d4bb189	0.049729858
188	0xbd08a339	-0.033358786
189	0xbd280f90	-0.041030467
190	0xbd48a776	-0.04898783
191	0xbd050478	-0.032474965
192	0xbbee2fc5	-0.007268878
193	0xbd0802b2	-0.033205695
194	0x3c9be82d	0.019031608
195	0x3d123926	0.035699032
196	0x3c07e872	0.008295165
197	0xbc1d5a2c	-0.009604018
198	0xbd38ec15	-0.04514702
199	0xbd6ab781	-0.05730391
200	0xbc21ed58	-0.009883247
201	0xbd9ef110	-0.07760823
202	0xbd239305	-0.03993513
203	0xbdfeffc1	-0.12451125
204	0xbc875b1c	-0.016522937
205	0x3d31e025	0.04342665
206	0xbbf39815	-0.007433901
207	0xbd5791f1	-0.052629415
208	0xbe036b49	-0.12833895
209	0xbda50a1e	-0.0805857
210	0xbce8bb97	-0.028409762
211	0xbc8a7b89	-0.01690461
212	0xbcbae844	-0.022815831
213	0xbd7c9330	-0.061663806
214	0xbe06629e	-0.13123557
215	0xbb786bea	-0.0037906119
216	0xbe0e3da6	-0.13890705
217	0xbd46b752	-0.04851467
218	0xbdf9d425	-0.121986665
219	0x3d019b24	0.031642094
220	0x3cc49c30	0.024000257
221	0x3d2b1f1d	0.04177772
222	0x39b2ac6c	0.0003407927
223	0xbd932e0f	-0.07186519
224	0x3c292f29	0.010326185
225	0x3cc96f00	0.024589062
226	0xbe2f13ab	-0.17097346
227	0xbcf63c06	-0.030057918
228	0xbd31e723	-0.04343332
229	0xbd11984a	-0.035545625
230	0xbc920a9e	-0.017827328
231	0xbda14705	-0.07874874
232	0x3d4116fa	0.047141053
233	0xbdd53818	-0.1041109
234	0xbd0dadfa	-0.034589745
235	0xbe0f4101	-0.13989641
236	0xba31a140	-0.0006776042
237	0x3dd98d66	0.10622673
238	0xbcad1501	-0.02112818
239	0x3cba216e	0.022721019
240	0x3c9539db	0.018216064
241	0xbcde9c6a	-0.027174193
242	0xbd5b2f8c	-0.05351214
243	0xbb33b242	-0.0027419482
244	0x3e984909	0.2974322
245	0xbd0c1e40	-0.034208536
246	0xbcf60eea	-0.030036408
247	0xbe12a7d6	-0.14321837
248	0xbc9feded	-0.019522632
249	0xbde83503	-0.11338236
250	0xbc58499c	-0.013201144
251	0x3cb20aa2	0.021733586
252	0x3cd2eda4	0.025748082
253	0xbcfe341d	-0.031030709
254	0xbd5fdcab	-0.054653805
255	0xbccefaea	-0.02526613

layer_2.bias f4 [300]
0	0xbd147aab	-0.036249798
1	0xbd08fb72	-0.033442922
2	0xbd14f0ab	-0.03636233
3	0xbcc2ea3d	-0.023793334
4	0x3e61d52d	0.22053976
5	0x3ba88f2a	0.0051440196
6	0xbdae9693	-0.085248135
7	0xbc889a9e	-0.01667529
8	0xbe73009a	-0.23730698
9	0x3c17ea46	0.009272164
10	0xbd9bde0e	-0.07610713
11	0xbe6aba7e	-0.22922704
12	0xbd966939	-0.073442884
13	0xbc02c784	-0.007982139
14	0x3f017120	0.5056324
15	0xbd413237	-0.04716703
16	0xbde83d01	-0.113397606
17	0xbd3afe6b	-0.045652788
18	0xbd087457	-0.033314075
19	0xbd99bbc2	-0.07506515
20	0xbd9877ef	-0.074447505
21	0xba94135c	-0.0011297273
22	0xbcef9cf0	-0.029249638
23	0xbcda8d8a	-0.02667882
24	0xbb8e0951	-0.0043346067
25	0x3c179d9e	0.009253887
26	0x3e6038fb	0.21896736
27	0x3dcf03b0	0.10108125
28	0xbd65d9dd	-0.056115974
29	0xbd140976	-0.036141835
30	0xbd2f2594	-0.042760447
31	0xbe76da7f	-0.24106787
32	0x3c98b32f	0.018640129
33	0xbdb92225	-0.09039716
34	0xbc83e4a3	-0.016100233
35	0xbde0c256	-0.10974567
36	0xbe121b74	-0.14268285
37	0xbd84c598	-0.064830005
38	0x3abb7257	0.0014301044
39	0xbcf50e50	-0.029914051
40	0xbe580bc0	-0.21098232
41	0xbe9a0e7c	-0.30089176
42	0xbc356fa3	-0.01107398
43	0x3be0015d	0.0068361
44	0xbd4b9ba3	-0.049708974
45	0xbed38d36	-0.41318673
46	0x3cc388d8	0.023868963
47	0xbd85a882	-0.06526281
48	0xbeb59016	-0.3546149
49	0xbdb24fa9	-0.087066
50	0xbc1e86d5	-0.009675701
51	0xbe408e0c	-0.18804187
52	0x3b4ca66e	0.003122713
53	0xbe34747c	-0.1762256
54	0x3e2a8e8a	0.16655937
55	0x3c477165	0.012173031
56	0xbe1f0a0c	-0.15531176
57	0xbce0479f	-0.027377902
58	0xbbcf316a	-0.0063230293
59	0xbd71a15e	-0.058991782
60	0xbd38ecb6	-0.04514762
61	0xbd2011a2	-0.039079316
62	0x3b838d47	0.0040146443
63	0x3c48865b	0.012239064
64	0xbe4cc237	-0.19995962
65	0x3c50ba33	0.012739706
66	0xbd81236d	-0.06305585
67	0xbd4ca22a	-0.04995934
68	0x3d6732b1	0.056444827
69	0x3d8c8ec1	0.06863166
70	0x3a27a15d	0.00063945894
71	0xbd050395	-0.03247412
72	0x3da7994a	0.081835344
73	0xbb8bc5ec	-0.0042655375
74	0xbd013a77	-0.031549897
75	0xbc1d3497	-0.009595058
76	0xbcc08651	-0.023501547
77	0xbe6e711d	-0.23285337
78	0xbc86fe3e	-0.016478654
79	0xbc85ac21	-0.016317429
80	0x3c31c738	0.01085072
81	0xbc57f9a6	-0.013182079
82	0xb990a9c4	-0.00027592306
83	0xbd35cf7c	-0.044387326
84	0x3bc4d4dd	0.0060068206
85	0x3efe493b	0.49665245
86	0xbd37daec	-0.044886515
87	0xbca2caff	-0.019872187
88	0xbeac832e	-0.33693832
89	0xbd058547	-0.032597806
90	0xbc069af7	-0.008215657
91	0xbc075136	-0.008259108
92	0xbdb9d815	-0.090744175
93	0x3b256f54	0.0025243359
94	0x3e7a671c	0.24453396
95	0xbd92fd3f	-0.07177209
96	0xbcc0b9f8	-0.023526177
97	0xbce94e14	-0.028479613
98	0x3c911f5a	0.017715145
99	0xbda357ca	-0.07975729
100	0xbd197bb6	-0.037471496
101	0xbebab188	-0.3646357
102	0xbe93a1ae	-0.2883429
103	0x3da025ee	0.078197345
104	0xbec3484d	-0.381411
105	0xbdd5bea2	-0.10436751
106	0x3db72892	0.08943285
107	0xbd85f05e	-0.06539987
108	0xbc8c7cb1	-0.017149301
109	0xbd210ccb	-0.03931884
110	0xbd80421f	-0.062626116
111	0xbc429620	-0.011876613
112	0xbc35d35b	-0.011097754
113	0xbd61abf5	-0.05509563
114	0x3d673849	0.056450162
115	0xbc1b04fc	-0.009461638
116	0x3c5320de	0.012886254
117	0x3c817b15	0.01580576
118	0x3d22cdab	0.03974692
119	0xbd169802	-0.03676606
120	0x3cc46c15	0.023977319
121	0xbd780677	-0.06055304
122	0x3f0004fa	0.50007594
123	0xbdb70b1b	-0.08937665
124	0xbf112717	-0.5670027
125	0xbcd3df43	-0.025863295
126	0x3c7bb3da	0.015362704
127	0xbd3f30a0	-0.04667723
128	0xbc48768b	-0.012235294
129	0xbce93555	-0.028467814
130	0x3dd3f000	0.10348511
131	0xbd124f13	-0.035719942
132	0x3c33200e	0.010932935
133	0xbd4eb72e	-0.050467663
134	0xbe61233c	-0.21986097
135	0xbddc6588	-0.10761553
136	0x3d33b694	0.043875292
137	0x3d590573	0.052983712
138	0x3c6f5299	0.014607095
139	0xbcd01ded	-0.025404895
140	0xbd867a25	-0.06566266
141	0xbd5791c0	-0.052629232
142	0x3c24b869	0.010053732
143	0xbd19fc49	-0.037594113
144	0x3cba3976	0.022732478
145	0x3d82e06b	0.063904606
146	0xbce6a4a8	-0.028154686
147	0xba80a188	-0.0009813765
148	0x3eba2723	0.36357984
149	0xbd3f97fd	-0.046775807
150	0x3b733607	0.003711106
151	0xbe0ca458	-0.13734567
152	0x3b8684ee	0.004105202
153	0xb9a2de77	-0.00031064797
154	0xbd8f2e69	-0.06991274
155	0xbd447931	-0.04796714
156	0x3d1f43dc	0.038883075
157	0xbcabfcea	-0.020994622
158	0xbd8dff89	-0.06933505
159	0xbe552014	-0.20813018
160	0x3c88cc12	0.01669887
161	0xbc408fd2	-0.011753039
162	0x3b740fdd	0.00372409
163	0xbc289940	-0.010290444
164	0x3d17fcb3	0.037106227
165	0xbe853cd7	-0.2602298
166	0xbd1bd18b	-0.038041633
167	0xbd3fdf85	-0.046844024
168	0xbcfcf0da	-0.030876566
169	0xb932c5eb	-0.00017049133
170	0xbe0a6c78	-0.1351794
171	0xbd58ae6f	-0.052900728
172	0x3cf49164	0.029854484
173	0x3d2c8141	0.042115454
174	0xbc34e030	-0.011039779
175	0xbd5c855a	-0.05383811
176	0xbc3fc0ad	-0.011703652
177	0xbbf80bdb	-0.0075697727
178	0xbd955d9c	-0.07293245
179	0x3a14076b	0.00056468573
180	0xbd8c78e6	-0.06858997
181	0x3d304917	0.043038454
182	0x3c2eac4e	0.010661198
183	0x3d725993	0.059167456
184	0xbd9e0437	-0.07715648
185	0xbcf5c783	-0.030002361
186	0xbd2800a5	-0.04101624
187	0xbbde576d	-0.0067853243
188	0xbd655cb2	-0.055996604
189	0xbd15d313	-0.03657825
190	0xbd413805	-0.047172565
191	0xbddcc791	-0.10780252
192	0xbb189292	-0.0023280722
193	0x3caf78ec	0.021419965
194	0xbd0a8d60	-0.033826232
195	0x3ff20483	1.8907627
196	0xbdc2bd94	-0.095088154
197	0xbd890e5f	-0.06692194
198	0xbc31d7b2	-0.010854648
199	0xbd2e197b	-0.04250477
200	0xbab2911a	-0.0013623566
201	0xbd5a5fff	-0.053314205
202	0x3f000174	0.5000222
203	0x3b797b38	0.003806783
204	0xbd9b2169	-0.07574732
205	0xbd1fe020	-0.0390321
206	0xbb582b89	-0.0032984933
207	0xbc7b73ba	-0.015347416
208	0xbb92db98	-0.004481744
209	0xbd1308ff	-0.03589725
210	0x3c809a3e	0.015698548
211	0x3c293b37	0.010329059
212	0x3d1fc99e	0.039010637
213	0xbd437abf	-0.04772448
214	0x3d1a74d3	0.03770907
215	0xbda7a66d	-0.0818604
216	0xbaa4e750	-0.0012581144
217	0xbc8a47ca	-0.016879935
218	0xbd9c3d74	-0.07628909
219	0xbea5b8f5	-0.32367674
220	0xbd05ce08	-0.03266719
221	0x3ce61616	0.028086703
222	0xbbb3f649	-0.005492006
223	0x3db93b5a	0.090445235
224	0xbc9b63ca	-0.018968482
225	0xbd62b19a	-0.055345155
226	0xbe79bef4	-0.24389249
227	0xbd16e1b7	-0.036836352
228	0xbcd6371d	-0.026149327
229	0x3ae8db28	0.0017765509
230	0xbcf31546	-0.02967323
231	0x3df80b95	0.12111584
232	0xbca819df	-0.020520149
233	0xbd23ec95	-0.040020544
234	0xbd524031	-0.05133075
235	0xbd8c518b	-0.068514906
236	0x3ac5d2e3	0.0015092756
237	0xbd83cbe4	-0.064353734
238	0x3b9db530	0.004812859
239	0xbd1d60be	-0.03842234
240	0x3d04aa4f	0.03238898
241	0x3e5eba08	0.21750653
242	0x3c519b3f	0.012793361
243	0xbdd98551	-0.10621131
244	0x3e4096c4	0.18807513
245	0x3d9ad1d1	0.075595506
246	0xbedd5b8c	-0.43233907
247	0xbcabbc86	-0.020963918
248	0xbcb0effb	-0.021598807
249	0x3b8402cc	0.0040286537
250	0xbd7b7d00	-0.061398506
251	0xbc92d391	-0.017923148
252	0xbd8b58d8	-0.06804055
253	0xbdecaaf4	-0.11556044
254	0xbc9a1ef1	-0.018813582
255	0xbd3c69d2	-0.045999356

layer_3.weight f4 [1, 300]
0	0xbcfad852	-0.030620728
1	0x3c5b5cca	0.013388822
2	0x3cb58334	0.02215729
3	0xbd8f652e	-0.0700172
4	0xbae381fe	-0.0017357466
5	0x3b360a8e	0.0027777287
6	0xbce13bb7	-0.027494295
7	0x3c9b5f82	0.01896644
8	0xbcb03891	-0.021511348
9	0x3c9c1ec6	0.019057643
10	0x3c5a828c	0.013336789
11	0xbbb589f0	-0.005540125
12	0x3c4332e3	0.011913988
13	0x39334327	0.00017095786
14	0x3b9e65e7	0.004833925
15	0x3cd97216	0.026543658
16	0xbad27e1b	-0.0016059311
17	0xbc48d7a9	-0.012258449
18	0xb7b9bfb9	-2.2142996e-05
19	0xbcb6cba7	-0.022313906
20	0x3b64c8ca	0.0034909719
21	0x3d4b40f1	0.04962248
22	0x3c3532af	0.011059447
23	0xbc5f35a5	-0.01362363
24	0xba91762e	-0.0011097842
25	0x3ce43e4c	0.027861737
26	0xbbb0aeae	-0.005391917
27	0xbcc711de	-0.024300512
28	0xbac16db6	-0.0014757428
29	0x3c4f3904	0.012647871
30	0x3c906156	0.017624538
31	0xbbd50c84	-0.006501736
32	0x3c76f4aa	0.015072981
33	0xb7fd880d	-3.0223304e-05
34	0x3d224f68	0.03962651
35	0xbba6547b	-0.005075989
36	0xb9e4d614	-0.0004364705
37	0xbce9b518	-0.028528735
38	0xbcab8fc7	-0.020942582
39	0xbc51f882	-0.012815597
40	0xbcbc8f46	-0.023017537
41	0x3a9c0697	0.0011903819
42	0xbd258435	-0.040409286
43	0xbca44d16	-0.020056289
44	0x3a776e69	0.00094387546
45	0xbc79f3fc	-0.015255924
46	0xbd3cdadb	-0.046107154
47	0xbbe882c0	-0.0070956647
48	0x3b9060f4	0.004406089
49	0xbaf195a9	-0.0018431443
50	0x3d103ff4	0.03521724
51	0x3a1309a1	0.000560904
52	0x3cb6405b	0.022247484
53	0xbbc2113e	-0.0059224656
54	0xbca26b87	-0.019826664
55	0xbd1be71d	-0.038062204
56	0x3ce0460e	0.027377155
57	0xbb83f058	-0.004026454
58	0xbccefa98	-0.025265977
59	0x3c3cd592	0.0115255285
60	0x3bdbebd0	0.0067114606
61	0x3a409319	0.0007346138
62	0xbc5ce2ff	-0.013481854
63	0xbc9d049e	-0.01916724
64	0x39ede9c3	0.0004537833
65	0xbc3d97f4	-0.011571873
66	0xbd39549e	-0.045246713
67	0x3afc6a27	0.001925771
68	0x3c4caefc	0.012492891
69	0x3bcf55c5	0.006327363
70	0xbd195174	-0.037431195
71	0x3a65549e	0.00087482657
72	0xbd2262c8	-0.039644986
73	0xbcbf447b	-0.023348084
74	0x3cf63ca3	0.03005821
75	0x391e5248	0.00015098706
76	0xbce373d5	-0.027765194
77	0x3c825a26	0.015912127
78	0xbc72336f	-0.014782771
79	0x38cc28d0	9.73508e-05
80	0x3bd470cc	0.006483173
81	0x3b290a08	0.0025793333
82	0xb948da26	-0.00019154753
83	0xbc460993	-0.012087244
84	0xbcbadd76	-0.022810679
85	0xbc242c87	-0.010020382
86	0x3cbf65d8	0.023363993
87	0xbd14e87e	-0.036354534
88	0xbca14ceb	-0.019689998
89	0x3d3da299	0.046297643
90	0x3c62f77e	0.013852952
91	0x3e50fbb1	0.20408513
92	0x3927a8bf	0.00015989224
93	0xbd4bfac4	-0.049799696
94	0x3e0f68fc	0.14004892
95	0xbc9708b5	-0.018436769
96	0xbcfbaa36	-0.030720811
97	0xb90e00ea	-0.00013542516
98	0x3ce63d90	0.028105527
99	0x3cf6d6ef	0.030131785
100	0x3ce8c780	0.028415442
101	0x3c5c6e5d	0.013454047
102	0xba0ebffa	-0.0005445477
103	0x3d5bd35c	0.053668365
104	0xbb9280f7	-0.00447094
105	0xbcdfa561	-0.027300538
106	0xbcc1e370	-0.023668021
107	0x3d42efd0	0.047591984
108	0xbc743bb7	-0.014906815
109	0xbb5ecc20	-0.003399618
110	0xbcb7d235	-0.022439102
111	0xba7d9345	-0.0009673129
112	0xbc8be583	-0.017077213
113	0x3bc05eb2	0.0058706636
114	0x3c955280	0.018227816
115	0xbd3840db	-0.044983726
116	0xbc02db38	-0.007986836
117	0x3d0809cf	0.03321248
118	0xbb8720ec	-0.0041237976
119	0x3d436641	0.04770494
120	0xb953d956	-0.00020203492
121	0x3c25c500	0.010117769
122	0xbc57ede1	-0.013179273
123	0x36183742	2.268193e-06
124	0xbcd04f90	-0.025428563
125	0x3ccf8956	0.025334042
126	0xbccad802	-0.024761204
127	0xbd3f408f	-0.046692427
128	0xba8add73	-0.0010594561
129	0xbd165a5f	-0.03670728
130	0x3a3c0649	0.00071725674
131	0xbc99de33	-0.01878271
132	0x3c9dbc18	0.01925473
133	0xbcfbf210	-0.030755073
134	0xbb7dff1b	-0.003875679
135	0xb9312bd3	-0.00016896361
136	0x3bbfc811	0.005852707
137	0xbad58dbd	-0.0016292852
138	0xbcdbf346	-0.0268494
139	0xbc528ea7	-0.012851394
140	0xbb97f219	-0.0046370146
141	0x3a528513	0.0008030694
142	0x3afcda43	0.0019291121
143	0x38b3ea9e	8.579086e-05
144	0x3d034c70	0.03205532
145	0xbc82a67e	-0.01594853
146	0x3c39a3db	0.01133057
147	0x3c4043bb	0.011734898
148	0x3d2f3341	0.04277349
149	0x3ba52bee	0.005040637
150	0x3cb23124	0.021751948
151	0xbcd7003d	-0.02624523
152	0x3d0449cb	0.032296937
153	0xbc693cf8	-0.0142357275
154	0xbcf1ae5d	-0.029502088
155	0xbaa600dd	-0.0012665052
156	0xb9854d27	-0.0002542522
157	0xba1731f5	-0.0005767637
158	0x3cb445ed	0.022006
159	0xbbaac8fd	-0.005211948
160	0x3d0edb7a	0.034877278
161	0xbbe8f55a	-0.0071093263
162	0x3ba1945a	0.004931015
163	0xbd511384	-0.051044002
164	0x3c0ad940	0.008474648
165	0x3cba8bcd	0.02277174
166	0x3ccad3c1	0.024759175
167	0x3c21ac42	0.00986773
168	0xbce98625	-0.028506348
169	0x3a9fbf35	0.0012187721
170	0xbbd5235f	-0.0065044607
171	0xbabd9cdf	-0.0014466307
172	0xbc666c78	-0.014063947
173	0xbcba88d0	-0.022770315
174	0x3c98020e	0.018555667
175	0x3c072287	0.008247978
176	0xbca8f3ba	-0.02062403
177	0x3b964496	0.004585813
178	0xbbb4e81c	-0.0055208337
179	0x3ca53ee3	0.020171588
180	0x3af1fc49	0.0018462028
181	0xbc87bc19	-0.016569184
182	0x3c88ff70	0.016723365
183	0xbc192e38	-0.009349398
184	0x3ab956a7	0.0014140204
185	0xbba5cd8c	-0.0050599035
186	0x3bb59d71	0.00554245
187	0x3c5797b0	0.013158724
188	0xbd1c8a38	-0.038217753
189	0x3c8a0493	0.016847884
190	0xbcf27db6	-0.02960096
191	0xbcbcddf3	-0.023055052
192	0x3b03090a	0.0019994401
193	0x3d425793	0.0474468
194	0xbbc4c9f0	-0.006005518
195	0x3ca95848	0.020671979
196	0xbc8ebb40	-0.017423272
197	0xbb98fba1	-0.0046686684
198	0xbb5b74b8	-0.0033486318
199	0x392711d5	0.00015933004
200	0xb96f2662	-0.00022807115
201	0xbc73f3d8	-0.01488968
202	0xbc32a60a	-0.010903845
203	0x3ac6a20a	0.0015154493
204	0xbcea6a06	-0.028615009
205	0xbd02f2d2	-0.031969853
206	0xbbbf39d1	-0.0058357497
207	0xbc6f8061	-0.01461801
208	0xbca57eb6	-0.020202022
209	0x3c1f6f32	0.009731101
210	0xbbe10b63	-0.0068678125
211	0xbd0ac564	-0.033879653
212	0x3c3924dc	0.011300292
213	0x3cda0d22	0.02661759
214	0xba8992d0	-0.0010496024
215	0xbce73c51	-0.028227003
216	0xbcbb0eca	-0.0228342
217	0xb8435581	-4.6571255e-05
218	0xbc05f387	-0.008175737
219	0xbce55a7e	-0.027997252
220	0x3ccf95ab	0.025339922
221	0xbc8fd9bb	-0.017559877
222	0xbcd51320	-0.026010096
223	0xbbf8c002	-0.0075912485
224	0x3c88a855	0.01668183
225	0xbb36d36e	-0.0027897018
226	0x3c8ed8fb	0.017437449
227	0x3c36a158	0.011146866
228	0xbaadc0fa	-0.0013256364
229	0xbc7e6456	-0.015526852
230	0x3cbe5049	0.023231642
231	0x3cf05bf1	0.029340716
232	0xbc55f66a	-0.013059238
233	0xbc6a52f3	-0.014302003
234	0x38b1e623	8.482884e-05
235	0xbb04a0be	-0.0020237411
236	0xbc5dffb8	-0.013549738
237	0xbcd54c76	-0.026037436
238	0xbd516eef	-0.051131185
239	0x3c0a46ee	0.0084397625
240	0x3773a8b7	1.4523211e-05
241	0x3ab593bb	0.0013853231
242	0x3d0ec787	0.034858253
243	0xbb0b370b	-0.0021242525
244	0xbcccb920	-0.024990618
245	0x3c6b7eb1	0.014373467
246	0xbcbf174d	-0.02332654
247	0xbc2c8ee2	-0.010532113
248	0x3ce1fb34	0.027585603
249	0x3cd137a1	0.025539221
250	0x3c4245fa	0.011857504
251	0x3b1da4cf	0.0024054532
252	0x3c5b8753	0.013398963
253	0xbd58a9b8	-0.05289623
254	0xbd55caf3	-0.0521955
255	0xbc97d93e	-0.018536206
