models/ddpg_model_episode_100_critic.pth (torch, 674589 bytes, 5 tensors)

layer_1.weight f4 [400, 117]
0	0x3f18c14d	0.59669954
1	0x3e497dc0	0.19676876
2	0x3f0137f7	0.5047602
3	0x3c19c6cb	0.009385775
4	0x3d27c4d0	0.04095918
5	0x3c6fba9a	0.014631892
6	0x3e346302	0.17615893
7	0xbb546f41	-0.0032414945
8	0xbec91176	-0.39271134
9	0xbec876ab	-0.39153036
10	0xbd8b8e07	-0.06814199
11	0x3d7fe249	0.06247166
12	0x3f48c98e	0.7843255
13	0x3f4e1e52	0.80515015
14	0xbe89240a	-0.26785308
15	0xbf06f9f9	-0.5272518
16	0xbe77b3f4	-0.2418974
17	0xbec34a72	-0.38142735
18	0x3c1e0f45	0.009647195
19	0x3e890be1	0.26766875
20	0xbfa862d5	-1.3155161
21	0x3f2756ce	0.6536683
22	0x3c361355	0.011113008
23	0xbe47c14b	-0.19507329
24	0x3e13dc3d	0.14439483
25	0xbd620a67	-0.0551857
26	0xbd20caa7	-0.039255764
27	0xbdbcbb06	-0.092153594
28	0x3e0b0d16	0.1357921
29	0x3faa6aa6	1.3313797
30	0x3e4547d3	0.1926568
31	0x3dcc32c3	0.099706195
32	0x3e9cebb0	0.30648565
33	0xbdea0a2d	-0.11427722
34	0x3efb6ca6	0.4910633
35	0xbe401372	-0.18757418
36	0x3f05d7ee	0.5228261
37	0x3da38b99	0.079856105
38	0xbedbfc87	-0.429661
39	0x3f38e8cb	0.72230214
40	0x3e3c8617	0.18410526
41	0x3faa2fe1	1.3295861
42	0x3f649339	0.89287144
43	0x3f27be16	0.65524423
44	0x3e33f4ab	0.17573802
45	0x3dc0eadd	0.094197966
46	0x3dcc0faf	0.09963929
47	0xbe3b7c58	-0.18309152
48	0xbd8de921	-0.069292314
49	0xbd16bad9	-0.036799286
50	0x3e4b0382	0.19825557
51	0x3cac8652	0.021060143
52	0x3fd776b5	1.6833102
53	0xbee13e0f	-0.4399266
54	0xbe16f864	-0.14743191
55	0x3faf8104	1.3711247
56	0xbeac5160	-0.33655834
57	0xbe827d37	-0.25486156
58	0x3f8b2a3d	1.0872265
59	0x3d7ade6a	0.061247267
60	0x3ea62384	0.3244897
61	0xbda4d2c0	-0.0804801
62	0x3ceff7a7	0.029292895
63	0xbf3c410d	-0.7353676
64	0x3d5d6828	0.05405441
65	0x3f3238cd	0.6961792
66	0xbf5b7746	-0.8572887
67	0x3c8e0b66	0.01733942
68	0xbf3933df	-0.72344774
69	0x3e60230d	0.21888371
70	0xbdf515f3	-0.11967077
71	0xbe17775b	-0.14791624
72	0xbfad8e2f	-1.3559016
73	0x3d2d06d4	0.04224284
74	0xbf034d7d	-0.5129011
75	0x3f35456a	0.7080904
76	0x3bc47a8d	0.0059960545
77	0x3c1e06ea	0.009645203
78	0x3f1f975f	0.6234035
79	0xbdcc76bd	-0.09983585
80	0xbf362dd3	-0.7116367
81	0xbf0958fe	-0.53651416
82	0xbe5a693d	-0.21329208
83	0x3d112090	0.035431445
84	0x3e6d6f09	0.23186888
85	0x3d94c38a	0.072638586
86	0xbe4a3162	-0.197454
87	0x3e2a185d	0.16610856
88	0x3e8fe14f	0.28101584
89	0x3bfc9d50	0.007709183
90	0xbd14cbd2	-0.03632719
91	0xbd704053	-0.058655094
92	0x3c22820e	0.009918703
93	0x3dd05c8c	0.10173902
94	0x3ec451d1	0.3834367
95	0xbee27f91	-0.4423795
96	0x3ef4e980	0.47834396
97	0xbf64fa85	-0.8944476
98	0x3e25c06c	0.16186684
99	0xbebfc12c	-0.37452066
100	0xbda6a024	-0.08136013
101	0x3f916f63	1.1362118
102	0xbf8c400a	-1.0957043
103	0xbfc41590	-1.531908
104	0x3d64d314	0.055865362
105	0xbf372a5e	-0.7154902
106	0xbdc4a785	-0.09602264
107	0x3e99c3a5	0.30032077
108	0xbf7e8fb0	-0.99438
109	0xbea2f6f1	-0.31829026
110	0x3f32ff62	0.69920933
111	0xbf446846	-0.7672161
112	0xbeb778eb	-0.3583444
113	0xbf84046b	-1.0313848
114	0x3d99d185	0.07510666
115	0x3e283eab	0.16430156
116	0x3e970dcc	0.29502714
117	0x3f8acb58	1.0843306
118	0x3d8a362b	0.06748613
119	0xbe9ac62a	-0.30229312
120	0xbdda7b1a	-0.10668011
121	0x3d99546c	0.07486805
122	0x3e3e23cf	0.18568347
123	0x3e3b5a53	0.18296175
124	0x3e11ae7f	0.14226721
125	0x3e9623d1	0.293242
126	0x3ed78fe9	0.42101982
127	0xbcfd7105	-0.030937681
128	0xbd27e06d	-0.040985513
129	0xbd2aaa47	-0.041666295
130	0x3bfb56da	0.0076702656
131	0xbeb36849	-0.350405
132	0xbf50e3cd	-0.81597596
133	0x3f0c2cde	0.5475596
134	0xbeb02bd4	-0.34408438
135	0xbd3dd295	-0.046343405
136	0x3e9023c8	0.281523
137	0xbe61b6b1	-0.22042347
138	0xbd93c858	-0.07215947
139	0xbf4af11c	-0.79274154
140	0xbd84b2bd	-0.06479404
141	0xbf0f6b7e	-0.56023395
142	0xbd940c78	-0.07228941
143	0xbd96cb28	-0.07362968
144	0xbe92ccb0	-0.2867179
145	0x3dea6b60	0.114462614
146	0x3f37631a	0.7163559
147	0x3eabfde5	0.33592144
148	0x3eaedaaf	0.34151217
149	0xbec070a5	-0.3758594
150	0xbd5d06ca	-0.053961553
151	0xbeabd47e	-0.33560556
152	0x3f08a102	0.5337068
153	0xbe910fa7	-0.28332254
154	0x3dbb3c78	0.09142393
155	0xbf5a3843	-0.852421
156	0xbda33981	-0.079699524
157	0x3dacb210	0.084324
158	0x3f22509f	0.6340427
159	0x3c320686	0.010865813
160	0xbe168fdd	-0.14703317
161	0xbdc03493	-0.09385028
162	0xbe1265bd	-0.14296623
163	0x3f202d2b	0.6256892
164	0xbdc1767c	-0.09446427
165	0xbf3cc41b	-0.73736733
166	0x3f0e9233	0.5569183
167	0x3d22a611	0.039709155
168	0x3e3b4e36	0.18291554
169	0x3f3157a0	0.6927433
170	0x3ecdbe9a	0.4018448
171	0xbe1f75d3	-0.1557229
172	0x3f026c9c	0.50946975
173	0x3eaa4a60	0.3325987
174	0xbde4c3cb	-0.11170157
175	0x3e1f557d	0.15559955
176	0x3e0a114c	0.1348316
177	0x3ee4feef	0.4472575
178	0x3e5d46aa	0.21608987
179	0x3e105e7e	0.14098546
180	0xbecc7e9b	-0.39940342
181	0x3dcfb5d1	0.101421006
182	0xbdb4d5ee	-0.08829866
183	0x3db8b902	0.090196624
184	0xbf2165d2	-0.6304599
185	0x3e4921e5	0.19641836
186	0x3e0f63ec	0.14002961
187	0x3ef28f4e	0.47374958
188	0x3f1d635d	0.6147974
189	0xbf01708a	-0.50562346
190	0x3d8c91ec	0.0686377
191	0x3eb48a9c	0.35262
192	0xbdad2093	-0.08453479
193	0xbf141af5	-0.57853633
194	0xbc88c125	-0.016693661
195	0xbe0bcc79	-0.13652219
196	0x3d15cda0	0.036573052
197	0xbf9990d8	-1.1997328
198	0xbe3d4799	-0.18484344
199	0x3eb7a4a2	0.35867792
200	0x3caec3b9	0.021333562
201	0x3d95a414	0.07306686
202	0xbf1a2f55	-0.6022847
203	0xbe0b7ed1	-0.13622595
204	0xbf01fa61	-0.5077267
205	0x3f5a7d9d	0.8534792
206	0xbdbf3f8c	-0.093382925
207	0xbf1c2149	-0.6098829
208	0xbc8f12da	-0.017465044
209	0xbd027635	-0.031851012
210	0x3d8c1b68	0.06841165
211	0x3f58686d	0.8453434
212	0x3ec3e76d	0.382625
213	0xbe0a5216	-0.13507876
214	0xbe407262	-0.18793634
215	0xbf0a8339	-0.5410648
216	0xbec25036	-0.3795182
217	0xbde59f47	-0.1121202
218	0x3e98f1c3	0.2987195
219	0xbe049586	-0.12947664
220	0xbf010112	-0.5039226
221	0xbc260d1f	-0.010134964
222	0x3d28751b	0.041127305
223	0xbe8c7dcf	-0.27439734
224	0xbf23abb6	-0.63933885
225	0xbe3cd7ac	-0.18441647
226	0xbf71da72	-0.94473946
227	0x3f9120b0	1.13381
228	0x3e7e7899	0.24850692
229	0xbf693fd7	-0.91113037
230	0xbe3b0498	-0.18263471
231	0x3e00eb17	0.1258968
232	0x3e67aa4b	0.22623555
233	0xbec02288	-0.37526345
234	0xbf868a51	-1.0510961
235	0xbd3d9083	-0.046280395
236	0x3ec327ec	0.38116395
237	0x3d840ab5	0.06447355
238	0x3d40e63e	0.047094576
239	0x3d4bf3a0	0.049792886
240	0x3d78d480	0.06074953
241	0xbdd4a1ea	-0.10382445
242	0x3c60f01a	0.01372912
243	0xbd8ab7c4	-0.06773332
244	0xbdc4873b	-0.09596106
245	0x3dbcb267	0.09213715
246	0x3dc44614	0.09583679
247	0xbdbf6791	-0.093459256
248	0x3dcd52c9	0.10025556
249	0x3f22a037	0.6352572
250	0xbee70bdf	-0.45126244
251	0x3e612ad6	0.21988997
252	0x3d921cdc	0.07134411
253	0xbe363205	-0.17792518
254	0x3e537dac	0.20653409
255	0x3e23d3ad	0.15998717

layer_1.bias f4 [400]
0	0x3dc526c1	0.09626532
1	0x3dc76ac1	0.097371586
2	0xbdcdf4cc	-0.10056457
3	0xbc881025	-0.01660926
4	0x3c67481b	0.014116312
5	0x3d3f28f8	0.04666993
6	0x3dbbee4a	0.091763094
7	0xbdacd546	-0.08439116
8	0xbdbb13b1	-0.09134615
9	0x3d024a68	0.03180924
10	0xbd3df9af	-0.046380695
11	0xbd026703	-0.03183652
12	0xbd9ad3c7	-0.075599246
13	0x3d2511d2	0.040300198
14	0x3e34b8fd	0.17648692
15	0x3ce37382	0.02776504
16	0xbd221f31	-0.039580528
17	0xbd5b02d7	-0.053469505
18	0xbce00b3d	-0.027349109
19	0xbd3c3cf0	-0.045956552
20	0x3c8c0ebd	0.017096872
21	0xbd998156	-0.07495372
22	0xbdc5f048	-0.09664971
23	0xbd914cea	-0.07094748
24	0xbe218266	-0.157724
25	0x3d786f2a	0.06065289
26	0xbcbc986c	-0.0230219
27	0x3be8d0f1	0.007104986
28	0xbb738020	-0.0037155226
29	0xbd151eaa	-0.036406197
30	0xbd9f531f	-0.07779526
31	0xbe0cf1fd	-0.13764186
32	0x3dbcb34f	0.09213888
33	0xbc99909c	-0.018745713
34	0x3da978bf	0.082749836
35	0x3d2b7a84	0.041864887
36	0x3d0a6234	0.03378506
37	0xbd6d2861	-0.057899836
38	0x3c99489d	0.018711383
39	0xbdb222c3	-0.086980365
40	0xbdacc6a9	-0.08436329
41	0xbd60a87b	-0.054848175
42	0xbc967712	-0.018367324
43	0x3d786373	0.060641717
44	0x3d1e1e06	0.03860285
45	0xbd7d958d	-0.0619102
46	0x3c9b2610	0.018939048
47	0x3d6f3e4e	0.058409028
48	0xbc99540a	-0.01871683
49	0xbcc301a8	-0.0238045
50	0x3dbd4c7d	0.092431046
51	0x3cc2fa6d	0.023801053
52	0xbd1d50ab	-0.03840701
53	0x3da42871	0.08015526
54	0xbc635314	-0.013874788
55	0x3cc126a4	0.023577996
56	0xbdf577df	-0.11985754
57	0xbe194469	-0.14967503
58	0xbdcae0b9	-0.09906144
59	0xbdda5d64	-0.10662344
60	0xbdff05d2	-0.12452282
61	0x3c87c240	0.016572118
62	0x3d362a4b	0.044473927
63	0xbd1554bc	-0.036457762
64	0x3d019ddd	0.03164469
65	0xbd53eeae	-0.051741295
66	0xbcfeadff	-0.031088827
67	0xbb59e068	-0.0033245329
68	0xbd0bc787	-0.03412583
69	0x3d9f90f4	0.077913195
70	0xbcbcbbb5	-0.023038724
71	0xbd829ab0	-0.063771605
72	0xbd5af851	-0.05345947
73	0xbdc30d75	-0.09524051
74	0x3cc04c8f	0.023474006
75	0xbd58e750	-0.05295497
76	0xbd49191e	-0.04909622
77	0xbd247659	-0.040151928
78	0xbc8f169c	-0.017466836
79	0x3c8c5384	0.017129667
80	0x3be17d92	0.006881424
81	0x3db0f833	0.0864109
82	0xbda13a74	-0.07872477
83	0x3c886944	0.016651757
84	0xbd68d967	-0.056847956
85	0xbd3fe13f	-0.04684567
86	0x3b53b360	0.003230296
87	0xbe2cc327	-0.1687132
88	0x3d0ff64f	0.035147008
89	0xbdbd6a10	-0.092487454
90	0x3c187300	0.009304762
91	0x3db6ed25	0.089319505
92	0xbd7c8dc8	-0.06165865
93	0x3b6b32b8	0.0035888385
94	0xbd06c2f4	-0.032900766
95	0xbdda3a84	-0.10655692
96	0x3cf30cac	0.029669128
97	0xbc266de1	-0.010158033
98	0x3d40bd43	0.047055494
99	0x3d925c39	0.07146496
100	0x3d04022b	0.03222863
101	0xbd766b24	-0.06016077
102	0xbb6d2496	-0.0036185137
103	0x3d1fa8f6	0.038979493
104	0x3bd0df91	0.0063743074
105	0x3de9051f	0.1137793
106	0x3d02c794	0.031928614
107	0xbcafa1be	-0.02143943
108	0xbcce9740	-0.025218606
109	0xbb71073d	-0.0036777996
110	0x3d42d883	0.047569763
111	0xbdfc942c	-0.12332949
112	0xbb5ad0e9	-0.003338868
113	0xbd95a714	-0.07307258
114	0x3ea121d0	0.3147111
115	0x3ca781fc	0.020447724
116	0xbd5c8867	-0.05384102
117	0x3d89f62c	0.06736407
118	0xbdd243f4	-0.10266867
119	0xbd0041b1	-0.03131265
120	0x3dad0b25	0.08449391
121	0x3d2eb419	0.042652223
122	0xba29dfa7	-0.0006480165
123	0x3d3a9dcd	0.045560647
124	0x3c002de0	0.007823437
125	0xbc81df13	-0.01585344
126	0x3c59857f	0.013276457
127	0x3d2ff6a8	0.04295984
128	0xbc94fad4	-0.01818601
129	0xbcb2a080	-0.021805048
130	0xbce76e88	-0.028250948
131	0x3d993e7a	0.074826196
132	0x3ce83a08	0.028347984
133	0x3dac6076	0.08416836
134	0xbd07172a	-0.032981075
135	0x3bfefc60	0.0077815503
136	0xbd4c6181	-0.049897674
137	0x3c751579	0.014958733
138	0xbbdfa0d6	-0.006824593
139	0xbd568006	-0.052368186
140	0xbdbbd5e5	-0.091716565
141	0xbb329a54	-0.0027252631
142	0x3d727f4d	0.059203435
143	0xbda5d5db	-0.0809743
144	0x3d8523b3	0.0650095
145	0xbe29412d	-0.16528769
146	0x3dc54c10	0.096336484
147	0x3d1108f4	0.03540893
148	0x3db1dffe	0.08685301
149	0x3d6b9c59	0.05752215
150	0x3db9aeaa	0.09066518
151	0xbc23d5b7	-0.009999684
152	0x3cbbd939	0.022930728
153	0xbc8bbc08	-0.017057434
154	0xbdba5fe6	-0.091003224
155	0xbd685b51	-0.05672771
156	0xbc15ee61	-0.009151072
157	0xbbb99a10	-0.0056641176
158	0x3db2aa0b	0.08723839
159	0xbcf25651	-0.029582174
160	0x3d6abae6	0.057307146
161	0xbd9ec90a	-0.07753189
162	0xbd2d2d45	-0.0422795
163	0xbd8b0622	-0.06788279
164	0xbbb6d027	-0.005579013
165	0xbd146662	-0.036230452
166	0x3d70848b	0.058720153
167	0xbd677fa7	-0.056518223
168	0xbc277f30	-0.010223195
169	0x3e300d90	0.17192674
170	0x3d56d447	0.052448537
171	0x3d333226	0.043748997
172	0x3bb84dd4	0.005624512
173	0xbd278901	-0.04090214
174	0xbded5f7d	-0.115904786
175	0xbd749332	-0.05971069
176	0xbd8c3040	-0.068451405
177	0x3d1681bb	0.036744814
178	0xbbb41823	-0.0054960414
179	0xbcd70fee	-0.026252713
180	0x3c48ce67	0.012256241
181	0x3d3045eb	0.04303543
182	0xbcc8be14	-0.024504699
183	0x3b6fb5b2	0.0036576805
184	0xbda909ae	-0.082537994
185	0xbc8cd429	-0.01719101
186	0x3d60d42b	0.05488984
187	0xbd7a77d1	-0.061149422
188	0x3d622329	0.055209313
189	0xbce0e8bc	-0.027454726
190	0x3d01ef51	0.03172237
191	0x3cb9b98c	0.022671483
192	0x3987c9f4	0.00025899673
193	0x3c09497d	0.008379337
194	0xbd9b433a	-0.07581182
195	0x3b935a8b	0.0044968775
196	0xbd95a491	-0.07306779
197	0xbdb8c278	-0.09021467
198	0x3d8ca128	0.068666756
199	0x3b97c5cc	0.0046317335
200	0xbda711d1	-0.08157695
201	0xbd6f0bcb	-0.058360856
202	0xbda9f102	-0.08297922
203	0xbd9e9ad4	-0.07744375
204	0xbdb9445e	-0.09046243
205	0x3c44ad4c	0.012004208
206	0x3d768f96	0.060195528
207	0x3d2e4613	0.042547297
208	0xbd0a5569	-0.03377286
209	0x3d36c3a8	0.044620186
210	0x3d8468c3	0.06465294
211	0x3d17f93f	0.037102934
212	0x3bcc6db0	0.0062386617
213	0xbdc1d3a1	-0.09464193
214	0x3d7ca6f4	0.061682656
215	0x3d500a08	0.050790817
216	0xbd277de4	-0.040891543
217	0xbdbd75ed	-0.09251008
218	0x3db8226f	0.08990943
219	0xbd90bdca	-0.070674494
220	0xbdd7256f	-0.10505187
221	0x3d9a351d	0.07529662
222	0xbddd6ffc	-0.10812375
223	0x3ccb195f	0.024792371
224	0xbd50595c	-0.05086647
225	0xbd3fbd93	-0.04681165
226	0x3dd8673b	0.10566565
227	0xbca0f291	-0.019646915
228	0xbdd31ef8	-0.10308641
229	0x3dae6851	0.085159905
230	0x3d088102	0.033326156
231	0x3e3d92b7	0.18512999
232	0x3d823ef9	0.06359667
233	0xbb93d828	-0.004511852
234	0x3db8e8cb	0.09028777
235	0xbcaf0a40	-0.021367192
236	0xbd9c62b2	-0.07636012
237	0xbd4423a5	-0.047885556
238	0xbd8c3c52	-0.06847443
239	0xbce76ed0	-0.028251082
240	0xbcd55fdb	-0.026046684
241	0x3db5fe15	0.08886353
242	0x3a9cfca4	0.0011977148
243	0x3d73fd4e	0.059567742
244	0x3e0377a3	0.12838607
245	0xbd50b967	-0.050958063
246	0x3c9f8710	0.019473583
247	0x3d978a48	0.07399422
248	0x3d7af392	0.061267443
249	0xbdd8871a	-0.105726436
250	0x3dc7ea1c	0.0976145
251	0x3cee13f9	0.029062258
252	0x3da86803	0.08222964
253	0x3d34e36e	0.044162206
254	0x3d456e5f	0.04820096
255	0x3d0c3211	0.034227435

layer_2.weight f4 [300, 400]
0	0xbd94d198	-0.07266539
1	0xbdd7c272	-0.105351344
2	0xbdde411b	-0.10852262
3	0xbd379157	-0.04481634
4	0xbba4f98a	-0.00503463
5	0x3d8eb149	0.06967408
6	0xbc643629	-0.013928928
7	0xbb9ef5af	-0.004851065
8	0xbc7c77ba	-0.015409404
9	0xbe04b980	-0.12961388
10	0x3d18be6b	0.03729097
11	0xbcc8e016	-0.024520915
12	0xbceb303a	-0.02870952
13	0x3c80d286	0.015725385
14	0xbd0fb66d	-0.035086084
15	0xbe04140b	-0.12898271
16	0xbd439392	-0.047748156
17	0xbde3c838	-0.11122173
18	0xbe1c8af2	-0.15287378
19	0xbd191bab	-0.0373799
20	0xbdab9716	-0.08378427
21	0xbce84750	-0.028354317
22	0x3c2d3d5c	0.010573711
23	0xbde2df32	-0.110777274
24	0xbb952968	-0.004552055
25	0xbbc8b658	-0.0061252527
26	0xbda62e81	-0.08114339
27	0x3e7a8a15	0.24466737
28	0x3c32a500	0.010903597
29	0xbc9c246a	-0.019060332
30	0xbd103aaa	-0.035212196
31	0xbd15b83d	-0.036552656
32	0x3d4b3783	0.049613487
33	0xbb848de2	-0.004045234
34	0x3ca4c776	0.020114642
35	0xbe174147	-0.14770995
36	0x3cb5e54b	0.022204062
37	0x3b09c65a	0.0021022768
38	0x3d28b61e	0.041189305
39	0xbddaef97	-0.106902294
40	0xbddf0d4a	-0.108912066
41	0xbb4d8ec0	-0.0031365603
42	0xbd12efc6	-0.035873197
43	0xbc1f7087	-0.009731418
44	0x3ad04360	0.001588922
45	0xbd9767cc	-0.073928446
46	0x3d1137bd	0.035453547
47	0xbd15b782	-0.03655196
48	0xbcbe2bc0	-0.023214221
49	0xbe1fe5de	-0.15615031
50	0x3bcd77a8	0.0062703677
51	0xbca1f0ba	-0.019768108
52	0xbd40b9cd	-0.047052193
53	0xbc969647	-0.018382205
54	0x3d3f853f	0.046757933
55	0xbc714194	-0.014725108
56	0xbaadfe2c	-0.0013274602
57	0x3b98cada	0.0046628537
58	0xbc631291	-0.013859407
59	0xbd301b22	-0.042994626
60	0xbcfb68e6	-0.030689668
61	0xbb50f300	-0.003188312
62	0xbcfcc11f	-0.030853806
63	0xbcf60f4d	-0.030036593
64	0x3cb7f39a	0.022455025
65	0x3c4f3eb4	0.012649227
66	0x3d171594	0.036885813
67	0x3d2f1e46	0.04275348
68	0xbd0aefa6	-0.033919953
69	0x3de93846	0.113876864
70	0xbda7607c	-0.081727
71	0x3d19f7b4	0.037589744
72	0xbd07967e	-0.033102505
73	0xbb4554ec	-0.0030110432
74	0xbd1e85b4	-0.038701728
75	0x39e80500	0.00044254214
76	0xbd106b46	-0.035258554
77	0xbe28a686	-0.16469774
78	0x3cc68a3e	0.02423584
79	0x3c55e704	0.013055567
80	0xbce533af	-0.027978746
81	0x3c191118	0.009342454
82	0xbcc98d40	-0.024603486
83	0xbd28fa7c	-0.041254506
84	0xbddf2e87	-0.10897546
85	0x3c89f40a	0.01684
86	0xbd3b32e0	-0.045702815
87	0x3d26154d	0.040547658
88	0xbd3a72cf	-0.045519646
89	0xbd2797c8	-0.040916234
90	0xbd4a463a	-0.04938338
91	0xbc1b44e8	-0.009476878
92	0xbb9a9fc1	-0.004718751
93	0xbdbd8d6d	-0.092554905
94	0xbe0fe418	-0.14051855
95	0x3cf00ad0	0.02930203
96	0x3c37f8b4	0.011228729
97	0xbc8db7bf	-0.017299531
98	0xbe44638b	-0.19178598
99	0x3c2c3082	0.010509612
100	0x3cb411f1	0.021981211
101	0xbe2596a1	-0.16170742
102	0xbb808bde	-0.0039229235
103	0xbd1da6ca	-0.03848914
104	0x3cd4fed2	0.026000414
105	0xbe291eed	-0.16515703
106	0x3c556fe0	0.013027161
107	0x3cfe9a2d	0.031079376
108	0xbdf6d3d9	-0.120521255
109	0xbca67e4d	-0.020323897
110	0xbe070ae4	-0.13187748
111	0x3c3b60e7	0.011436678
112	0x3c7a0214	0.0152592845
113	0x3d4b8b61	0.04969347
114	0x3daf382b	0.08555635
115	0xbd549e22	-0.05190862
116	0x3c875d9d	0.01652413
117	0xbde1948b	-0.110146604
118	0x3caa6f4d	0.020805025
119	0xbe2039c2	-0.15647033
120	0xb97a8a00	-0.00023893267
121	0xbd3c166f	-0.04591983
122	0xbc347762	-0.011014791
123	0xbd9a318b	-0.07528981
124	0x3ce65322	0.028115813
125	0x3cbaa6a5	0.02278454
126	0x3cc2f412	0.023798022
127	0x3c4477b5	0.011991431
128	0x3d0e8cd1	0.03480226
129	0x3c67d2b3	0.014149356
130	0xbd3a106f	-0.04542583
131	0xbd1f1086	-0.038834117
132	0x3cb04d4a	0.02152123
133	0xbcb2fcc0	-0.021849036
134	0x3cb4175e	0.021983799
135	0xbcdcf5da	-0.0269727
136	0xbd7704e4	-0.0603074
137	0x3c8fe55f	0.017565427
138	0xbc8e74a4	-0.017389603
139	0xbd0b1685	-0.033957023
140	0x3d1e92d9	0.038714264
141	0xbbb2305a	-0.005437893
142	0xbe0de201	-0.13855745
143	0xbd4b5180	-0.04963827
144	0xbb555000	-0.0032548904
145	0x3d37e2e5	0.044894118
146	0x3d3e707a	0.046493985
147	0x3bcc1881	0.006228507
148	0xbd0fbcdd	-0.035092223
149	0x3c4fc4ad	0.0126811685
150	0x3ea071d4	0.31336844
151	0xbd787ad8	-0.060664028
152	0x3cdda230	0.027054876
153	0x3d409889	0.04702047
154	0x3d0e2837	0.03470632
155	0x3cc5390a	0.02407505
156	0xbd2dfa1d	-0.042474855
157	0xbc294ae8	-0.0103328
158	0x3d40540b	0.04695515
159	0xbe42d1ea	-0.19025388
160	0x3cb95325	0.022622654
161	0xbe4f3a48	-0.20237076
162	0x3c8cd532	0.017191503
163	0xbca27093	-0.01982907
164	0xbcc5a2a4	-0.024125405
165	0x3c333305	0.010937457
166	0x3c878978	0.016545042
167	0x3bcef4e3	0.006315814
168	0x3d1795f1	0.03700823
169	0xbe2ad657	-0.16683327
170	0xbae7c462	-0.0017682428
171	0xbd243556	-0.040089928
172	0x3d03f5cd	0.032216836
173	0xbdda9518	-0.106729686
174	0xbd3ed1f8	-0.04658696
175	0xbc87b30a	-0.016564865
176	0xba2dd222	-0.00066307385
177	0xbc71aa41	-0.014750064
178	0xbb09810c	-0.002098146
179	0xbd34ff48	-0.044188768
180	0x3cad4de7	0.02115531
181	0xbd3b38e7	-0.045708563
182	0x3b4965fb	0.003073095
183	0xbd44019d	-0.0478531
184	0xbddf6d7d	-0.10909555
185	0xbd39126f	-0.045183595
186	0xbdb40498	-0.08789939
187	0x3d4bb189	0.049729858
188	0xbae766c1	-0.0017654524
189	0xbbd30bbf	-0.006440609
190	0xbd43ce1b	-0.04780398
191	0xbd050478	-0.032474965
192	0x3ce398f5	0.027782897
193	0x3a597c9e	0.00082964625
194	0x3ca4007c	0.020019762
195	0x3d123926	0.035699032
196	0x3c185d3e	0.009299574
197	0xbc1d5a2c	-0.009604018
198	0xbd38ec15	-0.04514702
199	0xbcbf2319	-0.023332166
200	0xbc21ed58	-0.009883247
201	0xbd2c70df	-0.04209983
202	0xbd239305	-0.03993513
203	0xbdfeffc1	-0.12451125
204	0x3c987761	0.018611612
205	0x3d38e9a5	0.045144696
206	0xbbdb7220	-0.0066969544
207	0xbd5791f1	-0.052629415
208	0xbe036b49	-0.12833895
209	0xbd8c11b7	-0.06839316
210	0xbce8bb79	-0.028409706
211	0xbc5ded7c	-0.01354539
212	0xbcbae844	-0.022815831
213	0xbd7c9330	-0.061663806
214	0xbe06629e	-0.13123557
215	0x3e8585a4	0.26078522
216	0xbe0e3da6	-0.13890705
217	0xbc7c1878	-0.015386693
218	0xbdf9d425	-0.121986665
219	0x3d0d7f49	0.034545217
220	0x3cc50c4f	0.02405372
221	0x3d315396	0.043292604
222	0x39bcc171	0.0003600228
223	0xbd932e0f	-0.07186519
224	0x3d34e781	0.04416609
225	0x3cde8aef	0.027165858
226	0xbe170ddd	-0.14751382
227	0xbce7e66c	-0.028308116
228	0xbd27fcea	-0.041012682
229	0xbd11984a	-0.035545625
230	0xbc920a9e	-0.017827328
231	0xbd37ea11	-0.044900957
232	0x3d4116fa	0.047141053
233	0xbdd53818	-0.1041109
234	0xbd0dadfa	-0.034589745
235	0xbe0f4101	-0.13989641
236	0xba31a140	-0.0006776042
237	0x3dd98d66	0.10622673
238	0xbca27fd1	-0.019836338
239	0x3cba216e	0.022721019
240	0x3c9541d2	0.018219862
241	0xbccd2f02	-0.02504683
242	0xbd589457	-0.052875843
243	0xbb339bdf	-0.0027406139
244	0x3ed9fa29	0.4257367
245	0xbd0c1e40	-0.034208536
246	0xbcf60eea	-0.030036408
247	0xbe12a7d6	-0.14321837
248	0xbc9feded	-0.019522632
249	0xbde83503	-0.11338236
250	0xbc2cdc31	-0.010550545
251	0x3ccc9d6a	0.024977405
252	0x3ce5cd35	0.028051952
253	0xbcea5853	-0.02860657
254	0xbd5157a4	-0.05110897
255	0xbccefaea	-0.02526613

layer_2.bias f4 [300]
0	0x3beb3e45	0.007179054
1	0xbd08fb72	-0.033442922
2	0xbd14f0ab	-0.03636233
3	0xbcc24cc2	-0.023718242
4	0x3b2047d7	0.0024456882
5	0x3ba88f2a	0.0051440196
6	0xbd42cfdc	-0.04756151
7	0xbc889a9e	-0.01667529
8	0xbc1b5913	-0.009481686
9	0x3c17ea46	0.009272164
10	0xbd05e380	-0.032687664
11	0xbc91d3c0	-0.017801166
12	0xbd966939	-0.073442884
13	0xbbc7f871	-0.0061026146
14	0x3d82785d	0.06370614
15	0xbd413237	-0.04716703
16	0xbd1f13f1	-0.038837377
17	0xbd3afe6b	-0.045652788
18	0xbd0873ab	-0.033313435
19	0xbccfafde	-0.025352415
20	0xbd9877ef	-0.074447505
21	0xba94135c	-0.0011297273
22	0xba27fd7d	-0.0006408317
23	0xbcda8d8a	-0.02667882
24	0xbc4e9b53	-0.012610274
25	0x3c179d9e	0.009253887
26	0x3d512b3b	0.05106662
27	0x3d0c0366	0.03418293
28	0xbd32bb57	-0.043635692
29	0xbd140976	-0.036141835
30	0xba8cf6c7	-0.0010754698
31	0xbba99460	-0.0051751584
32	0x3c98b32f	0.018640129
33	0xbdb02fc7	-0.08602863
34	0xbc83e4a3	-0.016100233
35	0xbb4b6065	-0.0031032797
36	0xbd6f0d15	-0.058362085
37	0xbd84c598	-0.064830005
38	0x3d07ef88	0.03318742
39	0xbcf50e50	-0.029914051
40	0xbd0c04eb	-0.034184378
41	0x3bfd6c32	0.007733845
42	0xbc356fa3	-0.01107398
43	0x3be0917d	0.006853281
44	0x3d09b477	0.03361937
45	0xbc82a734	-0.01594887
46	0x3cc388d8	0.023868963
47	0xbd7d8d50	-0.061902344
48	0xbdf0034d	-0.117193796
49	0xbd7ef55f	-0.062245723
50	0xbc1e86d5	-0.009675701
51	0xbd8e53bd	-0.069495656
52	0x3ccdea3e	0.02513611
53	0xbd304852	-0.04303772
54	0x3dc5fb84	0.096671134
55	0x3c477165	0.012173031
56	0xbcde16d7	-0.0271105
57	0x3b8fa6d4	0.004383901
58	0x3cd0660e	0.025439288
59	0xbcf93870	-0.03042242
60	0xbd202cc1	-0.03910518
61	0xbd218ab9	-0.039438937
62	0x3d123a8e	0.035700373
63	0x3d126f8e	0.035750918
64	0xbcfbca11	-0.030736001
65	0x3d39f00f	0.045394953
66	0xbd002ed9	-0.031294677
67	0xbd4baf28	-0.04972759
68	0x3d688c7d	0.056774605
69	0x3d105410	0.03523642
70	0x3a27a15d	0.00063945894
71	0xbc30fea8	-0.010802902
72	0xbcb30db5	-0.021857122
73	0xbb8bc5ec	-0.0042655375
74	0xbca7d008	-0.02048494
75	0xbadd2641	-0.0016872362
76	0x3c999046	0.018745553
77	0xbdb8a029	-0.09014923
78	0xbc86fe3e	-0.016478654
79	0xbc0fadf6	-0.008769503
80	0x3c32ec6e	0.010920627
81	0x3c78363b	0.015149648
82	0xbd32d0a3	-0.043656003
83	0xbd35cf7c	-0.044387326
84	0x3bc4d4dd	0.0060068206
85	0x3d870e64	0.06594542
86	0xbd37daec	-0.044886515
87	0x3b3f0420	0.0029146746
88	0x3d23072e	0.03980177
89	0xbc3c8702	-0.011506798
90	0xbc069af7	-0.008215657
91	0xbccd061a	-0.025027324
92	0xbd565396	-0.052325808
93	0x3bc30778	0.005951818
94	0x3e769e60	0.24083853
95	0xbd92fd3f	-0.07177209
96	0x3bfcabce	0.0077109104
97	0xbcb64938	-0.02225171
98	0x3d3dcbd7	0.046336975
99	0xbd4e0c63	-0.05030478
100	0xbbbb0c50	-0.005708255
101	0xbd111ca4	-0.035427704
102	0x3c86f3c7	0.016473664
103	0xbd20614b	-0.039155286
104	0xbd6470de	-0.0557717
105	0xbbe2db5f	-0.0069231237
106	0x3d9391af	0.07205521
107	0xbd0279f6	-0.031854592
108	0x3c6f662c	0.014611762
109	0xbd210ccb	-0.03931884
110	0xbd80421f	-0.062626116
111	0x3c8bb1e7	0.017052604
112	0xbc35d35b	-0.011097754
113	0xbd61abf5	-0.05509563
114	0xbd2511aa	-0.04030005
115	0xbc1b04fc	-0.009461638
116	0x3c5320de	0.012886254
117	0x3d8318d0	0.06401217
118	0xbd016c52	-0.031597443
119	0xbd169802	-0.03676606
120	0x3d263233	0.040575217
121	0xbd780677	-0.06055304
122	0x3daa2747	0.08308273
123	0xbcfcb4fa	-0.030848015
124	0xbc9e6a0b	-0.019337675
125	0xbcd3df43	-0.025863295
126	0x3c7bb3da	0.015362704
127	0xbd0adafe	-0.033900253
128	0x3caae05e	0.02085894
129	0xbce93555	-0.028467814
130	0x3dce82f4	0.10083571
131	0xbd124f13	-0.035719942
132	0x3d056f1e	0.032576673
133	0xbd4eb72e	-0.050467663
134	0x3c71562e	0.0147300195
135	0xbd038dae	-0.03211754
136	0x3d0df33f	0.034655806
137	0x3cb5c192	0.022187028
138	0x3dbe7cdc	0.09301159
139	0x3baa16bd	0.005190699
140	0xbd2879e9	-0.041131888
141	0xbcaaeee1	-0.02086586
142	0x3d1fb9c7	0.03899553
143	0xbd0c3d29	-0.034238014
144	0x3cba3976	0.022732478
145	0x3d047215	0.03233536
146	0x39eaa700	0.00044756383
147	0x3cfc2e82	0.030783895
148	0x3ca4097c	0.020024054
149	0xbc971974	-0.018444754
150	0x3cbfe6bb	0.02342545
151	0x3cf3dc02	0.029767994
152	0x3cdbd4b2	0.02683482
153	0x3c1202b4	0.008911777
154	0xbd8f2e69	-0.06991274
155	0xbd16f552	-0.03685505
156	0x3c8d48f0	0.017246693
157	0xbccf0690	-0.025271684
158	0xbd19e246	-0.037569307
159	0xbc3e855b	-0.011628474
160	0x3c88cc12	0.01669887
161	0x3c850bc2	0.016240958
162	0x3cee6c17	0.029104276
163	0xbc289940	-0.010290444
164	0x3d17fcb3	0.037106227
165	0xbdada030	-0.08477819
166	0xbd1bd18b	-0.038041633
167	0xbd3fdf85	-0.046844024
168	0xbcfcf0da	-0.030876566
169	0x3ccb3fee	0.024810757
170	0xbd61f50a	-0.055165328
171	0xbcc0b37b	-0.023523083
172	0x3cf4bae6	0.029874276
173	0x3cadf434	0.02123461
174	0xbc34e030	-0.011039779
175	0xbcd3df19	-0.025863217
176	0xbc3cacfa	-0.01151585
177	0x3c6a5ca0	0.01430431
178	0xbd28bcbc	-0.041195616
179	0x3a14076b	0.00056468573
180	0xbd8c78e6	-0.06858997
181	0x3d818069	0.063233204
182	0x3d2d8e65	0.042372126
183	0xbc895eff	-0.01676893
184	0x3da9db14	0.08293739
185	0xbb42dd5b	-0.002973399
186	0xbc4b4751	-0.01240714
187	0x3c85bcbd	0.016325349
188	0xbd42e1b9	-0.047578547
189	0xbb9dbdb0	-0.0048138723
190	0xbd413805	-0.047172565
191	0xbda207ca	-0.07911642
192	0x3d3353f4	0.043781236
193	0x3c86914f	0.01642671
194	0x3dbb8fd6	0.09158294
195	0x3da2abe7	0.07942944
196	0xbd033364	-0.03203143
197	0xbd10009e	-0.03515684
198	0xbc31d7b2	-0.010854648
199	0xbd3d1faa	-0.046172775
200	0x3cde3902	0.027126793
201	0xbcd51205	-0.026009569
202	0x3cd211bf	0.025643228
203	0x3d2a6c53	0.041607212
204	0xbd347fe0	-0.044067264
205	0xbd16d210	-0.036821425
206	0xbb582b89	-0.0032984933
207	0x3d2f9764	0.042868987
208	0xbb92db98	-0.004481744
209	0xbd1308ff	-0.03589725
210	0x3c809a3e	0.015698548
211	0x3c293b37	0.010329059
212	0x3d5b0f1b	0.053481203
213	0xbd437abf	-0.04772448
214	0x3c35b6d1	0.01109095
215	0xbd4d326f	-0.050096925
216	0x3cf08a69	0.029362874
217	0xbc1a93f5	-0.00943469
218	0xbce9826a	-0.02850457
219	0xbdd7ee58	-0.10543507
220	0xbcca2bbe	-0.024679061
221	0x3ce61616	0.028086703
222	0xbbb3f649	-0.005492006
223	0x3d54e0bb	0.051972132
224	0xbc9b63ca	-0.018968482
225	0xbd48711c	-0.048935995
226	0xbde84459	-0.11341161
227	0x3bb78017	0.0055999863
228	0xbcd6371d	-0.026149327
229	0x3ae8db28	0.0017765509
230	0xbc6f0e46	-0.014590805
231	0xbbe22c95	-0.0069022872
232	0xbca819df	-0.020520149
233	0xbd23ec95	-0.040020544
234	0xbc8e351f	-0.017359314
235	0xbcd436c6	-0.025905024
236	0x3d1e8636	0.038702212
237	0xbd01d3a6	-0.031695984
238	0x3b9db530	0.004812859
239	0xbd17904f	-0.037002858
240	0x3d22339e	0.039600007
241	0xbd388748	-0.04505089
242	0x3c519b3f	0.012793361
243	0xbda154e5	-0.078775205
244	0x3d12dce5	0.035855193
245	0x3da0441b	0.0782549
246	0xbd353122	-0.04423631
247	0xbcabbc86	-0.020963918
248	0x3cb09155	0.021553675
249	0x3b8402cc	0.0040286537
250	0xbd7b7d00	-0.061398506
251	0x3a329d82	0.00068136316
252	0xbd2f7787	-0.0428386
253	0xbdaf1ea5	-0.08550767
254	0xbc9a1ef1	-0.018813582
255	0xbd3c69d2	-0.045999356

layer_3.weight f4 [1, 300]
0	0xba922f49	-0.0011153008
1	0x3c5b5cca	0.013388822
2	0x3cb58334	0.02215729
3	0xbd8f653f	-0.07001733
4	0xb84ac819	-4.834691e-05
5	0x3b360a8e	0.0027777287
6	0xba6d19af	-0.00090446597
7	0x3c9b5f82	0.01896644
8	0xbc2aaaf8	-0.010416739
9	0x3c9c1ec6	0.019057643
10	0xbb50297b	-0.0031763006
11	0xbc11307c	-0.008861657
12	0x3c4332e3	0.011913988
13	0xbb853fb6	-0.004066433
14	0x3d1d4f1d	0.038405526
15	0x3cd97216	0.026543658
16	0xbd276ac4	-0.040873304
17	0xbc48d7a9	-0.012258449
18	0xb7b9c629	-2.2145994e-05
19	0xbb2c64cf	-0.0026305204
20	0x3b64c8ca	0.0034909719
21	0x3d4b40f1	0.04962248
22	0x3d2275be	0.03966307
23	0xbc5f35a5	-0.01362363
24	0xbd348b56	-0.044078194
25	0x3ce43e4c	0.027861737
26	0x3c0783a4	0.008271132
27	0x3cbc53ef	0.022989241
28	0x391d0921	0.00014976088
29	0x3c4f3904	0.012647871
30	0xba3ea3c2	-0.00072723266
31	0x3bf5b540	0.0074984133
32	0x3c76f4aa	0.015072981
33	0xbbb798dd	-0.0056029395
34	0x3d224f68	0.03962651
35	0xbba7d183	-0.0051214113
36	0xbc890ef4	-0.016730763
37	0xbce9b518	-0.028528735
38	0x3c304eff	0.010761022
39	0xbc51f882	-0.012815597
40	0xbca025b5	-0.01954923
41	0xbae8cc52	-0.0017761088
42	0xbd258435	-0.040409286
43	0xbca44d16	-0.020056289
44	0x3cafbb9e	0.021451768
45	0xb8450b70	-4.6979112e-05
46	0xbd3cdadb	-0.046107154
47	0xbc0b8714	-0.008516092
48	0xbd01d1dc	-0.031694278
49	0xbb9dcfce	-0.004816032
50	0x3d103ff4	0.03521724
51	0xbc841c3c	-0.016126744
52	0x3d3461b1	0.04403848
53	0xbc1739d2	-0.009230094
54	0x3cd9b104	0.026573665
55	0xbd1be71d	-0.038062204
56	0xbbba03e2	-0.0056767324
57	0x3ce33cfe	0.027739044
58	0x3bd4fc90	0.0064998344
59	0xbc8be61a	-0.017077494
60	0xbbdcaddd	-0.0067345933
61	0x3a72f5f6	0.00092682184
62	0xbc8a5d36	-0.01689015
63	0xbd438ff5	-0.04774471
64	0x3b2dd3e1	0.0026523995
65	0x3a4f68cd	0.000791204
66	0xbd398c1d	-0.045299638
67	0x3afcab1f	0.0019277072
68	0x3c4cb5f3	0.012494552
69	0x3d4f8b21	0.050669793
70	0xbd195174	-0.037431195
71	0x3cc17e29	0.023619728
72	0x3bfda6aa	0.007740815
73	0xbcbf447b	-0.023348084
74	0x3d024381	0.031802658
75	0xbc2f5060	-0.010700315
76	0xba2d6675	-0.00066146936
77	0xbd11f6c3	-0.03563572
78	0xbc72336f	-0.014782771
79	0xbbdb0aa6	-0.006684619
80	0x3bd470cd	0.0064831735
81	0x3d0c6fc1	0.034286264
82	0x3cd0731d	0.025445515
83	0xbc460993	-0.012087244
84	0xbcbadd76	-0.022810679
85	0x3cfbd306	0.030740272
86	0x3cbf65d8	0.023363993
87	0xbd4282fd	-0.0474882
88	0x3bc8f135	0.0061322697
89	0xbc09bbb6	-0.00840657
90	0x3c62f77e	0.013852952
91	0x3e5c2c41	0.21501257
92	0x3a98405e	0.0011615863
93	0xbd4bfed9	-0.04980359
94	0x3e115ccd	0.14195557
95	0xbc9708b5	-0.018436769
96	0x3a888ae9	0.0010417375
97	0xb959fdec	-0.00020789326
98	0xba029500	-0.0004981309
99	0xbad32bfc	-0.0016111131
100	0xbb5b9200	-0.003350377
101	0xbab25a07	-0.0013607153
102	0x3a8dcf5a	0.0010819242
103	0x3ce201a8	0.02758868
104	0xb9e55548	-0.00043741823
105	0xbd26e2dc	-0.040743694
106	0x3c92c016	0.01791386
107	0x3d247273	0.04014821
108	0x3c8a1bdc	0.016858988
109	0xbb5ecc20	-0.003399618
110	0xbcb7d235	-0.022439102
111	0x3ce5d473	0.028055405
112	0xbc8be583	-0.017077213
113	0x3bc05eb2	0.0058706636
114	0x3d26303d	0.040573347
115	0xbd3840db	-0.044983726
116	0xbc02db38	-0.007986836
117	0x3cf35663	0.029704278
118	0x39922d04	0.0002788083
119	0x3d436641	0.04770494
120	0xb969347e	-0.00022240166
121	0x3c25c500	0.010117769
122	0x3c074065	0.008255099
123	0xbb3bb25a	-0.0028640241
124	0xbbb5320e	-0.0055296486
125	0x3ccf8956	0.025334042
126	0xbccad802	-0.024761204
127	0xbd43a199	-0.047761533
128	0x3c968231	0.018372627
129	0xbd165a5f	-0.03670728
130	0x3cf205d9	0.029543804
131	0xbc99de33	-0.01878271
132	0x3d2b01c0	0.041749716
133	0xbcfbf210	-0.030755073
134	0x3c44a2cb	0.0120017035
135	0xba5927fa	-0.000828385
136	0xbcb9839f	-0.02264577
137	0x3c97f9a6	0.018551659
138	0x3c752945	0.014963453
139	0xbd36be4a	-0.044615068
140	0x394d4bbf	0.00019578541
141	0x3d0566dc	0.032568797
142	0xbb4da540	-0.0031379014
143	0xba2cfe38	-0.0006599161
144	0x3d034c70	0.03205532
145	0x3c7584a1	0.0149852345
146	0xbc8d803e	-0.017273065
147	0xbca417e8	-0.02003093
148	0x3bbe12a5	0.0058005624
149	0x3ba63cca	0.0050731646
150	0x3d95e7a5	0.07319573
151	0x39d03965	0.00039715614
152	0x3d6c4f68	0.057692915
153	0x391a0330	0.00014687772
154	0xbcf1ae5d	-0.029502088
155	0xbae67fc7	-0.0017585688
156	0x3c4c2d3f	0.012461959
157	0x38b5da7a	8.671447e-05
158	0xbc1fe7a0	-0.009759814
159	0xbb94ffe6	-0.004547107
160	0x3d0edb7a	0.034877278
161	0xbbeb6c55	-0.007184545
162	0x3cf91846	0.030407082
163	0xbd511384	-0.051044002
164	0x3c0ad940	0.008474648
165	0xbd0434fb	-0.03227709
166	0x3ccad3c1	0.024759175
167	0x3c21ac42	0.00986773
168	0xbce98625	-0.028506348
169	0xbcc645ae	-0.024203148
170	0xbcc1c993	-0.023655688
171	0x3cf573b8	0.029962406
172	0xbc666cb8	-0.0140640065
173	0x39b16529	0.0003383544
174	0x3c98020e	0.018555667
175	0x3d239d36	0.03994485
176	0xbca8f3be	-0.020624038
177	0xbae7995a	-0.0017669604
178	0x3cd6ff7f	0.026244877
179	0x3ca53ee3	0.020171588
180	0x3af1fc49	0.0018462028
181	0x3a25ade8	0.00063201645
182	0xbc766b50	-0.015040234
183	0x3b1a8fb2	0.0023584184
184	0x3b17113e	0.0023051049
185	0x3a0c8725	0.0005360714
186	0xbcd6b0ae	-0.026207294
187	0x3a462418	0.0007558479
188	0xbd1ca64e	-0.038244538
189	0xbc746a40	-0.01491791
190	0xbcf27db6	-0.02960096
191	0x3bb807f5	0.005616183
192	0x3af2c9c1	0.0018523262
193	0x3d428cd6	0.047497593
194	0x3c7f47b5	0.015581061
195	0x3c765fe0	0.015037507
196	0xbbbbc83c	-0.005730657
197	0xbd153c56	-0.036434494
198	0xbb5b74b8	-0.0033486318
199	0x391c61da	0.00014913772
200	0x3ce87309	0.028375166
201	0xbacee174	-0.0015783743
202	0x3c30b491	0.010785238
203	0x3b2155ad	0.0024617717
204	0x3b4e5de0	0.003148906
205	0xbd02f2d2	-0.031969853
206	0xbbbf39d1	-0.0058357497
207	0x3ab9c422	0.0014172832
208	0xbca57eb6	-0.020202022
209	0x3c1f6f32	0.009731101
210	0xbbe10b63	-0.0068678125
211	0xbd0ac564	-0.033879653
212	0x38aabc31	8.141285e-05
213	0x3cda0d22	0.02661759
214	0xbd39ddcb	-0.045377534
215	0xbd0b0029	-0.0339357
216	0xbcbde9dd	-0.023182804
217	0x38caa1f9	9.66228e-05
218	0xbc212acd	-0.009836865
219	0xbc0b0304	-0.008484606
220	0x3cd3c8aa	0.02585252
221	0xbc8fd9bb	-0.017559877
222	0xbcd51320	-0.026010096
223	0xbd91d7ba	-0.07121225
224	0x3c88a855	0.01668183
225	0xbc2db1dc	-0.010601487
226	0xbca344a7	-0.019930197
227	0x3cdcc310	0.026948482
228	0xbaadc0fa	-0.0013256364
229	0xbc7e6456	-0.015526852
230	0xbb45d123	-0.003018447
231	0x3d2ba592	0.041905947
232	0xbc55f66a	-0.013059238
233	0xbc6a52f3	-0.014302003
234	0xb94fddbe	-0.00019823664
235	0x3c36eb0f	0.011164441
236	0xba2265ec	-0.0006194997
237	0xbcd57109	-0.026054876
238	0xbd516eef	-0.051131185
239	0x3c0a4d27	0.008441246
240	0xb8d6b88a	-0.00010238688
241	0xb710d50a	-8.632671e-06
242	0x3d0ec787	0.034858253
243	0xbc037d9b	-0.008025552
244	0x3b898bf7	0.0041975933
245	0x3c091ed7	0.008369169
246	0xb966c1b9	-0.00022006677
247	0xbc2c8ee2	-0.010532113
248	0x3972021c	0.00023079704
249	0x3cd137a1	0.025539221
250	0x3c4245fa	0.011857504
251	0x3c0c2188	0.008552916
252	0x3c5ca66a	0.013467411
253	0xbd61dc12	-0.055141516
254	0xbd55caf3	-0.0521955
255	0xbc97d93e	-0.018536206
