models/ddpg_model_episode_400_critic.pth (torch, 674589 bytes, 5 tensors)

layer_1.weight f4 [400, 117]
1.148912 0.09064196 0.40885726 -0.11190695 -0.007844944 -0.0341725 0.12735401 -0.052045632
-1.0103943 -0.98678726 -0.10009432 -0.036769055 0.7347353 0.6479186 -0.3565441 -1.5794417
-1.0186421 -0.27136117 -0.14465562 0.19787443 -0.7740778 0.48052952 -0.18887141 -0.25149378
0.12332703 -0.50700235 -0.12917367 -0.059833393 0.050781805 0.8108747 0.21629667 0.017519953
0.87772226 -0.13018101 0.32872456 -0.016343653 0.42599857 0.15341161 -0.4977047 0.5873322
0.13016404 1.2366796 0.44139668 0.31957695 -0.01998346 0.18132176 -0.028553905 -0.11967318
-0.4797411 -0.1995963 0.1998549 -0.036731627 1.7272893 -0.36254975 -0.20017041 1.466206
0.083333336 -0.30117944 1.1426764 0.07685831 0.44039553 -0.13675773 -0.052956272 -0.6359499
0.097397156 0.7700312 -0.8476819 0.36684984 -0.58906597 0.2024736 -0.21344675 -0.392558
-1.0353599 0.12761627 -0.1829109 0.7530893 -0.84397745 0.09074002 0.7495465 0.10641753
-0.83043647 -0.6729105 -0.45672795 -0.13337126 0.327954 -0.58265275 -0.45821357 0.13043639
0.3140798 -0.18711132 0.21359606 -0.22757028 -0.26823995 0.114362836 0.08708739 0.13003233
0.12887086 -0.27688217 0.26249862 -0.15498357 -0.09499436 0.81182694 -0.9862364 -1.0057106
0.12442651 -0.7457435 0.09142929 -0.31934372 -0.731202 -0.19003479 0.68893003 -0.8899591
-0.46064293 -0.42123893 0.06723157 -0.24572001 0.51239544 1.4249878 -0.096120305 -0.46986932
-0.29453182 -0.049485806 0.061329868 0.058608152 0.017913323 0.3005134 0.4475973 -0.055397727
-0.17457348 -0.18287736 -0.25911576 -0.42465508 -1.7895318 -0.22444028 -0.199865 -0.097051375
0.1310261 0.41790017 -0.3445058 -1.0833037 -0.22269478 -0.67904705 -0.69918174 -0.23632386
-0.37819487 -0.08316977 0.077488475 0.21297573 0.15025167 0.0686884 -0.011910691 -0.6022756
0.732408 -0.42156962 0.2103892 -0.75989157 -0.26530194 -0.021479279 0.3409029 -0.48129973
-0.48999307 -0.13314112 -0.035174172 0.6108157 0.050643276 -1.3446472 0.54494756 -0.080234766
0.006836995 0.704187 0.6105628 -0.13631879 0.5972667 0.85118425 -0.3114118 0.13642448
0.21404947 0.4915793 0.20392223 0.15916874 -0.26882452 0.2899846 -0.084923215 0.15323772
-0.35993418 0.4641759 0.069331065 0.47109687 0.482769 -0.050618898 -0.051802546 0.7365904
-0.21295394 -1.7938093 0.03435779 -0.1062812 0.20835112 -1.2867919 -0.45827997 0.23374815
-0.23750606 0.2289861 -1.3692122 -0.46778148 -0.63266283 0.89246213 -0.3382259 -0.35526463
-0.2860565 -0.47413346 0.173564 0.6485988 1.2181413 -0.6422221 0.51709694 -0.48738772
-0.24579406 -0.03816353 -0.058684785 -0.052638654 0.207148 -0.044799536 0.09297793 -0.023784433
-1.4156201 0.08356857 -0.98286456 1.065983 0.17708728 -0.9671953 0.515093 0.0009790715
0.026854448 -0.2485435 -1.5683459 -0.090361536 0.24980778 0.0520682 0.008474124 0.011172547
0.022129243 -0.14244439 0.01372912 -0.06773332 -0.09596106 0.20102671 0.010165459 -0.051805604
0.21303257 2.1978953 -0.35293204 0.23586826 -0.00733181 -0.23367274 0.11736939 0.1352792
00000000: 8c0f 933f 7ea2 b93d bd55 d13e 792f e5bd
00000010: 1488 00bc 77f8 0bbd 1769 023e cd2d 55bd
00000020: 9a54 81bf 179e 7cbf 40fe ccbd 269b 16bd
00000030: 9d17 3c3f fedd 253f f38c b6be 252b cabf
00000040: dd62 82bf daef 8abe 9a20 14be 989f 4a3e
00000050: f629 46bf f707 f63e 8267 41be cbc3 80be
00000060: e292 fc3d e8ca 01bf 1a46 04be dc13 75bd
00000070: 9500 503d 7c95 4f3f e07c 5d3e 0186 8f3c
00000080: 68b2 603f 2c4e 05be 964e a83e 20e3 85bc
00000090: 7c1c da3e ef17 1d3e 27d3 febe 675b 163f
000000a0: b949 053e 844b 9e3f bffe e13e 979f a33e
000000b0: 5ab4 a3bc 69ac 393e e1e9 e9bc 3617 f5bd
000000c0: a0a0 f5be f962 4cbe c3a6 4c3e e773 16bd
000000d0: d117 dd3f 1fa0 b9be 79f9 4cbe a3ac bb3f
000000e0: abaa aa3d 3134 9abe 3843 923f e467 9d3d
000000f0: 867b e13e 380a 0cbe ade8 58bd 9dcd 22bf
00000100: 2978 c73d c420 453f ae01 59bf bed3 bb3e
00000110: 07cd 16bf 3d55 4f3e c991 5abe 5dfd c8be
00000120: ac86 84bf d7ad 023e ff4c 3bbe 76ca 403f
00000130: e80e 58bf e7d5 b93d 48e2 3f3f 6ff1 d93d
00000140: 7c97 54bf dd43 2cbf 3fd8 e9be 7a92 08be
00000150: 96e9 a73e bb28 15bf f89a eabe 1e91 053e
00000160: 11cf a03e 1c9a 3fbe edb8 5a3e 2f08 69be
00000170: bf56 89be 1037 ea3d e05a b23d 3227 053e
00000180: b9f6 033e 80c3 8dbe 3866 863e 03b4 1ebe
00000190: 678c c2bd e4d3 4f3f fd79 7cbf 20bb 80bf
000001a0: 53d3 fe3d 0ce9 3ebf 483f bb3d 0581 a3be
000001b0: 0e30 3bbf 7b98 42be b85d 303f 5cd4 63bf
000001c0: 64d9 ebbe a1ac d7be b5b0 893d 079e 7bbe
000001d0: 592c 033f 0066 b63f b9da c4bd b692 f0be
000001e0: e0cc 96be a1b1 4abd 0735 7b3d 1a0f 703d
000001f0: f6be 923c e4dc 993e 792b e53e bae8 62bd
00000200: 64c3 32be 3444 3bbe d2aa 84be 646c d9be
00000210: 610f e5bf acd3 65be 69a9 4cbe dfc2 c6bd
00000220: b52b 063e 03f7 d53e 1063 b0be b2a9 8abf
00000230: 1a0a 64be 07d6 2dbf 93fd 32bf e2fe 71be
00000240: c2a2 c1be ea54 aabd 47b2 9e3d 4f16 5a3e
00000250: 93db 193e 81ac 8c3d 0f25 43bc bc2e 1abf
00000260: 177f 3b3f f9d7 d7be 4470 573e 4188 42bf
00000270: a8d5 87be 50f5 afbc d38a ae3e eb6c f6be
00000280: 5fe0 fabe 2556 08be cb12 10bd 6b5e 1c3f
00000290: 536f 4f3d 661d acbf af81 0b3f 2052 a4bd
000002a0: df08 e03b 9945 343f d84d 1c3f 2797 0bbe
000002b0: 78e6 183f 36e7 593f 5e71 9fbe dcb2 0b3e
000002c0: c92f 5b3e 48b0 fb3e fdd0 503e 21fd 223e
000002d0: 5ea3 89be dd78 943e 39ec adbd 59ea 1c3e
000002e0: 4b49 b8be 77a8 ed3e 72fd 8d3d 9c33 f13e
000002f0: 802d f73e c355 4fbd e82e 54bd 3091 3c3f
00000300: 9910 5abe 8b9b e5bf c1ba 0c3d f5a9 d9bd
00000310: ff59 553e 99b5 a4bf aca3 eabe ad5b 6f3e
00000320: ca34 73be 557b 6a3e 5842 afbf 0e81 efbe
00000330: 31f6 21bf 6678 643f f22b adbe 3fe5 b5be
00000340: ff75 92be 9fc1 f2be c3ba 313e 920a 263f
00000350: 0eec 9b3f ab68 24bf 7760 043f e28a f9be
00000360: 70b1 7bbe 5d51 1cbd 755f 70bd a19b 57bd
00000370: 9b1e 543e b87f 37bd 376b be3d 92d7 c2bc
00000380: 0a33 b5bf 0026 ab3d 039d 7bbf 2272 883f
00000390: 5e56 353e 1c9a 77bf 23dd 033f 3054 803a
000003a0: dcfd db3c 3082 7ebe 8fbf c8bf 780f b9bd
000003b0: 9ccd 7f3e 7745 553d 0dd7 0a3c 0f0d 373c
000003c0: 6348 b53c f1dc 11be 1af0 603c c4b7 8abd
000003d0: 3b87 c4bd f2d9 4d3e 068d 263c 1d32 54bd
000003e0: 3625 5a3e 51aa 0c40 82b3 b4be 7387 713e
000003f0: ae3f f0bb e847 6fbe 5d5f f03d a186 0a3e

layer_1.bias f4 [400]
0.04746147 -0.026982397 -0.13918467 -0.01660926 -0.061626293 0.022573058 0.03616164 -0.10670104
-0.09134615 -0.031094527 -0.046380695 0.06986501 -0.075599246 0.040300198 0.8649833 -0.0012581411
-1.0195458 -0.11080725 -0.06502292 -0.4721098 -0.02686412 0.32342306 -0.1207684 -0.090323865
-0.21335074 0.06065289 -0.062186606 -0.06926169 -0.03547057 -0.036406197 -0.027481228 -0.17444241
0.09213888 -0.018745713 0.082749836 0.006884558 -0.09638299 -0.17410494 -0.061346047 -0.13079798
-0.11359119 -0.36416152 -0.066862054 -0.028116142 0.03860285 -0.08038489 0.018939048 0.10000307
-0.01871683 -0.04587305 0.092431046 -0.16874409 -0.09839755 -0.6715581 -0.013874788 0.023577996
-0.23720637 -0.46803096 -0.12874006 -0.10662344 -0.3233958 -0.001140988 -0.0016318097 -0.230717
0.26248476 -0.051741295 -0.3323009 0.30551904 -0.05620618 0.03563841 -0.059101406 -0.42525378
0.22304009 -0.07649478 0.046018288 -0.05295497 -0.049071833 0.07136714 -0.017466836 0.017129667
0.63680184 0.0864109 -0.07872477 -0.0050885854 -0.09217685 -0.04684567 0.003230296 -0.45007345
-0.03387885 -0.12975854 0.009304762 0.089319505 -0.10522503 -0.02699027 -0.07301122 0.31937465
0.029669128 -0.017167343 -0.0014126524 0.04483176 -0.21102987 -0.1074594 -0.057644505 0.038979493
0.0063743074 0.045332983 0.031822935 -0.07668094 -0.060533196 -0.11083753 0.0013129774 -0.65871567
-0.24772532 -0.07307258 0.4069981 0.020447724 0.2501155 0.034333706 -0.29548553 -0.05560934
0.08449391 0.023862565 -0.0062073143 0.0056399307 0.007823437 0.06990599 0.013276457 0.03268995
-0.01818601 0.34778938 -0.5439746 -0.45945987 -0.06449577 0.05724716 -0.032981075 0.0077815503
-0.0808706 0.0044863527 0.0013294194 -0.052368186 -0.091716565 -0.0027252631 0.010732053 -0.004448884
0.0650095 -0.17562802 0.09287613 0.03540893 0.06520814 -0.18795241 0.023430588 -0.047368497
0.016104197 -0.017057434 -0.091003224 -0.05672771 -0.086573906 -0.0056641176 0.031624254 -0.09557202
0.052339908 -0.14266188 -0.0422795 -0.06788279 0.040196203 -0.036230452 0.058720153 -0.1067289
-0.010223195 -0.0042387373 0.025842221 0.043748997 -0.058078595 -0.0867293 -0.115904786 -0.070587575
-0.01275584 0.33636266 0.10789901 -0.06794385 0.076504126 -0.004914855 -0.3562418 0.0036576805
-0.12724853 -0.04277274 -0.0059600915 -0.09288236 -0.11530025 -0.0035960928 0.06145677 0.022671483
-0.015612396 -0.9432117 -0.18508878 -0.02939043 0.03768986 -0.1219322 0.068666756 -0.20255396
-0.08157695 -0.22599174 -0.08297922 -0.11799208 -0.2958825 -0.36204055 0.11764188 0.04145635
-0.05791883 -0.10994809 0.032087125 0.24950685 -0.020264313 -0.12866549 0.011092612 0.00757678
-0.06689202 -0.33991876 0.051917434 -0.19320795 -0.13230291 0.004928219 -0.21370865 -0.017581861
-0.023815239 -0.106049664 -0.020966208 0.032969657 0.14556198 0.085159905 0.023153067 0.11763978
0.06359667 -0.054663718 0.09028777 -0.06812633 -0.07636012 -0.086124495 -0.07682998 -0.028251082
0.651862 0.04348666 -0.07756129 0.025175432 0.011621308 -0.050958063 0.019473583 0.03708712
0.061267443 -0.1256348 0.0631158 -0.28627202 0.018893845 0.05960371 0.20572956 0.034227435
00000000: f566 423d 300a ddbc 6d86 0ebe 2510 88bc
00000010: da6b 7cbd 22eb b83c 3a1e 143d 1386 dabd
00000020: b113 bbbd f3b9 febc aff9 3dbd 6315 8f3d
00000030: c7d3 9abd d211 253d 8c6f 5d3f 36e8 a4ba
00000040: 7a80 82bf e9ee e2bd bd2a 85bd 60b8 f1be
00000050: 2512 dcbc b597 a53e 6c55 f7bd b8fb b8bd
00000060: 9e78 5abe 2a6f 783d 62b7 7ebd 13d9 8dbd
00000070: 9749 11bd aa1e 15bd 5020 e1bc 08a1 32be
00000080: 4fb3 bc3d 9c90 99bc bf78 a93d dc97 e13b
00000090: 7264 c5bd 9148 32be fe45 7bbd e8ef 05be
000000a0: 7fa2 e8bd 6173 babe f9ee 88bd d353 e6bc
000000b0: 061e 1e3d d5a0 a4bd 1026 9b3c 69ce cc3d
000000c0: 0a54 99bc 61e5 3bbd 7d4c bd3d 40cb 2cbe
000000d0: a884 c9bd 3beb 2bbf 1453 63bc a426 c13c
000000e0: 3ae6 72be c1a1 efbe 6fd4 03be 645d dabd
000000f0: 2294 a5be 348d 95ba 73e2 d5ba 1441 6cbe
00000100: 6764 863e aeee 53bd 5823 aabe fe6c 9c3e
00000110: 7438 66bd 95f9 113d 5114 72bd ddba d9be
00000120: 9f64 643e 4ca9 9cbd ac7d 3c3d 50e7 58bd
00000130: 8cff 48bd ef28 923d 9c16 8fbc 8453 8c3c
00000140: 7205 233f 33f8 b03d 743a a1bd 26be a6bb
00000150: 37c7 bcbd 3fe1 3fbd 60b3 533b 0770 e6be
00000160: 8dc4 0abd 6cdf 04be 0073 183c 25ed b63d
00000170: 3880 d7bd b31a ddbc e886 95bd 1385 a33e
00000180: ac0c f33c 87a2 8cbc c028 b9ba 82a1 373d
00000190: 3718 58be ad13 dcbd a51c 6cbd f6a8 1f3d
000001a0: 91df d03b 14af 393d c458 023d e60a 9dbd
000001b0: a8f1 77bd c9fe e2bd 3618 ac3a 97a1 28bf
000001c0: b5ab 7dbe 14a7 95bd 0e62 d03e fc81 a73c
000001d0: 240f 803e 80a1 0c3d e149 97be 9fc6 63bd
000001e0: 250b ad3d 6d7b c33c ba66 cbbb 2bcf b83b
000001f0: e02d 003c df2a 8f3d 7f85 593c e6e5 053d
00000200: d4fa 94bc 7311 b23e eb41 0bbf 533e ebbe
00000210: 5c16 84bd ff7b 6a3d 2a17 07bd 60fc fe3b
00000220: 7c9f a5bd 4102 933b ea3f ae3a 0680 56bd
00000230: e5d5 bbbd 549a 32bb 7ed5 2f3c f2c7 91bb
00000240: b323 853d d5d7 33be d735 be3d f408 113d
00000250: d88b 853d 9976 40be 81f1 bf3c 7805 42bd
00000260: f3ec 833c 08bc 8bbc e65f babd 515b 68bd
00000270: a94d b1bd 109a b9bb 6f88 013d 43bb c3bd
00000280: 5f62 563d f515 12be 452d 2dbd 2206 8bbd
00000290: c6a4 243d 6266 14bd 8b84 703d ae94 dabd
000002a0: 307f 27bc 1be5 8abb 11b3 d33c 2632 333d
000002b0: d2e3 6dbd 229f b1bd 7d5f edbd 3890 90bd
000002c0: dffd 50bc ba37 ac3e 28fa dc3d 2526 8bbd
000002d0: 32ae 9c3d cb0c a1bb 5365 b6be b2b5 6f3b
000002e0: 704d 02be 7832 2fbd df4c c3bb 1b39 bebd
000002f0: 8a22 ecbd 6dac 6bbb 18ba 7b3d 8cb9 b93c
00000300: 23cb 7fbc 5276 71bf ea87 3dbe 33c4 f0bc
00000310: af60 1a3d 97b7 f9bd 28a1 8c3d 4e6a 4fbe
00000320: d111 a7bd 616a 67be 02f1 a9bd d5a5 f1bd
00000330: e97d 97be 615d b9be 3aee f03d 22ce 293d
00000340: 4c3c 6dbd 772c e1bd ca6d 033d b97e 7f3e
00000350: 5801 a6bc e3c0 03be c9bd 353c a346 f83b
00000360: affe 88bd d509 aebe 60a7 543d 4ed8 45be
00000370: 6a7a 07be e67c a13b 71d6 5abe d607 90bc
00000380: 2d18 c3bc 9130 d9bd 53c1 abbc 310b 073d
00000390: 330e 153e 5168 ae3d 80ab bd3c 20ed f03d
000003a0: f93e 823d 10e7 5fbd cbe8 b83d d185 8bbd
000003b0: b262 9cbd 0a62 b0bd 0959 9dbd d06e e7bc
000003c0: 6ee0 263f 111f 323d 74d8 9ebd b53c ce3c
000003d0: 4c67 3e3c 67b9 50bd 1087 9f3c aae8 173d
000003e0: 92f3 7a3d 69a6 00be db42 813d 3f92 92be
000003f0: 44c7 9a3c 0523 743d c5aa 523e 1132 0c3d

layer_2.weight f4 [300, 400]
-0.10906524 -0.11344303 -0.10852262 -0.04481634 -0.007017437 0.06967408 -0.016988376 -0.005776446
-0.015409404 -0.12961388 0.03729097 -0.025580918 -0.02870952 0.015725385 -0.5813841 -0.12898271
-0.080806375 -0.11122173 -0.15287378 -0.07200507 -0.08378427 -0.06153009 0.010573711 -0.110777274
-0.0057988404 -0.0061252527 -0.08114339 0.054639805 0.010903597 -0.019060332 -0.03583271 -0.038081814
0.049613487 -0.004045234 0.020114642 -0.14770995 0.020399066 -0.0005531893 0.04093362 -0.106902294
-0.108912066 -0.03698523 -0.038626257 -0.01279353 0.001588922 -0.073928446 0.035453547 -0.07058875
-0.023214221 -0.15615031 0.0062703677 -0.0197761 -0.047232497 -0.05014801 0.046757933 -0.014725108
-0.004718371 -0.030287214 -0.014758498 -0.042994626 -0.032094702 -0.003188312 -0.030854512 -0.03105542
-0.012538175 0.012649227 0.0033532819 0.009202687 -0.03392001 0.113876864 -0.081727 0.037104722
-0.06777786 -0.0041153654 -0.038701728 0.00044254214 -0.03608725 -0.16469774 0.02423584 0.013055567
-0.061906014 0.009342454 -0.024603486 -0.041254506 -0.111467175 0.01684 -0.045702815 0.0054419786
-0.045519646 -0.04138097 -0.04938338 -0.009476878 -0.005963533 -0.092554905 -0.14051855 0.026582206
0.011228729 -0.017311644 -0.19178598 0.009133759 -0.012466651 -0.16170742 -0.0041741445 -0.03848914
0.026000414 -0.16515703 0.013027141 0.027958674 -0.120521255 -0.020435244 -0.13187748 -0.023237115
-0.019575004 0.04969347 0.0702422 -0.05190862 -0.018208114 -0.110146604 0.01836623 -0.15647033
-0.00023893267 -0.04591983 -0.011014791 -0.07528981 0.028115813 0.019696694 0.023798022 0.01199129
0.03480226 -0.020156149 -0.04665365 -0.07159488 0.018097404 -0.021916274 0.021983799 -0.0269727
-0.0603074 0.015695522 -0.018414432 -0.033957023 0.038714264 -0.005437893 -0.13855745 -0.051117953
-0.0032548904 0.044894118 0.04644634 0.006228507 -0.035620656 0.011222765 0.13831602 -0.060664028
0.027054848 0.04702047 0.03470632 0.02407505 -0.04736187 -0.0103328 0.043152124 -0.19025388
0.022622634 -0.20237076 0.017191503 -0.01982907 0.01942095 0.010937457 0.016545042 -0.027609723
0.03700823 -0.18445691 -0.0069231517 -0.040089928 0.029216914 -0.106729686 -0.04658696 -0.016564865
-0.03549238 -0.05016864 -0.03747278 -0.044188768 0.020432808 -0.07505317 -0.029522305 -0.0478531
-0.10909555 -0.0470102 -0.08789939 0.049729858 -0.033358786 -0.041030467 -0.04898783 -0.032474965
-0.007268878 -0.033205695 0.019031608 0.035699032 0.008295165 -0.009604018 -0.04514702 -0.05730391
-0.009883247 -0.07760823 -0.03993513 -0.12451125 -0.016522937 0.04342665 -0.007433901 -0.052629415
-0.12833895 -0.0805857 -0.028409762 -0.01690461 -0.022815831 -0.061663806 -0.13123557 -0.0037906119
-0.13890705 -0.04851467 -0.121986665 0.031642094 0.024000257 0.04177772 0.0003407927 -0.07186519
0.010326185 0.024589062 -0.17097346 -0.030057918 -0.04343332 -0.035545625 -0.017827328 -0.07874874
0.047141053 -0.1041109 -0.034589745 -0.13989641 -0.0006776042 0.10622673 -0.02112818 0.022721019
0.018216064 -0.027174193 -0.05351214 -0.0027419482 0.2974322 -0.034208536 -0.030036408 -0.14321837
-0.019522632 -0.11338236 -0.013201144 0.021733586 0.025748082 -0.031030709 -0.054653805 -0.02526613
00000000: 995d dfbd d254 e8bd 1b41 debd 5791 37bd
00000010: 87f2 e5bb 49b1 8e3d 352b 8bbc 5748 bdbb
00000020: ba77 7cbc 80b9 04be 6bbe 183d 138f d1bc
00000030: 3a30 ebbc 86d2 803c 97d5 14bf 0b14 04be
00000040: d07d a5bd 38c8 e3bd f28a 1cbe 6577 93bd
00000050: 1697 abbd fa06 7cbd 5c3d 2d3c 32df e2bd
00000060: 3304 bebb 58b6 c8bb 812e a6bd fdcd 5f3d
00000070: 00a5 323c 6a24 9cbc 52c5 12bd adfb 1bbd
00000080: 8337 4b3d e28d 84bb 76c7 a43c 4741 17be
00000090: f11b a73c e803 11ba 03aa 273d 97ef dabd
000000a0: 4a0d dfbd d37d 17bd 9136 1ebd f49b 51bc
000000b0: 6043 d03a cc67 97bd bd37 113d d690 90bd
000000c0: c02b bebc dee5 1fbe a877 cd3b 7d01 a2bc
000000d0: dd76 41bd 0068 4dbd 3f85 3f3d 9441 71bc
000000e0: 919c 9abb e41c f8bc a1cd 71bc 221b 30bd
000000f0: bc75 03bd 00f3 50bb 9ac2 fcbc f067 febc
00000100: eb6c 4dbc b43e 4f3c bcc2 5b3b dec6 163c
00000110: b5ef 0abd 4638 e93d 7c60 a7bd 1ffb 173d
00000120: 1ecf 8abd 30da 86bb b485 1ebd 0005 e839
00000130: 39d0 13bd 86a6 28be 3e8a c63c 04e7 553c
00000140: 2991 7dbd 1811 193c 408d c9bc 7cfa 28bd
00000150: e748 e4bd 0af4 893c e032 3bbd a052 b23b
00000160: cf72 3abd 187f 29bd 3a46 4abd e844 1bbc
00000170: be69 c3bb 6d8d bdbd 18e4 0fbe edc2 d93c
00000180: b4f8 373c 26d1 8dbc 8b63 44be c3a5 153c
00000190: ed40 4cbc a196 25be 43c7 88bb caa6 1dbd
000001a0: d2fe d43c ed1e 29be ca6f 553c 9709 e53c
000001b0: d9d3 f6bd d067 a7bc e40a 07be c35b bebc
000001c0: c25b a0bc 618b 4b3d 24db 8f3d 229e 54bd
000001d0: 2f29 95bc 8b94 e1bd c774 963c c239 20be
000001e0: 008a 7ab9 6f16 3cbd 6277 34bc 8b31 9abd
000001f0: 2253 e63c f65a a13c 12f4 c23c 1e77 443c
00000200: d18c 0e3d 821e a5bc e617 3fbd 56a0 92bd
00000210: 0241 943c c289 b3bc 5e17 b43c daf5 dcbc
00000220: e404 77bd e593 803c ddd9 96bc 8516 0bbd
00000230: d992 1e3d 5a30 b2bb 01e2 0dbe 0f61 51bd
00000240: 0050 55bb e5e2 373d 843e 3e3d 8118 cc3b
00000250: f7e6 11bd b0df 373c b7a2 0d3e d87a 78bd
00000260: 21a2 dd3c 8998 403d 3728 0e3d 0a39 c53c
00000270: 85fe 41bd e84a 29bc 48c0 303d ead1 42be
00000280: 1a53 b93c 483a 4fbe 32d5 8c3c 9370 a2bc
00000290: af18 9f3c 0533 333c 7889 873c c92d e2bc
000002a0: f195 173d 46e2 3cbe 9bdb e2bb 5635 24bd
000002b0: 4f58 ef3c 1895 dabd f8d1 3ebd 0ab3 87bc
000002c0: 7560 11bd a27d 4dbd 0f7d 19bd 48ff 34bd
000002d0: b462 a73c 7ab5 99bd c3d8 f1bc 9d01 44bd
000002e0: 7d6d dfbd c48d 40bd 9804 b4bd 89b1 4b3d
000002f0: 39a3 08bd 900f 28bd 76a7 48bd 7804 05bd
00000300: c52f eebb b202 08bd 2de8 9b3c 2639 123d
00000310: 72e8 073c 2c5a 1dbc 15ec 38bd 81b7 6abd
00000320: 58ed 21bc 10f1 9ebd 0593 23bd c1ff febd
00000330: 1c5b 87bc 25e0 313d 1598 f3bb f191 57bd
00000340: 496b 03be 1e0a a5bd 97bb e8bc 897b 8abc
00000350: 44e8 babc 3093 7cbd 9e62 06be ea6b 78bb
00000360: a63d 0ebe 52b7 46bd 25d4 f9bd 249b 013d
00000370: 309c c43c 1d1f 2b3d 6cac b239 0f2e 93bd
00000380: 292f 293c 006f c93c ab13 2fbe 063c f6bc
00000390: 23e7 31bd 4a98 11bd 9e0a 92bc 0547 a1bd
000003a0: fa16 413d 1838 d5bd faad 0dbd 0141 0fbe
000003b0: 40a1 31ba 668d d93d 0115 adbc 6e21 ba3c
000003c0: db39 953c 6a9c debc 8c2f 5bbd 42b2 33bb
000003d0: 0949 983e 401e 0cbd ea0e f6bc d6a7 12be
000003e0: eded 9fbc 0335 e8bd 9c49 58bc a20a b23c
000003f0: a4ed d23c 1d34 febc abdc 5fbd eafa cebc

layer_2.bias f4 [300]
-0.036249798 -0.033442922 -0.03636233 -0.023793334 0.22680072 0.0051440196 -0.085248135 -0.01667529
-0.22163032 0.009272164 -0.044436477 -0.22922704 -0.073442884 -0.007982139 0.603965 -0.04716703
-0.113397606 -0.045652788 -0.033314075 -0.049524624 -0.074447505 -0.0011297273 -0.029249638 -0.02667882
-0.0043346067 0.009253887 0.21896736 0.10108125 -0.056115974 -0.036141835 -0.042760447 -0.24106787
0.018640129 -0.09039716 -0.016100233 -0.10974567 -0.14268285 -0.064830005 0.0014301044 -0.029914051
-0.21098232 -0.30089176 -0.01107398 0.0068361 -0.03981914 -0.41318673 0.023868963 -0.06526281
-0.33183208 -0.087066 -0.009675701 -0.18804187 0.02513611 -0.1762256 0.2041467 0.012173031
-0.15531176 -0.027377902 -0.0063230293 -0.058991782 -0.04514762 -0.039079316 0.0040146443 0.035750918
-0.19995962 0.012739706 -0.06305585 -0.04995934 0.056444827 0.08976928 0.00063945894 -0.03247412
0.102320746 -0.0042655375 -0.031549897 -0.009595058 -0.023501547 -0.23285337 -0.016478654 -0.016317429
0.01085072 -0.013182079 0.003351462 -0.044387326 0.0060068206 0.5187947 -0.044886515 -0.019872187
-0.2127016 -0.032597806 -0.008215657 -0.008259108 -0.090744175 0.0025243359 0.24453396 -0.07177209
-0.023526177 -0.028479613 0.017715145 -0.07975729 -0.037471496 -0.3397712 -0.2625935 0.08073527
-0.37473503 -0.10436751 0.08943285 -0.06539987 -0.017149301 -0.03931884 -0.062626116 -0.011876613
-0.011097754 -0.05509563 0.07587228 -0.009461638 0.012886254 0.01580576 0.03974692 -0.03676606
0.023977319 -0.06055304 0.58605057 -0.08937665 -0.52902174 -0.025863295 0.015362704 -0.04667723
-0.012235294 -0.028467814 0.11109334 -0.035719942 0.010932935 -0.050467663 -0.21986097 -0.07605887
0.033631187 0.052983712 0.035182368 -0.025404895 -0.06566266 -0.02086586 0.010053732 -0.037594113
0.022732478 0.063904606 -0.028154686 -0.0009813765 0.4327289 -0.046775807 0.003711106 -0.13734567
0.004105202 -0.00031064797 -0.06991274 -0.04796714 0.038883075 -0.020994622 -0.06933505 -0.1723272
0.01669887 -0.011753039 0.00372409 -0.010290444 0.037106227 -0.22846659 -0.038041633 -0.046844024
-0.030876566 -0.00017049133 -0.1351794 -0.052900728 0.029854484 0.042115454 -0.011039779 -0.05383811
-0.011703652 -0.0075697727 -0.07293245 0.00056468573 -0.06858997 0.043038454 0.010661198 0.08312031
-0.06989695 -0.030002361 -0.04101624 -0.0067853243 -0.055996604 -0.03657825 -0.047172565 -0.07911642
0.057119496 0.021419965 -0.02383615 1.4048321 -0.10309429 -0.03515684 -0.010854648 -0.04250477
-0.0013623566 -0.053314205 0.5000222 0.003806783 -0.07574732 -0.0390321 -0.0032984933 -0.015347416
-0.004481744 -0.03589725 0.015698548 0.010329059 0.039010637 -0.04772448 0.058552478 -0.0818604
-0.0012581144 -0.016879935 -0.07628909 -0.28301877 -0.03266719 0.028086703 -0.005492006 0.090445235
-0.018968482 -0.055345155 -0.24389249 -0.005073341 -0.026149327 0.0017765509 -0.02967323 0.11730584
-0.020520149 -0.040020544 -0.05133075 -0.068514906 0.0015092756 -0.064353734 0.004812859 -0.03842234
0.03238898 0.2470903 0.012793361 -0.10621131 0.18807513 0.075595506 -0.40649185 -0.020963918
-0.021598807 0.0040286537 -0.061398506 -0.017923148 -0.06804055 -0.11556044 -0.018813582 -0.045999356
00000000: ab7a 14bd 72fb 08bd abf0 14bd 3dea c2bc
00000010: 733e 683e 2a8f a83b 9396 aebd 9e9a 88bc
00000020: 0ff3 62be 46ea 173c 0603 36bd 7eba 6abe
00000030: 3969 96bd 84c7 02bc 739d 1a3f 3732 41bd
00000040: 013d e8bd 6bfe 3abd 5774 08bd 55da 4abd
00000050: ef77 98bd 5c13 94ba f09c efbc 8a8d dabc
00000060: 5109 8ebb 9e9d 173c fb38 603e b003 cf3d
00000070: ddd9 65bd 7609 14bd 9425 2fbd 7fda 76be
00000080: 2fb3 983c 2522 b9bd a3e4 83bc 56c2 e0bd
00000090: 741b 12be 98c5 84bd 5772 bb3a 500e f5bc
000000a0: c00b 58be 7c0e 9abe a36f 35bc 5d01 e03b
000000b0: 6519 23bd 368d d3be d888 c33c 82a8 85bd
000000c0: e5e5 a9be a94f b2bd d586 1ebc 0c8e 40be
000000d0: 3eea cd3c 7c74 34be d50b 513e 6571 473c
000000e0: 0c0a 1fbe 9f47 e0bc 6a31 cfbb 5ea1 71bd
000000f0: b6ec 38bd a211 20bd 478d 833b 8e6f 123d
00000100: 37c2 4cbe 33ba 503c 6d23 81bd 2aa2 4cbd
00000110: b132 673d f5d8 b73d 5da1 273a 9503 05bd
00000120: 8a8d d13d ecc5 8bbb 773a 01bd 9734 1dbc
00000130: 5186 c0bc 1d71 6ebe 3efe 86bc 21ac 85bc
00000140: 38c7 313c a6f9 57bc 34a4 5b3b 7ccf 35bd
00000150: ddd4 c43b bbcf 043f ecda 37bd ffca a2bc
00000160: 73ce 59be 4785 05bd f79a 06bc 3651 07bc
00000170: 15d8 b9bd 546f 253b 1c67 7a3e 3ffd 92bd
00000180: f8b9 c0bc 144e e9bc 5a1f 913c ca57 a3bd
00000190: b67b 19bd 7ef6 adbe a872 86be 8958 a53d
000001a0: 45dd bfbe a2be d5bd 9228 b73d 5ef0 85bd
000001b0: b17c 8cbc cb0c 21bd 1f42 80bd 2096 42bc
000001c0: 5bd3 35bc f5ab 61bd ed62 9b3d fc04 1bbc
000001d0: de20 533c 157b 813c abcd 223d 0298 16bd
000001e0: 156c c43c 7706 78bd 6907 163f 1b0b b7bd
000001f0: f86d 07bf 43df d3bc dab3 7b3c a030 3fbd
00000200: 8b76 48bc 5535 e9bc e884 e33d 134f 12bd
00000210: 0e20 333c 2eb7 4ebd 3c23 61be c1c4 9bbd
00000220: dbc0 093d 7305 593d 631b 103d ed1d d0bc
00000230: 257a 86bd e1ee aabc 69b8 243c 49fc 19bd
00000240: 7639 ba3c 6be0 823d a8a4 e6bc 88a1 80ba
00000250: a48e dd3e fd97 3fbd 0736 733b 58a4 0cbe
00000260: ee84 863b 77de a2b9 692e 8fbd 3179 44bd
00000270: dc43 1f3d eafc abbc 89ff 8dbd 8b76 30be
00000280: 12cc 883c d28f 40bc dd0f 743b 4099 28bc
00000290: b3fc 173d 25f3 69be 8bd1 1bbd 85df 3fbd
000002a0: daf0 fcbc ebc5 32b9 786c 0abe 6fae 58bd
000002b0: 6491 f43c 4181 2c3d 30e0 34bc 5a85 5cbd
000002c0: adc0 3fbc db0b f8bb 9c5d 95bd 6b07 143a
000002d0: e678 8cbd 1749 303d 4eac 2e3c fb3a aa3d
000002e0: 2226 8fbd 83c7 f5bc a500 28bd 6d57 debb
000002f0: b25c 65bd 13d3 15bd 0538 41bd ca07 a2bd
00000300: 22f6 693d ec78 af3c 0844 c3bc 8ad1 b33f
00000310: 1923 d3bd 9e00 10bd b2d7 31bc 7b19 2ebd
00000320: 1a91 b2ba ff5f 5abd 7401 003f 387b 793b
00000330: 6921 9bbd 20e0 1fbd 892b 58bb ba73 7bbc
00000340: 98db 92bb ff08 13bd 3e9a 803c 373b 293c
00000350: 9ec9 1f3d bf7a 43bd b9d4 6f3d 6da6 a7bd
00000360: 50e7 a4ba ca47 8abc 743d 9cbd d6e7 90be
00000370: 08ce 05bd 1616 e63c 49f6 b3bb 5a3b b93d
00000380: ca63 9bbc 9ab1 62bd f4be 79be 453e a6bb
00000390: 1d37 d6bc 28db e83a 4615 f3bc 0b3e f03d
000003a0: df19 a8bc 95ec 23bd 3140 52bd 8b51 8cbd
000003b0: e3d2 c53a e4cb 83bd 30b5 9d3b be60 1dbd
000003c0: 4faa 043d 3d05 7d3e 3f9b 513c 5185 d9bd
000003d0: c496 403e d1d1 9a3d b31f d0be 86bc abbc
000003e0: fbef b0bc cc02 843b 007d 7bbd 91d3 92bc
000003f0: d858 8bbd f4aa ecbd f11e 9abc d269 3cbd

layer_3.weight f4 [1, 300]
-0.030620728 0.013388822 0.02215729 -0.0700172 -0.0010214703 0.0027777287 -0.027494295 0.01896644
-0.02506556 0.019057643 -0.0012525794 -0.005540125 0.011913988 0.00017095786 0.006669391 0.026543658
-0.0016059311 -0.012258449 -2.2142996e-05 0.00018181631 0.0034909719 0.04962248 0.011059447 -0.01362363
-0.0011097842 0.027861737 -0.005391917 -0.024300512 -0.0014757428 0.012647871 0.017624538 -0.006501736
0.015072981 -3.0223304e-05 0.03962651 -0.005075989 -0.0004364705 -0.028528735 -0.020942582 -0.012815597
-0.023017537 0.0011903819 -0.040409286 -0.020056289 -0.00025367667 -0.015255924 -0.046107154 -0.0070956647
0.0038176882 -0.0018431443 0.03521724 0.000560904 0.04403848 -0.0059224656 -0.003666528 -0.038062204
0.027377155 -0.004026454 -0.025265977 0.0115255285 0.0067114606 0.0007346138 -0.013481854 -0.04774471
0.0004537833 -0.011571873 -0.045246713 0.001925771 0.012492891 0.0067346003 -0.037431195 0.00087482657
0.008011625 -0.023348084 0.03005821 0.00015098706 -0.027765194 0.015912127 -0.014782771 9.73508e-05
0.006483173 0.0025793333 -0.00073169544 -0.012087244 -0.022810679 -0.012279467 0.023363993 -0.036354534
-0.017294984 0.046297643 0.013852952 0.20408513 0.00015989224 -0.049799696 0.14004892 -0.018436769
-0.030720811 -0.00013542516 0.028105527 0.030131785 0.028415442 0.011827737 -0.011516091 0.041792475
-0.0052160667 -0.027300538 -0.023668021 0.047591984 -0.014906815 -0.003399618 -0.022439102 -0.0009673129
-0.017077213 0.0058706636 0.012572765 -0.044983726 -0.007986836 0.03321248 -0.0041237976 0.04770494
-0.00020203492 0.010117769 -0.012775544 2.268193e-06 -0.028774695 0.025334042 -0.024761204 -0.046692427
-0.0010594561 -0.03670728 -0.0024681927 -0.01878271 0.01925473 -0.030755073 -0.003875679 -0.0015488189
-0.022644792 -0.0016292852 -0.02672805 -0.012851394 -0.0046370146 0.032568797 0.0019291121 8.579086e-05
0.03205532 -0.01594853 0.01133057 0.011734898 0.029794103 0.005040637 0.021751948 -0.02624523
0.032296937 -0.0142357275 -0.029502088 -0.0012665052 -0.0002542522 -0.0005767637 0.022006 -0.006390019
0.034877278 -0.0071093263 0.004931015 -0.051044002 0.008474648 0.023078773 0.024759175 0.00986773
-0.028506348 0.0012187721 -0.0065044607 -0.0014466307 -0.014063947 -0.022770315 0.018555667 0.008247978
-0.02062403 0.004585813 -0.0055208337 0.020171588 0.0018462028 -0.016569184 0.016723365 -0.009635351
0.0020975452 -0.0050599035 0.00554245 0.013158724 -0.038217753 0.016847884 -0.02960096 0.005616183
0.004834942 0.0474468 0.0033111116 0.010637278 -0.018397449 -0.036434494 -0.0033486318 0.00015933004
-0.00022807115 -0.01488968 -0.010903845 0.0015154493 -0.028615009 -0.031969853 -0.0058357497 -0.01461801
-0.020202022 0.009731101 -0.0068678125 -0.033879653 0.011300292 0.02661759 -0.020195141 -0.028227003
-0.0228342 -4.6571255e-05 -0.008175737 -0.028359005 0.025339922 -0.017559877 -0.026010096 -0.0075912485
0.01668183 -0.0027897018 0.017437449 -0.020618964 -0.0013256364 -0.015526852 0.023231642 0.030233651
-0.013059238 -0.014302003 8.482884e-05 -0.0020237411 -0.013549738 -0.026037436 -0.051131185 0.0084397625
1.4523211e-05 0.00070793007 0.034858253 -0.0021242525 -0.024990618 0.014373467 -0.023448521 -0.010532113
0.027585603 0.025539221 0.011857504 0.0024054532 0.013398963 -0.05289623 -0.0521955 -0.018536206
00000000: 52d8 fabc ca5c 5b3c 3483 b53c 2e65 8fbd
00000010: dbe2 85ba 8e0a 363b b73b e1bc 825f 9b3c
00000020: 4a56 cdbc c61e 9c3c 972d a4ba f089 b5bb
00000030: e332 433c 2743 3339 e88a da3b 1672 d93c
00000040: 1b7e d2ba a9d7 48bc b9bf b9b7 f2a5 3e39
00000050: cac8 643b f140 4b3d af32 353c a535 5fbc
00000060: 2e76 91ba 4c3e e43c aeae b0bb de11 c7bc
00000070: b66d c1ba 0439 4f3c 5661 903c 840c d5bb
00000080: aaf4 763c 0d88 fdb7 684f 223d 7b54 a6bb
00000090: 14d6 e4b9 18b5 e9bc c78f abbc 82f8 51bc
000000a0: 468f bcbc 9706 9c3a 3584 25bd 164d a4bc
000000b0: e8ff 84b9 fcf3 79bc dbda 3cbd c082 e8bb
000000c0: 2e32 7a3b a995 f1ba f43f 103d a109 133a
000000d0: b161 343d 3e11 c2bb 224a 70bb 1de7 1bbd
000000e0: 0e46 e03c 58f0 83bb 98fa cebc 92d5 3c3c
000000f0: d0eb db3b 1993 403a ffe2 5cbc f58f 43bd
00000100: c3e9 ed39 f497 3dbc 9e54 39bd 276a fc3a
00000110: fcae 4c3c ecad dc3b 7451 19bd 9e54 653a
00000120: 3143 033c 7b44 bfbc a33c f63c 4852 1e39
00000130: d573 e3bc 265a 823c 6f33 72bc d028 cc38
00000140: cc70 d43b 080a 293b 40cf 3fba 9309 46bc
00000150: 76dd babc d12f 49bc d865 bf3c 7ee8 14bd
00000160: 36ae 8dbc 99a2 3d3d 7ef7 623c b1fb 503e
00000170: bfa8 2739 c4fa 4bbd fc68 0f3e b508 97bc
00000180: 36aa fbbc ea00 0eb9 903d e63c efd6 f63c
00000190: 80c7 e83c 20c9 413c fdad 3cbc 962e 2b3d
000001a0: 8aeb aabb 61a5 dfbc 70e3 c1bc d0ef 423d
000001b0: b73b 74bc 20cc 5ebb 35d2 b7bc 4593 7dba
000001c0: 83e5 8bbc b25e c03b 00fe 4d3c db40 38bd
000001d0: 38db 02bc cf09 083d ec20 87bb 4166 433d
000001e0: 56d9 53b9 00c5 253c 8450 51bc 4237 1836
000001f0: e9b8 ebbc 5689 cf3c 02d8 cabc 8f40 3fbd
00000200: 73dd 8aba 5f5a 16bd 67c1 21bb 33de 99bc
00000210: 18bc 9d3c 10f2 fbbc 1bff 7dbb bd01 cbba
00000220: 9281 b9bc bd8d d5ba c9f4 dabc a78e 52bc
00000230: 19f2 97bb dc66 053d 43da fc3a 9eea b338
00000240: 704c 033d 7ea6 82bc dba3 393c bb43 403c
00000250: c312 f43c ee2b a53b 2431 b23c 3d00 d7bc
00000260: cb49 043d f83c 69bc 5dae f1bc dd00 a6ba
00000270: 274d 85b9 f531 17ba ed45 b43c 5d63 d1bb
00000280: 7adb 0e3d 5af5 e8bb 5a94 a13b 8413 51bd
00000290: 40d9 0a3c b20f bd3c c1d3 ca3c 42ac 213c
000002a0: 2586 e9bc 35bf 9f3a 5f23 d5bb df9c bdba
000002b0: 786c 66bc d088 babc 0e02 983c 8722 073c
000002c0: baf3 a8bc 9644 963b 1ce8 b4bb e33e a53c
000002d0: 49fc f13a 19bc 87bc 70ff 883c 97dd 1dbc
000002e0: f876 093b 8ccd a5bb 719d b53b b097 573c
000002f0: 388a 1cbd 9304 8a3c b67d f2bc f507 b83b
00000300: 6f6e 9e3b 9357 423d 3cff 583b fa47 2e3c
00000310: 3fb6 96bc 563c 15bd b874 5bbb d511 2739
00000320: 6226 6fb9 d8f3 73bc 0aa6 32bc 0aa2 c63a
00000330: 066a eabc d2f2 02bd d139 bfbb 6180 6fbc
00000340: b67e a5bc 326f 1f3c 630b e1bb 64c5 0abd
00000350: dc24 393c 220d da3c 4870 a5bc 513c e7bc
00000360: ca0e bbbc 8155 43b8 87f3 05bc 2551 e8bc
00000370: ab95 cf3c bbd9 8fbc 2013 d5bc 02c0 f8bb
00000380: 55a8 883c 6ed3 36bb fbd8 8e3c 1ae9 a8bc
00000390: fac0 adba 5664 7ebc 4950 be3c 90ac f73c
000003a0: 6af6 55bc f352 6abc 23e6 b138 bea0 04bb
000003b0: b8ff 5dbc 764c d5bc ef6e 51bd ee46 0a3c
000003c0: b7a8 7337 6294 393a 87c7 0e3d 0b37 0bbb
000003d0: 20b9 ccbc b17e 6b3c 1d17 c0bc e28e 2cbc
000003e0: 34fb e13c a137 d13c fa45 423c cfa4 1d3b
000003f0: 5387 5b3c b8a9 58bd f3ca 55bd 3ed9 97bc
