models/ddpg_model_episode_350_critic.pth (torch, 674589 bytes, 5 tensors)

layer_1.weight f4 [400, 117]
0	0x3f92c903	1.1467594
1	0x3de2aa3d	0.110676266
2	0x3ee27272	0.4422794
3	0xbdc7fee4	-0.097654134
4	0xbb88dc22	-0.0041766325
5	0xbcf9e3dd	-0.030504161
6	0x3e062ad3	0.13102274
7	0xbd462762	-0.048377402
8	0xbf710757	-0.94151825
9	0xbf6be7e8	-0.92150736
10	0xbdce11c1	-0.1006198
11	0xbd8c19a3	-0.06840827
12	0x3f3feb35	0.7496827
13	0x3f2cbbb1	0.67473894
14	0xbea37cf8	-0.3193128
15	0xbfdf4105	-1.7441717
16	0xbf39e647	-0.72617
17	0xbe9ab51a	-0.30216295
18	0x3db0854f	0.086191766
19	0x3e82386a	0.25433666
20	0xbf6097e7	-0.87731785
21	0x3f09ebdd	0.53875524
22	0xbe2dedff	-0.1698532
23	0xbe891082	-0.26770407
24	0x3e1089ad	0.14115019
25	0xbecdedbb	-0.40220436
26	0xbdec6cf8	-0.11544222
27	0xbe4b612f	-0.19861291
28	0x3d1b1b60	0.037867904
29	0x3f70656c	0.9390476
30	0x3e51693a	0.20450297
31	0x3dbb5cbc	0.09148547
32	0x3f323536	0.69612443
33	0xbda39495	-0.07987324
34	0x3e9fe17f	0.31226727
35	0x3cd5085a	0.026004959
36	0x3ee678ae	0.45013946
37	0x3da93d06	0.082635924
38	0xbf104d09	-0.56367546
39	0x3f210e95	0.62912875
40	0x3da79c7c	0.08184144
41	0x3fb17ce8	1.3866243
42	0x3f07c367	0.53032535
43	0x3e9d387d	0.3070716
44	0x3ddffe4c	0.10937175
45	0x3e38b53f	0.1803789
46	0xbc45c6ea	-0.012071351
47	0xbd8df310	-0.06931126
48	0xbea9ef4b	-0.3319038
49	0xbdd3552f	-0.10318982
50	0x3e76f0f5	0.24115355
51	0xbda72c57	-0.08162754
52	0x3fdc81c3	1.72271
53	0xbeb4b994	-0.35297835
54	0xbe326d57	-0.17424522
55	0x3fb8e15f	1.4443778
56	0x3b917b31	0.0044397344
57	0xbe8f6928	-0.28009915
58	0x3f92db6a	1.147321
59	0x3e0879b0	0.1332767
60	0x3eff777b	0.49895844
61	0xbe63eb06	-0.22257623
62	0xbd48bf55	-0.049010593
63	0xbf266d69	-0.65010697
64	0x3e2b2552	0.16713455
65	0x3f4fd690	0.8118677
66	0xbf5b9092	-0.8576747
67	0x3e7c5855	0.24643071
68	0xbf209025	-0.6271995
69	0x3e405a86	0.18784532
70	0xbe68a0b7	-0.22717558
71	0xbec2d43e	-0.38052553
72	0xbf9b26f4	-1.2121263
73	0x3d841b44	0.06450513
74	0xbe8b1d67	-0.2717087
75	0x3f182ad4	0.5944035
76	0xbf2f4ed0	-0.68479633
77	0x3af883ae	0.0018960142
78	0x3f1b8d4e	0.6076249
79	0xbd88752f	-0.06662976
80	0xbf5c003f	-0.85937876
81	0xbf3af600	-0.73031616
82	0xbeeb6e92	-0.45982796
83	0xbe075fb7	-0.13220106
84	0x3eb7e45f	0.3591642
85	0xbee540ce	-0.44776005
86	0xbedad660	-0.4274168
87	0x3e0d1e73	0.13781147
88	0x3ea929a4	0.33039582
89	0xbe029f50	-0.12756085
90	0x3e6db818	0.23214757
91	0xbe42ae9d	-0.19011922
92	0xbe212ea3	-0.15740447
93	0x3e287a07	0.164528
94	0x3e94492b	0.28962073
95	0xbbe33fea	-0.0069351094
96	0x3e26defc	0.16296
97	0xbeece6c6	-0.46269816
98	0x3e709122	0.23492864
99	0xbebec879	-0.37262323
100	0xbd4ae676	-0.04953619
101	0x3f743dd3	0.95406836
102	0xbf80d56d	-1.0065132
103	0xbf93cc4e	-1.1546724
104	0x3dcf56ae	0.10123955
105	0xbf3dc3c3	-0.74126834
106	0x3d2f999d	0.042871106
107	0xbe04cd6a	-0.12968984
108	0xbf5567a5	-0.83361274
109	0xbe49d763	-0.1971107
110	0x3f2fd8c5	0.6869014
111	0xbf631f4d	-0.88719636
112	0xbef30953	-0.4746805
113	0xbf2438e8	-0.6414933
114	0x3e1837d4	0.14865047
115	0xbdd1407f	-0.1021738
116	0x3f072a52	0.5279895
117	0x3fb5a270	1.4190197
118	0xbd645ac3	-0.05575062
119	0xbee2b87e	-0.4428138
120	0xbe75f251	-0.24018218
121	0x3c8a338a	0.016870279
122	0x3e02c012	0.12768582
123	0x3dffed2b	0.12496408
124	0x3dac956f	0.0842694
125	0x3eb32aea	0.34993678
126	0x3efcd1d2	0.4937883
127	0xbd8c6b5e	-0.06856416
128	0xbe187298	-0.14887464
129	0xbdebe61f	-0.115185015
130	0xbe26e166	-0.1629692
131	0xbeeb2bb7	-0.4593179
132	0xbff674e7	-1.9254426
133	0xbd5bcd7d	-0.053662766
134	0xbe93191b	-0.2873009
135	0x3ce57a50	0.028012425
136	0x3e668618	0.2251209
137	0x3ea1a63f	0.31572148
138	0xbe7c9eec	-0.24669999
139	0xbf7b5ff1	-0.9819327
140	0xbe291332	-0.16511229
141	0xbf1566e1	-0.58360106
142	0xbf0854d1	-0.5325442
143	0xbe1f5db4	-0.15563089
144	0xbed091dc	-0.40736282
145	0xbc8e3f4f	-0.017364172
146	0x3e794adc	0.24344963
147	0x3e8e5e9a	0.2780655
148	0x3e8a8bac	0.27059686
149	0xbd0be349	-0.034152303
150	0xbc844e8b	-0.016150733
151	0xbf10e945	-0.5660594
152	0x3f37031d	0.71489125
153	0xbeb9f704	-0.3632127
154	0x3db91363	0.09036901
155	0xbf65cde3	-0.89767283
156	0xbe2d3eb4	-0.1691845
157	0x3c9515b9	0.018198835
158	0x3f071bec	0.5277698
159	0xbebc4556	-0.3677165
160	0xbeec25fb	-0.46122727
161	0xbdf92d36	-0.121668264
162	0xbdb495ae	-0.08817612
163	0x3f0ceb91	0.55046946
164	0x3d8d5e61	0.06902767
165	0xbf91ca8c	-1.1389937
166	0x3f0d3fdf	0.55175585
167	0x3d2b4e95	0.04182299
168	0x3d49bd86	0.04925301
169	0x3f3c1591	0.7347041
170	0x3f0e5584	0.55599236
171	0xbe3d5ee2	-0.18493226
172	0x3f1cdb3e	0.6127204
173	0x3f360782	0.71105206
174	0xbe76c6e7	-0.24099313
175	0x3e5841f0	0.21118903
176	0x3e4df74e	0.2011387
177	0x3f1bd0d6	0.60865533
178	0x3da266b7	0.079297476
179	0x3dd0fd66	0.10204582
180	0xbea1c7db	-0.3159779
181	0x3e9486e5	0.29009166
182	0xbc08b359	-0.008343541
183	0x3db0dafb	0.08635517
184	0xbed4559e	-0.4147157
185	0x3ebd3ab4	0.3695885
186	0x3e06454a	0.13112369
187	0x3ecb56fe	0.39714807
188	0x3edf6bb1	0.4363685
189	0xbe826e75	-0.25474897
190	0xbcec65e1	-0.028857173
191	0x3f1c8372	0.6113807
192	0xbe921c94	-0.28537428
193	0xbfcabea4	-1.5839429
194	0x3cc79e0e	0.024367359
195	0xbe19b413	-0.15010099
196	0x3dc7b44b	0.09751185
197	0xbfaca604	-1.3488164
198	0xbeee773b	-0.4657534
199	0x3e0f6084	0.14001662
200	0xbe1fae89	-0.15593924
201	0x3e4dfefb	0.20116799
202	0xbf9ab165	-1.2085387
203	0xbec320de	-0.38111013
204	0xbf16078f	-0.58605283
205	0x3f5c6f67	0.86107486
206	0xbe770935	-0.24124606
207	0xbe9d56d8	-0.3073032
208	0xbe35c31b	-0.17750208
209	0xbea0dceb	-0.31418547
210	0x3e165db0	0.14684176
211	0x3f4ca10f	0.79933256
212	0x3f82ca80	1.0218048
213	0xbf0fc578	-0.5616069
214	0x3e96a0d4	0.29419577
215	0xbeef8a45	-0.4678518
216	0xbec1c51b	-0.37845692
217	0xbd6a2bc4	-0.057170644
218	0x3df0b981	0.11754132
219	0xbdbb8670	-0.09156501
220	0x3c48f9db	0.012266601
221	0xbb948af4	-0.004533166
222	0x3d0a42f6	0.033755265
223	0xbe0f12fc	-0.13972086
224	0xbf97d443	-1.1861652
225	0xbcda0898	-0.026615426
226	0xbf66c296	-0.90140665
227	0x3f8d56ba	1.1042092
228	0x3ddde8c5	0.10835413
229	0xbf83d77c	-1.0300136
230	0x3e8bdc0c	0.2731632
231	0x3e1a3a81	0.1506138
232	0x3ca3965b	0.019969156
233	0xbe3993f8	-0.18122852
234	0xbfc8bf8f	-1.5683459
235	0xbdb90f78	-0.090361536
236	0x3e7fcd9c	0.24980778
237	0x3d554577	0.0520682
238	0x3c0ad70d	0.008474124
239	0x3c370d0f	0.011172547
240	0x3cb54863	0.022129243
241	0xbe11dcf1	-0.14244439
242	0x3c60f01a	0.01372912
243	0xbd8ab7c4	-0.06773332
244	0xbdc4873b	-0.09596106
245	0x3e4dd9f2	0.20102671
246	0x3c268d06	0.010165459
247	0xbd54321d	-0.051805604
248	0x3e5a2536	0.21303257
249	0x400caa51	2.1978953
250	0xbeb4b382	-0.35293204
251	0x3e718773	0.23586826
252	0xbbf03fae	-0.00733181
253	0xbe6f47e8	-0.23367274
254	0x3df05f5d	0.11736939
255	0x3e0a86a1	0.1352792

layer_1.bias f4 [400]
0	0x3d516d4a	0.051129617
1	0x3d214636	0.0393736
2	0xbe0e866d	-0.13918467
3	0xbc881025	-0.01660926
4	0xbd7c6bda	-0.061626293
5	0x3cb8eb22	0.022573058
6	0x3d141e3a	0.03616164
7	0xbdda8613	-0.10670104
8	0xbdbb13b1	-0.09134615
9	0xbcfeb9f3	-0.031094527
10	0xbd3df9af	-0.046380695
11	0x3d8f1563	0.06986501
12	0xbd9ad3c7	-0.075599246
13	0x3d2511d2	0.040300198
14	0x3f4b455d	0.79402715
15	0xbaa4e836	-0.0012581411
16	0xbf5cb4c3	-0.8621332
17	0xbd711dfb	-0.058866482
18	0xbd852abd	-0.06502292
19	0xbebf6e23	-0.37388715
20	0xbcdc1225	-0.02686412
21	0x3e7afa86	0.2450963
22	0xbdf7556c	-0.1207684
23	0xbdb8fbb8	-0.090323865
24	0xbe5a789e	-0.21335074
25	0x3d786f2a	0.06065289
26	0xbd7eb762	-0.062186606
27	0xbd70cc1a	-0.058788396
28	0xbd114997	-0.03547057
29	0xbd151eaa	-0.036406197
30	0xbd5a5924	-0.053307667
31	0xbe32a108	-0.17444241
32	0x3dbcb34f	0.09213888
33	0xbc99909c	-0.018745713
34	0x3da978bf	0.082749836
35	0x3be197dc	0.006884558
36	0xbdc56472	-0.09638299
37	0xbe324891	-0.17410494
38	0xbd7b45fe	-0.061346047
39	0xbe05efe8	-0.13079798
40	0xbde8a27f	-0.11359119
41	0xbdd89639	-0.10575528
42	0xbd88eef9	-0.066862054
43	0x3c160290	0.009155884
44	0x3d1e1e06	0.03860285
45	0xbda4a0d5	-0.08038489
46	0x3c9b2610	0.018939048
47	0x3dfc608b	0.123231016
48	0xbc99540a	-0.01871683
49	0xbd8b7484	-0.06809333
50	0x3dbd4c7d	0.092431046
51	0xbd0dfcd0	-0.03466493
52	0xbdc984a8	-0.09839755
53	0xbec29ab4	-0.38008654
54	0xbc635314	-0.013874788
55	0x3cc126a4	0.023577996
56	0xbe72e63a	-0.23720637
57	0xbea7a50d	-0.3274311
58	0xbe03d46f	-0.12874006
59	0xbdda5d64	-0.10662344
60	0xbea59422	-0.3233958
61	0xba958d34	-0.001140988
62	0x3a985e49	0.0011624779
63	0xbe6c4114	-0.230717
64	0x3e959c1d	0.29220667
65	0xbd53eeae	-0.051741295
66	0xbea8a488	-0.32938027
67	0x3e20be23	0.15697531
68	0xbd663874	-0.05620618
69	0x3d11f995	0.03563841
70	0xbd721451	-0.059101406
71	0xbed9badd	-0.42525378
72	0x3e387577	0.1801356
73	0xbd9ca94c	-0.07649478
74	0x3d09b7f9	0.033622716
75	0xbd58e750	-0.05295497
76	0xbd48ff8c	-0.049071833
77	0x3c8e2968	0.017353728
78	0xbc8f169c	-0.017466836
79	0x3c8c5384	0.017129667
80	0x3f125c88	0.5717244
81	0x3db0f833	0.0864109
82	0xbda13a74	-0.07872477
83	0x3c52d834	0.01286893
84	0xbdda2fa6	-0.106536195
85	0xbd3fe13f	-0.04684567
86	0x3b53b360	0.003230296
87	0xbe9dcd78	-0.30820823
88	0x397d140a	0.00024135425
89	0xbe04df6c	-0.12975854
90	0x3c187300	0.009304762
91	0x3db6ed25	0.089319505
92	0xbdd78038	-0.10522503
93	0xbcdd1ab3	-0.02699027
94	0xbd9586e8	-0.07301122
95	0x3e9bb80d	0.30413857
96	0x3cf30cac	0.029669128
97	0xbc8ca287	-0.017167343
98	0xbab928c0	-0.0014126524
99	0x3d37a182	0.04483176
100	0xbde7e3b5	-0.113227285
101	0xbddc13ad	-0.1074594
102	0xbd6c1ca5	-0.057644505
103	0x3d1fa8f6	0.038979493
104	0x3bd0df91	0.0063743074
105	0x3d39af14	0.045332983
106	0x3d0258c4	0.031822935
107	0xbd9d0ae6	-0.07668094
108	0xbda88faf	-0.082305305
109	0xbde2fec9	-0.11083753
110	0x3aac1836	0.0013129774
111	0xbf0c8da8	-0.5490365
112	0xbe306218	-0.1722492
113	0xbd95a714	-0.07307258
114	0x3ef8bfcf	0.48583838
115	0x3ca781fc	0.020447724
116	0x3e81fa72	0.25386387
117	0x3d0ca180	0.034333706
118	0xbe9749e1	-0.29548553
119	0xbda471ea	-0.0802954
120	0x3dad0b25	0.08449391
121	0x3d07eda3	0.033185612
122	0xbbcb66ba	-0.0062073143
123	0x3bb8cf2b	0.0056399307
124	0x3c002de0	0.007823437
125	0x3c0ace22	0.008471997
126	0x3c59857f	0.013276457
127	0x3d05e5e6	0.03268995
128	0xbc94fad4	-0.01818601
129	0x3e6af342	0.22944358
130	0xbf0b41eb	-0.5439746
131	0xbe76cfab	-0.24102657
132	0xbd84165c	-0.06449577
133	0x3d6a7bff	0.05724716
134	0xbd07172a	-0.032981075
135	0x3bfefc60	0.0077815503
136	0xbda59f7c	-0.0808706
137	0x3b930241	0.0044863527
138	0x3aae3fea	0.0013294194
139	0xbd568006	-0.052368186
140	0xbdbbd5e5	-0.091716565
141	0xbb329a54	-0.0027252631
142	0x3c2fd57e	0.010732053
143	0xbb44fdc5	-0.0030058485
144	0x3d8523b3	0.0650095
145	0xbe33d7d5	-0.17562802
146	0x3dbe35d7	0.09287613
147	0x3d1108f4	0.03540893
148	0x3d858bd8	0.06520814
149	0xbe407699	-0.18795241
150	0x3d26022e	0.040529422
151	0xbd420578	-0.047368497
152	0x3c83ecf3	0.016104197
153	0xbc8bbc08	-0.017057434
154	0xbdba5fe6	-0.091003224
155	0xbd685b51	-0.05672771
156	0xbdb14c67	-0.08657151
157	0xbbb99a10	-0.0056641176
158	0x3d01886f	0.031624254
159	0xbd9edb44	-0.07756665
160	0x3d56625f	0.052339908
161	0xbe1215f5	-0.14266188
162	0xbd2d2d45	-0.0422795
163	0xbd8b0622	-0.06788279
164	0x3d2cf0b4	0.04222174
165	0xbd146662	-0.036230452
166	0x3d70848b	0.058720153
167	0xbdd76812	-0.10517897
168	0xbc277f30	-0.010223195
169	0x3d9bdcc4	0.07610467
170	0x3b38673c	0.0028137704
171	0x3d333226	0.043748997
172	0xbd6de3d2	-0.058078595
173	0xbdb19f22	-0.0867293
174	0xbded5f7d	-0.115904786
175	0xbd8cc8d8	-0.068742454
176	0xbbde792e	-0.006789348
177	0x3e9c7ac3	0.3056241
178	0x3de9cf33	0.11416473
179	0xbd8b2625	-0.06794385
180	0x3d9cae32	0.076504126
181	0x3b8b445d	0.004250093
182	0xbe89d665	-0.26921383
183	0x3b6fb5b2	0.0036576805
184	0xbe024d70	-0.12724853
185	0xbd2f3278	-0.04277274
186	0xbbc34cdf	-0.0059600915
187	0xbdbe391b	-0.09288236
188	0xbd8aee4f	-0.06783735
189	0x3c745797	0.014913461
190	0x3d7bba18	0.06145677
191	0x3cb9b98c	0.022671483
192	0x3cecad98	0.02889137
193	0xbf3e1283	-0.74246997
194	0xbe3d87ea	-0.18508878
195	0xbcf0c433	-0.02939043
196	0x3d1a60af	0.03768986
197	0xbdf9b797	-0.1219322
198	0x3d8ca128	0.068666756
199	0xbd5b3910	-0.053521216
200	0xbda711d1	-0.08157695
201	0xbe42429f	-0.18970726
202	0xbda9f102	-0.08297922
203	0xbdf1a5d5	-0.11799208
204	0xbe71977a	-0.2359294
205	0xbeb95d61	-0.36204055
206	0x3df0ee3a	0.11764188
207	0x3d29ce22	0.04145635
208	0xbd6d3c4c	-0.05791883
209	0xbd8b746d	-0.06809316
210	0x3d036dca	0.032087125
211	0x3e893af5	0.26802793
212	0xbca60158	-0.020264313
213	0xbe03c0e3	-0.12866549
214	0x3c35bdc9	0.011092612
215	0x3bf846a3	0.00757678
216	0xbd88feaf	-0.06689202
217	0xbe74f4c7	-0.239215
218	0x3d54a760	0.051917434
219	0xbe45d84e	-0.19320795
220	0xbe077a6a	-0.13230291
221	0x3ba17ce6	0.004928219
222	0xbe5ad671	-0.21370865
223	0xbc1f094a	-0.0097068045
224	0x3c526cbd	0.012843308
225	0xbdd93091	-0.106049664
226	0x3d3d7c8e	0.046261363
227	0x3d1df528	0.038563877
228	0x3e1e079d	0.15432592
229	0x3dae6851	0.085159905
230	0x3cf41695	0.029795924
231	0x3e0e369f	0.13888024
232	0x3d823ef9	0.06359667
233	0xbd5fe710	-0.054663718
234	0x3db8e8cb	0.09028777
235	0xbd8b85d1	-0.06812633
236	0xbd9c62b2	-0.07636012
237	0xbdb0620a	-0.086124495
238	0xbd934360	-0.07190585
239	0xbce76ed0	-0.028251082
240	0x3f04ab4d	0.51823884
241	0x3d416c93	0.047222685
242	0xbd9ed874	-0.07756129
243	0x3cce3cb5	0.025175432
244	0x3d75e118	0.06002912
245	0xbd50b967	-0.050958063
246	0x3c9f8710	0.019473583
247	0x3d17e8aa	0.03708712
248	0x3d7af392	0.061267443
249	0xbe00a669	-0.1256348
250	0x3d8142db	0.0631158
251	0xbe92923f	-0.28627202
252	0x3d1e3917	0.038628664
253	0x3d742305	0.05960371
254	0x3e7ee3a6	0.24891528
255	0x3d0c3211	0.034227435

layer_2.weight f4 [300, 400]
0	0xbddf5d99	-0.10906524
1	0xbde854d2	-0.11344303
2	0xbdde411b	-0.10852262
3	0xbd379157	-0.04481634
4	0xbbe5f287	-0.007017437
5	0x3d8eb149	0.06967408
6	0xbc8b2b35	-0.016988376
7	0xbbbd4857	-0.005776446
8	0xbc7c77ba	-0.015409404
9	0xbe04b980	-0.12961388
10	0x3d18be6b	0.03729097
11	0xbcd18f13	-0.025580918
12	0xbceb303a	-0.02870952
13	0x3c80d286	0.015725385
14	0xbf14d597	-0.5813841
15	0xbe04140b	-0.12898271
16	0xbda57dd0	-0.080806375
17	0xbde3c838	-0.11122173
18	0xbe1c8af2	-0.15287378
19	0xbd937765	-0.07200507
20	0xbdab9716	-0.08378427
21	0xbd7c06fa	-0.06153009
22	0x3c2d3d5c	0.010573711
23	0xbde2df32	-0.110777274
24	0xbbbe0433	-0.0057988404
25	0xbbc8b658	-0.0061252527
26	0xbda62e81	-0.08114339
27	0x3d5fcdfd	0.054639805
28	0x3c32a500	0.010903597
29	0xbc9c246a	-0.019060332
30	0xbd12c552	-0.03583271
31	0xbd1bfbad	-0.038081814
32	0x3d4b3783	0.049613487
33	0xbb848de2	-0.004045234
34	0x3ca4c776	0.020114642
35	0xbe174147	-0.14770995
36	0x3ca71bf1	0.020399066
37	0xba1103e8	-0.0005531893
38	0x3d27aa03	0.04093362
39	0xbddaef97	-0.106902294
40	0xbddf0d4a	-0.108912066
41	0xbd177dd3	-0.03698523
42	0xbd1e3691	-0.038626257
43	0xbc519bf4	-0.01279353
44	0x3ad04360	0.001588922
45	0xbd9767cc	-0.073928446
46	0x3d1137bd	0.035453547
47	0xbd9090d6	-0.07058875
48	0xbcbe2bc0	-0.023214221
49	0xbe1fe5de	-0.15615031
50	0x3bcd77a8	0.0062703677
51	0xbca2017d	-0.0197761
52	0xbd4176dd	-0.047232497
53	0xbd4d6800	-0.05014801
54	0x3d3f853f	0.046757933
55	0xbc714194	-0.014725108
56	0xbb9a9c91	-0.004718371
57	0xbcf81ce4	-0.030287214
58	0xbc71cda1	-0.014758498
59	0xbd301b22	-0.042994626
60	0xbd0375bc	-0.032094702
61	0xbb50f300	-0.003188312
62	0xbcfcc29a	-0.030854512
63	0xbcfe67f0	-0.03105542
64	0xbc4d6ceb	-0.012538175
65	0x3c4f3eb4	0.012649227
66	0x3b5bc2bc	0.0033532819
67	0x3c16c6de	0.009202687
68	0xbd0aefb5	-0.03392001
69	0x3de93846	0.113876864
70	0xbda7607c	-0.081727
71	0x3d17fb1f	0.037104722
72	0xbd8acf1e	-0.06777786
73	0xbb86da30	-0.0041153654
74	0xbd1e85b4	-0.038701728
75	0x39e80500	0.00044254214
76	0xbd13d039	-0.03608725
77	0xbe28a686	-0.16469774
78	0x3cc68a3e	0.02423584
79	0x3c55e704	0.013055567
80	0xbd7d9129	-0.061906014
81	0x3c191118	0.009342454
82	0xbcc98d40	-0.024603486
83	0xbd28fa7c	-0.041254506
84	0xbde448e7	-0.111467175
85	0x3c89f40a	0.01684
86	0xbd3b32e0	-0.045702815
87	0x3bb252a0	0.0054419786
88	0xbd3a72cf	-0.045519646
89	0xbd297f18	-0.04138097
90	0xbd4a463a	-0.04938338
91	0xbc1b44e8	-0.009476878
92	0xbbc369be	-0.005963533
93	0xbdbd8d6d	-0.092554905
94	0xbe0fe418	-0.14051855
95	0x3cd9c2ed	0.026582206
96	0x3c37f8b4	0.011228729
97	0xbc8dd126	-0.017311644
98	0xbe44638b	-0.19178598
99	0x3c15a5c3	0.009133759
100	0xbc4c40ed	-0.012466651
101	0xbe2596a1	-0.16170742
102	0xbb88c743	-0.0041741445
103	0xbd1da6ca	-0.03848914
104	0x3cd4fed2	0.026000414
105	0xbe291eed	-0.16515703
106	0x3c556fca	0.013027141
107	0x3ce50997	0.027958674
108	0xbdf6d3d9	-0.120521255
109	0xbca767d0	-0.020435244
110	0xbe070ae4	-0.13187748
111	0xbcbe5bc3	-0.023237115
112	0xbca05bc2	-0.019575004
113	0x3d4b8b61	0.04969347
114	0x3d8fdb24	0.0702422
115	0xbd549e22	-0.05190862
116	0xbc95292f	-0.018208114
117	0xbde1948b	-0.110146604
118	0x3c9674c7	0.01836623
119	0xbe2039c2	-0.15647033
120	0xb97a8a00	-0.00023893267
121	0xbd3c166f	-0.04591983
122	0xbc347762	-0.011014791
123	0xbd9a318b	-0.07528981
124	0x3ce65322	0.028115813
125	0x3ca15af6	0.019696694
126	0x3cc2f412	0.023798022
127	0x3c44771e	0.01199129
128	0x3d0e8cd1	0.03480226
129	0xbca51e82	-0.020156149
130	0xbd3f17e6	-0.04665365
131	0xbd92a056	-0.07159488
132	0x3c944102	0.018097404
133	0xbcb389c2	-0.021916274
134	0x3cb4175e	0.021983799
135	0xbcdcf5da	-0.0269727
136	0xbd7704e4	-0.0603074
137	0x3c8093e5	0.015695522
138	0xbc96d9dd	-0.018414432
139	0xbd0b1685	-0.033957023
140	0x3d1e92d9	0.038714264
141	0xbbb2305a	-0.005437893
142	0xbe0de201	-0.13855745
143	0xbd51610f	-0.051117953
144	0xbb555000	-0.0032548904
145	0x3d37e2e5	0.044894118
146	0x3d3e3e84	0.04644634
147	0x3bcc1881	0.006228507
148	0xbd11e6f7	-0.035620656
149	0x3c37dfb0	0.011222765
150	0x3e0da2b7	0.13831602
151	0xbd787ad8	-0.060664028
152	0x3cdda221	0.027054848
153	0x3d409889	0.04702047
154	0x3d0e2837	0.03470632
155	0x3cc5390a	0.02407505
156	0xbd41fe85	-0.04736187
157	0xbc294ae8	-0.0103328
158	0x3d30c048	0.043152124
159	0xbe42d1ea	-0.19025388
160	0x3cb9531a	0.022622634
161	0xbe4f3a48	-0.20237076
162	0x3c8cd532	0.017191503
163	0xbca27093	-0.01982907
164	0x3c9f18af	0.01942095
165	0x3c333305	0.010937457
166	0x3c878978	0.016545042
167	0xbce22dc9	-0.027609723
168	0x3d1795f1	0.03700823
169	0xbe3ce246	-0.18445691
170	0xbbe2db9b	-0.0069231517
171	0xbd243556	-0.040089928
172	0x3cef584f	0.029216914
173	0xbdda9518	-0.106729686
174	0xbd3ed1f8	-0.04658696
175	0xbc87b30a	-0.016564865
176	0xbd116075	-0.03549238
177	0xbd4d7da2	-0.05016864
178	0xbd197d0f	-0.03747278
179	0xbd34ff48	-0.044188768
180	0x3ca762b4	0.020432808
181	0xbd99b57a	-0.07505317
182	0xbcf1d8c3	-0.029522305
183	0xbd44019d	-0.0478531
184	0xbddf6d7d	-0.10909555
185	0xbd408dc4	-0.0470102
186	0xbdb40498	-0.08789939
187	0x3d4bb189	0.049729858
188	0xbd08a339	-0.033358786
189	0xbd280f90	-0.041030467
190	0xbd48a776	-0.04898783
191	0xbd050478	-0.032474965
192	0xbbee2fc5	-0.007268878
193	0xbd0802b2	-0.033205695
194	0x3c9be82d	0.019031608
195	0x3d123926	0.035699032
196	0x3c07e872	0.008295165
197	0xbc1d5a2c	-0.009604018
198	0xbd38ec15	-0.04514702
199	0xbd6ab781	-0.05730391
200	0xbc21ed58	-0.009883247
201	0xbd9ef110	-0.07760823
202	0xbd239305	-0.03993513
203	0xbdfeffc1	-0.12451125
204	0xbc875b1c	-0.016522937
205	0x3d31e025	0.04342665
206	0xbbf39815	-0.007433901
207	0xbd5791f1	-0.052629415
208	0xbe036b49	-0.12833895
209	0xbda50a1e	-0.0805857
210	0xbce8bb97	-0.028409762
211	0xbc8a7b89	-0.01690461
212	0xbcbae844	-0.022815831
213	0xbd7c9330	-0.061663806
214	0xbe06629e	-0.13123557
215	0xbb786bea	-0.0037906119
216	0xbe0e3da6	-0.13890705
217	0xbd46b752	-0.04851467
218	0xbdf9d425	-0.121986665
219	0x3d019b24	0.031642094
220	0x3cc49c30	0.024000257
221	0x3d2b1f1d	0.04177772
222	0x39b2ac6c	0.0003407927
223	0xbd932e0f	-0.07186519
224	0x3c292f29	0.010326185
225	0x3cc96f00	0.024589062
226	0xbe2f13ab	-0.17097346
227	0xbcf63c06	-0.030057918
228	0xbd31e723	-0.04343332
229	0xbd11984a	-0.035545625
230	0xbc920a9e	-0.017827328
231	0xbda14705	-0.07874874
232	0x3d4116fa	0.047141053
233	0xbdd53818	-0.1041109
234	0xbd0dadfa	-0.034589745
235	0xbe0f4101	-0.13989641
236	0xba31a140	-0.0006776042
237	0x3dd98d66	0.10622673
238	0xbcad1501	-0.02112818
239	0x3cba216e	0.022721019
240	0x3c9539db	0.018216064
241	0xbcde9c6a	-0.027174193
242	0xbd5b2f8c	-0.05351214
243	0xbb33b242	-0.0027419482
244	0x3e984909	0.2974322
245	0xbd0c1e40	-0.034208536
246	0xbcf60eea	-0.030036408
247	0xbe12a7d6	-0.14321837
248	0xbc9feded	-0.019522632
249	0xbde83503	-0.11338236
250	0xbc58499c	-0.013201144
251	0x3cb20aa2	0.021733586
252	0x3cd2eda4	0.025748082
253	0xbcfe341d	-0.031030709
254	0xbd5fdcab	-0.054653805
255	0xbccefaea	-0.02526613

layer_2.bias f4 [300]
0	0xbd147aab	-0.036249798
1	0xbd08fb72	-0.033442922
2	0xbd14f0ab	-0.03636233
3	0xbcc2ea3d	-0.023793334
4	0x3e8578a4	0.26068604
5	0x3ba88f2a	0.0051440196
6	0xbdae9693	-0.085248135
7	0xbc889a9e	-0.01667529
8	0xbe62f30f	-0.22163032
9	0x3c17ea46	0.009272164
10	0xbd360306	-0.044436477
11	0xbe6aba7e	-0.22922704
12	0xbd966939	-0.073442884
13	0xbc02c784	-0.007982139
14	0x3f4ac226	0.79202497
15	0xbd413237	-0.04716703
16	0xbde83d01	-0.113397606
17	0xbd3afe6b	-0.045652788
18	0xbd087457	-0.033314075
19	0xbd4ada55	-0.049524624
20	0xbd9877ef	-0.074447505
21	0xba94135c	-0.0011297273
22	0xbcef9cf0	-0.029249638
23	0xbcda8d8a	-0.02667882
24	0xbb8e0951	-0.0043346067
25	0x3c179d9e	0.009253887
26	0x3e79c291	0.24390627
27	0x3dcf03b0	0.10108125
28	0xbd65d9dd	-0.056115974
29	0xbd140976	-0.036141835
30	0xbd2f2594	-0.042760447
31	0xbe76da7f	-0.24106787
32	0x3c98b32f	0.018640129
33	0xbdb92225	-0.09039716
34	0xbc83e4a3	-0.016100233
35	0xbde0c256	-0.10974567
36	0xbe121b74	-0.14268285
37	0xbd84c598	-0.064830005
38	0x3abb7257	0.0014301044
39	0xbcf50e50	-0.029914051
40	0xbe3956cc	-0.18099517
41	0xbe9a0e7c	-0.30089176
42	0xbc356fa3	-0.01107398
43	0x3be0015d	0.0068361
44	0xbce5197b	-0.027966252
45	0xbed38d36	-0.41318673
46	0x3cc388d8	0.023868963
47	0xbd85a882	-0.06526281
48	0xbe879c92	-0.2648664
49	0xbdb24fa9	-0.087066
50	0xbc1e86d5	-0.009675701
51	0xbe408e0c	-0.18804187
52	0x3ccdea3e	0.02513611
53	0xbe34747c	-0.1762256
54	0x3e71c189	0.23608984
55	0x3c477165	0.012173031
56	0xbe020125	-0.12695749
57	0xbcc38259	-0.023865866
58	0xbbcf316a	-0.0063230293
59	0xbd71a15e	-0.058991782
60	0xbd38ecb6	-0.04514762
61	0xbd2011a2	-0.039079316
62	0x3d123a8e	0.035700373
63	0x3d126f8e	0.035750918
64	0xbe45b5fd	-0.19307704
65	0x3c50ba33	0.012739706
66	0xbd002ed9	-0.031294677
67	0xbd4ca22a	-0.04995934
68	0x3d6732b1	0.056444827
69	0x3dfe8633	0.1242794
70	0x3a27a15d	0.00063945894
71	0xbd050395	-0.03247412
72	0x3deab34c	0.114599794
73	0xbb8bc5ec	-0.0042655375
74	0xbd013a77	-0.031549897
75	0xbc1d3497	-0.009595058
76	0xbcc08651	-0.023501547
77	0xbe6e711d	-0.23285337
78	0xbc86fe3e	-0.016478654
79	0xbc85ac21	-0.016317429
80	0x3c31c738	0.01085072
81	0xbc57f9a6	-0.013182079
82	0x3d25d525	0.040486474
83	0xbd35cf7c	-0.044387326
84	0x3bc4d4dd	0.0060068206
85	0x3f06fc0a	0.5272833
86	0xbd37daec	-0.044886515
87	0xbca2caff	-0.019872187
88	0xbe18db78	-0.1492747
89	0xbd058547	-0.032597806
90	0xbc069af7	-0.008215657
91	0xbc075136	-0.008259108
92	0xbdb9d815	-0.090744175
93	0x3b256f54	0.0025243359
94	0x3e7a671c	0.24453396
95	0xbd92fd3f	-0.07177209
96	0xbcc0b9f8	-0.023526177
97	0xbce94e14	-0.028479613
98	0x3c911f5a	0.017715145
99	0xbda357ca	-0.07975729
100	0xbd197bb6	-0.037471496
101	0xbe84d2ae	-0.25941986
102	0xbe7a63e6	-0.2445217
103	0x3de5f41f	0.11228203
104	0xbeb1b796	-0.34710377
105	0xbdd5bea2	-0.10436751
106	0x3db72892	0.08943285
107	0xbd85f05e	-0.06539987
108	0xbc8c7cb1	-0.017149301
109	0xbd210ccb	-0.03931884
110	0xbd80421f	-0.062626116
111	0xbc429620	-0.011876613
112	0xbc35d35b	-0.011097754
113	0xbd61abf5	-0.05509563
114	0x3dcaf287	0.0990954
115	0xbc1b04fc	-0.009461638
116	0x3c5320de	0.012886254
117	0x3c817b15	0.01580576
118	0x3d015e41	0.03158403
119	0xbd169802	-0.03676606
120	0x3cc46c15	0.023977319
121	0xbd780677	-0.06055304
122	0x3f2021d0	0.62551594
123	0xbdb70b1b	-0.08937665
124	0xbef8c25a	-0.48585778
125	0xbcd3df43	-0.025863295
126	0x3c7bb3da	0.015362704
127	0xbd3f30a0	-0.04667723
128	0x3cf0d7a5	0.029399702
129	0xbce93555	-0.028467814
130	0x3e0182a0	0.12647486
131	0xbd124f13	-0.035719942
132	0x3c33200e	0.010932935
133	0xbd4eb72e	-0.050467663
134	0xbe61233c	-0.21986097
135	0xbd9764b8	-0.073922575
136	0x3d09c0db	0.033631187
137	0x3da37484	0.07981208
138	0x3d98d6d9	0.07462854
139	0xbcd01ded	-0.025404895
140	0xbd867a25	-0.06566266
141	0xbcaaeee1	-0.02086586
142	0x3c24b869	0.010053732
143	0xbd19fc49	-0.037594113
144	0x3cba3976	0.022732478
145	0x3d82e06b	0.063904606
146	0xbce6a4a8	-0.028154686
147	0xba80a188	-0.0009813765
148	0x3ed910d3	0.42395648
149	0xbd3f97fd	-0.046775807
150	0x3b733607	0.003711106
151	0xbe0ca458	-0.13734567
152	0x3b8684ee	0.004105202
153	0xb9a2de77	-0.00031064797
154	0xbd8f2e69	-0.06991274
155	0xbd447931	-0.04796714
156	0x3d1f43dc	0.038883075
157	0xbcabfcea	-0.020994622
158	0xbd8dff89	-0.06933505
159	0xbe0bd9e3	-0.13657336
160	0x3c88cc12	0.01669887
161	0xbc408fd2	-0.011753039
162	0x3b740fdd	0.00372409
163	0xbc289940	-0.010290444
164	0x3d17fcb3	0.037106227
165	0xbe69f325	-0.22846659
166	0xbd1bd18b	-0.038041633
167	0xbd3fdf85	-0.046844024
168	0xbcfcf0da	-0.030876566
169	0xb932c5eb	-0.00017049133
170	0xbe0a6c78	-0.1351794
171	0xbd58ae6f	-0.052900728
172	0x3cf49164	0.029854484
173	0x3d2c8141	0.042115454
174	0xbc34e030	-0.011039779
175	0xbd5c855a	-0.05383811
176	0xbc3fc0ad	-0.011703652
177	0xbbf80bdb	-0.0075697727
178	0xbd955d9c	-0.07293245
179	0x3a14076b	0.00056468573
180	0xbd8c78e6	-0.06858997
181	0x3d304917	0.043038454
182	0x3c2eac4e	0.010661198
183	0x3dd1bd80	0.102412224
184	0xbd13e91f	-0.036110993
185	0xbcf5c783	-0.030002361
186	0xbd2800a5	-0.04101624
187	0xbbde576d	-0.0067853243
188	0xbd655cb2	-0.055996604
189	0xbd15d313	-0.03657825
190	0xbd413805	-0.047172565
191	0xbda207ca	-0.07911642
192	0x3e411f42	0.1885958
193	0x3caf78ec	0.021419965
194	0x3d0563bf	0.03256583
195	0x3f84d2dc	1.0376849
196	0xbdd32319	-0.10309429
197	0xbd10009e	-0.03515684
198	0xbc31d7b2	-0.010854648
199	0xbd2e197b	-0.04250477
200	0xbab2911a	-0.0013623566
201	0xbd5a5fff	-0.053314205
202	0x3f093f7c	0.53612494
203	0x3b797b38	0.003806783
204	0xbd9b2169	-0.07574732
205	0xbd1fe020	-0.0390321
206	0xbb582b89	-0.0032984933
207	0xbc7b73ba	-0.015347416
208	0xbb92db98	-0.004481744
209	0xbd1308ff	-0.03589725
210	0x3c809a3e	0.015698548
211	0x3c293b37	0.010329059
212	0x3d1fc99e	0.039010637
213	0xbd437abf	-0.04772448
214	0x3d9d653d	0.07685325
215	0xbda7a66d	-0.0818604
216	0xbaa4e750	-0.0012581144
217	0xbc8a47ca	-0.016879935
218	0xbd9c3d74	-0.07628909
219	0xbe79eb2b	-0.24406116
220	0xbd05ce08	-0.03266719
221	0x3ce61616	0.028086703
222	0xbbb3f649	-0.005492006
223	0x3dc2fc11	0.09520734
224	0xbc9b63ca	-0.018968482
225	0xbd62b19a	-0.055345155
226	0xbe5f4115	-0.2180217
227	0xbba63e45	-0.005073341
228	0xbcd6371d	-0.026149327
229	0x3ae8db28	0.0017765509
230	0xbcf31546	-0.02967323
231	0x3e2a8a26	0.16654262
232	0xbca819df	-0.020520149
233	0xbd23ec95	-0.040020544
234	0xbd524031	-0.05133075
235	0xbd8c518b	-0.068514906
236	0x3ac5d2e3	0.0015092756
237	0xbd83cbe4	-0.064353734
238	0x3b9db530	0.004812859
239	0xbd1d60be	-0.03842234
240	0x3d04aa4f	0.03238898
241	0x3ea84b7b	0.32870087
242	0x3c519b3f	0.012793361
243	0xbdd98551	-0.10621131
244	0x3e4096c4	0.18807513
245	0x3d9ad1d1	0.075595506
246	0xbece4ac1	-0.40291408
247	0xbcabbc86	-0.020963918
248	0x3b18b81d	0.00233031
249	0x3b8402cc	0.0040286537
250	0xbd7b7d00	-0.061398506
251	0xbc92d391	-0.017923148
252	0xbd8b58d8	-0.06804055
253	0xbdecaaf4	-0.11556044
254	0xbc9a1ef1	-0.018813582
255	0xbd3c69d2	-0.045999356

layer_3.weight f4 [1, 300]
0	0xbcfad852	-0.030620728
1	0x3c5b5cca	0.013388822
2	0x3cb58334	0.02215729
3	0xbd8f652e	-0.0700172
4	0xbc5b7a89	-0.013395914
5	0x3b360a8e	0.0027777287
6	0xbce13bb7	-0.027494295
7	0x3c9b5f82	0.01896644
8	0xbccd564a	-0.02506556
9	0x3c9c1ec6	0.019057643
10	0xbaa42d97	-0.0012525794
11	0xbbb589f0	-0.005540125
12	0x3c4332e3	0.011913988
13	0x39334327	0.00017095786
14	0xbbda1419	-0.006655228
15	0x3cd97216	0.026543658
16	0xbad27e1b	-0.0016059311
17	0xbc48d7a9	-0.012258449
18	0xb7b9bfb9	-2.2142996e-05
19	0x393ea5f2	0.00018181631
20	0x3b64c8ca	0.0034909719
21	0x3d4b40f1	0.04962248
22	0x3c3532af	0.011059447
23	0xbc5f35a5	-0.01362363
24	0xba91762e	-0.0011097842
25	0x3ce43e4c	0.027861737
26	0xbbc061b2	-0.005871021
27	0xbcc711de	-0.024300512
28	0xbac16db6	-0.0014757428
29	0x3c4f3904	0.012647871
30	0x3c906156	0.017624538
31	0xbbd50c84	-0.006501736
32	0x3c76f4aa	0.015072981
33	0xb7fd880d	-3.0223304e-05
34	0x3d224f68	0.03962651
35	0xbba6547b	-0.005075989
36	0xb9e4d614	-0.0004364705
37	0xbce9b518	-0.028528735
38	0xbcab8fc7	-0.020942582
39	0xbc51f882	-0.012815597
40	0xb8a97a90	-8.081377e-05
41	0x3a9c0697	0.0011903819
42	0xbd258435	-0.040409286
43	0xbca44d16	-0.020056289
44	0xb70eae04	-8.504376e-06
45	0xbc79f3fc	-0.015255924
46	0xbd3cdadb	-0.046107154
47	0xbbe882c0	-0.0070956647
48	0x3c6211ed	0.013798219
49	0xbaf195a9	-0.0018431443
50	0x3d103ff4	0.03521724
51	0x3a1309a1	0.000560904
52	0x3d3461b1	0.04403848
53	0xbbc2113e	-0.0059224656
54	0xbc8db9e9	-0.017300563
55	0xbd1be71d	-0.038062204
56	0xbb8f4468	-0.0043721683
57	0xba06be16	-0.00051400193
58	0xbccefa98	-0.025265977
59	0x3c3cd592	0.0115255285
60	0x3bdbebd0	0.0067114606
61	0x3a409319	0.0007346138
62	0xbc8a5d36	-0.01689015
63	0xbd438ff5	-0.04774471
64	0xb8a48732	-7.8453115e-05
65	0xbc3d97f4	-0.011571873
66	0xbd398c1d	-0.045299638
67	0x3afc6a27	0.001925771
68	0x3c4caefc	0.012492891
69	0x3cb6d4c7	0.022318257
70	0xbd195174	-0.037431195
71	0x3a65549e	0.00087482657
72	0x3c168092	0.009185927
73	0xbcbf447b	-0.023348084
74	0x3cf63ca3	0.03005821
75	0x391e5248	0.00015098706
76	0xbce373d5	-0.027765194
77	0x3c825a26	0.015912127
78	0xbc72336f	-0.014782771
79	0x38cc28d0	9.73508e-05
80	0x3bd470cc	0.006483173
81	0x3b290a08	0.0025793333
82	0xbb9ebad7	-0.0048440504
83	0xbc460993	-0.012087244
84	0xbcbadd76	-0.022810679
85	0xbc6b5e8a	-0.014365802
86	0x3cbf65d8	0.023363993
87	0xbd14e87e	-0.036354534
88	0xbcbdf518	-0.023188159
89	0x3d3da299	0.046297643
90	0x3c62f77e	0.013852952
91	0x3e50fbb1	0.20408513
92	0x3927a8bf	0.00015989224
93	0xbd4bfac4	-0.049799696
94	0x3e0f68fc	0.14004892
95	0xbc9708b5	-0.018436769
96	0xbcfbaa36	-0.030720811
97	0xb90e00ea	-0.00013542516
98	0x3ce63d90	0.028105527
99	0x3cf6d6ef	0.030131785
100	0x3ce8c780	0.028415442
101	0xbcb3f0b0	-0.021965355
102	0xbcc583fa	-0.024110783
103	0x3d30c9d8	0.043161243
104	0x3b0fd35f	0.0021946055
105	0xbcdfa561	-0.027300538
106	0xbcc1e370	-0.023668021
107	0x3d42efd0	0.047591984
108	0xbc743bb7	-0.014906815
109	0xbb5ecc20	-0.003399618
110	0xbcb7d235	-0.022439102
111	0xba7d9345	-0.0009673129
112	0xbc8be583	-0.017077213
113	0x3bc05eb2	0.0058706636
114	0x3c4a2393	0.012337583
115	0xbd3840db	-0.044983726
116	0xbc02db38	-0.007986836
117	0x3d0809cf	0.03321248
118	0xbb86ad4c	-0.004110014
119	0x3d436641	0.04770494
120	0xb953d956	-0.00020203492
121	0x3c25c500	0.010117769
122	0x3caa1373	0.020761227
123	0x36183742	2.268193e-06
124	0xbc69c2fe	-0.014267681
125	0x3ccf8956	0.025334042
126	0xbccad802	-0.024761204
127	0xbd3f408f	-0.046692427
128	0x38348a82	4.304434e-05
129	0xbd165a5f	-0.03670728
130	0x3b7653a7	0.0037586482
131	0xbc99de33	-0.01878271
132	0x3c9dbc18	0.01925473
133	0xbcfbf210	-0.030755073
134	0xbb7dff1b	-0.003875679
135	0xbacb3191	-0.0015502443
136	0xbcb98192	-0.022644792
137	0xbc260c0b	-0.010134707
138	0x3b90c346	0.0044178097
139	0xbc528ea7	-0.012851394
140	0xbb97f219	-0.0046370146
141	0x3d0566dc	0.032568797
142	0x3afcda43	0.0019291121
143	0x38b3ea9e	8.579086e-05
144	0x3d034c70	0.03205532
145	0xbc82a67e	-0.01594853
146	0x3c39a3db	0.01133057
147	0x3c4043bb	0.011734898
148	0x3c4388c9	0.011934468
149	0x3ba52bee	0.005040637
150	0x3cb23124	0.021751948
151	0xbcd7003d	-0.02624523
152	0x3d0449cb	0.032296937
153	0xbc693cf8	-0.0142357275
154	0xbcf1ae5d	-0.029502088
155	0xbaa600dd	-0.0012665052
156	0xb9854d27	-0.0002542522
157	0xba1731f5	-0.0005767637
158	0x3cb445ed	0.022006
159	0xbbf4171c	-0.007449044
160	0x3d0edb7a	0.034877278
161	0xbbe8f55a	-0.0071093263
162	0x3ba1945a	0.004931015
163	0xbd511384	-0.051044002
164	0x3c0ad940	0.008474648
165	0x3cbd0fb2	0.023078773
166	0x3ccad3c1	0.024759175
167	0x3c21ac42	0.00986773
168	0xbce98625	-0.028506348
169	0x3a9fbf35	0.0012187721
170	0xbbd5235f	-0.0065044607
171	0xbabd9cdf	-0.0014466307
172	0xbc666c78	-0.014063947
173	0xbcba88d0	-0.022770315
174	0x3c98020e	0.018555667
175	0x3c072287	0.008247978
176	0xbca8f3ba	-0.02062403
177	0x3b964496	0.004585813
178	0xbbb4e81c	-0.0055208337
179	0x3ca53ee3	0.020171588
180	0x3af1fc49	0.0018462028
181	0xbc87bc19	-0.016569184
182	0x3c88ff70	0.016723365
183	0x3bf681b9	0.0075227884
184	0xbcbd2c48	-0.023092404
185	0xbba5cd8c	-0.0050599035
186	0x3bb59d71	0.00554245
187	0x3c5797b0	0.013158724
188	0xbd1c8a38	-0.038217753
189	0x3c8a0493	0.016847884
190	0xbcf27db6	-0.02960096
191	0x3bb807f5	0.005616183
192	0xbbf55d43	-0.0074879243
193	0x3d425793	0.0474468
194	0xbc7b7fc2	-0.015350284
195	0x3bdce4dd	0.00674115
196	0xbc96b63f	-0.018397449
197	0xbd153c56	-0.036434494
198	0xbb5b74b8	-0.0033486318
199	0x392711d5	0.00015933004
200	0xb96f2662	-0.00022807115
201	0xbc73f3d8	-0.01488968
202	0xbc517206	-0.012783533
203	0x3ac6a20a	0.0015154493
204	0xbcea6a06	-0.028615009
205	0xbd02f2d2	-0.031969853
206	0xbbbf39d1	-0.0058357497
207	0xbc6f8061	-0.01461801
208	0xbca57eb6	-0.020202022
209	0x3c1f6f32	0.009731101
210	0xbbe10b63	-0.0068678125
211	0xbd0ac564	-0.033879653
212	0x3c3924dc	0.011300292
213	0x3cda0d22	0.02661759
214	0xbd7eb28f	-0.062182005
215	0xbce73c51	-0.028227003
216	0xbcbb0eca	-0.0228342
217	0xb8435581	-4.6571255e-05
218	0xbc05f387	-0.008175737
219	0xbcf964d9	-0.030443596
220	0x3ccf95ab	0.025339922
221	0xbc8fd9bb	-0.017559877
222	0xbcd51320	-0.026010096
223	0x3b3263ad	0.0027220056
224	0x3c88a855	0.01668183
225	0xbb36d36e	-0.0027897018
226	0x3c8fa9c5	0.017537007
227	0xbca8e91a	-0.020618964
228	0xbaadc0fa	-0.0013256364
229	0xbc7e6456	-0.015526852
230	0x3cbe5049	0.023231642
231	0x3ccbb029	0.024864273
232	0xbc55f66a	-0.013059238
233	0xbc6a52f3	-0.014302003
234	0x38b1e623	8.482884e-05
235	0xbb04a0be	-0.0020237411
236	0xbc5dffb8	-0.013549738
237	0xbcd54c76	-0.026037436
238	0xbd516eef	-0.051131185
239	0x3c0a46ee	0.0084397625
240	0x3773a8b7	1.4523211e-05
241	0xbc18fd69	-0.009337761
242	0x3d0ec787	0.034858253
243	0xbb0b370b	-0.0021242525
244	0xbcccb920	-0.024990618
245	0x3c6b7eb1	0.014373467
246	0xbcc0ea15	-0.023549119
247	0xbc2c8ee2	-0.010532113
248	0xbb115e50	-0.0022181459
249	0x3cd137a1	0.025539221
250	0x3c4245fa	0.011857504
251	0x3b1da4cf	0.0024054532
252	0x3c5b8753	0.013398963
253	0xbd58a9b8	-0.05289623
254	0xbd55caf3	-0.0521955
255	0xbc97d93e	-0.018536206
