models/ddpg_model_episode_400_actor.pth (torch, 631313 bytes, 6 tensors)

layer_1.weight f4 [400, 11]
000000 4c 40 b7 3d 72 51 50 be b0 5e 9f bd 54 34 87 be
       0.089478105 -0.20343569 -0.07781732 -0.2640711
000010 ce a6 23 3e e4 e5 5c 3e bf 28 8c be f6 01 37 be
       0.159816 0.21572071 -0.27374837 -0.17871842
000020 c8 dd 97 bd 7c fc 8a 3d cc ff 54 be 4f c9 94 be
       -0.07415348 0.06786439 -0.20800704 -0.29059836
000030 da f0 a1 3d 78 27 11 be 4b ee 34 3e 80 af 60 be
       0.07907267 -0.14175212 0.17669027 -0.21941948
000040 38 ad 3e 3e a2 4c 36 3e f7 6b 0d 3d 3a 08 00 3e
       0.18620765 0.1780267 0.03452679 0.12503138
000050 f0 6a 5d 3e ac 3d 07 be e4 66 d3 3e 21 0f 5b 3e
       0.21622825 -0.1320712 0.41289437 0.2139249
000060 8e ca a6 bc b8 a4 d0 bc 88 cd 7e bd 1f c6 0c 3e
       -0.020360257 -0.025469169 -0.06220773 0.13747452
000070 06 37 4f 3d 7b 7c 45 3c 58 45 94 3e 79 e2 76 be
       0.050589584 0.012053604 0.28959155 -0.2410983
000080 41 9b b1 bd 31 0a 71 be f1 a1 7d be 7c ca c0 bd
       -0.086721905 -0.23539044 -0.24768807 -0.09413621
000090 d8 58 81 3e 8f 0a 8f be c0 f3 a8 3c e8 c9 eb 3d
       0.25263095 -0.27937743 0.020624042 0.1151312
0000a0 ce f0 44 3e 54 b4 0c be 1a 21 8c bd 40 8e 19 bd
       0.19232485 -0.13740665 -0.06842251 -0.037489176
0000b0 ca 2b 37 3e bc 7c 6d be 9e 89 36 be e0 af 07 3e
       0.17887798 -0.23192114 -0.17825934 0.13250685
0000c0 03 00 f3 bd b4 14 c6 bc ac f7 89 bd cc 49 23 3d
       -0.118652366 -0.024179794 -0.06736693 0.0398653
0000d0 06 81 0a be 7a 9f 08 bd 7e 7a 81 3e ac d0 5c bd
       -0.13525781 -0.033355214 0.25288767 -0.053909943
0000e0 fc 43 2d be 3d fa 70 be a2 c0 7e be a0 11 29 bc
       -0.16920465 -0.23532958 -0.24878171 -0.0103191435
0000f0 9a 9a e4 bd c8 8a 53 3d 1e d2 8d be a4 d5 34 3e
       -0.111623004 0.051646024 -0.2769937 0.17659622
000100 50 dd 88 3e fd fd 87 be ec e5 36 3d fd 01 39 bd
       0.26731348 -0.26560965 0.044652864 -0.04516791
000110 1f 21 76 bc 76 c9 24 3e 5f 36 49 bd d9 c5 a1 3d
       -0.015022545 0.16092476 -0.049124118 0.078990646
000120 03 ab 68 be e1 8d a0 be 04 5a 68 3e 92 23 a7 bd
       -0.22721486 -0.31358245 0.22690588 -0.081610814
000130 69 d7 c5 3d 4d f8 80 be d0 98 09 3e 82 d2 31 be
       0.09660227 -0.25189438 0.134372 -0.17365459
000140 50 0b ef 3d 3b 74 4c bd 2a fd b0 3c 2d ce 51 3d
       0.116720796 -0.049915534 0.021605093 0.051222015
000150 ae 8b 0a be eb 27 09 be 10 1c 5e be b2 d4 2b be
       -0.13529846 -0.13394134 -0.21690392 -0.16780356
000160 02 5e 6c bd 66 f0 7a be 96 9c b6 be 5b 37 53 be
       -0.05770684 -0.24505767 -0.3566634 -0.20626585
000170 41 96 29 3e 82 1c 14 3d 9f 67 1a ba 98 6d 63 3e
       0.16561224 0.03616 -0.00058900745 0.22209775
000180 14 67 7c be ac ef 52 3e 12 37 e9 bd 7c 9f b6 bd
       -0.24648696 0.2059924 -0.11387457 -0.08917138
000190 f0 92 92 bc 78 b6 e1 3d f1 cb 63 be 69 de 8b be
       -0.01789233 0.11021131 -0.22245766 -0.27318123
0001a0 b7 3d 2b be 00 5e c4 bc 04 f4 74 3e 9d 12 7e be
       -0.16722761 -0.023970604 0.2392121 -0.24811788
0001b0 55 40 88 be c8 ed 87 bd d0 8c 4b 3e dc 5d 52 bc
       -0.2661158 -0.0663715 0.19877934 -0.012839761
0001c0 5d 8d 41 3e 8c a6 2d be b1 70 c4 bd da 7e 14 be
       0.18901582 -0.16958064 -0.09591807 -0.14501515
0001d0 9c a7 9b be 5b 79 87 3e 10 9e 83 3e ae 0b cf 3d
       -0.30401313 0.26459774 0.2570653 0.101096496
0001e0 01 0f d4 3d 6b ab 82 be 25 91 f5 3d 07 14 1c be
       0.10354424 -0.25521407 0.11990575 -0.15242015
0001f0 ba 07 96 3d e6 e4 60 be c0 c2 86 3e b5 0c 86 3e
       0.073256925 -0.21962318 0.26320457 0.2618157
000200 0d 12 4b 3d ec 55 84 3d f8 3e 23 3d 4c e2 54 be
       0.04957776 0.06461701 0.039854974 -0.2078945
000210 f4 34 2e be 58 90 44 be 7a 53 2c be 99 57 6b be
       -0.17012388 -0.19195688 -0.16828719 -0.22982635
000220 82 14 77 3e d7 bd de bd f5 c3 a1 3d 4b 46 5b be
       0.24128917 -0.10876053 0.07898704 -0.21413533
000230 20 75 69 3c d0 d0 4c 3d 14 bc 73 bd ef a0 cc bd
       0.014249116 0.050003827 -0.059505537 -0.09991633
000240 31 de 17 3e 3d ae 0e 3d c3 58 79 be e1 83 6d be
       0.14830853 0.034834135 -0.24350266 -0.23194839
000250 5a c2 bb bd 9f 1a 22 bd fb 3e f6 bd 57 e3 9c 3d
       -0.09167929 -0.03957617 -0.12023731 0.07660549
000260 0d f4 44 bd 52 be 06 3e 9b 21 b7 3e 6f 28 54 3e
       -0.048084307 0.13158539 0.35767826 0.20718549
000270 9f ca 16 bc fe be 1d be 2b 79 13 3e ab 1c 83 3d
       -0.009203582 -0.15404889 0.1440169 0.06401952
000280 67 5b 62 be b4 89 14 3e 72 8f e1 3d c4 6a 91 3d
       -0.2210518 0.14505655 0.11013688 0.07100442
000290 9e c1 26 3e ec f4 18 3e 90 ff 3f be 86 bc 94 be
       0.16284797 0.1493718 -0.18749833 -0.29050082
0002a0 d4 38 ff 3d b8 76 81 be 34 85 b1 3d 7a fd 1e 3e
       0.12462011 -0.25285888 0.086679846 0.15526381
0002b0 0e da 7e be 36 92 3a 3e f6 da 35 be ee 09 5e be
       -0.24887869 0.18219838 -0.17759308 -0.21683475
0002c0 8c 6c 97 be 65 2d 0a 3e d6 1c 83 be 62 9d 9c 3e
       -0.29575002 0.13493879 -0.25607938 0.30588824
0002d0 1c e8 26 be 2e e1 96 3e c6 24 9e 3b cd 89 36 be
       -0.1629948 0.29468673 0.004826161 -0.17826004
0002e0 d8 cd c0 3d 20 ae 1d 3d c0 46 42 bd b7 5e ce 3c
       0.094142616 0.038496137 -0.047430754 0.025191648
0002f0 d5 5a f9 bc c8 74 62 be 2a 34 92 be 59 74 5b 3d
       -0.03043882 -0.22114861 -0.28555423 0.053577755
000300 15 c5 4e be 2c 2c f3 bd 6d 68 db 3d 55 b6 88 3e
       -0.20192368 -0.118736595 0.10713277 0.26701608
000310 3f c5 85 bd c8 de c3 3d a2 b2 82 bd 83 ae 88 3e
       -0.06531762 0.095639765 -0.06381728 0.26695642
000320 7d ab 26 3e fa b9 61 be b0 1e 23 be 99 f9 e2 3d
       0.16276355 -0.220436 -0.15929675 0.11082763
000330 70 b4 a4 3d c4 ed 0e bd 9f 03 15 3d 81 92 95 be
       0.08042228 -0.03489472 0.036380406 -0.29213336
000340 94 78 b1 bd cd dc cf bd dc 0b 43 3c f3 c1 62 3e
       -0.086655766 -0.10149536 0.011904683 0.22144298
000350 22 9e 41 be ae 75 99 3d 96 0a 88 be 8f 12 74 be
       -0.18907979 0.07493149 -0.26570576 -0.23835205
000360 45 fb 96 be 8e bb 1d be 7b ef 5d bd 26 52 c3 3c
       -0.29488578 -0.15403578 -0.054183464 0.023842882
000370 bd 5f 8d be c3 c3 6e be 5e 37 8a 3e ab a4 71 be
       -0.27612105 -0.23316865 0.26995367 -0.23597972
000380 a7 a7 80 3e c2 dd 07 3e bf 3e d4 bd 81 89 f2 3d
       0.2512791 0.13268188 -0.1036353 0.11842633
000390 f2 62 2c bd b9 21 0a be f8 cf 6b 3e 18 95 22 bd
       -0.04208655 -0.13489427 0.23028553 -0.039692968
0003a0 37 7a 3e be 1c c2 65 be 5f 97 8a be 40 85 2d bd
       -0.18601309 -0.22437328 -0.27068612 -0.042363405
0003b0 bb 0d 06 be a4 f0 db bd 31 7d 5a be b4 c7 92 3e
       -0.13091175 -0.10739258 -0.21336819 0.28667986
0003c0 f8 2a 0c 3d e4 f0 6e be 2a 4d 8d 3e 88 8a 16 3e
       0.034220666 -0.2333408 0.27597934 0.14701283
0003d0 fe b7 d5 3d 3a 05 fa 3c 68 98 24 be 10 13 a5 3d
       0.10435484 0.03052007 -0.16073763 0.080602765
0003e0 62 08 70 bc ee f6 bb 3d ae f2 8f 3e df 34 96 b9
       -0.014650436 0.091779575 0.28114837 -0.00028649622
0003f0 8e 46 16 bd ae cd b9 3e b8 f6 29 bd 5c 10 30 3e
       -0.03668838 0.36289734 -0.041495055 0.1719374

layer_1.bias f4 [400]
000000 9a b1 8b be fc 34 17 be 8c 5d 99 be 70 38 8f bc
       -0.27283937 -0.14766306 -0.29954183 -0.017482966
000010 0a 60 26 3d d0 d1 96 3c 07 80 99 3c 79 c8 1c 3e
       0.040618934 0.018410593 0.018737806 0.15310849
000020 d7 0a 83 be bc 5c 4c 3e 97 9f 53 be 37 24 17 be
       -0.25594208 0.1995725 -0.20666347 -0.14759909
000030 4f 3c 7e be 2a 49 3e be bb 47 90 be c4 62 7e 3e
       -0.24827693 -0.18582597 -0.28179726 0.24842364
000040 20 2b f7 bd 6c ab a9 bd 19 df 46 be 6b 4f 4c be
       -0.12068772 -0.08284649 -0.19421043 -0.1995217
000050 21 40 c6 bc 40 c7 1d bc a5 6e 4e be 45 26 2c 3e
       -0.0242005 -0.009630024 -0.20159395 0.16811474
000060 7f c1 58 bd 30 e1 5b be 20 dd 7e be 7f 2f 6b be
       -0.052918907 -0.21472621 -0.2488904 -0.22967337
000070 eb 79 8b bd e2 7c 66 be 17 67 8d be ae 42 90 be
       -0.068103634 -0.22508577 -0.27617714 -0.28175873
000080 82 90 d5 bc 19 0e 2a 3d 43 e9 59 3e 53 a7 97 be
       -0.026069883 0.04151735 0.21280389 -0.29619846
000090 24 9a 7e 3e 66 35 15 bd f4 0d 87 be 34 ff 8a 3e
       0.24863487 -0.036427878 -0.26377833 0.2714783
0000a0 12 13 5c 3e 02 17 b6 3d 7f f7 6c 3e c4 e6 a5 bd
       0.2149165 0.08891107 0.23141287 -0.08100656
0000b0 8e 81 96 be 92 48 00 be 9a 7e 28 3e d7 ce d7 bd
       -0.29395717 -0.12527683 0.16454545 -0.105374984
0000c0 68 8b 8a 3d 88 2d 06 be 9f 3c 01 be be 07 71 3d
       0.06764871 -0.13103306 -0.12620781 0.058845274
0000d0 74 52 fd bd ff 14 0b 3e 80 a1 dd 3d 8e 83 ca 3d
       -0.12369242 0.13582228 0.10821819 0.09888373
0000e0 c0 de 6a be a5 cb d4 3c d2 0f b7 bd 08 d7 3b 3d
       -0.22936535 0.025976012 -0.08938564 0.045859367
0000f0 71 87 97 be 13 ce 5c be 7d c2 3f be 25 a3 07 3d
       -0.2959552 -0.21562986 -0.18726535 0.03311457
000100 43 9e 0f 3e bc 00 73 3e b6 f5 03 bc 97 1d 31 be
       0.14025216 0.23730749 -0.0080541875 -0.17296444
000110 a8 47 89 3d 84 99 3e 3d 6e 5d 68 be a3 07 54 3e
       0.067031205 0.046533123 -0.2269189 0.20706038
000120 3e 1a 79 be a5 3a 0f 3e f0 b5 43 bd fe b1 b7 bd
       -0.24326417 0.13987215 -0.04778093 -0.08969496
000130 a7 c2 38 be 51 ae 36 be 23 7f 94 3e 8d c6 16 be
       -0.18043004 -0.17839934 0.29003248 -0.14724179
000140 01 5c 91 be f2 e6 6b 3d 0f 27 95 be de cc 30 3e
       -0.28390506 0.057593293 -0.29131362 0.1726565
000150 66 b1 72 be d5 78 16 3e ce c7 04 3e 14 4a 93 3e
       -0.23700485 0.14694531 0.12966844 0.28767455
000160 78 71 ab 3d 14 3f 87 3c e7 b9 1f 3e a0 85 4f be
       0.08371252 0.01650957 0.1559826 -0.20265818
000170 63 1c 0a be 00 84 31 3b bb f7 7d be 8b 7c 30 be
       -0.13487391 0.0027086735 -0.24801533 -0.1723501
000180 fb ae 14 3e 46 01 42 be 5d 31 4a bd 25 29 fe 3d
       0.14519875 -0.18945798 -0.049363483 0.124101914
000190 34 85 27 be 65 f1 2b bd 2d 56 f3 bd e5 9f 90 3d
       -0.16359407 -0.04197826 -0.11881671 0.070617475
0001a0 3a 2d 9f be ac cd 86 3e 5b 07 96 be 21 60 90 be
       -0.31089193 0.2632879 -0.29302487 -0.2819834
0001b0 ef 64 ce bd 6c fe 84 be 44 67 13 3e 9c 05 89 be
       -0.10077845 -0.25975358 0.14394861 -0.26762092
0001c0 70 f7 2b bd bd b3 80 3e 63 62 f1 3d 3a ad 70 bd
       -0.04198402 0.2513713 0.11786344 -0.05875895
0001d0 a2 a7 90 bd 5b d9 76 3d 54 69 de 3d f4 90 91 be
       -0.070632234 0.06026588 0.108599335 -0.28430903
0001e0 ab 04 96 3e c8 f8 86 be 25 d2 4b be 5e 20 46 be
       0.29300436 -0.2636168 -0.19904383 -0.19348285
0001f0 7a da 4d 3e 42 bf e9 bd db 9c 66 be de 76 1e 3e
       0.20102873 -0.11413433 -0.22520773 0.15475032
000200 34 64 b1 bc f8 5d 59 3e 1f ea 92 bd 76 ed 95 be
       -0.021654226 0.21227252 -0.07173561 -0.2928273
000210 f9 5d 6e 3e 01 0a ed 3d a4 d6 1a 3e 24 66 9c 3d
       0.23278035 0.11574174 0.15120941 0.07636669
000220 00 3b db bc bf c7 9c bc 66 b8 3c be 76 97 06 3e
       -0.026761532 -0.019138215 -0.18429717 0.13143715
000230 cc cd 0c be c9 42 47 3e 92 23 93 3e 17 55 4c 3c
       -0.1375038 0.1945907 0.28738075 0.012471459
000240 8e df 11 bc 10 7f f6 bd 93 8b 72 be 7f fc 17 be
       -0.008903397 -0.12035954 -0.23686056 -0.14842413
000250 f6 a0 1f bd 84 ae 82 3d f3 de e9 bd e5 e6 93 be
       -0.038971864 0.063809425 -0.11419477 -0.28887096
000260 de ee 76 3d 10 13 69 3d 38 14 c7 3d 2c 00 c2 3d
       0.060286395 0.056902945 0.09720653 0.09472689
000270 4c 3a 88 3e 80 d5 fe bc 4e 28 ee bd c0 86 cd 3b
       0.26606977 -0.031107664 -0.11628781 0.006272167
000280 b3 0d 49 3e a7 72 54 3e f5 71 95 bd 4a 84 43 3e
       0.19634132 0.20746861 -0.07297126 0.19093433
000290 4d 41 64 3d 04 fe 55 bd c4 48 a5 3d 86 87 1d 3e
       0.05572634 -0.0522442 0.080705196 0.1538373
0002a0 62 fa 8a be 7e 1b 1b be 09 18 54 3e b0 ed 33 be
       -0.27144152 -0.15147206 0.20712294 -0.1757114
0002b0 97 56 75 be ef 9b 61 bd 08 b9 4f 3e d0 6d 9a be
       -0.23958813 -0.05508035 0.20285428 -0.30161905
0002c0 e6 eb 1f be 1a a4 2f 3e 2b dc 47 3e 30 88 3c 3e
       -0.15617332 0.17152444 0.19517581 0.18411326
0002d0 b6 47 5d 3e 78 09 a8 bd 29 24 62 be fc 7a b0 3d
       0.21609387 -0.08204931 -0.22084107 0.086172074
0002e0 cc 92 67 3e b5 1b 8d 3e e4 f2 93 3d bc c3 22 3e
       0.22614592 0.275602 0.07224062 0.15894979
0002f0 b3 55 42 be a8 63 74 3d 95 af ef 3d d4 4c 84 be
       -0.18978004 0.059665352 0.117034115 -0.25839865
000300 20 22 2e 3c cc 72 31 3e f8 78 89 be d4 21 9a 3e
       0.010628253 0.17328948 -0.26850104 0.30103934
000310 df 2c 7d be c9 f4 60 be ea ad 92 be 7c 22 3b 3e
       -0.24724148 -0.21968378 -0.2864831 0.18274873
000320 3e bf 89 bd 66 2f 92 3e 0f f1 20 3e 65 0f cc bd
       -0.0672593 0.28551787 0.15716957 -0.09963874
000330 4a 63 a5 bc 1e 60 e0 bd 44 45 6f ba a9 fe 29 3e
       -0.020188946 -0.10955833 -0.0009127448 0.16601051
000340 ca b2 ed bd 47 e3 f0 bd 50 ac 93 be 36 0e d6 bd
       -0.11606367 -0.117621 -0.28842402 -0.10451929
000350 c0 09 82 3e fb bc 93 3e 48 0c 04 3e 17 8c 97 3c
       0.25398064 0.28855118 0.1289531 0.018499417
000360 5e 65 33 be 78 5f 61 be b8 85 38 3e f9 0c 15 bd
       -0.17519137 -0.22009075 0.1801976 -0.036389325
000370 96 88 1e be cc 8a 10 3e bc 16 d1 bd 52 e7 98 3e
       -0.15481791 0.14115447 -0.10209414 0.29863983
000380 d8 d5 5c 3e 7c 7e e7 3c 6e f9 ae bb 12 2c 1f be
       0.2156595 0.028258555 -0.005339793 -0.15544155
000390 41 1d 1e 3e e3 dd 32 3e 1d 14 a0 be ae c6 2b 3d
       0.15440847 0.17467456 -0.31265345 0.041937523
0003a0 16 c9 5e 3e 7f 81 36 3e 64 f0 64 3e a8 2b 75 3e
       0.21756396 0.17822836 0.22357327 0.23942435
0003b0 c8 90 21 be c4 d5 d9 3d 67 f9 8f be 91 21 cd bd
       -0.15777886 0.10636476 -0.28119966 -0.10016168
0003c0 d9 ce 32 be de a1 be 39 f8 64 92 3e eb 33 8e 3c
       -0.17461719 0.00036360224 0.28592658 0.01735874
0003d0 60 02 89 be 59 f5 3d be 93 f9 39 3e 90 aa cb 3d
       -0.26759624 -0.18550624 0.18161611 0.099446416
0003e0 a2 46 90 bc a1 b0 0a be 24 7a 9c bd 6b 67 37 be
       -0.017611805 -0.13543941 -0.07640484 -0.17910545
0003f0 7c 65 7e 3e b9 73 8b 3e 2c 45 91 3e 01 26 8b 3e
       0.248434 0.27236727 0.28373086 0.27177432

layer_2.weight f4 [300, 400]
000000 82 a2 3a bd 10 78 39 bd 8b bd b2 3c ac 69 32 3c
       -0.045565136 -0.045280516 0.021818897 0.010889452
000010 f8 47 63 bc 12 e5 89 3c a0 bf 4b bd 4c 22 d3 3c
       -0.013872139 0.016832862 -0.049743295 0.02577319
000020 cc e0 b9 bc 14 94 58 3c 32 b3 e2 3c fe 56 95 bc
       -0.0226902 0.013218898 0.027673338 -0.018229958
000030 cd 27 15 3d e7 9f bd bc 1d 00 58 bd f4 57 70 bc
       0.03641491 -0.023147536 -0.052734483 -0.014669407
000040 e4 2f e4 bc e2 db 88 3c 7d 50 39 bc fd 87 09 bd
       -0.027854867 0.01670641 -0.011310694 -0.033576954
000050 9a 41 02 3d 09 92 21 3d 78 d1 13 3c 53 4c a7 bc
       0.031800844 0.03944591 0.009022109 -0.020422136
000060 33 60 58 bc 83 25 2c bd 33 0a a7 bc 41 24 31 3d
       -0.013206529 -0.04202796 -0.020390606 0.043247465
000070 9d 6d 10 bd fe 85 8d 3c 33 7d 9d 3c 39 88 e2 3b
       -0.035260785 0.017275807 0.019224739 0.0069132117
000080 2f 4b 44 3c 24 91 05 bd c4 8a 19 bd 7c 76 9a bc
       0.011980816 -0.03260912 -0.037485853 -0.018855326
000090 36 bf 05 3d 92 05 cc 3b 12 6a f3 bb 34 db cb 3c
       0.032653056 0.00622625 -0.007428416 0.024884798
0000a0 fe 06 08 3d 14 2f 38 bd 09 7c 8f 3a fe e4 88 3c
       0.033209793 -0.044966772 0.0010947 0.016710754
0000b0 15 9b 0b bd 38 75 0a bd d3 52 dc 3b b3 c2 16 bd
       -0.034083445 -0.033803195 0.0067237406 -0.036806773
0000c0 20 b4 1f bc 0d 3d be bc c2 f3 4a bd d0 c1 bd 3b
       -0.009747535 -0.02322247 -0.04954887 0.0057909265
0000d0 d0 36 81 bc 86 d1 04 bd 80 64 32 ba b9 ea a7 bc
       -0.015773207 -0.03242638 -0.0006805137 -0.020497667
0000e0 e7 c4 a9 3c 41 bf 01 3c 1c ae 28 3b 51 be 06 3d
       0.020723773 0.007919134 0.0025738543 0.032896344
0000f0 65 b1 6d bc ac 82 2d bd 60 7d 26 3d 59 d7 9b 3c
       -0.014507626 -0.042360947 0.04064691 0.019023584
000100 df 69 33 bd 4a fa 96 bc 2d 48 fe bc 2d cc 31 3d
       -0.04380214 -0.018429894 -0.031040275 0.043407608
000110 fe 36 92 3c 38 94 4c 3c fc 93 3a bd f1 70 e3 bc
       0.017848488 0.01248651 -0.045551285 -0.027763816
000120 6b 24 1e 3c e5 6b f5 bc f7 89 11 3d 98 b2 39 bd
       0.009652237 -0.029958675 0.035531964 -0.045336336
000130 ca 73 ba bc dd 19 15 bc 81 fc ba bb b3 3c 27 3d
       -0.02276029 -0.009100405 -0.0057063703 0.04082937
000140 bb db 42 bd 00 4c c5 39 7d 4b 37 bd 72 11 35 3d
       -0.047572833 0.00037631392 -0.044749726 0.04420609
000150 32 14 d1 3c ba 02 46 bd 25 79 38 bd 08 ac 72 bc
       0.025522325 -0.048342444 -0.045037407 -0.014811523
000160 11 f8 07 3d c3 f0 ed bc 3a 38 8d 3c a6 d4 ec bc
       0.03319556 -0.029045468 0.017238725 -0.028909992
000170 3a 3f a3 bc d0 cd f3 3b 72 7b 11 3d 7d a5 30 3d
       -0.01992761 0.0074403062 0.035518117 0.043126572
000180 0d 60 2b bd 30 29 bc 3c 2e 38 dd bc 4f ba 04 bd
       -0.041839648 0.022968858 -0.027004328 -0.03240424
000190 aa dc 18 bc 4f 9c b6 3b c3 f1 13 3d 1a a3 35 3d
       -0.009329954 0.0055728327 0.036119234 0.044345
0001a0 c6 a6 a8 bb df 26 b4 bb 22 8e bd 3c df 58 03 bd
       -0.005146834 -0.005497798 0.023139063 -0.032067176
0001b0 f4 61 a0 bc b0 a0 c6 3b 7e dd 38 bd 50 03 d7 3c
       -0.019577958 0.006061636 -0.045133106 0.026246697
0001c0 17 b5 9d bc 9c 9d 92 bc ee 35 11 bd e0 80 4c 3b
       -0.01925139 -0.01789742 -0.035451822 0.0031204745
0001d0 fc 60 ff bb b8 1f 0d 3c c1 9b 27 3d 30 5e ae bc
       -0.007793544 0.008613519 0.040920023 -0.021285146
0001e0 1a 61 84 3c 6b f7 4f bc fe 15 90 39 22 41 90 3c
       0.016159583 -0.012693266 0.00027482206 0.017609183
0001f0 c5 f2 ea 3c d8 99 b8 bc aa 9c b7 3c 72 12 f0 3c
       0.028680215 -0.022534296 0.02241357 0.02930567
000200 a0 61 0a bd f6 95 8b bc fe 81 a3 3c a7 10 ff bc
       -0.03378451 -0.01703928 0.019959446 -0.03113587
000210 b2 b7 b9 3b 90 ab d8 3c e4 a6 dd bc 7d 4a 26 bd
       0.00566765 0.026448995 -0.027057119 -0.04059838
000220 a6 a1 cc 3c aa 07 47 bd 46 7f 86 bc 4f 8d 92 bc
       0.024979424 -0.048591293 -0.01641811 -0.017889647
000230 fd 7b cb bb d4 5a 47 bc a0 ab 98 bc 4f 23 4c bb
       -0.006209849 -0.012167651 -0.018636525 -0.0031148975
000240 19 13 84 bc ee f3 9a 3c f2 29 fa 3c e1 a5 37 bd
       -0.016122388 0.018915143 0.03053758 -0.04483593
000250 69 95 e4 bc 80 65 23 3c 60 9d ad ba ca ab e3 3c
       -0.027903276 0.00997293 -0.0013245754 0.027791876
000260 83 50 c9 3c eb d6 02 3d 9e 0d d5 3c 80 3c 2f bd
       0.024574524 0.031943243 0.02600747 -0.042782307
000270 98 f2 96 bb a8 90 c4 bc 3f 25 3c bd f8 d2 07 3c
       -0.004606556 -0.023994759 -0.04593396 0.008290045
000280 22 88 20 bd f4 71 18 bc d5 7a 29 bc b8 98 24 bc
       -0.039192326 -0.009304512 -0.010344227 -0.010046177
000290 f0 ac 30 bd 21 27 06 3d a0 e1 75 bc 63 28 cc bc
       -0.043133676 0.03275216 -0.0150074065 -0.024921602
0002a0 30 6e 83 bb 63 ff 74 3b ee 2d d3 3c 31 92 f2 bc
       -0.004010938 0.0037383668 0.025778737 -0.029610725
0002b0 b6 ce c6 bc ae a5 13 3d 5d 45 ec bc 50 98 b7 bc
       -0.02426849 0.036046676 -0.028841669 -0.022411495
0002c0 5f 45 d6 3c 88 08 f5 bc 13 2e 17 bd e8 af cf 3b
       0.026156126 -0.029911295 -0.036909174 0.0063381083
0002d0 38 57 8a 3c 5a 86 b3 3c 92 00 8e 3b b5 83 21 3d
       0.016887292 0.02191465 0.004333564 0.039432246
0002e0 bd 80 9b bc 8d 5d 00 bc 94 2e 0d 3c e9 38 39 3d
       -0.018982286 -0.007834804 0.008617062 0.04522029
0002f0 a7 36 1c bd 04 51 10 3c 8e 81 b1 bc e5 b1 42 3d
       -0.038138058 0.008808378 -0.021668222 0.047532935
000300 80 1b 05 ba 64 be 6c 3c 5e 2f b3 3c 80 b6 63 3a
       -0.0005077645 0.01444969 0.021873172 0.00086865574
000310 54 8a 78 bc 60 ad 0c bb aa eb 5c 3c d8 b7 56 bc
       -0.015169699 -0.0021465644 0.013483921 -0.013105355
000320 4d f7 ca bc f8 dc 4e bc 12 a4 3b 3d 4d b9 32 3d
       -0.024776125 -0.012625925 0.045810767 0.043633748
000330 90 b9 04 3d 34 b0 48 bc 42 6a 14 bc a0 06 22 bd
       0.03240353 -0.012249041 -0.009058537 -0.0395571
000340 66 7b 27 bc 9a fc 5b bd 01 40 2d 3d 63 b2 11 bd
       -0.010222292 -0.053707696 0.042297367 -0.035570513
000350 20 33 15 bb 67 b9 0d bd 42 ba 42 bd 45 2d 9e bc
       -0.0022766069 -0.03460064 -0.04754091 -0.019308696
000360 2e ab bc 3b 6f 33 dc bc 1d 1e e1 3c ac 36 3e bc
       0.005757711 -0.026879994 0.02748018 -0.0116097145
000370 5a 7b 5d bb 2a 09 8a 3c 34 51 1c 3d 9b 22 1b 3c
       -0.0033795447 0.016850073 0.03816338 0.0094687
000380 b7 4e 32 3b c1 16 8a 3c 64 e4 bd bc 00 a0 ab 3a
       0.0027207562 0.016856553 -0.023180194 0.0013093948
000390 fd 07 9d bc ad b9 f5 bc b0 3e 21 3b e1 75 10 3d
       -0.019168848 -0.029995764 0.0024604015 0.035268668
0003a0 6f ae 1e 3c 74 f3 28 bc bf 6b 2d 3d 89 34 54 3c
       0.009685143 -0.01031195 0.042339083 0.0129519785
0003b0 e6 31 19 bd 9d c8 9c 3c d5 f9 24 3d 20 d6 50 3b
       -0.037401102 0.019138629 0.04027732 0.003186591
0003c0 fd de 94 bc 51 66 1a bd cc a6 1f 3c a6 0d 58 bd
       -0.018172735 -0.037695233 0.009744357 -0.05274739
0003d0 b2 af ba 3c 82 78 94 bb fb bf 35 bd 73 20 fc bc
       0.022788856 -0.004530967 -0.04437254 -0.030777192
0003e0 5d bc 4a bd a0 18 d1 3a d8 38 14 3c d0 d8 2e 3d
       -0.049496043 0.0015952773 0.009046756 0.042687237
0003f0 2f 5f 36 3d 26 f0 2d 3c 00 d1 f8 3b b0 42 45 bc
       0.044524368 0.010616338 0.007593274 -0.012039825

layer_2.bias f4 [300]
000000 e6 cc 4f bd 83 99 4c bd 7c 0f ed bc 49 a0 2f 3d
       -0.050732516 -0.049951088 -0.028938048 0.04287747
000010 9d d1 91 3b 23 a8 c5 bc 07 e0 9f bc 3b a4 58 bd
       0.0044500367 -0.024128025 -0.019516004 -0.052890997
000020 f2 ca 73 3c 62 15 cd bb a9 0b 0f 3d 3e 2c 94 3b
       0.014879929 -0.0062586525 0.03492323 0.0045218756
000030 3a cf 41 bd 88 50 00 bd 40 66 10 bd 7c 09 2f 3d
       -0.047316767 -0.0313268 -0.035253763 0.042733654
000040 db 6e 06 bc a3 31 05 bd c0 f4 74 bc 62 21 c3 bc
       -0.008205141 -0.03251804 -0.014950931 -0.02381963
000050 b3 bf 49 3c 9f d8 2f 3d 70 8d 68 bc 21 43 40 3d
       0.012313771 0.042931195 -0.014193878 0.04693902
000060 15 45 7e 3c a3 63 a6 3c e9 43 82 3d 1a ad d2 bc
       0.0155194 0.020311182 0.06360609 -0.025717307
000070 65 75 c1 bc 25 64 16 3d e2 98 a2 bc 3a 5a 91 bc
       -0.023615548 0.0367166 -0.01984829 -0.017743219
000080 5f 57 9c bb 4a da 06 bd 02 e4 c9 3c 93 3b fa bc
       -0.0047711576 -0.03292302 0.024644855 -0.030545985
000090 d6 eb e6 3c a6 e7 8c 3c a5 f1 b3 bc e5 e3 04 bd
       0.028188627 0.017200302 -0.021965811 -0.0324439
0000a0 ec 91 1f 3d d9 d1 ea bc 03 b2 37 3d a2 f1 a4 3c
       0.03895752 -0.028664516 0.0448475 0.02013475
0000b0 de 18 c1 bb cd 53 27 3d ec ca 16 3d 33 ef 55 bd
       -0.005892857 0.040851403 0.036814615 -0.05223007
0000c0 c0 c2 a5 bc 75 32 f4 3b 51 15 9a bc 0f 99 72 bc
       -0.020234466 0.007452304 -0.018808993 -0.014807
0000d0 f7 23 b5 bc 29 94 de bc 54 83 ea bc 45 2c 2d bd
       -0.022111876 -0.027170258 -0.028627075 -0.042278547
0000e0 4e b5 ac 3c 79 90 82 bb 9a 8c 2d 3d 17 9e a8 bc
       0.021082547 -0.0039845076 0.042370416 -0.020583196
0000f0 fe 00 11 bd 44 e1 1a 3c 0e e3 2e 3d f3 a2 0d 3d
       -0.035401337 0.009453122 0.042697005 0.03457923
000100 33 22 e8 3c cf a9 5b bc 33 25 18 3c a5 84 25 3d
       0.02833662 -0.013407185 0.009286213 0.040409703
000110 81 6b 1d 3d 15 d0 10 bd f1 ec 3d 3b e8 8a 4a bd
       0.0384326 -0.035354692 0.002898034 -0.049448878
000120 3a f8 32 bd 15 6c f5 bc 49 42 26 3c ed ec 33 bd
       -0.04369376 -0.029958764 0.01014764 -0.043927122
000130 f7 fe 20 3d eb 65 51 bd 75 3f d7 3b 98 e8 34 bc
       0.039305653 -0.051122587 0.006568844 -0.011041783
000140 6f a8 96 bc 92 bd 92 bc b1 a2 95 bc 1b eb 3f bd
       -0.018390862 -0.01791266 -0.018266054 -0.046855073
000150 ba 23 44 bd e9 e7 47 3d 8e a1 d8 3c 3a c6 44 3d
       -0.047885634 0.04880515 0.026444223 0.048040606
000160 6d ff 40 bd fe 56 c6 bc 03 78 2d bb 4b d7 50 3c
       -0.047118593 -0.024211403 -0.0026469238 0.012746642
000170 00 43 bb 39 bf 01 2d bd 49 aa 0d bc 9c 4b 31 b9
       0.00035717338 -0.042237993 -0.008646556 -0.00016908202
000180 32 e4 8e 3c fc 95 2f bd c9 7f 98 bc bf 7e d4 3c
       0.017442796 -0.042867646 -0.01861562 0.025939343
000190 99 43 29 3d cb a3 23 3d 71 eb ba 3c 69 99 6b bb
       0.04132423 0.039951127 0.022817345 -0.0035949594
0001a0 0e d8 2a bd 87 bb 58 bd ca 7a b3 3c 53 d7 63 bd
       -0.041709952 -0.052913215 0.021909136 -0.05562527
0001b0 3d 3b 12 3d a0 a5 93 bc 03 1d 2c 3d 01 8d 45 3b
       0.035701025 -0.018023312 0.042019855 0.003014386
0001c0 50 ef b0 3b 3f 0b 07 3d 86 75 11 bd 14 6b 67 3c
       0.005399622 0.03296971 -0.03551247 0.0141246505
0001d0 7e 26 3e bc b2 6f ec bc 7e 35 d4 bc b7 54 a7 bc
       -0.011605857 -0.028861854 -0.025904413 -0.020426137
0001e0 c7 27 0a bd 09 8c b9 bc 5b 88 21 bd 29 e6 04 3d
       -0.03372934 -0.022649782 -0.03943668 0.03244606
0001f0 7a 2d e9 3c 93 a6 25 bd fc 87 51 bd 0a 36 e9 bc
       0.028464068 -0.04044206 -0.051155075 -0.02846815
000200 47 32 17 3d de 13 80 bc eb f1 57 bc bc 90 16 3d
       0.036913183 -0.015634473 -0.013180236 0.036759123
000210 53 3a 82 3c 76 9e 95 3c 5a 16 f9 bc f6 78 3c bc
       0.015896952 0.018264037 -0.030406166 -0.011503449
000220 c6 29 e9 3c f4 98 3d bd 9a 8b e2 3c ed 75 4c bd
       0.028462302 -0.046288446 0.027654458 -0.04991715
000230 11 d4 10 3b 36 2e ef bc 69 b4 00 bc a5 6e 3c bc
       0.0022099058 -0.02919684 -0.007855513 -0.011500989
000240 f8 05 e3 3c 85 a6 99 3a 69 a7 5c bd c9 b7 28 bd
       0.027712807 0.00117226 -0.053870592 -0.041190896
000250 39 a2 3a 3d ab ff 7d 3c e0 aa 8e bc 93 fb fb bc
       0.045564864 0.0155028505 -0.017415464 -0.030759608
000260 19 49 07 bd 24 9c 2f 3b bb cc 4e bd ce 80 0b 3d
       -0.033028696 0.0026795948 -0.050488215 0.034058385
000270 04 e7 0a bd 06 dc 31 bd 78 ee 32 bd 68 e6 07 bd
       -0.03391172 -0.04342272 -0.043684453 -0.033178717
000280 51 54 48 bc 28 94 40 bd 51 bd b7 bb cb fc e1 bc
       -0.012227134 -0.047016293 -0.005607285 -0.027586361
000290 d5 d1 2b b9 84 9c 94 3c 56 50 da bc 91 d3 2c bd
       -0.00016386 0.018141039 -0.026649635 -0.042193953
0002a0 b7 ea d9 bc 9a 68 cb bc af 18 15 3d 4b 78 82 bc
       -0.026601179 -0.024830151 0.036400493 -0.0159265
0002b0 31 7e 2e bc 80 34 6a bd c6 89 f8 bc 98 e0 a6 bc
       -0.010650204 -0.057178974 -0.030339133 -0.020370767
0002c0 32 10 30 3d 67 0a 98 3c 49 5e 1f 3c aa a2 f4 3b
       0.042984195 0.018559648 0.009727069 0.00746568
0002d0 1a 6d 3a bd 89 17 fd bb 8d 8f 3c 3d ca 19 1b bd
       -0.045514204 -0.007723753 0.04603534 -0.03786639
0002e0 18 bb 4b bd 96 5b 2b bd 4b ab f8 bb b4 07 63 3c
       -0.049738973 -0.04183539 -0.007588779 0.013856817
0002f0 fa 4b 29 3d de 80 92 bc ce b5 b0 3c e2 11 07 bc
       0.041332223 -0.017883714 0.021571066 -0.00824401
000300 c4 c6 1a 3d f9 ab 0d bc 2f 34 c8 3c 89 25 46 bd
       0.037787214 -0.0086469585 0.024438946 -0.04837564
000310 fe 45 30 3d 63 0d 45 bd f1 b8 13 bc fb f5 88 bc
       0.0430355 -0.04810847 -0.009016261 -0.016718855
000320 ae f2 3e bb b8 2a 20 bd c5 49 1d 3d 21 1a df 3c
       -0.0029136348 -0.03910324 0.03840043 0.027234139
000330 81 8a 5f bd 75 36 0c 3d 50 b4 b6 bb cb e2 e4 bc
       -0.054575447 0.03423162 -0.005575694 -0.027940175
000340 1f 48 81 bc 70 90 af 3b 89 34 4b 3d 81 f6 b0 bc
       -0.01578146 0.0053577945 0.04961065 -0.021601917
000350 a7 c6 ff bc 4b 41 18 3d 3e 40 95 3c 03 74 e4 bb
       -0.031222655 0.037171643 0.01821911 -0.0069718375
000360 35 be 24 bd 3c 20 14 3c b7 b1 31 3b 74 3a 23 bd
       -0.040220458 0.009040888 0.0027113983 -0.039850667
000370 96 92 0e 3d a4 30 90 bc d8 70 13 bd 39 f0 9f 3c
       0.034807764 -0.017601319 -0.035996288 0.019523727
000380 e7 d7 40 bd 74 7a 0d bd c0 b7 3a 3c 36 4d 41 3d
       -0.0470809 -0.03454061 0.0113963485 0.047192775
000390 a6 d2 ca 3a ce 09 40 bc 8c a2 0b bd ca 9c f9 3c
       0.0015474155 -0.011721088 -0.034090564 0.03047027
0003a0 d1 5a 90 bb a4 e7 22 3c a2 6c 05 3d 79 f2 0d 3d
       -0.0044053574 0.009942923 0.032574303 0.034655068
0003b0 6e 7c b3 bc 0a b7 c2 3c c5 2c 5e bc ab a1 47 3d
       -0.021909919 0.02376892 -0.013560479 0.048738163
0003c0 9b 34 8a 3c 76 d0 ea 3c 6b 33 14 3d c6 e9 01 bc
       0.016870787 0.028663855 0.03618185 -0.007929271
0003d0 d2 29 2e 3c 20 34 b9 3b 8d 9c 24 bd e6 4b 21 3d
       0.010630088 0.0056519657 -0.04018836 0.039379023
0003e0 e2 da c3 3c b3 6c 48 bd 7e 85 7e 3d 05 1d 43 bd
       0.023908082 -0.04893179 0.062139027 -0.047635097
0003f0 06 43 2d 3c 4c 5c 83 bc 1b d9 13 bb 7e 5a 28 3d
       0.010575062 -0.016035222 -0.0022559825 0.041101925

layer_3.weight f4 [106, 300]
000000 02 1f 48 3d b5 5b 47 3b d0 90 a9 3c 2a 75 68 bd
       0.048857696 0.0030419652 0.020698935 -0.05675236
000010 56 1e 16 bd 4a f2 75 bc ce bc 12 3d dd 1c 64 3d
       -0.036650024 -0.0150113795 0.03582459 0.05569159
000020 22 5f 68 bd e3 7f 83 3a d9 a8 20 bd e2 4a 10 3d
       -0.05673135 0.001003262 -0.039223526 0.035227664
000030 30 45 38 3d 6e 4e 28 bd ef eb 5e bd 16 59 32 bd
       0.044987857 -0.04109042 -0.054424223 -0.04354199
000040 0b 99 1a bd 28 85 bc 3b 58 bd 01 bd 8a 5b 21 bd
       -0.03774361 0.005753178 -0.031674713 -0.03939394
000050 99 8c 02 bd 78 c8 02 3c e6 3c 07 3d b0 60 1d bc
       -0.031872366 0.007982366 0.03301706 -0.009605572
000060 04 91 34 bd 40 a8 f1 bb 3d 8d 49 bd f4 66 b1 3c
       -0.04408361 -0.0073747933 -0.04920696 0.021655537
000070 5c 27 2f bd a3 dc 0d bd 56 33 8c bc 6e 81 3b 3d
       -0.042762145 -0.034634244 -0.017114323 0.04577773
000080 38 7b 87 bb c0 0d 4d 3c c2 1b 19 3d 66 bc 83 bc
       -0.004134562 0.012515485 0.037379988 -0.016081046
000090 a3 39 19 bd d4 80 42 bd 0c cc fb 3c c8 bd 40 3c
       -0.037408482 -0.04748614 0.030736946 0.011763997
0000a0 1c b7 64 bc f0 1b 31 3c 78 ca 61 bd e0 b0 8e bc
       -0.013959672 0.0108098835 -0.05512473 -0.017418325
0000b0 54 1d 83 3c 78 f2 26 bd e1 40 d1 bc a0 a8 1a 3b
       0.016005196 -0.04075858 -0.025543632 0.0023599043
0000c0 22 9a 0c 3d 80 26 5b bb e0 d6 5f 3d 37 be 2f bd
       0.03432668 -0.0033439696 0.05464828 -0.042906012
0000d0 d6 21 14 bd f8 71 e1 bc b6 13 30 3d f8 c1 c9 bc
       -0.03616508 -0.027520165 0.042987548 -0.024628624
0000e0 20 05 a8 bc 3f 52 50 3b 3e a3 9f 3b 90 f0 a2 3c
       -0.020510256 0.0031787304 0.004871755 0.0198901
0000f0 12 5d 40 3d c6 ce 47 bd 40 99 a4 3b 82 cd 25 3d
       0.04696376 -0.04878118 0.0050231516 0.04047919
000100 94 64 3f 3d 38 5a 0d 3d 6e 29 2d 3d ca 50 04 3d
       0.04672678 0.034509867 0.04227584 0.03230361
000110 ec e5 4e 3d d8 52 bd 3c a6 a2 4a 3d 8b b2 57 bd
       0.05051224 0.023110792 0.04947152 -0.052660506
000120 b0 a0 fc 3c 40 6f 19 ba 14 6b 35 3d a8 67 f9 3c
       0.03083834 -0.00058530644 0.04429157 0.030444935
000130 7c 1b 95 3c 3c 71 b4 bc 7b 59 49 3d ee 7f 25 bd
       0.018201582 -0.02202665 0.0491576 -0.040405206
000140 58 9d 75 3c fa 6a bc bc bc 82 25 3d e6 8e 4b bd
       0.014991127 -0.02300023 0.04040788 -0.049696825
000150 cc b3 16 bb f8 1b d3 bb 1a 2b 5c 3d 00 88 5d ba
       -0.002299535 -0.006442543 0.053752042 -0.00084507465
000160 c4 34 bb 3c e8 22 99 3b 6a f8 64 3d 0e c3 06 3d
       0.022852309 0.0046733506 0.05590097 0.032900862
000170 b9 84 f8 bc 4e f3 30 bd 68 90 3a 3c b0 05 75 3c
       -0.030336725 -0.043200783 0.011386968 0.014954969
000180 bc 0e 45 bd f2 3a 23 3d c4 47 10 3d a4 93 9b 3c
       -0.048109755 0.039851137 0.03522469 0.018991299
000190 99 fa 5a 3d 68 a9 6d bc a8 ed 29 3d 08 79 72 3c
       0.053461645 -0.014505722 0.041486412 0.014799364
0001a0 e2 9d e5 bc e8 e7 a3 3c db dd e8 bc a0 48 e7 3b
       -0.028029386 0.020008042 -0.028426101 0.007058218
0001b0 f0 58 34 3c 67 3f 58 bd 90 ac d0 bc e8 d6 c6 bc
       0.0110075325 -0.05279484 -0.02547291 -0.024272397
0001c0 0a 02 25 bd a0 5b 95 bc d8 25 0d 3c e0 a0 82 bb
       -0.040285148 -0.018232167 0.00861498 -0.003986463
0001d0 c8 26 28 3c 4c 3f 0c 3d 1e 80 37 bd 74 e2 4d bc
       0.010263152 0.034240052 -0.044799916 -0.012566198
0001e0 68 56 01 bc a0 35 7c 3c 38 13 26 3c a0 f3 91 3c
       -0.007894136 0.015393645 0.010136418 0.017816365
0001f0 81 30 de bc de 6f 0e bd 5c 86 2d 3d 44 3d e7 3c
       -0.027122738 -0.034774654 0.042364463 0.028227456
000200 07 36 3a bd 4c 63 33 bd 28 60 a9 3c 12 2e 07 3d
       -0.04546168 -0.04379587 0.020675734 0.03300292
000210 45 9c 0b bd 6b 33 f6 bb d4 62 00 3d 54 e5 86 3c
       -0.034084577 -0.0075134537 0.03134425 0.016466774
000220 98 86 71 3d bc 9e 7a 3d ca bf 10 bd 54 73 14 3d
       0.05896625 0.061186537 -0.035339154 0.036242798
000230 be f0 15 bd e6 d3 8c bc 00 ac d3 bc ec 69 95 3c
       -0.036606543 -0.017190885 -0.025838852 0.018238984
000240 c4 0f c5 bb 1e a6 40 3d dc dd c4 3c 64 25 27 bd
       -0.0060138423 0.04703342 0.024031572 -0.040807143
000250 5a 58 1d bd 8e 77 4e bd 52 ff d6 bc 68 ad 5e 3c
       -0.038414337 -0.050406985 -0.026244793 0.013591148
000260 90 49 fa 3b c2 04 24 3d e0 d7 23 3c cb 71 75 3c
       0.007638164 0.0400436 0.010000199 0.014980744
000270 57 2c 1d bd e8 17 d5 3c bc 02 ea 3c a8 bb c0 3c
       -0.038372364 0.026012376 0.028565757 0.023526981
000280 e1 ee 37 3c 9e ab 39 3d 8d ce 9f bc 7c 11 31 bd
       0.011226387 0.045329683 -0.01950767 -0.043229565
000290 84 18 ad bc 34 d5 4c bc 68 1e 7f bc 6a 67 4b 3d
       -0.021129854 -0.012502003 -0.015571214 0.04965917
0002a0 08 83 b5 3c 3b 01 bb 3c 80 6d 80 3a 47 77 b3 bc
       0.022157207 0.022827735 0.0009798259 -0.021907462
0002b0 80 89 35 ba ca 33 42 bd 53 3e 02 bd 76 40 54 bd
       -0.0006925091 -0.04741267 -0.03179772 -0.051819287
0002c0 e8 14 3c 3c ae 2d 58 3d 24 2f 1e bd 22 35 eb bc
       0.011479594 0.05277794 -0.038619176 -0.02871186
0002d0 48 0e a1 3c 4e 76 2c bd fc fd 42 bd 8e 96 9e bb
       0.01966013 -0.04210501 -0.0476055 -0.004839725
0002e0 0c 3d 34 3d cf d9 f8 bc c4 bf a4 3c d0 1c 05 bd
       0.04400353 -0.030377297 0.020110972 -0.03249818
0002f0 02 d0 5b bd 32 2f 4b 3d 08 70 fd bb f4 74 4b 3d
       -0.05366517 0.049605556 -0.0077343024 0.049672082
000300 88 68 38 3c 20 85 44 bb a0 b2 ec 3b cc 47 8c bc
       0.011255391 -0.0029986575 0.007223442 -0.01712408
000310 80 7c a4 3c 69 a0 45 bd 7c 7c 35 bd a4 be e3 3c
       0.020078897 -0.048248682 -0.04430817 0.027800865
000320 1c ee a3 3c 68 b8 04 bc 44 47 e3 3c 5e c2 30 bd
       0.020011 -0.0081006065 0.027743943 -0.043154113
000330 2c 0a 37 3d 38 6b ca bc cc b1 d1 bc e2 aa 2f 3d
       0.044687435 -0.024709329 -0.025597475 0.042887576
000340 95 4d 51 3c 00 53 97 3a d0 bd 7a bb 86 32 2e 3d
       0.012774845 0.0011545122 -0.003826011 0.04252865
000350 4f ba 95 3c b8 b0 a5 bb c4 cc 24 bc 0a aa f4 3c
       0.018277315 -0.005056467 -0.010058586 0.029866237
000360 cc c5 06 3c 60 b2 0c 3d 9b 9e 40 3d d6 49 28 3c
       0.008225869 0.0343498 0.047026258 0.01027151
000370 be 42 a4 bc 30 dc 1c bd 20 3c 16 bc f2 d7 1d bc
       -0.020051356 -0.038295925 -0.009169608 -0.009634005
000380 a0 10 68 3d ae 0c 41 bc 20 e1 be 3c 96 b2 07 3d
       0.05665648 -0.011782808 0.023300707 0.033129297
000390 16 4a f5 bc 67 31 3e 3c bc e7 9c 3c e4 87 5e 3d
       -0.029942553 0.011608458 0.019153468 0.054328814
0003a0 8f c5 c3 3c 4e ff 05 3d 92 89 43 3d 2c aa 67 3d
       0.023897914 0.03271418 0.04773862 0.056558773
0003b0 41 01 fa bc 98 7d c2 bb 96 29 02 3d 70 44 b9 3b
       -0.030518176 -0.005935382 0.03177794 0.0056539103
0003c0 5e 5f 5d bb 90 4c f0 bb 24 41 a0 bc 50 79 14 bd
       -0.0033778767 -0.0073333457 -0.019562311 -0.036248505
0003d0 f0 d4 08 bc ee 3f 42 bc 02 d7 67 bd 52 c3 cc bc
       -0.0083515495 -0.011856062 -0.05660153 -0.02499548
0003e0 78 e2 4b 3c 0a ec 49 bd b7 f4 22 3d 50 ee 3e bd
       0.012444131 -0.04929737 0.03978416 -0.04661399
0003f0 d2 c1 cd 3c e4 17 56 bc 65 22 a1 3b 59 b8 d9 bc
       0.025116835 -0.013067219 0.00491743 -0.026577162

layer_3.bias f4 [106]
000000 90 f0 70 3d 46 4c 50 3d b8 08 4f bd 4f de a8 3c
       0.05882317 0.05085399 -0.050545424 0.020613817
000010 1e 1c 3d 3c de e7 8a bc ee 48 02 bd c3 70 cd bb
       0.011542348 -0.016956266 -0.031807832 -0.0062695458
000020 d0 ee bf 3b 91 3d d3 3c ca 28 be 3c 31 85 5a bd
       0.005857326 0.025786193 0.02321281 -0.053349677
000030 05 d7 d5 bc 6b 11 5c bd 5b 3f a0 3c 14 74 e4 3b
       -0.026103506 -0.05372755 0.01956146 0.0069718454
000040 34 3b 83 3d e8 51 4c bd a0 56 54 bd 52 a7 20 3d
       0.064077765 -0.0498828 -0.051840425 0.03922207
000050 f6 84 b5 3b f9 5e 0d 3d 59 e0 5c bd ee 1e 53 3d
       0.005539532 0.0345144 -0.053924892 0.05154317
000060 b8 91 17 3b d4 1e e2 bc 7a 8c 48 bc 8d 3d 2f 3d
       0.0023127627 -0.02760259 -0.0122405235 0.04278331
000070 5f da 17 bd 7e 21 08 bd a7 51 28 bd 8a 5e 42 3c
       -0.03707349 -0.033235066 -0.041093495 0.01186336
000080 1b 4e a2 3c a5 e1 48 3c 52 54 68 bd 2c d5 45 bd
       0.019812634 0.012260829 -0.05672104 -0.048299
000090 49 0c 21 bd 94 55 f5 3c ee 9b 11 bd 45 b5 1f 3d
       -0.039318357 0.029948033 -0.035549097 0.03899123
0000a0 18 9c 0e bd cb 4e 1b 3d 51 6e 83 bc b5 d8 85 3c
       -0.03481683 0.03791694 -0.016043814 0.016338686
0000b0 2b e3 ef 3c 37 93 6e bd 6a 67 da bc b9 45 f2 3b
       0.029283127 -0.058245864 -0.02666064 0.0073935655
0000c0 53 58 2a 3d 96 d7 04 3d f2 e8 07 bd 65 85 c7 3c
       0.04158814 0.03243216 -0.03318114 0.0243556
0000d0 75 27 81 bd 8d d2 38 3d b4 aa 9f bc aa a4 a6 bc
       -0.06306354 0.045122672 -0.019490577 -0.02034219
0000e0 ae 3d 4f 3d 31 ba 30 3d 55 dd 20 3c 8e 85 64 3d
       0.05059593 0.043146316 0.009818395 0.05579143
0000f0 0c eb 4f bd d5 c6 0f bd a6 2c b0 3b 9f 16 5d bd
       -0.050761268 -0.03510173 0.0053764163 -0.05397665
000100 e6 9c 3b bd 7d 07 3f bd b2 35 15 bd a2 a1 09 bd
       -0.045803927 -0.046638 -0.03642816 -0.03360141
000110 99 d7 68 3d 4f 9b ef bb 47 1d c3 3b 1c 05 3d bd
       0.056846235 -0.0073122154 0.005954418 -0.04614745
000120 81 25 44 3d c6 9f 1c bd dc 44 6b 3d 43 73 2d bd
       0.04788733 -0.03823831 0.057438716 -0.04234625
000130 7a 02 52 bd c8 b8 2f bd 57 5c af bc 73 78 05 3d
       -0.051271893 -0.04290083 -0.021406336 0.032585572
000140 89 b1 3d bc 50 1a 8f bc c4 33 5e 3d e9 1c 5b bc
       -0.011577972 -0.017468601 0.054248586 -0.013373592
000150 ac 48 f4 bc 98 ae 7c 3d 31 7e b5 bc 93 7a 57 bd
       -0.029819809 0.061689943 -0.0221549 -0.05260713
000160 a7 84 76 bc 90 e0 23 bd a3 a5 fb 3c 6e 15 86 bb
       -0.015046275 -0.04000908 0.03071863 -0.00409191
000170 a4 fe da 3b 94 11 f6 3c b9 d0 50 3d 7c d9 0b bd
       0.0066831876 0.030037679 0.050980303 -0.034142956
000180 9e 21 02 bd 88 b5 4c bd 89 5c 42 3c e5 a4 04 3d
       -0.03177034 -0.04997781 0.011862882 0.03238382
000190 70 1a bd 3c cf 92 1b 3c d4 bb 1a 3d 67 44 06 bd
       0.023083895 0.009495451 0.037776783 -0.032780077
0001a0 27 1d d4 bc d4 4a 7a 3c
       -0.025892807 0.0152766295
