models/ddpg_model_episode_150_critic.pth (torch, 674589 bytes, 5 tensors)

layer_1.weight f4 [400, 117]
000000 9b d8 82 3f dd 08 3d 3e fa b5 18 3f 8b d8 e8 bc
       1.0222353 0.18460412 0.59652674 -0.028423568
000010 c2 2e d1 3c 7c ba 4f ba 9d 97 24 3e f6 e8 98 bc
       0.025534991 -0.00079242117 0.16073461 -0.018665772
000020 07 7e 37 bf 68 22 35 bf a7 7d d2 bd 8b bf 43 bd
       -0.7167668 -0.70755625 -0.102778725 -0.04779009
000030 d5 b3 4d 3f ee 66 45 3f 12 c4 9c be 3f af b6 bf
       0.80352527 0.77110183 -0.3061834 -1.4272231
000040 78 7b 9b be 76 c3 b4 be db 11 c2 3d 3c ac 5c 3e
       -0.30367637 -0.35305375 0.09476062 0.21550077
000050 d6 40 9e bf 3b b3 20 3f 4d 3f ef bd ca 70 8a be
       -1.2363536 0.62773484 -0.116819955 -0.27039176
000060 09 dd 43 3e 32 6d 2e be 4e 1d a5 bd ee d8 67 be
       0.19127287 -0.17033842 -0.0806223 -0.22641346
000070 f8 a6 d6 3d 22 6e 96 3f a3 ce 72 3e 9a 7b 6b 3e
       0.104810655 1.175236 0.23711638 0.22996369
000080 e1 b3 09 3f 51 5e ca bd 08 1c cd 3e 85 50 eb bc
       0.537901 -0.09881271 0.4006045 -0.028724918
000090 c7 5e 05 3f 4c a2 e1 3d 15 59 db be aa 74 2d 3f
       0.52097744 0.11017284 -0.42841402 0.6775614
0000a0 f3 5e a9 3d bd f9 c6 3f 29 34 45 3f c5 6f ec 3e
       0.08270063 1.5544964 0.77032715 0.46179023
0000b0 c6 4c e7 3d cc c0 14 3e c7 c6 09 3a 35 5c 15 be
       0.1129394 0.14526671 0.00052557554 -0.14585955
0000c0 37 1f 2d bd f8 b7 09 be 3b 11 43 3e ab 2b a9 bd
       -0.042266097 -0.13449085 0.19049542 -0.08260282
0000d0 d3 db e1 3f 20 97 d6 be c4 41 31 be 03 a2 b6 3f
       1.764521 -0.41912174 -0.17310244 1.4268192
0000e0 9f b1 44 be d3 05 61 be 17 ba 97 3f 6d 55 3e 3e
       -0.19208382 -0.21974878 1.1853665 0.18587275
0000f0 b8 ce 0b 3f c0 72 8e be 3d 44 3f bd e7 0e 41 bf
       0.546123 -0.27821922 -0.046695936 -0.75413364
000100 6a 1c 0b 3e 35 23 53 3f e6 9a 55 bf 59 1f ab 3d
       0.13585058 0.82475597 -0.8343948 0.083555885
000110 d6 ba 3d bf ae 96 1c 3e 40 4e 63 be 33 1b a6 be
       -0.74113214 0.15291855 -0.22197819 -0.32442626
000120 94 f4 bb bf b2 f8 0c 3e f6 b2 f1 be d8 f7 29 3f
       -1.4684014 0.13766745 -0.4720685 0.66393805
000130 35 c6 03 bd 5d 7a 4f bd 32 ae 20 3f bd 37 33 be
       -0.032171447 -0.050653804 0.627658 -0.17501731
000140 cf 74 5b bf 48 4e 2a bf 20 cd b4 be 1f 29 1e bd
       -0.8572511 -0.665257 -0.35312748 -0.038613435
000150 98 f6 93 3e 15 dd a5 bd ce c6 ad be b8 bf 3a 3e
       0.28899074 -0.08098809 -0.33940738 0.18237197
000160 f9 c9 81 3e 9a 27 93 bc 44 8e c3 3d a1 29 ca bd
       0.25349405 -0.01796322 0.095486194 -0.09871221
000170 d7 60 b5 3c f4 7f 19 3e 97 7c aa 3e 11 e0 be be
       0.022140903 0.14990216 0.3329818 -0.37280324
000180 1f ce dd 3e d6 66 51 bf f8 85 4e 3e 3e bb cc be
       0.4332132 -0.8179754 0.20168293 -0.39986604
000190 23 d1 ab bd b0 ad 8e 3f a7 3d 87 bf 18 ae c1 bf
       -0.08389499 1.1146755 -1.056569 -1.5131254
0001a0 58 69 98 3d cc 9a 44 bf 65 38 8a bc 99 8b 44 3e
       0.07441968 -0.767987 -0.016872594 0.19193877
0001b0 33 96 74 bf e6 33 64 be 20 bc 45 3f 4a ed 5c bf
       -0.95541686 -0.22285423 0.7724018 -0.86299574
0001c0 42 44 ef be a9 07 80 bf 74 1a 34 3e c4 3a 4f 3e
       -0.46731764 -1.0002338 0.17588216 0.20237261
0001d0 1f 93 ed 3e 6e 30 a9 3f 6c d4 60 3d 31 81 8f be
       0.46401307 1.3217905 0.05489008 -0.28028253
0001e0 92 ec 12 be 1e a1 82 3d 37 ca 32 3e bb 00 30 3e
       -0.14348057 0.06378387 0.17459951 0.17187779
0001f0 e5 54 06 3e 55 04 1b 3f b2 a9 3c 3f ab 94 8a bd
       0.13118322 0.60553485 0.73696434 -0.067666374
000200 0c 1b 18 be ec 57 a3 bc e4 5a e2 bc f8 bb c8 be
       -0.14854068 -0.019939385 -0.02763123 -0.3920591
000210 06 6d da bf 76 7f f7 3e a3 7e a6 be ac 13 10 3d
       -1.7064521 0.48339432 -0.3251849 0.03517501
000220 ad 49 77 3e 6f 01 11 be 96 89 c1 bd 4a 23 6b bf
       0.24149199 -0.14160703 -0.094500706 -0.9185072
000230 44 f0 0a be 42 76 02 bf 9a 61 3f be 80 6d ee bd
       -0.13568217 -0.509617 -0.18689576 -0.11641979
000240 61 6d d5 be 68 dc b1 3d ed a5 0e 3f e9 95 c4 3e
       -0.41685012 0.08684617 0.5572193 0.38395622
000250 e4 ff f2 3e 7f 95 14 be a0 48 30 bd 3d 0c da be
       0.47460854 -0.14510153 -0.04303801 -0.42587462
000260 ec c4 2e 3f 92 f0 92 be 95 08 00 3e fc 70 59 bf
       0.6826923 -0.28699166 0.12503274 -0.84938025
000270 7b 16 fb bd 15 ba 28 bc 49 41 59 3f 98 5e d9 bd
       -0.12260147 -0.010298272 0.8486524 -0.106137455
000280 29 29 a7 be e8 c3 22 be 8c 34 d4 bd f2 bd 07 3f
       -0.3264859 -0.15895045 -0.10361585 0.5302421
000290 a4 a5 72 bd 68 81 36 bf 18 8c ed 3e d7 3e 0c 3d
       -0.05924 -0.7129121 0.46395946 0.034239616
0002a0 b3 b4 ac 3d bd aa 48 3f bb e0 d8 3e d4 e7 41 be
       0.08432903 0.78385526 0.42358956 -0.18936092
0002b0 7d 3d 13 3f 55 a0 f7 3e 80 0f 9a bd 51 fd 82 3e
       0.575157 0.4836451 -0.07522488 0.2558389
0002c0 40 e9 84 3e 20 ec 2c 3f 47 0e 6a 3c 6b 3b 71 3d
       0.25959206 0.675478 0.014285631 0.058894556
0002d0 9d d4 db be df 3a 37 3e 8c c5 27 3d 9f bc e2 3d
       -0.4293565 0.17893551 0.04095988 0.11071133
0002e0 7c 7d 10 bf 5e f4 34 3e 67 28 a0 3d fc a5 c1 3e
       -0.56441474 0.17671344 0.07820206 0.3782195
0002f0 f7 68 e1 3e be 72 1c bf 25 e7 29 3e 8d 58 c8 3e
       0.44025394 -0.6111258 0.16592081 0.3913006
000300 26 40 04 be e0 33 20 bf b5 4f 8e bd 6a 16 04 be
       -0.12915096 -0.62579155 -0.06948797 -0.12899175
000310 a3 b9 0a bd 6b af ac bf 7b 2b a1 be 6a 11 61 3e
       -0.033868443 -1.3491033 -0.31478485 0.21979299
000320 51 88 4c bd da ab 00 3e 4a b7 40 bf ca 7c 8b be
       -0.04993469 0.12565556 -0.75279677 -0.27243644
000330 17 b6 fd be b0 76 52 3f 39 d6 ee bd 2b 44 f6 be
       -0.49552986 0.8221235 -0.116619535 -0.48098883
000340 61 7f 5c bd 57 0b b7 bc d3 22 ed 3d 30 8c 4c 3f
       -0.053832415 -0.022344274 0.11578908 0.7990141
000350 a7 28 ef 3e 5c 03 39 be 6b 58 f1 bd a6 6c ff be
       0.46710703 -0.18067688 -0.117844425 -0.4988758
000360 25 4d ce be 6c 17 ee bd 83 36 8d 3e be 7b cc bd
       -0.40293232 -0.11625561 0.27580652 -0.099845394
000370 86 b8 f8 be b2 16 e7 3b 4a 5a 5d bc 8c 24 4f be
       -0.4857828 0.007052266 -0.013510296 -0.20228785
000380 6e c8 3f bf b5 c9 14 be 95 4c 59 bf 22 eb 9a 3f
       -0.74915206 -0.1453007 -0.8488248 1.2103007
000390 c4 ca 1a 3e dd 2c 83 bf 48 d6 20 be 29 9e 6e 3e
       0.15116411 -1.0248066 -0.15706742 0.23302521
0003a0 af cd 85 3e 46 df 59 be 0c ca b0 bf 40 73 77 bd
       0.26133487 -0.21276578 -1.381166 -0.060412645
0003b0 ed 81 8e 3e 6c aa a2 3d 66 48 1d 3d c8 55 28 3d
       0.278335 0.07942662 0.038399123 0.041097432
0003c0 b6 36 55 3d f0 70 e6 bd 1a f0 60 3c c4 b7 8a bd
       0.05205413 -0.1125201 0.01372912 -0.06773332
0003d0 3b 87 c4 bd eb 6a 37 3e 1a 7c 6e 3d ad a6 9c bd
       -0.09596106 0.1791188 0.05822382 -0.076489784
0003e0 16 e3 2a 3e 46 6b c9 3f 05 e6 bf be 22 3d 58 3e
       0.16688189 1.5735862 -0.37480178 0.2111707
0003f0 08 bd 2e 3c 1d 74 18 be c6 b2 14 3e 4d fb 2c 3e
       0.010665186 -0.14888044 0.14521322 0.16892739

layer_1.bias f4 [400]
000000 ef 8f a5 3d 76 b7 b0 3d dd c3 df bd 25 10 88 bc
       0.08084094 0.086287424 -0.1092603 -0.01660926
000010 e0 20 47 bd b4 03 22 3d 80 4f d0 3d d7 7c ca bd
       -0.048615336 0.039554313 0.101714134 -0.098870926
000020 b1 13 bb bd 34 91 ca 3c af f9 3d bd 10 db b3 3d
       -0.09134615 0.024727441 -0.046380695 0.08782017
000030 c7 d3 9a bd d2 11 25 3d 89 41 7f 3e 8b 54 c9 3c
       -0.075599246 0.040300198 0.24927343 0.024576446
000040 cf cf 87 be 5a 47 b8 bc ed 88 09 bd f5 58 16 be
       -0.26525733 -0.02249496 -0.03357785 -0.14682372
000050 3e 70 01 3c 94 d4 dc bd 24 21 d9 bd 19 82 8f bd
       0.007900296 -0.107827336 -0.10602024 -0.07007236
000060 23 97 63 be 2a 6f 78 3d 67 9a fa bc 0c 58 75 3b
       -0.22225623 0.06065289 -0.030591203 0.0037436513
000070 97 49 11 bd aa 1e 15 bd 21 cb d7 bd 9d 91 36 be
       -0.03547057 -0.036406197 -0.10536791 -0.17828985
000080 4f b3 bc 3d 9c 90 99 bc bf 78 a9 3d 70 43 fd 3c
       0.09213888 -0.018745713 0.082749836 0.030915946
000090 ea 0f 06 bd b9 9f ae bd 70 63 e1 bd 24 c3 c4 bd
       -0.03273002 -0.085265584 -0.11005294 -0.096075326
0000a0 b6 b1 b1 bd 03 2e a7 bd f4 5f 8a bc 28 26 22 bc
       -0.08676474 -0.08163073 -0.016891457 -0.0098967925
0000b0 06 1e 1e 3d 69 97 7c bd 10 26 9b 3c 99 44 1b 3e
       0.03860285 -0.061667833 0.018939048 0.15162887
0000c0 0a 54 99 bc ac ff f4 bc 7d 4c bd 3d c7 86 98 3c
       -0.01871683 -0.02990707 0.092431046 0.018618954
0000d0 1c 15 ad bd 94 60 e5 3d 14 53 63 bc a4 26 c1 3c
       -0.08451292 0.112000614 -0.013874788 0.023577996
0000e0 7e 63 46 be c6 ad 3d be 65 63 60 3c 64 5d da bd
       -0.19373891 -0.1852332 0.0136955725 -0.10662344
0000f0 d5 a1 7e be 40 c2 87 3c a5 ae 19 3d 90 8e 53 be
       -0.24866422 0.016572118 0.03752007 -0.20659852
000100 f8 70 98 3c ae ee 53 bd 3f 6b c6 3c bd 56 93 bd
       0.018608555 -0.051741295 0.02422106 -0.071942784
000110 d0 80 4f bd 79 89 8c 3d 53 48 0e bd 5e 0f 0d be
       -0.050659955 0.06862158 -0.034736942 -0.13775393
000120 07 ce 86 3d 80 96 2d bb fb 6c d0 3c 50 e7 58 bd
       0.06582265 -0.002648741 0.025442591 -0.05295497
000130 92 4b 26 bd 44 fd 24 bd 9c 16 8f bc 84 53 8c 3c
       -0.040599413 -0.040280595 -0.017466836 0.017129667
000140 e9 7c 05 bc 33 f8 b0 3d 74 3a a1 bd 33 a0 04 3d
       -0.008147457 0.0864109 -0.07872477 0.03237934
000150 10 20 86 bd 3f e1 3f bd 60 b3 53 3b 38 34 80 be
       -0.06549084 -0.04684567 0.003230296 -0.2503984
000160 d1 10 09 3d af 0a f9 bd 00 73 18 3c 25 ed b6 3d
       0.033463303 -0.12160241 0.009304762 0.089319505
000170 2a bd ea 3a 8e 97 15 ba e4 de 1c bd 83 06 86 bd
       0.0017909158 -0.00057064823 -0.038298503 -0.06544211
000180 ac 0c f3 3c 87 a2 8c bc 69 83 0b 3d 4a 6d 07 3e
       0.029669128 -0.017167343 0.03406087 0.13225284
000190 44 35 a0 3c 56 ff 95 bd fc 2d 3e bd f6 a8 1f 3d
       0.019556649 -0.07324092 -0.046430573 0.038979493
0001a0 91 df d0 3b 1f ea df 3d c4 58 02 3d 37 30 41 3d
       0.0063743074 0.10933327 0.031822935 0.047165122
0001b0 b6 98 11 bd f1 40 05 bd 1c bd 1c 3d 37 0d 64 be
       -0.035546027 -0.032532636 0.038266286 -0.22270666
0001c0 03 f4 63 bd 14 a7 95 bd 30 44 a6 3e fc 81 a7 3c
       -0.05565263 -0.07307258 0.32473898 0.020447724
0001d0 45 8e 92 bd e7 83 80 3d 20 c0 5d be cc b9 19 bd
       -0.07156042 0.062751584 -0.21655321 -0.037530705
0001e0 25 0b ad 3d 98 e0 15 3d ba 66 cb bb f6 ec 22 3d
       0.08449391 0.036591142 -0.0062073143 0.039776765
0001f0 e0 2d 00 3c b9 e9 93 3d 7f 85 59 3c e6 e5 05 3d
       0.007823437 0.072223134 0.013276457 0.03268995
000200 d4 fa 94 bc 82 a0 71 bc 5d 86 fc bd 28 a1 14 3e
       -0.01818601 -0.014747741 -0.12330315 0.14514601
000210 1c 39 e5 3d ce 73 20 3e 2a 17 07 bd 60 fc fe 3b
       0.111925334 0.15669176 -0.032981075 0.0077815503
000220 02 bd 6a bd c2 f6 aa 3c 48 72 0f 3d 06 80 56 bd
       -0.05730916 0.020869616 0.035021096 -0.052368186
000230 e5 d5 bb bd 54 9a 32 bb 01 0c 47 3d 79 29 5c be
       -0.091716565 -0.0027252631 0.048595432 -0.21500196
000240 b3 23 85 3d d5 d7 33 be d7 35 be 3d f4 08 11 3d
       0.0650095 -0.17562802 0.09287613 0.03540893
000250 7f 4d 1e 3e af ea cf bc 6a 3f bd 3d 05 7c 5b bc
       0.1545925 -0.02538046 0.09240611 -0.013396268
000260 f3 ec 83 3c 08 bc 8b bc e6 5f ba bd 51 5b 68 bd
       0.016104197 -0.017057434 -0.091003224 -0.05672771
000270 59 ba a5 bc 10 9a b9 bb 86 ea 02 3e 2c b1 1a bd
       -0.020230459 -0.0056641176 0.12784776 -0.03776662
000280 5f 62 56 3d f4 19 a9 bd 45 2d 2d bd 22 06 8b bd
       0.052339908 -0.08256903 -0.0422795 -0.06788279
000290 4f 66 8c bc 62 66 14 bd 8b 84 70 3d f9 7b 13 be
       -0.017138628 -0.036230452 0.058720153 -0.1440276
0002a0 30 7f 27 bc a3 c1 25 3e d8 a9 2e 3d 26 32 33 3d
       -0.010223195 0.16187148 0.042642444 0.043748997
0002b0 cb a2 57 bc 7c 97 42 bd 7d 5f ed bd a0 60 73 bd
       -0.013161371 -0.047507748 -0.115904786 -0.05941832
0002c0 98 7e 8b bd 46 b6 f6 3d 30 05 a4 3d ee 0f d7 bc
       -0.06811255 0.12046485 0.08008802 -0.026252713
0002d0 94 69 b8 3d 9f 8e e4 3c 2b df cf bd b2 b5 6f 3b
       0.090045124 0.027900038 -0.10149988 0.0036576805
0002e0 14 13 bc bd 21 17 c7 3c 1e c3 3c 3d 1b 39 be bd
       -0.09183326 0.02430302 0.046084516 -0.09288236
0002f0 54 cc 20 3d a2 96 84 3b da ef cd 3d 8c b9 b9 3c
       0.039257362 0.004046277 0.10055514 0.022671483
000300 c8 7e b2 3d ef f5 a1 bd fe 3c 1c be 18 ca c4 bc
       0.08715588 -0.07908236 -0.15257642 -0.024022147
000310 ee 7f 54 bd 97 b7 f9 bd 28 a1 8c 3d 48 82 a3 bc
       -0.051879816 -0.1219322 0.068666756 -0.019959584
000320 d1 11 a7 bd 71 95 00 be 02 f1 a9 bd d1 4d b0 bd
       -0.08157695 -0.12557007 -0.08297922 -0.08608592
000330 6f c3 55 bd 9b e9 2c bc 29 e5 2d 3e 22 ce 29 3d
       -0.052188333 -0.010553743 0.16981949 0.04145635
000340 e2 6f 2d bd 0d b6 eb 3c dd 4c 2f 3d 9a 75 a1 3d
       -0.042343028 0.028773332 0.042797912 0.07883759
000350 22 72 a7 3b 29 6d d1 bd 36 eb 4c 3d 36 61 44 3d
       0.0051100412 -0.10225899 0.050029002 0.04794427
000360 55 66 45 bd bd 8f 78 be 36 bc a8 3d 9a ce 46 be
       -0.048193295 -0.24273582 0.082390234 -0.1941475
000370 6a 7a 07 be 0f dd b0 3c 71 d6 5a be 80 a2 9e 3c
       -0.13230291 0.021589784 -0.21370865 0.019364595
000380 3b c1 09 be 81 36 2b bd 24 e7 c4 3d 15 9d d5 3d
       -0.13452618 -0.041800026 0.09614399 0.10430352
000390 3b 8b bc bd 51 68 ae 3d 59 46 0b 3d 17 86 2d 3e
       -0.092062436 0.085159905 0.034002636 0.16945682
0003a0 f9 3e 82 3d 3b 2e 85 bc cb e8 b8 3d 90 96 0b bd
       0.06359667 -0.016257396 0.09028777 -0.034079134
0003b0 b2 62 9c bd ff da 67 bd b9 1f 2b bd d0 6e e7 bc
       -0.07636012 -0.056605335 -0.0417783 -0.028251082
0003c0 6c c5 1d bd cf e7 a9 3d 10 7d f9 bb f4 6a 05 3d
       -0.038518354 0.08296167 -0.0076137856 0.0325727
0003d0 8d fb 07 3e 67 b9 50 bd 10 87 9f 3c 9a a6 87 3d
       0.13279553 -0.050958063 0.019473583 0.066235736
0003e0 92 f3 7a 3d 1f 9a d7 bd ef 81 ef 3d de 40 7a 3c
       0.061267443 -0.10527443 0.11694705 0.015274255
0003f0 5c e7 1f 3e 94 8b b8 3d 5d 6b 24 3e 11 32 0c 3d
       0.156156 0.090109974 0.16056581 0.034227435

layer_2.weight f4 [300, 400]
000000 99 5d df bd d2 54 e8 bd 1b 41 de bd 57 91 37 bd
       -0.10906524 -0.11344303 -0.10852262 -0.04481634
000010 5d 02 ac bb 49 b1 8e 3d 6f e4 69 bc 31 62 a3 bb
       -0.005249305 0.06967408 -0.014275654 -0.0049860706
000020 ba 77 7c bc 80 b9 04 be 6b be 18 3d 68 d6 c9 bc
       -0.015409404 -0.12961388 0.03729097 -0.02463837
000030 3a 30 eb bc 86 d2 80 3c db 6a 0e bf 0b 14 04 be
       -0.02870952 0.015725385 -0.556318 -0.12898271
000040 c4 fa 43 bd 38 c8 e3 bd f2 8a 1c be c2 70 1a bd
       -0.04784657 -0.11122173 -0.15287378 -0.03770519
000050 16 97 ab bd f8 6e e9 bc 5c 3d 2d 3c 32 df e2 bd
       -0.08378427 -0.028495297 0.010573711 -0.110777274
000060 9d f5 9a bb 58 b6 c8 bb 81 2e a6 bd fd cd 5f 3d
       -0.0047289864 -0.0061252527 -0.08114339 0.054639805
000070 00 a5 32 3c 6a 24 9c bc f0 52 10 bd ca 5a 16 bd
       0.010903597 -0.019060332 -0.035235345 -0.036707677
000080 83 37 4b 3d e2 8d 84 bb 76 c7 a4 3c 47 41 17 be
       0.049613487 -0.004045234 0.020114642 -0.14770995
000090 fc e7 b3 3c b7 d5 f9 3a 83 73 28 3d 97 ef da bd
       0.021961205 0.0019060884 0.041125786 -0.106902294
0000a0 4a 0d df bd 2b f7 5e bb 9a 3a 14 bd b4 ca 24 bc
       -0.108912066 -0.0034021835 -0.0361887 -0.010058094
0000b0 60 43 d0 3a cc 67 97 bd bd 37 11 3d 6e ce 16 bd
       0.001588922 -0.073928446 0.035453547 -0.03681796
0000c0 c0 2b be bc de e5 1f be a8 77 cd 3b 7d 01 a2 bc
       -0.023214221 -0.15615031 0.0062703677 -0.0197761
0000d0 95 02 41 bd 47 96 96 bc 3f 85 3f 3d 94 41 71 bc
       -0.047121603 -0.018382205 0.046757933 -0.014725108
0000e0 0e db dc ba 48 f0 8c 3b e6 e8 64 bc 22 1b 30 bd
       -0.0016849951 0.0043011047 -0.013971543 -0.042994626
0000f0 90 03 fd bc 00 f3 50 bb 9a c2 fc bc 7f 40 f7 bc
       -0.030885488 -0.003188312 -0.030854512 -0.030182121
000100 03 16 b5 3c b4 3e 4f 3c 02 4b 16 3d 6b 5f 2e 3d
       0.022105223 0.012649227 0.036692627 0.042571466
000110 b5 ef 0a bd 46 38 e9 3d 7c 60 a7 bd f7 e1 19 3d
       -0.03392001 0.113876864 -0.081727 0.037569012
000120 13 c2 08 bd 3d 2f 50 bb b4 85 1e bd 00 05 e8 39
       -0.03338821 -0.0031766437 -0.038701728 0.00044254214
000130 cf f3 10 bd 86 a6 28 be 3e 8a c6 3c 04 e7 55 3c
       -0.035388764 -0.16469774 0.02423584 0.013055567
000140 42 63 e7 bc 18 11 19 3c 40 8d c9 bc 7c fa 28 bd
       -0.028245572 0.009342454 -0.024603486 -0.041254506
000150 e7 48 e4 bd 0a f4 89 3c e0 32 3b bd 46 97 24 3d
       -0.111467175 0.01684 -0.045702815 0.040183328
000160 cf 72 3a bd e0 09 28 bd 3a 46 4a bd e8 44 1b bc
       -0.045519646 -0.041025043 -0.04938338 -0.009476878
000170 65 f1 9e bb 6d 8d bd bd 18 e4 0f be 14 55 ed 3c
       -0.004850554 -0.092554905 -0.14051855 0.028971232
000180 b4 f8 37 3c 26 d1 8d bc 8b 63 44 be ce d3 28 3c
       0.011228729 -0.017311644 -0.19178598 0.010304404
000190 c5 c6 b1 3c a1 96 25 be 77 18 83 bb ca a6 1d bd
       0.021701226 -0.16170742 -0.004000719 -0.03848914
0001a0 d2 fe d4 3c ed 1e 29 be ca 6f 55 3c 36 c4 fb 3c
       0.026000414 -0.16515703 0.013027141 0.03073321
0001b0 d9 d3 f6 bd 90 67 a7 bc e4 0a 07 be e2 fb 35 3c
       -0.120521255 -0.020435125 -0.13187748 0.011107417
0001c0 d5 25 74 3c 61 8b 4b 3d 24 db 8f 3d 22 9e 54 bd
       0.014901598 0.04969347 0.0702422 -0.05190862
0001d0 cc a8 84 3c 8b 94 e1 bd dd 25 a8 3c c2 39 20 be
       0.01619377 -0.110146604 0.020525867 -0.15647033
0001e0 00 8a 7a b9 6f 16 3c bd 62 77 34 bc 8b 31 9a bd
       -0.00023893267 -0.04591983 -0.011014791 -0.07528981
0001f0 22 53 e6 3c f3 d6 b7 3c 12 f4 c2 3c 1e 77 44 3c
       0.028115813 0.022441363 0.023798022 0.01199129
000200 d1 8c 0e 3d d5 52 63 3c 24 50 3a bd d2 b1 1f bd
       0.03480226 0.013874729 -0.045486584 -0.038987942
000210 af 27 ad 3c a3 5c b3 bc 5e 17 b4 3c da f5 dc bc
       0.021137087 -0.021894759 0.021983799 -0.0269727
000220 e4 04 77 bd 1c 12 8e 3c c2 c2 8f bc 85 16 0b bd
       -0.0603074 0.01734262 -0.017548922 -0.033957023
000230 d9 92 1e 3d 5a 30 b2 bb 01 e2 0d be c9 f8 4b bd
       0.038714264 -0.005437893 -0.13855745 -0.049797807
000240 00 50 55 bb e5 e2 37 3d 84 3e 3e 3d 81 18 cc 3b
       -0.0032548904 0.044894118 0.04644634 0.006228507
000250 22 10 10 bd e3 e0 4c 3c b7 a2 0d 3e d8 7a 78 bd
       -0.035171635 0.012504789 0.13831602 -0.060664028
000260 21 a2 dd 3c 89 98 40 3d 37 28 0e 3d 0a 39 c5 3c
       0.027054848 0.04702047 0.03470632 0.02407505
000270 85 fe 41 bd e8 4a 29 bc bc a8 3e 3d ea d1 42 be
       -0.04736187 -0.0103328 0.046547636 -0.19025388
000280 1a 53 b9 3c 48 3a 4f be 32 d5 8c 3c 93 70 a2 bc
       0.022622634 -0.20237076 0.017191503 -0.01982907
000290 af 18 9f 3c 05 33 33 3c 78 89 87 3c ed 58 c8 3b
       0.01942095 0.010937457 0.016545042 0.0061141164
0002a0 f1 95 17 3d 46 e2 3c be 9b db e2 bb 56 35 24 bd
       0.03700823 -0.18445691 -0.0069231517 -0.040089928
0002b0 48 8b 02 3d 18 95 da bd f8 d1 3e bd 0a b3 87 bc
       0.03187111 -0.106729686 -0.04658696 -0.016564865
0002c0 83 2d 85 ba e7 37 78 bc 43 6d 23 bb 48 ff 34 bd
       -0.0010160658 -0.015150047 -0.0024936951 -0.044188768
0002d0 5a 4c ac 3c 7a b5 99 bd 25 7f 44 3b 9d 01 44 bd
       0.021032501 -0.07505317 0.002998301 -0.0478531
0002e0 7d 6d df bd d5 06 3a bd 98 04 b4 bd 89 b1 4b 3d
       -0.10909555 -0.04541667 -0.08789939 0.049729858
0002f0 39 a3 08 bd 54 d7 dd bb da 45 44 bd 78 04 05 bd
       -0.033358786 -0.006770054 -0.04791818 -0.032474965
000300 75 b6 e0 3c da 74 10 3a be 46 a3 3c 26 39 12 3d
       0.027430752 0.00055105763 0.019931193 0.035699032
000310 a9 d8 16 3c 2c 5a 1d bc 15 ec 38 bd 49 f7 c0 bc
       0.009206929 -0.009604018 -0.04514702 -0.023555415
000320 58 ed 21 bc 81 1c 2e bd 05 93 23 bd c1 ff fe bd
       -0.009883247 -0.042507652 -0.03993513 -0.12451125
000330 04 5f 95 3c 6c f2 37 3d 5c c3 dd bb f1 91 57 bd
       0.018233784 0.044908926 -0.0067676734 -0.052629415
000340 49 6b 03 be 1e 0a a5 bd 97 bb e8 bc 11 f6 63 bc
       -0.12833895 -0.0805857 -0.028409762 -0.013913647
000350 44 e8 ba bc 30 93 7c bd 9e 62 06 be ea 6b 78 bb
       -0.022815831 -0.061663806 -0.13123557 -0.0037906119
000360 a6 3d 0e be 8f 1b 80 bc 25 d4 f9 bd 0c 37 0c 3d
       -0.13890705 -0.015638141 -0.121986665 0.034232184
000370 30 9c c4 3c 1d 7a 30 3d 6c ac b2 39 0f 2e 93 bd
       0.024000257 0.043085206 0.0003407927 -0.07186519
000380 09 d3 33 3d bd 31 dc 3c ab 13 2f be 5e 57 e9 bc
       0.04390243 0.026879186 -0.17097346 -0.028484043
000390 82 39 29 bd 4a 98 11 bd 9e 0a 92 bc 05 47 a1 bd
       -0.04131461 -0.035545625 -0.017827328 -0.07874874
0003a0 fa 16 41 3d 18 38 d5 bd fa ad 0d bd 01 41 0f be
       0.047141053 -0.1041109 -0.034589745 -0.13989641
0003b0 40 a1 31 ba 66 8d d9 3d 16 ca a3 bc 6e 21 ba 3c
       -0.0006776042 0.10622673 -0.019993823 0.022721019
0003c0 e8 39 95 3c a0 5b cf bc 8c 2f 5b bd 42 b2 33 bb
       0.018216088 -0.025312245 -0.05351214 -0.0027419482
0003d0 6b b9 99 3e 40 1e 0c bd ea 0e f6 bc d6 a7 12 be
       0.30024275 -0.034208536 -0.030036408 -0.14321837
0003e0 ed ed 9f bc 03 35 e8 bd 1a 19 32 bc 56 c3 c9 3c
       -0.019522632 -0.11338236 -0.0108702425 0.024629276
0003f0 5a b5 e3 3c da 78 ec bc 82 f2 52 bd ea fa ce bc
       0.027796436 -0.02886622 -0.051500805 -0.02526613

layer_2.bias f4 [300]
000000 6b 1f 16 b9 72 fb 08 bd ab f0 14 bd 3d ea c2 bc
       -0.00014316819 -0.033442922 -0.03636233 -0.023793334
000010 f1 b3 ff 3a 2a 8f a8 3b 7c 57 47 bd 9e 9a 88 bc
       0.0019508583 0.0051440196 -0.048667416 -0.01667529
000020 40 aa a6 bc 46 ea 17 3c 1c 28 24 bd 44 cf be bc
       -0.020344853 0.009272164 -0.040077314 -0.023292191
000030 39 69 96 bd 53 e1 0c bc 04 24 6c 3e 37 32 41 bd
       -0.073442884 -0.008598643 0.23060614 -0.04716703
000040 b2 55 bf bd 6b fe 3a bd 57 74 08 bd 70 74 39 bd
       -0.09342517 -0.045652788 -0.033314075 -0.04527706
000050 ef 77 98 bd 5c 13 94 ba 7d fd 27 ba 8a 8d da bc
       -0.074447505 -0.0011297273 -0.0006408317 -0.02667882
000060 90 53 d7 bc 9e 9d 17 3c 23 94 78 3d a3 a3 05 3e
       -0.026284963 0.009253887 0.06068815 0.13050704
000070 03 a4 32 bd 76 09 14 bd 3f 40 8d ba c9 5c 21 3c
       -0.043613445 -0.036141835 -0.0010776593 0.009848782
000080 2f b3 98 3c e8 29 b9 bd a3 e4 83 bc 65 60 4b bb
       0.018640129 -0.09041196 -0.016100233 -0.0031032797
000090 6a b2 1b be 98 c5 84 bd 88 ef 07 3d 50 0e f5 bc
       -0.15204778 -0.064830005 0.03318742 -0.029914051
0000a0 7f 8c a5 bd 28 68 97 bb a3 6f 35 bc 5d 01 e0 3b
       -0.08083438 -0.0046205707 -0.01107398 0.0068361
0000b0 2e 6b 31 3e 2e 54 05 bb d8 88 c3 3c b7 98 85 bd
       0.17326042 -0.0020344364 0.023868963 -0.06523269
0000c0 2e 76 7a be 6e f5 7e bd d5 86 1e bc 1d 53 2f be
       -0.24459144 -0.06224578 -0.009675701 -0.17121549
0000d0 3e ea cd 3c f2 ff 7d bd 7c 76 4b 3e 65 71 47 3c
       0.02513611 -0.062011667 0.19869417 0.012173031
0000e0 00 b7 74 bd d4 a6 8f 3b 0e 66 d0 3c 5e a1 71 bd
       -0.059744835 0.004383901 0.025439288 -0.058991782
0000f0 f8 7c 2f bd 6a c6 18 bd 8e 3a 12 3d 8e 6f 12 3d
       -0.04284379 -0.037298597 0.035700373 0.035750918
000100 19 f2 1a bc 1b 87 3c 3d d9 2e 00 bd 2a a2 4c bd
       -0.009457135 0.046027284 -0.031294677 -0.04995934
000110 b1 32 67 3d 12 46 72 3d 5d a1 27 3a a8 fe 30 bc
       0.056444827 0.059148856 0.00063945894 -0.010802902
000120 c4 22 ba bb ec c5 8b bb 33 bc f9 bc 0c 26 e3 bb
       -0.005680414 -0.0042655375 -0.030485248 -0.006932026
000130 bb bc 99 3c 34 2b 62 be 3e fe 86 bc 3b b3 5e bc
       0.018766752 -0.22086793 -0.016478654 -0.013592537
000140 38 c7 31 3c 3b 36 78 3c c3 a1 a2 bc 7c cf 35 bd
       0.01085072 0.015149648 -0.019852525 -0.044387326
000150 dd d4 c4 3b 89 42 50 3e ec da 37 bd 20 04 3f 3b
       0.0060068206 0.20337881 -0.044886515 0.0029146746
000160 ec c8 55 3d 02 87 3c bc f7 9a 06 bc e1 b1 8a 3b
       0.052193567 -0.011506798 -0.008215657 0.0042326306
000170 ce d0 3d bd 78 07 c3 3b 03 4c 84 3e 3f fd 92 bd
       -0.04634171 0.005951818 0.25839242 -0.07177209
000180 ce ab fc 3b be 70 e8 bc d7 cb 3d 3d ca 57 a3 bd
       0.0077109104 -0.028374072 0.046336975 -0.07975729
000190 50 0c bb bb 2f bb 04 bd 69 72 b4 3c 1d 82 62 3c
       -0.005708255 -0.032405075 0.022027211 0.013824967
0001a0 6b c4 5f bd 20 fa 50 bd 66 78 95 3d 2e e0 57 bd
       -0.05463068 -0.051019788 0.07298355 -0.05270403
0001b0 2c 66 6f 3c cb 0c 21 bd 1f 42 80 bd e7 b1 8b 3c
       0.014611762 -0.03931884 -0.062626116 0.017052604
0001c0 5b d3 35 bc f5 ab 61 bd ea 0c 03 bd fc 04 1b bc
       -0.011097754 -0.05509563 -0.031994738 -0.009461638
0001d0 de 20 53 3c 67 03 c5 3c f4 48 f2 bc 02 98 16 bd
       0.012886254 0.024049474 -0.029575802 -0.03676606
0001e0 33 32 26 3d 77 06 78 bd 46 e0 bf 3d 07 c8 3c bd
       0.040575217 -0.06055304 0.09368949 -0.0460892
0001f0 9f e0 d1 bc 43 df d3 bc da b3 7b 3c a0 30 3f bd
       -0.025619803 -0.025863295 0.015362704 -0.04667723
000200 91 a7 ad 3d 55 35 e9 bc 88 e4 56 3e 13 4f 12 bd
       0.084792264 -0.028467814 0.20985615 -0.035719942
000210 1e 6f 05 3d 2e b7 4e bd d7 1f f4 3c 08 43 08 bd
       0.032576673 -0.050467663 0.029800339 -0.03326705
000220 3f f3 0d 3d a7 50 e6 3d 50 df d5 3d bd 16 aa 3b
       0.034655806 0.11245852 0.10442984 0.005190699
000230 53 16 28 bd e1 ee aa bc 69 b8 24 3c df 6f 0c bd
       -0.041036915 -0.02086586 0.010053732 -0.034286376
000240 76 39 ba 3c 6d e5 a7 3d a8 a4 e6 bc 82 2e fc 3c
       0.022732478 0.08198056 -0.028154686 0.030783895
000250 ff b8 9d 3d fd 97 3f bd 46 87 e5 3c 7e 74 41 3d
       0.07701301 -0.046775807 0.028018605 0.047230236
000260 ee 84 86 3b 16 98 14 3c 69 2e 8f bd c8 2e 2a bd
       0.004105202 0.009069463 -0.06991274 -0.04154852
000270 ce 4a 20 3d 32 6d 8c bc 46 e2 19 bd 49 e4 7a bc
       0.03913384 -0.017141912 -0.037569307 -0.0153132165
000280 12 cc 88 3c c2 0b 85 3c 17 6c ee 3c 40 99 28 bc
       0.01669887 0.016240958 0.029104276 -0.010290444
000290 b3 fc 17 3d 0b e5 59 be 8b d1 1b bd 85 df 3f bd
       0.037106227 -0.21278779 -0.038041633 -0.046844024
0002a0 da f0 fc bc ee 3f cb 3c f3 9b ea bd 77 af c7 bc
       -0.030876566 0.024810757 -0.11455526 -0.02437566
0002b0 64 91 f4 3c fc 30 af 3c 30 e0 34 bc 0b 24 be bc
       0.029854484 0.021385662 -0.011039779 -0.023210546
0002c0 fa ac 3c bc a0 5c 6a 3c bc bc 28 bd 6b 07 14 3a
       -0.01151585 0.01430431 -0.041195616 0.00056468573
0002d0 e6 78 8c bd 1e 0e 81 3d 4e ac 2e 3c 77 82 cb 3c
       -0.06858997 0.06301521 0.010661198 0.024842484
0002e0 5c d2 bb 3d 51 22 8b bb 51 47 4b bc 40 8c 99 3c
       0.09170982 -0.004246034 -0.01240714 0.018743634
0002f0 0c 41 4f bd b0 bd 9d bb 05 38 41 bd ca 07 a2 bd
       -0.050599143 -0.0048138723 -0.047172565 -0.07911642
000300 a1 34 59 3d 4f 91 86 3c 15 e6 0b 3e 2a 4c e1 3d
       0.053028706 0.01642671 0.13661988 0.11000855
000310 5e de 22 bd 9e 00 10 bd b2 d7 31 bc 7b 19 2e bd
       -0.039762847 -0.03515684 -0.010854648 -0.04250477
000320 02 39 de 3c 38 59 25 bd 24 88 2a 3d ed b6 ce 3c
       0.027126793 -0.04036829 0.04163374 0.02523371
000330 e0 7f 34 bd 10 d2 16 bd 89 2b 58 bb f9 89 0d 3d
       -0.044067264 -0.036821425 -0.0032984933 0.03455541
000340 98 db 92 bb ff 08 13 bd 3e 9a 80 3c 37 3b 29 3c
       -0.004481744 -0.03589725 0.015698548 0.010329059
000350 62 dc 4f 3d bf 7a 43 bd 4f 57 60 3d 6f 32 4d bd
       0.050747283 -0.04772448 0.054770764 -0.050096925
000360 69 8a f0 3c e0 ac 88 bc 7e d2 21 bd ae 97 12 be
       0.029362874 -0.016683996 -0.03950738 -0.14315674
000370 08 ce 05 bd 16 16 e6 3c 49 f6 b3 bb 18 0a dd 3d
       -0.03266719 0.028086703 -0.005492006 0.10792941
000380 ca 63 9b bc 9a b1 62 bd 31 e5 4a be 45 3e a6 bb
       -0.018968482 -0.055345155 -0.19813992 -0.005073341
000390 1d 37 d6 bc 28 db e8 3a 30 45 9b bc 12 df 0e 3b
       -0.026149327 0.0017765509 -0.01895389 0.002180044
0003a0 df 19 a8 bc 95 ec 23 bd 1f 35 8e bc e0 b6 2f bd
       -0.020520149 -0.040020544 -0.017359314 -0.042899013
0003b0 36 86 1e 3d a6 d3 01 bd 30 b5 9d 3b 4f 90 17 bd
       0.038702212 -0.031695984 0.004812859 -0.037002858
0003c0 9a 39 07 3d ea fb d5 bc 3f 9b 51 3c 43 42 d5 bd
       0.033013918 -0.026121099 0.012793361 -0.10413029
0003d0 e5 dc 12 3d f4 eb af 3d 3d bd 34 bd 86 bc ab bc
       0.035855193 0.08589926 -0.044125784 -0.020963918
0003e0 55 91 b0 3c cc 02 84 3b 00 7d 7b bd 91 d3 92 bc
       0.021553675 0.0040286537 -0.061398506 -0.017923148
0003f0 87 77 2f bd f4 aa ec bd f1 1e 9a bc d2 69 3c bd
       -0.0428386 -0.11556044 -0.018813582 -0.045999356

layer_3.weight f4 [1, 300]
000000 01 38 87 ba ca 5c 5b 3c 34 83 b5 3c 2e 65 8f bd
       -0.0010316373 0.013388822 0.02215729 -0.0700172
000010 0a b1 b4 38 8e 0a 36 3b 07 f3 c1 b7 82 5f 9b 3c
       8.616045e-05 0.0027777287 -2.3120561e-05 0.01896644
000020 8c 2c bd b9 c6 1e 9c 3c a1 a4 3a 39 eb 2b 0d bb
       -0.0003608208 0.019057643 0.00017799671 -0.002154107
000030 e3 32 43 3c f1 fa 5d 39 b9 73 5f 3c 16 72 d9 3c
       0.011913988 0.00021169685 0.01363843 0.026543658
000040 2b ed ea b9 a9 d7 48 bc b9 bf b9 b7 40 a1 86 b5
       -0.00044808662 -0.012258449 -2.2142996e-05 -1.0030708e-06
000050 ca c8 64 3b f1 40 4b 3d be 75 22 3d a5 35 5f bc
       0.0034909719 0.04962248 0.03966307 -0.01362363
000060 85 04 32 bd 4c 3e e4 3c 66 f7 e0 39 5a ef 0f 3b
       -0.04346134 0.027861737 0.00042908936 0.0021962733
000070 b6 ba 35 37 04 39 4f 3c a5 a3 3e ba 5c d2 1c 3a
       1.0831913e-05 0.012647871 -0.000727231 0.0005982274
000080 aa f4 76 3c 95 1e 14 38 68 4f 22 3d 83 d1 a7 bb
       0.015072981 3.531443e-05 0.03962651 -0.0051214113
000090 24 63 f9 ba 18 b5 e9 bc ff 4e 30 3c 82 f8 51 bc
       -0.0019026739 -0.028528735 0.010761022 -0.012815597
0000a0 a3 c6 70 bc ee 07 dd ba 35 84 25 bd 16 4d a4 bc
       -0.014695796 -0.0016863325 -0.040409286 -0.020056289
0000b0 50 cd c1 3b 7a a0 b2 39 db da 3c bd c9 82 e8 bb
       0.0059143677 0.0003407037 -0.046107154 -0.007095669
0000c0 86 a5 19 bc ce cf 9d bb f4 3f 10 3d 83 c1 d5 ba
       -0.009377843 -0.004816032 0.03521724 -0.0016308281
0000d0 b1 61 34 3d 3b d9 78 ba d9 22 4b 3b 1d e7 1b bd
       0.04403848 -0.0009492819 0.0030996113 -0.038062204
0000e0 51 f9 c9 b9 fe 3c e3 3c 90 fc d4 3b 92 d5 3c 3c
       -0.00038523463 0.027739044 0.0064998344 0.0115255285
0000f0 bc 1e d8 ba 82 6a 35 3a 36 5d 8a bc f5 8f 43 bd
       -0.0016488652 0.0006920473 -0.01689015 -0.04774471
000100 f4 27 37 3b 0d 3f 23 b8 1d 8c 39 bd 27 6a fc 3a
       0.0027947398 -3.892095e-05 -0.045299638 0.001925771
000110 fc ae 4c 3c 48 80 4f 3d 74 51 19 bd 29 7e c1 3c
       0.012492891 0.050659448 -0.037431195 0.023619728
000120 96 39 11 3a 7b 44 bf bc 18 03 9b 3c b1 8c 53 bb
       0.0005539892 -0.023348084 0.018922374 -0.0032279904
000130 52 f4 2c ba 3f 04 55 bc 6f 33 72 bc 3b ab 10 bb
       -0.0006597686 -0.013001501 -0.014782771 -0.0022074718
000140 cc 70 d4 3b c1 6f 0c 3d 5a bf d0 3c 93 09 46 bc
       0.006483173 0.034286264 0.025481869 -0.012087244
000150 76 dd ba bc 47 49 f3 3b d8 65 bf 3c fd 82 42 bd
       -0.022810679 0.007424507 0.023363993 -0.0474882
000160 d7 40 ca 3a b6 bb 09 bc 7e f7 62 3c 97 68 78 3e
       0.0015430701 -0.00840657 0.013852952 0.24258648
000170 13 95 a7 3a d9 fe 4b bd a5 4f 1d 3e b5 08 97 bc
       0.0012785516 -0.04980359 0.15362413 -0.018436769
000180 e9 8a 88 3a b3 f3 14 b9 00 95 02 ba ef d6 f6 3c
       0.0010417375 -0.00014205165 -0.0004981309 0.030131785
000190 00 92 5b bb c8 e3 0f 3a b9 5e 01 3a 4c 68 f7 3c
       -0.003350377 0.0005488959 0.0004935074 0.0302011
0001a0 bc c7 89 38 54 ef ef b7 fa f5 93 3c 4e ca 77 3d
       6.5698725e-05 -2.8602466e-05 0.018061627 0.060495667
0001b0 dc 1b 8a 3c 20 cc 5e bb 35 d2 b7 bc 73 d4 e5 3c
       0.016858988 -0.003399618 -0.022439102 0.028055405
0001c0 83 e5 8b bc b2 5e c0 3b 5f 56 27 3d db 40 38 bd
       -0.017077213 0.0058706636 0.040853854 -0.044983726
0001d0 38 db 02 bc 06 68 46 3d 9d ac 9b 39 41 66 43 3d
       -0.007986836 0.04843905 0.0002969251 0.04770494
0001e0 7e 34 69 b9 00 c5 25 3c 0e 4e d5 39 21 69 83 ba
       -0.00022240166 0.010117769 0.0004068468 -0.0010025838
0001f0 ef a1 b7 bb 56 89 cf 3c 02 d8 ca bc 8f 40 3f bd
       -0.005604021 0.025334042 -0.024761204 -0.046692427
000200 ef 6b 45 3a 5f 5a 16 bd b0 48 7b 3b 33 de 99 bc
       0.0007531037 -0.03670728 0.0038342886 -0.01878271
000210 c0 01 2b 3d 10 f2 fb bc b0 a3 2b b9 bb 2a 23 ba
       0.041749716 -0.030755073 -0.00016368809 -0.0006224324
000220 9f 83 b9 bc 7b 04 d6 3a ea 44 b2 3b 4a be 36 bd
       -0.02264577 0.001632824 0.005440344 -0.044615068
000230 d9 96 81 38 dc 66 05 3d 43 da fc 3a be f4 2c ba
       6.179297e-05 0.032568797 0.0019291121 -0.0006597749
000240 70 4c 03 3d 4f 2d b7 39 db a3 39 3c e8 17 a4 bc
       0.03205532 0.00034938238 0.01133057 -0.02003093
000250 ff c3 09 3b ee 2b a5 3b 0d f3 60 3d a9 b9 21 3a
       0.0021021364 0.005040637 0.05491929 0.0006169328
000260 cb 49 04 3d ce b1 90 39 5d ae f1 bc 0c 76 cc ba
       0.032296937 0.00027598295 -0.029502088 -0.0015599146
000270 23 a6 35 39 5e 87 d6 38 a0 e7 1f bc c0 e2 01 ba
       0.00017323396 0.00010229529 -0.009759814 -0.0004954748
000280 7a db 0e 3d 55 6c eb bb 46 18 f9 3c 84 13 51 bd
       0.034877278 -0.007184545 0.030407082 -0.051044002
000290 40 d9 0a 3c 6f fb 25 bc c1 d3 ca 3c 42 ac 21 3c
       0.008474648 -0.010130747 0.024759175 0.00986773
0002a0 25 86 e9 bc ae 45 c6 bc a3 54 da bb da 71 f5 3c
       -0.028506348 -0.024203148 -0.0066629215 0.029961515
0002b0 78 6c 66 bc e7 e7 bd 39 0e 02 98 3c 35 c0 24 3d
       -0.014063947 0.0003622167 0.018555667 0.040222365
0002c0 be f3 a8 bc 5a 99 e7 ba 7f ff d6 3c e3 3e a5 3c
       -0.020624038 -0.0017669604 0.026244877 0.020171588
0002d0 49 fc f1 3a 93 99 ca 39 70 ff 88 3c 8c 9e 58 3b
       0.0018462028 0.00038642864 0.016723365 0.0033053486
0002e0 65 4d 32 3a 13 fc 16 3a ae b0 d6 bc ba e4 bf 37
       0.0006801694 0.0005759608 -0.026207294 2.2875483e-05
0002f0 85 8b 1c bd 40 6a 74 bc b6 7d f2 bc f5 07 b8 3b
       -0.038218994 -0.01491791 -0.02960096 0.005616183
000300 b4 42 ed 39 d6 8c 42 3d ab fe 83 3a b1 db 3b 3c
       0.0004525386 0.047497593 0.0010070404 0.011465953
000310 29 2a 96 b8 56 3c 15 bd b8 74 5b bb d5 11 27 39
       -7.16041e-05 -0.036434494 -0.0033486318 0.00015933004
000320 09 73 e8 3c e0 3c 2b b9 82 fb 30 3c 9b a2 3f 3b
       0.028375166 -0.00016330509 0.010802152 0.0029241208
000330 e0 5d 4e 3b d2 f2 02 bd d1 39 bf bb e6 ff 11 ba
       0.003148906 -0.031969853 -0.0058357497 -0.0005569443
000340 b6 7e a5 bc 32 6f 1f 3c 63 0b e1 bb 64 c5 0a bd
       -0.020202022 0.009731101 -0.0068678125 -0.033879653
000350 44 e6 36 b9 22 0d da 3c b3 39 18 be 29 00 0b bd
       -0.00017442653 0.02661759 -0.1486576 -0.0339357
000360 dd e9 bd bc b3 1a a6 b8 b3 1a 13 bc 8e e0 34 ba
       -0.023182804 -7.92047e-05 -0.008978534 -0.00068999163
000370 ab 95 cf 3c bb d9 8f bc 20 13 d5 bc 25 e3 ca bd
       0.025339922 -0.017559877 -0.026010096 -0.09906606
000380 55 a8 88 3c 6e d3 36 bb 32 01 64 bb 1a e9 a8 bc
       0.01668183 -0.0027897018 -0.0034790752 -0.020618964
000390 fa c0 ad ba 56 64 7e bc a4 69 b0 ba 73 ab 2c 3d
       -0.0013256364 -0.015526852 -0.0013459218 0.042155694
0003a0 6a f6 55 bc f3 52 6a bc be dd 4f b9 e2 9f 29 3c
       -0.013059238 -0.014302003 -0.00019823664 0.01035306
0003b0 ec 65 22 ba 09 71 d5 bc ef 6e 51 bd 27 4d 0a 3c
       -0.0006194997 -0.026054876 -0.051131185 0.008441246
0003c0 f4 d4 e0 38 4c 05 ec 38 87 c7 0e 3d 88 2c 0c bb
       0.00010720818 0.000112543436 0.034858253 -0.0021388847
0003d0 f7 8b 89 3b 16 6a c7 b9 10 6d 1d 38 e2 8e 2c bc
       0.0041975933 -0.00038035278 3.753329e-05 -0.010532113
0003e0 1c 02 72 39 a1 37 d1 3c fa 45 42 3c cf a4 1d 3b
       0.00023079704 0.025539221 0.011857504 0.0024054532
0003f0 6a a6 5c 3c b8 a9 58 bd f3 ca 55 bd 3e d9 97 bc
       0.013467411 -0.05289623 -0.0521955 -0.018536206
