models/ddpg_model_episode_250_critic.pth (torch, 674589 bytes, 5 tensors)

layer_1.weight f4 [400, 117]
00000000: d066 933f 1861 343e ef23 fd3e 56ee 20bd
00000010: e351 033d 92dc bb3b 2246 2b3e e5e7 46bc
00000020: 1553 37bf 6b09 33bf 0b9a bcbd 7752 b2bd
00000030: 458e 513f c1c1 393f 3136 a9be 29b7 f9bf
00000040: 365e aabe 6e1a b7be 524a 0d3e 0b19 8a3e
00000050: 7f63 92bf 65fd 1f3f 34c1 2abe 8946 96be
00000060: 9b52 5c3e e929 66be 86a7 efbd 8bfa 89be
00000070: b1b7 a53d 206f 8a3f 7089 8a3e d499 813e
00000080: 2034 243f 32d2 9fbd 1eb6 a83e 67b3 0d3d
00000090: 4168 053f f6e0 e83d fb56 d5be 7a94 283f
000000a0: fbb9 483d bada cc3f c35c 293f 1e62 b73e
000000b0: a070 653d 7880 1b3e 86db 16bd 3296 1ebe
000000c0: a399 a7bd 5314 f7bd bb3d 623e 3e3e bbbd
000000d0: 7c20 e33f b9c0 d1be e2b7 41be d19f b73f
000000e0: 7e7f d0bd fffa 43be 8b70 973f 225e 593e
000000f0: b24e 203f 0ab4 a4be cbef c2bd f395 39bf
00000100: 1720 173e db16 5a3f 0b04 4fbf 0b1b f03d
00000110: 73d1 39bf ff4c 203e be31 73be 55f5 c1be
00000120: 84c5 babf 218e 363e 8b31 e8be ebcc 1b3f
00000130: f3fd 09be df7c 07bd 423f 1a3f 5044 3bbe
00000140: f3ce 69bf a161 31bf 759b d3be 43c3 77bd
00000150: 253a 9e3e 0ec2 38be a026 c3be cafd 353e
00000160: d2bc 873e 2b6d f7bc 547a 5e3e 24cc ccbd
00000170: 80a7 2c3d 7070 1f3e 2a31 aa3e 27a0 90be
00000180: 1432 ba3e 85db 3ebf 52ad 643e f369 d1be
00000190: 65b7 a5bd afc9 853f 96ce 85bf 9f8a bbbf
000001a0: 3fc6 c93d f53d 49bf 284c b1bb 6f48 043e
000001b0: 5402 74bf d9c2 21be e8e5 4a3f 904e 61bf
000001c0: 6f2c 00bf dd55 6abf b9c6 743e b4dc 393e
000001d0: 152f 053f 460a b73f 4453 dc3c 9bc9 c5be
000001e0: c40f 26be 327b b93d 3237 4e3e b66d 4b3e
000001f0: f4c1 213e e173 103f e130 343f 416c 8bbd
00000200: 9c16 1abe af1f ae3a 0da2 69bd 6287 e9be
00000210: 1474 09c0 b47b c43e 6a0f b9be 218a 713d
00000220: 3900 a63e 2b6b 543c 66a4 edbd 2916 71bf
00000230: 6ec8 07be ba5f f4be 5ff2 7fbe 9db6 efbd
00000240: 3ebe debe bbb3 a13d b67b d43e c657 d33e
00000250: f8af f73e d6ae 5fbd a5e7 38bd c5eb f4be
00000260: 25e0 343f c174 8bbe a89d 2c3e 1566 4abf
00000270: f682 f5bd d56c a63b 96c3 4c3f a6ce 80be
00000280: 5bff c9be 9436 66be 97be 07be 5f9e f33e
00000290: 70e0 78bd f538 4dbf a4f0 033f f2d5 9c3d
000002a0: ecbe c03d 2082 513f b017 dc3e 3e9e 63be
000002b0: bdcf 1c3f 60dd 1b3f 154e 78bd 4839 883e
000002c0: 89c9 873e 3763 453f 0dba 2abd 85bf dab9
000002d0: 3633 ccbe 9510 393e fe91 8c3d 600e da3d
000002e0: 0ffa fdbe 2cf7 503e 4704 013e 1c81 b53e
000002f0: bc4c c93e 4b6a 04bf f2fc 113e d286 e13e
00000300: d5e8 76be b7a5 64bf d5c8 203c 90c8 15be
00000310: 4ca5 aebb 0fe1 b6bf e5df a7be 1b4e 103e
00000320: 32ba 61bd 3278 0c3e ee0e 69bf 1548 94be
00000330: 00b4 f6be f51f 4e3f 4c38 00be 5b36 a4be
00000340: 0fff 4ebd dc43 49bd 6b8e ce3d 44e8 4b3f
00000350: fef4 253f f86c a1be c9ce 86bb 88d6 ebbe
00000360: 5d4c c8be 7c4f fcbd bd55 5d3e 3fe8 f9bd
00000370: c80c b5be 7f73 003d 8c6a 24bd 9a35 6abe
00000380: 9e21 5ebf e0f7 1abe 6ff1 4abf c3a7 9c3f
00000390: bab0 e23d 6229 8abf e9a2 7cbc 08dd 973e
000003a0: e655 2d3e 8b35 22be 8fbf c8bf 3568 aebd
000003b0: 9ccd 7f3e a598 6a3d 5d18 603c 0d27 863c
000003c0: e8e8 df3c f088 0cbe 1af0 603c c4b7 8abd
000003d0: 3b87 c4bd 13eb 523e 07c2 7e3c b05f 3dbd
000003e0: 3c00 563e 6b43 0c40 d99b b7be 95ba 6b3e
000003f0: 6cbd 53bc 91e4 6abe 6f45 e93d 8acf 0e3e
1.1515751 0.17615163 0.49441478 -0.039289795 0.032060515 0.005733081 0.16725972 -0.012140249
-0.7161115 -0.69936246 -0.09209069 -0.08707135 0.8185771 0.7256127 -0.33049157 -1.9509021
-0.33275002 -0.35762352 0.13797882 0.2697223 -1.1436614 0.62496024 -0.16675264 -0.2935069
0.21515886 -0.22476925 -0.117018744 -0.26948962 0.08091677 1.0815163 0.27057981 0.25312674
0.64142036 -0.078037634 0.32951444 0.03459492 0.52112204 0.11371033 -0.41667923 0.6585156
0.04900549 1.600425 0.6615717 0.35817045 0.05601561 0.15185726 -0.036830448 -0.15486982
-0.08183601 -0.120644234 0.22093861 -0.09142731 1.7744288 -0.40967348 -0.18917802 1.4345647
-0.10180567 -0.19138716 1.183122 0.21227315 0.6262008 -0.3216861 -0.09518393 -0.7249443
0.14758335 0.85191125 -0.80865544 0.11723908 -0.7258522 0.15654372 -0.23749444 -0.37882486
-1.4591527 0.17827655 -0.45350298 0.60859555 -0.1347578 -0.03307807 0.60252774 -0.18287778
-0.91331404 -0.69289595 -0.41329542 -0.06048895 0.30903736 -0.18042776 -0.38115406 0.17772594
0.26511246 -0.030203423 0.21726352 -0.09999874 0.042151928 0.15570235 0.33240634 -0.28247187
0.36366332 -0.7455371 0.22331741 -0.40901145 -0.0809162 1.0452174 -1.045367 -1.4651679
0.098522656 -0.78610164 -0.00541069 0.12918256 -0.9531605 -0.15796985 0.7925706 -0.880105
-0.500678 -0.91537267 0.23903932 0.18150598 0.52024966 1.430001 0.026895173 -0.38630375
-0.16216952 0.09056701 0.20138243 0.1986607 0.15796643 0.5642682 0.70387083 -0.06807757
-0.15047687 0.0013284589 -0.05703931 -0.456111 -2.1477098 0.38375628 -0.36144572 0.05896962
0.32422045 0.012965004 -0.11603622 -0.9417444 -0.13260052 -0.47729284 -0.24994801 -0.117047526
-0.43504518 0.07895609 0.41500634 0.41277903 0.4837644 -0.054610096 -0.04514279 -0.47836128
0.7065452 -0.27237514 0.16857016 -0.79062015 -0.119878694 0.0050788918 0.7998594 -0.2515766
-0.39452633 -0.22481757 -0.13256298 0.47581765 -0.060760915 -0.80165035 0.51539063 0.07657994
0.094114155 0.8183918 0.42986822 -0.22228333 0.61254483 0.60884666 -0.06062134 0.26606202
0.26520947 0.77104515 -0.041681338 -0.00041722893 -0.3988282 0.18072732 0.06863783 0.10647273
-0.49604842 0.20406789 0.12599288 0.35450065 0.39316356 -0.5172469 0.14256647 0.44048172
-0.24112256 -0.8931536 0.009813507 -0.1462729 -0.0053297635 -1.4287432 -0.32788005 0.14092295
-0.05510921 0.13717726 -0.91038406 -0.28961244 -0.48184204 0.8051751 -0.12521476 -0.3207272
-0.05053621 -0.04913698 0.10085758 0.79651284 0.64826953 -0.3152845 -0.004114006 -0.46062112
-0.3912076 -0.12319848 0.21614738 -0.122025006 -0.35361314 0.031360146 -0.040140674 -0.2287201
-0.86770046 -0.1513362 -0.7927465 1.2238697 0.11068864 -1.0793879 -0.0154197 0.2966082
0.16927299 -0.15840738 -1.5683459 -0.0851597 0.24980778 0.05727448 0.013677684 0.016376043
0.027332738 -0.13724113 0.01372912 -0.06773332 -0.09596106 0.20597486 0.015549189 -0.046233833
0.20898527 2.1916149 -0.3586109 0.23020394 -0.01292358 -0.22938754 0.113901965 0.13946357

layer_1.bias f4 [400]
00000000: 42ed b23d 7891 e73d 7032 09be 2510 88bc
00000010: da6b 7cbd e3d4 f13c 3f41 283d 1386 dabd
00000020: b113 bbbd f613 bebc aff9 3dbd 6315 8f3d
00000030: c7d3 9abd d211 253d f574 763f 5b1f 9d3b
00000040: df51 4abf bdbb 31bd 2771 70bd fc16 d2be
00000050: 9ca0 a4bc e6d6 383e 2f2f e9bd 5943 a7bd
00000060: 9e78 5abe 2a6f 783d 1829 60bd 1ca7 b8bc
00000070: 9749 11bd aa1e 15bd 8670 faba ec10 2cbe
00000080: 4fb3 bc3d 9c90 99bc bf78 a93d dc10 7c3c
00000090: 7264 c5bd 4a97 24be fe45 7bbd 29d2 fdbd
000000a0: 7b45 ddbd cf06 24bd 12cf a8bc dadb 123d
000000b0: 061e 1e3d 2a23 95bd 1026 9b3c ed30 c03d
000000c0: 0a54 99bc 5225 b0bd 7d4c bd3d 273a cc3c
000000d0: a884 c9bd 1dc3 b2be 1453 63bc a426 c13c
000000e0: cf89 5ebe 8306 9ebe 6fd4 03be 645d dabd
000000f0: 2294 a5be 40c2 873c b6a1 a43b 1441 6cbe
00000100: 9641 a03e aeee 53bd 29dd 8fbe 7229 a03d
00000110: 7438 66bd a8eb 323d 4671 31bd ddba d9be
00000120: e2dd 303e 4ca9 9cbd ed3e 5d3c 50e7 58bd
00000130: 8cff 48bd 543f 33bd 9c16 8fbc 8453 8c3c
00000140: 2013 073f 33f8 b03d 743a a1bd e407 2d3d
00000150: 16cd ecbd 3fe1 3fbd 60b3 533b 59af 99be
00000160: fb82 df3d 6cdf 04be 0073 183c 25ed b63d
00000170: cba4 c7bd 5acd a6bc 0bd6 8bbd e043 d43e
00000180: ac0c f33c 87a2 8cbc 4c3a 3a3b 2a13 4c3d
00000190: 07c5 1cbe ee21 d3bd a51c 6cbd f6a8 1f3d
000001a0: 91df d03b 9d6d 783d c458 023d 6e02 e0bb
000001b0: 7753 b3bd 8cb6 a2bd 2722 e93b 0e91 10bf
000001c0: 0a80 3fbe 14a7 95bd 09bd fe3e fc81 a73c
000001d0: be4a 413e 4f3d 1e3d e149 97be 26b6 99bd
000001e0: 250b ad3d 8f23 ce3c ba66 cbbb 92b9 303c
000001f0: e02d 003c 587a 013d 7f85 593c e6e5 053d
00000200: d4fa 94bc df74 863e eb41 0bbf 97a1 17be
00000210: 5c16 84bd 0b1a c23d 2a17 07bd 60fc fe3b
00000220: 3d3e 95bd 4102 933b ea3f ae3a 0680 56bd
00000230: e5d5 bbbd 549a 32bb 89d9 9a3c 26a6 c03c
00000240: b323 853d d5d7 33be d735 be3d f408 113d
00000250: 6dfe c03d 9976 40be 5052 6e3d e9df 23bd
00000260: f3ec 833c 08bc 8bbc e65f babd 515b 68bd
00000270: 811f 9dbd 109a b9bb 6f88 013d 87e5 b7bd
00000280: 5f62 563d b6ea 05be 452d 2dbd 2206 8bbd
00000290: 2edf 833b 6266 14bd 8b84 703d b743 5cbe
000002a0: 307f 27bc b75b 353e 878d 06bc 2632 333d
000002b0: d2e3 6dbd 6701 a6bd 7d5f edbd 7537 8fbd
000002c0: 7ea5 0a3d 2fc4 8b3e b6ce 0a3e 2526 8bbd
000002d0: 32ae 9c3d fc7a 2d3d a11f a2be b2b5 6f3b
000002e0: a77a f6bd 7832 2fbd 0b72 4c3b 1b39 bebd
000002f0: 7e2d 0a3d b8fa bdbc 18ba 7b3d 8cb9 b93c
00000300: 9682 cebd 1552 48bf ea87 3dbe 33c4 f0bc
00000310: af60 1a3d 97b7 f9bd 28a1 8c3d dc13 373c
00000320: d111 a7bd 4990 6cbe 02f1 a9bd ac49 e3bd
00000330: cd17 8abe 615d b9be 3aee f03d 22ce 293d
00000340: 1b11 52bd 7bd9 bc3c f88c 053d 8e2f 6e3e
00000350: a8ee a9bb 67c9 fcbd 2e32 8e3c 8932 4f3c
00000360: f915 74bd 0ac1 06be e09d 673d 4b67 dfbd
00000370: 6a7a 07be e67c a13b 71d6 5abe 5099 16bc
00000380: 8955 f83c 9130 d9bd fd8f fa3d 5b68 1f3d
00000390: 06ea 553e 5168 ae3d e806 bf3c f5eb 3c3e
000003a0: f93e 823d 6443 51bd cbe8 b83d 8bad 65bd
000003b0: b262 9cbd 7245 9ebd a233 92bd d06e e7bc
000003c0: 56a1 ec3e 6d3d 973d 3b2b 7dbd b53c ce3c
000003d0: 06c0 083e 67b9 50bd 1087 9f3c cd8c 333d
000003e0: 92f3 7a3d 257b eebd 8c13 8a3d 3f92 92be
000003f0: 1f44 fd3d 0523 743d 053b bb3e 1132 0c3d
0.087366596 0.11307043 -0.13398147 -0.01660926 -0.061626293 0.029520458 0.04107785 -0.10670104
-0.09134615 -0.023202877 -0.046380695 0.06986501 -0.075599246 0.040300198 0.9627221 0.0047949976
-0.79031175 -0.04339193 -0.05870166 -0.4103316 -0.020096116 0.18050727 -0.11385953 -0.081671424
-0.21335074 0.06065289 -0.05472669 -0.022540621 -0.03547057 -0.036406197 -0.0019107021 -0.1680333
0.09213888 -0.018745713 0.082749836 0.015384879 -0.09638299 -0.16073337 -0.061346047 -0.123936005
-0.10804268 -0.040045556 -0.020606551 0.035854198 0.03860285 -0.07282098 0.018939048 0.09384332
-0.01871683 -0.08600868 0.092431046 0.024930073 -0.09839755 -0.34914485 -0.013874788 0.023577996
-0.21732257 -0.30864343 -0.12874006 -0.10662344 -0.3233958 0.016572118 0.0050241603 -0.230717
0.31300038 -0.051741295 -0.2809842 0.07820405 -0.05620618 0.04368177 -0.043320917 -0.42525378
0.17272142 -0.07649478 0.013503772 -0.05295497 -0.049071833 -0.043761566 -0.017466836 0.017129667
0.5276356 0.0864109 -0.07872477 0.042243853 -0.115625545 -0.04684567 0.003230296 -0.30016592
0.109136544 -0.12975854 0.009304762 0.089319505 -0.09748229 -0.020361591 -0.06827935 0.41458035
0.029669128 -0.017167343 0.0028416095 0.049822964 -0.15309535 -0.10309206 -0.057644505 0.038979493
0.0063743074 0.06065141 0.031822935 -0.006836227 -0.08756154 -0.07944974 0.007114667 -0.56471336
-0.18701187 -0.07307258 0.49753597 0.020447724 0.18876168 0.038632687 -0.29548553 -0.07505445
0.08449391 0.02516344 -0.0062073143 0.010786431 0.007823437 0.031610817 0.013276457 0.03268995
-0.01818601 0.2626104 -0.5439746 -0.14807735 -0.06449577 0.094776236 -0.032981075 0.0077815503
-0.07287262 0.0044863527 0.0013294194 -0.052368186 -0.091716565 -0.0027252631 0.018902557 0.023516726
0.0650095 -0.17562802 0.09287613 0.03540893 0.09423528 -0.18795241 0.058183968 -0.04000846
0.016104197 -0.017057434 -0.091003224 -0.05672771 -0.076720245 -0.0056641176 0.031624254 -0.08979326
0.052339908 -0.13077816 -0.0422795 -0.06788279 0.004024408 -0.036230452 0.058720153 -0.21510206
-0.010223195 0.17710768 -0.008212454 0.043748997 -0.058078595 -0.08105736 -0.115904786 -0.069929995
0.033849232 0.27298114 0.13555416 -0.06794385 0.076504126 0.042353615 -0.31664756 0.0036576805
-0.12035113 -0.04277274 0.0031195905 -0.09288236 0.03373479 -0.023190841 0.06145677 0.022671483
-0.10083501 -0.7825025 -0.18508878 -0.02939043 0.03768986 -0.1219322 0.068666756 0.011174168
-0.08157695 -0.23101915 -0.08297922 -0.11098036 -0.26971284 -0.36204055 0.11764188 0.04145635
-0.051285844 0.023052922 0.03260514 0.23260328 -0.0051859207 -0.12343102 0.017357912 0.012646326
-0.059591267 -0.13159576 0.056547046 -0.109083734 -0.13230291 0.004928219 -0.21370865 -0.009191826
0.030314224 -0.106049664 0.12234495 0.03891788 0.20890054 0.085159905 0.023318723 0.18449385
0.06359667 -0.05108966 0.09028777 -0.056073707 -0.07636012 -0.077280894 -0.071387544 -0.028251082
0.4621684 0.07384763 -0.061808806 0.025175432 0.13354501 -0.050958063 0.019473583 0.04383545
0.061267443 -0.11644582 0.067420095 -0.28627202 0.12366509 0.05960371 0.36568466 0.034227435

layer_2.weight f4 [300, 400]
00000000: 995d dfbd d254 e8bd 1b41 debd 5791 37bd
00000010: 87f2 e5bb 49b1 8e3d 352b 8bbc 5748 bdbb
00000020: ba77 7cbc 80b9 04be 6bbe 183d 138f d1bc
00000030: 3a30 ebbc 86d2 803c 97d5 14bf 0b14 04be
00000040: 63e3 48bd 38c8 e3bd f28a 1cbe b4dd 24bd
00000050: 1697 abbd 3ae1 f3bc 5c3d 2d3c 32df e2bd
00000060: 3304 bebb 58b6 c8bb 812e a6bd fdcd 5f3d
00000070: 00a5 323c 6a24 9cbc 52c5 12bd adfb 1bbd
00000080: 8337 4b3d e28d 84bb 76c7 a43c 4741 17be
00000090: f11b a73c e803 11ba 03aa 273d 97ef dabd
000000a0: 4a0d dfbd 7bdb abbb 9136 1ebd f49b 51bc
000000b0: 6043 d03a cc67 97bd bd37 113d cd5c 1fbd
000000c0: c02b bebc dee5 1fbe a877 cd3b 7d01 a2bc
000000d0: dd76 41bd 4796 96bc 3f85 3f3d 9441 71bc
000000e0: 919c 9abb 362d c03a a1cd 71bc 221b 30bd
000000f0: bc75 03bd 00f3 50bb 9ac2 fcbc f067 febc
00000100: 2031 9d3c b43e 4f3c 068c 0f3d 53c6 273d
00000110: b5ef 0abd 4638 e93d 7c60 a7bd 1ffb 173d
00000120: 2889 13bd 30da 86bb b485 1ebd 0005 e839
00000130: 39d0 13bd 86a6 28be 3e8a c63c 04e7 553c
00000140: 8f1f f7bc 1811 193c 408d c9bc 7cfa 28bd
00000150: e748 e4bd 0af4 893c e032 3bbd 5f57 183d
00000160: cf72 3abd 187f 29bd 3a46 4abd e844 1bbc
00000170: be69 c3bb 6d8d bdbd 18e4 0fbe edc2 d93c
00000180: b4f8 373c 26d1 8dbc 8b63 44be c3a5 153c
00000190: 7d0d 9e3c a196 25be 43c7 88bb caa6 1dbd
000001a0: d2fe d43c ed1e 29be ca6f 553c 9709 e53c
000001b0: d9d3 f6bd d067 a7bc e40a 07be 5f39 0b3c
000001c0: c52e 473c 618b 4b3d 24db 8f3d 229e 54bd
000001d0: 08f6 5d3c 8b94 e1bd c774 963c c239 20be
000001e0: 008a 7ab9 6f16 3cbd 6277 34bc 8b31 9abd
000001f0: 2253 e63c f65a a13c 12f4 c23c 1e77 443c
00000200: d18c 0e3d acaa 3c3c e617 3fbd bcbf 23bd
00000210: 0241 943c c289 b3bc 5e17 b43c daf5 dcbc
00000220: e404 77bd e593 803c ddd9 96bc 8516 0bbd
00000230: d992 1e3d 5a30 b2bb 01e2 0dbe 0f61 51bd
00000240: 0050 55bb e5e2 373d 843e 3e3d 8118 cc3b
00000250: f7e6 11bd b0df 373c b7a2 0d3e d87a 78bd
00000260: 21a2 dd3c 8998 403d 3728 0e3d 0a39 c53c
00000270: 85fe 41bd e84a 29bc 48c0 303d ead1 42be
00000280: 1a53 b93c 483a 4fbe 32d5 8c3c 9370 a2bc
00000290: af18 9f3c 0533 333c 7889 873c 982b 883b
000002a0: f195 173d 46e2 3cbe 9bdb e2bb 5635 24bd
000002b0: 4f58 ef3c 1895 dabd f8d1 3ebd 0ab3 87bc
000002c0: 6473 7cbb 0270 97bc b99d bbbb 48ff 34bd
000002d0: b462 a73c 7ab5 99bd 3c02 133b 9d01 44bd
000002e0: 7d6d dfbd c48d 40bd 9804 b4bd 89b1 4b3d
000002f0: 39a3 08bd bb46 18bc 76a7 48bd 7804 05bd
00000300: 7ca3 c83c 114e bdba 2de8 9b3c 2639 123d
00000310: 72e8 073c 2c5a 1dbc 15ec 38bd d848 d1bc
00000320: 58ed 21bc 67d1 3bbd 0593 23bd c1ff febd
00000330: db92 793c 25e0 313d 1598 f3bb f191 57bd
00000340: 496b 03be 1e0a a5bd 97bb e8bc 897b 8abc
00000350: 44e8 babc 3093 7cbd 9e62 06be ea6b 78bb
00000360: a63d 0ebe c2e5 8fbc 25d4 f9bd 249b 013d
00000370: 309c c43c 1d1f 2b3d 6cac b239 0f2e 93bd
00000380: f152 2c3d 006f c93c ab13 2fbe 063c f6bc
00000390: 23e7 31bd 4a98 11bd 9e0a 92bc 0547 a1bd
000003a0: fa16 413d 1838 d5bd faad 0dbd 0141 0fbe
000003b0: 40a1 31ba 668d d93d 0115 adbc 6e21 ba3c
000003c0: db39 953c 6a9c debc 8c2f 5bbd 42b2 33bb
000003d0: 0949 983e 401e 0cbd ea0e f6bc d6a7 12be
000003e0: eded 9fbc 0335 e8bd 9c49 58bc a20a b23c
000003f0: a4ed d23c 1d34 febc abdc 5fbd eafa cebc
-0.10906524 -0.11344303 -0.10852262 -0.04481634 -0.007017437 0.06967408 -0.016988376 -0.005776446
-0.015409404 -0.12961388 0.03729097 -0.025580918 -0.02870952 0.015725385 -0.5813841 -0.12898271
-0.049044978 -0.11122173 -0.15287378 -0.040250495 -0.08378427 -0.029770482 0.010573711 -0.110777274
-0.0057988404 -0.0061252527 -0.08114339 0.054639805 0.010903597 -0.019060332 -0.03583271 -0.038081814
0.049613487 -0.004045234 0.020114642 -0.14770995 0.020399066 -0.0005531893 0.04093362 -0.106902294
-0.108912066 -0.00524467 -0.038626257 -0.01279353 0.001588922 -0.073928446 0.035453547 -0.03890686
-0.023214221 -0.15615031 0.0062703677 -0.0197761 -0.047232497 -0.018382205 0.046757933 -0.014725108
-0.004718371 0.0014661911 -0.014758498 -0.042994626 -0.032094702 -0.003188312 -0.030854512 -0.03105542
0.019188464 0.012649227 0.035045646 0.04096062 -0.03392001 0.113876864 -0.081727 0.037104722
-0.036019474 -0.0041153654 -0.038701728 0.00044254214 -0.03608725 -0.16469774 0.02423584 0.013055567
-0.030166415 0.009342454 -0.024603486 -0.041254506 -0.111467175 0.01684 -0.045702815 0.0371927
-0.045519646 -0.04138097 -0.04938338 -0.009476878 -0.005963533 -0.092554905 -0.14051855 0.026582206
0.011228729 -0.017311644 -0.19178598 0.009133759 0.019293541 -0.16170742 -0.0041741445 -0.03848914
0.026000414 -0.16515703 0.013027141 0.027958674 -0.120521255 -0.020435244 -0.13187748 0.008497565
0.012157147 0.04969347 0.0702422 -0.05190862 0.013547428 -0.110146604 0.01836623 -0.15647033
-0.00023893267 -0.04591983 -0.011014791 -0.07528981 0.028115813 0.019696694 0.023798022 0.01199129
0.03480226 0.011515301 -0.04665365 -0.039977774 0.018097404 -0.021916274 0.021983799 -0.0269727
-0.0603074 0.015695522 -0.018414432 -0.033957023 0.038714264 -0.005437893 -0.13855745 -0.051117953
-0.0032548904 0.044894118 0.04644634 0.006228507 -0.035620656 0.011222765 0.13831602 -0.060664028
0.027054848 0.04702047 0.03470632 0.02407505 -0.04736187 -0.0103328 0.043152124 -0.19025388
0.022622634 -0.20237076 0.017191503 -0.01982907 0.01942095 0.010937457 0.016545042 0.0041555874
0.03700823 -0.18445691 -0.0069231517 -0.040089928 0.029216914 -0.106729686 -0.04658696 -0.016564865
-0.0038520927 -0.018486027 -0.005725589 -0.044188768 0.020432808 -0.07505317 0.0022431752 -0.0478531
-0.10909555 -0.0470102 -0.08789939 0.049729858 -0.033358786 -0.009294207 -0.04898783 -0.032474965
0.024492018 -0.0014442821 0.019031608 0.035699032 0.008295165 -0.009604018 -0.04514702 -0.02554743
-0.009883247 -0.045854 -0.03993513 -0.12451125 0.015232767 0.04342665 -0.007433901 -0.052629415
-0.12833895 -0.0805857 -0.028409762 -0.01690461 -0.022815831 -0.061663806 -0.13123557 -0.0037906119
-0.13890705 -0.017565612 -0.121986665 0.031642094 0.024000257 0.04177772 0.0003407927 -0.07186519
0.042071287 0.024589062 -0.17097346 -0.030057918 -0.04343332 -0.035545625 -0.017827328 -0.07874874
0.047141053 -0.1041109 -0.034589745 -0.13989641 -0.0006776042 0.10622673 -0.02112818 0.022721019
0.018216064 -0.027174193 -0.05351214 -0.0027419482 0.2974322 -0.034208536 -0.030036408 -0.14321837
-0.019522632 -0.11338236 -0.013201144 0.021733586 0.025748082 -0.031030709 -0.054653805 -0.02526613

layer_2.bias f4 [300]
00000000: c246 93bb 72fb 08bd abf0 14bd 3dea c2bc
00000010: bde3 633e 2a8f a83b a19f 49bd 9e9a 88bc
00000020: 84c0 0bbe 46ea 173c 0603 36bd 310f 33be
00000030: 3969 96bd 84c7 02bc 961f 873f 3732 41bd
00000040: 35f8 d8bd 6bfe 3abd 5774 08bd 55da 4abd
00000050: ef77 98bd 5c13 94ba 7dfd 27ba 8a8d dabc
00000060: 0f9e 933a 9e9d 173c 0f22 af3e bdd0 423e
00000070: ddd9 65bd 7609 14bd 9425 2fbd 7f22 5bbe
00000080: 2fb3 983c 2522 b9bd a3e4 83bc c0bf 9fbd
00000090: 741b 12be 98c5 84bd 5772 bb3a 500e f5bc
000000a0: 8ded 32be 6e30 86be a36f 35bc 5d01 e03b
000000b0: 5583 d73d 5647 babe d888 c33c 82a8 85bd
000000c0: 47b8 82be a94f b2bd d586 1ebc 0c8e 40be
000000d0: 3eea cd3c 7c74 34be 0e31 5d3e 6571 473c
000000e0: 6005 84bd d4a6 8f3b 0e66 d03c 5ea1 71bd
000000f0: b6ec 38bd a211 20bd 8e3a 123d 8e6f 123d
00000100: 3f47 11be 33ba 503c d92e 00bd 2aa2 4cbd
00000110: b132 673d 60ff 003e 5da1 273a 9503 05bd
00000120: af11 233e ecc5 8bbb 773a 01bd 9734 1dbc
00000130: dbf3 b03c 1d71 6ebe 3efe 86bc 21ac 85bc
00000140: 38c7 313c 3b36 783c 30e2 423d 7ccf 35bd
00000150: ddd4 c43b bed5 b13e ecda 37bd ffca a2bc
00000160: c175 21be 4785 05bd f79a 06bc 3651 07bc
00000170: 15d8 b9bd 546f 253b 0755 7f3e 3ffd 92bd
00000180: f8b9 c0bc 144e e9bc 5a1f 913c ca57 a3bd
00000190: b67b 19bd 03f0 15be aef5 86be 05c2 d73d
000001a0: 7f99 a9be 3251 94bd 9228 b73d 5ef0 85bd
000001b0: b17c 8cbc cb0c 21bd 1f42 80bd 2096 42bc
000001c0: 5bd3 35bc f5ab 61bd 969e 943d fc04 1bbc
000001d0: de20 533c 157b 813c c96f 06bd 0298 16bd
000001e0: 3332 263d 7706 78bd 9e93 ec3e 1b0b b7bd
000001f0: a7ad cebe 43df d3bc dab3 7b3c a030 3fbd
00000200: 71de 413d 5535 e9bc f14d 7c3e 134f 12bd
00000210: 0e20 333c 2eb7 4ebd 3c23 61be b864 97bd
00000220: dbc0 093d abe1 bb3d 6383 4f3e bd05 a53b
00000230: 257a 86bd e1ee aabc 69b8 243c 49fc 19bd
00000240: 7639 ba3c 4870 873d a8a4 e6bc 88a1 80ba
00000250: 79c7 da3e fd97 3fbd 0736 733b 58a4 0cbe
00000260: ee84 863b 77de a2b9 692e 8fbd ae75 44bd
00000270: dc43 1f3d eafc abbc 46e2 19bd 28da 79bd
00000280: 12cc 883c d28f 40bc dd0f 743b 4099 28bc
00000290: b3fc 173d 25f3 69be 8bd1 1bbd 85df 3fbd
000002a0: daf0 fcbc dbc5 32b9 786c 0abe 77af c7bc
000002b0: 6491 f43c bae4 793d 30e0 34bc 5a85 5cbd
000002c0: adc0 3fbc db0b f8bb bcbc 28bd 6b07 143a
000002d0: e678 8cbd 1749 303d 4eac 2e3c 473e 503e
000002e0: c9ea cbbc 83c7 f5bc 5147 4bbc 6d57 debb
000002f0: 65fb 5abd 13d3 15bd 0538 41bd ca07 a2bd
00000300: cf7c 8a3e 4f91 863c 5cc4 123e d885 843f
00000310: 1bb4 c1bd 9e00 10bd b2d7 31bc 7b19 2ebd
00000320: 0239 de3c ff5f 5abd b99c 0d3f 387b 793b
00000330: 6921 9bbd 20e0 1fbd 892b 58bb ba73 7bbc
00000340: 98db 92bb ff08 13bd 3e9a 803c 373b 293c
00000350: 9ec9 1f3d bf7a 43bd 1102 ad3d 6da6 a7bd
00000360: 50e7 a4ba ca47 8abc 7ed2 21bd c59e 4ebe
00000370: 08ce 05bd 1616 e63c 49f6 b3bb 91c8 fb3d
00000380: ca63 9bbc 9ab1 62bd 53b5 5bbe 453e a6bb
00000390: 1d37 d6bc 28db e83a 4615 f3bc f20a 253e
000003a0: df19 a8bc 95ec 23bd 1f35 8ebc 8b51 8cbd
000003b0: e3d2 c53a 0862 72bd 30b5 9d3b be60 1dbd
000003c0: c5a5 063d 2a4a 063f 3f9b 513c 5185 d9bd
000003d0: 8e80 4d3e d1d1 9a3d 4437 d9be 86bc abbc
000003e0: 5591 b03c cc02 843b 007d 7bbd 91d3 92bc
000003f0: d858 8bbd f4aa ecbd f11e 9abc d269 3cbd
-0.004494519 -0.033442922 -0.03636233 -0.023793334 0.22254844 0.0051440196 -0.0492245 -0.01667529
-0.13647658 0.009272164 -0.044436477 -0.17486264 -0.073442884 -0.007982139 1.0556514 -0.04716703
-0.10594217 -0.045652788 -0.033314075 -0.049524624 -0.074447505 -0.0011297273 -0.0006408317 -0.02667882
0.0011262315 0.009253887 0.34205672 0.1902494 -0.056115974 -0.036141835 -0.042760447 -0.21399878
0.018640129 -0.09039716 -0.016100233 -0.07800245 -0.14268285 -0.064830005 0.0014301044 -0.029914051
-0.17473431 -0.26208824 -0.01107398 0.0068361 0.105230965 -0.3638255 0.023868963 -0.06526281
-0.25531217 -0.087066 -0.009675701 -0.18804187 0.02513611 -0.1762256 0.21600744 0.012173031
-0.06446338 0.004383901 0.025439288 -0.058991782 -0.04514762 -0.039079316 0.035700373 0.035750918
-0.14187334 0.012739706 -0.031294677 -0.04995934 0.056444827 0.12597418 0.00063945894 -0.03247412
0.15924715 -0.0042655375 -0.031549897 -0.009595058 0.021600654 -0.23285337 -0.016478654 -0.016317429
0.01085072 0.015149648 0.04757899 -0.044387326 0.0060068206 0.34733385 -0.044886515 -0.019872187
-0.15767576 -0.032597806 -0.008215657 -0.008259108 -0.090744175 0.0025243359 0.24934779 -0.07177209
-0.023526177 -0.028479613 0.017715145 -0.07975729 -0.037471496 -0.14642338 -0.26359314 0.10535053
-0.3312492 -0.07242049 0.08943285 -0.06539987 -0.017149301 -0.03931884 -0.062626116 -0.011876613
-0.011097754 -0.05509563 0.0725681 -0.009461638 0.012886254 0.01580576 -0.03282145 -0.03676606
0.040575217 -0.06055304 0.46206373 -0.08937665 -0.4036686 -0.025863295 0.015362704 -0.04667723
0.047331277 -0.028467814 0.24639107 -0.035719942 0.010932935 -0.050467663 -0.21986097 -0.073922575
0.033631187 0.09173902 0.20264964 0.0050360844 -0.06566266 -0.02086586 0.010053732 -0.037594113
0.022732478 0.06613213 -0.028154686 -0.0009813765 0.4273031 -0.046775807 0.003711106 -0.13734567
0.004105202 -0.00031064797 -0.06991274 -0.04796379 0.038883075 -0.020994622 -0.037569307 -0.060999066
0.01669887 -0.011753039 0.00372409 -0.010290444 0.037106227 -0.22846659 -0.038041633 -0.046844024
-0.030876566 -0.0001704911 -0.1351794 -0.02437566 0.029854484 0.061009146 -0.011039779 -0.05383811
-0.011703652 -0.0075697727 -0.041195616 0.00056468573 -0.06858997 0.043038454 0.010661198 0.20336257
-0.024892228 -0.030002361 -0.01240714 -0.0067853243 -0.053462405 -0.03657825 -0.047172565 -0.07911642
0.27048346 0.01642671 0.14332718 1.0353346 -0.094581805 -0.03515684 -0.010854648 -0.04250477
0.027126793 -0.053314205 0.55317265 0.003806783 -0.07574732 -0.0390321 -0.0032984933 -0.015347416
-0.004481744 -0.03589725 0.015698548 0.010329059 0.039010637 -0.04772448 0.0844766 -0.0818604
-0.0012581144 -0.016879935 -0.03950738 -0.20177753 -0.03266719 0.028086703 -0.005492006 0.122941144
-0.018968482 -0.055345155 -0.21455888 -0.005073341 -0.026149327 0.0017765509 -0.02967323 0.16117457
-0.020520149 -0.040020544 -0.017359314 -0.068514906 0.0015092756 -0.05917552 0.004812859 -0.03842234
0.032872934 0.52456915 0.012793361 -0.10621131 0.20068571 0.075595506 -0.42424977 -0.020963918
0.021553675 0.0040286537 -0.061398506 -0.017923148 -0.06804055 -0.11556044 -0.018813582 -0.045999356

layer_3.weight f4 [1, 300]
00000000: 990a 953a ca5c 5b3c 3483 b53c 2e65 8fbd
00000010: afb0 9e3b 8e0a 363b ef45 e23a 825f 9b3c
00000020: 2b3c 28bc c61e 9c3c 972d a4ba c372 6cba
00000030: e332 433c 2743 3339 7e28 91bc 1672 d93c
00000040: 394c c13a a9d7 48bc b9bf b9b7 f2a5 3e39
00000050: cac8 643b f140 4b3d be75 223d a535 5fbc
00000060: 967e b2bb 4c3e e43c 9866 32bc c287 c7bc
00000070: b66d c1ba 0439 4f3c 5661 903c 9233 e1bb
00000080: aaf4 763c 0d88 fdb7 684f 223d bcc5 a7bb
00000090: 14d6 e4b9 18b5 e9bc c78f abbc 82f8 51bc
000000a0: 28bd d6ba 6b1a dab9 3584 25bd 164d a4bc
000000b0: 2638 e1bb b22f a5bc dbda 3cbd c082 e8bb
000000c0: 7a13 753c a995 f1ba f43f 103d a109 133a
000000d0: b161 343d 3e11 c2bb 56de bd3a 1de7 1bbd
000000e0: 03d6 3dba fe3c e33c 90fc d43b 92d5 3c3c
000000f0: d0eb db3b 1993 403a 365d 8abc f58f 43bd
00000100: cb34 c8bc f497 3dbc 1d8c 39bd 276a fc3a
00000110: fcae 4c3c 8026 5b3d 7451 19bd 9e54 653a
00000120: d96c 90bb 7b44 bfbc a33c f63c 4852 1e39
00000130: 51a1 e4bc 265a 823c 6f33 72bc d028 cc38
00000140: cc70 d43b c16f 0c3d 141d 153d 9309 46bc
00000150: 76dd babc d5fd 173c d865 bf3c 7ee8 14bd
00000160: 0c95 df3b 99a2 3d3d 7ef7 623c b1fb 503e
00000170: bfa8 2739 c4fa 4bbd 542d 123e b508 97bc
00000180: 36aa fbbc ea00 0eb9 903d e63c efd6 f63c
00000190: 80c7 e83c b603 44bc 9a29 563a 0d86 1b3d
000001a0: 7813 0ebb 567f 153b 70e3 c1bc d0ef 423d
000001b0: b73b 74bc 20cc 5ebb 35d2 b7bc 4593 7dba
000001c0: 83e5 8bbc b25e c03b ed10 423d db40 38bd
000001d0: 38db 02bc cf09 083d 0c29 15b9 4166 433d
000001e0: 7e34 69b9 00c5 253c dcec d33c 4237 1836
000001f0: 21bd a3bc 5689 cf3c 02d8 cabc 8f40 3fbd
00000200: b33e aeba 5f5a 16bd d809 6c3b 33de 99bc
00000210: 18bc 9d3c 10f2 fbbc 1bff 7dbb 9131 cbba
00000220: 9281 b9bc 65cf a1bc 05c3 c9bc 40be 36bd
00000230: 19f2 97bb dc66 053d 43da fc3a 9eea b338
00000240: 704c 033d 70a8 82bc dba3 393c bb43 403c
00000250: e2b7 573c ee2b a53b 2431 b23c 3d00 d7bc
00000260: cb49 043d f83c 69bc 5dae f1bc e200 a6ba
00000270: 274d 85b9 f531 17ba a0e7 1fbc a378 e1bb
00000280: 7adb 0e3d 5af5 e8bb 5a94 a13b 8413 51bd
00000290: 40d9 0a3c b20f bd3c c1d3 ca3c 42ac 213c
000002a0: 2586 e9bc 35bf 9f3a 5f23 d5bb da71 f53c
000002b0: 786c 66bc b450 bcbc 0e02 983c 8722 073c
000002c0: baf3 a8bc 9644 963b 7fff d63c e33e a53c
000002d0: 49fc f13a 19bc 87bc 70ff 883c ba96 48bc
000002e0: 2554 e3bc 8ccd a5bb aeb0 d6bc b097 573c
000002f0: 648a 1cbd 9304 8a3c b67d f2bc f507 b83b
00000300: 3d91 2bbc d68c 423d 1a31 9cbc af86 86b9
00000310: 332d 9ebc 563c 15bd b874 5bbb d511 2739
00000320: 0973 e83c d8f3 73bc 1744 63bc 0aa2 c63a
00000330: 066a eabc d2f2 02bd d139 bfbb 6180 6fbc
00000340: b67e a5bc 326f 1f3c 630b e1bb 64c5 0abd
00000350: dc24 393c 220d da3c 84bc e6bd 513c e7bc
00000360: ca0e bbbc 8155 43b8 b31a 13bc 0490 f4bc
00000370: ab95 cf3c bbd9 8fbc 2013 d5bc 30cf f3bc
00000380: 55a8 883c 6ed3 36bb 82ec 923c 1ae9 a8bc
00000390: fac0 adba 5664 7ebc 4950 be3c a773 4e3d
000003a0: 6af6 55bc f352 6abc bedd 4fb9 bea0 04bb
000003b0: b8ff 5dbc 094f d5bc ef6e 51bd ee46 0a3c
000003c0: 3587 abb7 afab 52bc 87c7 0e3d 0b37 0bbb
000003d0: 0fcf ccbc b17e 6b3c dbcd b63a e28e 2cbc
000003e0: 1c02 7239 a137 d13c fa45 423c cfa4 1d3b
000003f0: 5387 5b3c b8a9 58bd f3ca 55bd 3ed9 97bc
0.0011370956 0.013388822 0.02215729 -0.0700172 0.0048428397 0.0027777287 0.0017263273 0.01896644
-0.010268251 0.019057643 -0.0012525794 -0.00090197864 0.011913988 0.00017095786 -0.017719503 0.026543658
0.0014747448 -0.012258449 -2.2142996e-05 0.00018181631 0.0034909719 0.04962248 0.03966307 -0.01362363
-0.005447219 0.027861737 -0.010888718 -0.024356727 -0.0014757428 0.012647871 0.017624538 -0.0068726027
0.015072981 -3.0223304e-05 0.03962651 -0.0051200073 -0.0004364705 -0.028528735 -0.020942582 -0.012815597
-0.0016383277 -0.00041599883 -0.040409286 -0.020056289 -0.0068731485 -0.020164344 -0.046107154 -0.0070956647
0.014958257 -0.0018431443 0.03521724 0.000560904 0.04403848 -0.0059224656 0.0014485817 -0.038062204
-0.0007241668 0.027739044 0.0064998344 0.0115255285 0.0067114606 0.0007346138 -0.01689015 -0.04774471
-0.024439236 -0.011571873 -0.045299638 0.001925771 0.012492891 0.053503513 -0.037431195 0.00087482657
-0.004407507 -0.023348084 0.03005821 0.00015098706 -0.027908953 0.015912127 -0.014782771 9.73508e-05
0.006483173 0.034286264 0.036404684 -0.012087244 -0.022810679 0.009276827 0.023363993 -0.036354534
0.0068231877 0.046297643 0.013852952 0.20408513 0.00015989224 -0.049799696 0.14275104 -0.018436769
-0.030720811 -0.00013542516 0.028105527 0.030131785 0.028415442 -0.011963775 0.0008169651 0.037969638
-0.0021679085 0.0022811494 -0.023668021 0.047591984 -0.014906815 -0.003399618 -0.022439102 -0.0009673129
-0.017077213 0.0058706636 0.047379423 -0.044983726 -0.007986836 0.03321248 -0.00014225038 0.04770494
-0.00022240166 0.010117769 0.02586978 2.268193e-06 -0.019987645 0.025334042 -0.024761204 -0.046692427
-0.0013293832 -0.03670728 0.003601661 -0.01878271 0.01925473 -0.030755073 -0.003875679 -0.0015502443
-0.022644792 -0.019752214 -0.024629125 -0.04461503 -0.0046370146 0.032568797 0.0019291121 8.579086e-05
0.03205532 -0.015949458 0.01133057 0.011734898 0.0131664 0.005040637 0.021751948 -0.02624523
0.032296937 -0.0142357275 -0.029502088 -0.0012665058 -0.0002542522 -0.0005767637 -0.009759814 -0.006880836
0.034877278 -0.0071093263 0.004931015 -0.051044002 0.008474648 0.023078773 0.024759175 0.00986773
-0.028506348 0.0012187721 -0.0065044607 0.029961515 -0.014063947 -0.022987701 0.018555667 0.008247978
-0.02062403 0.004585813 0.026244877 0.020171588 0.0018462028 -0.016569184 0.016723365 -0.012242967
-0.027750084 -0.0050599035 -0.026207294 0.013158724 -0.038217917 0.016847884 -0.02960096 0.005616183
-0.010471639 0.047497593 -0.019066382 -0.0002565882 -0.019308662 -0.036434494 -0.0033486318 0.00015933004
0.028375166 -0.01488968 -0.013871214 0.0015154493 -0.028615009 -0.031969853 -0.0058357497 -0.01461801
-0.020202022 0.009731101 -0.0068678125 -0.033879653 0.011300292 0.02661759 -0.11266425 -0.028227003
-0.0228342 -4.6571255e-05 -0.008978534 -0.029853828 0.025339922 -0.017559877 -0.026010096 -0.02976188
0.01668183 -0.0027897018 0.017935041 -0.020618964 -0.0013256364 -0.015526852 0.023231642 0.050403263
-0.013059238 -0.014302003 -0.00019823664 -0.0020237411 -0.013549738 -0.026038663 -0.051131185 0.0084397625
-2.044775e-05 -0.012858315 0.034858253 -0.0021242525 -0.025001077 0.014373467 0.0013946848 -0.010532113
0.00023079704 0.025539221 0.011857504 0.0024054532 0.013398963 -0.05289623 -0.0521955 -0.018536206
