models/ddpg_model_episode_500_critic.pth (torch, 674589 bytes, 5 tensors)

layer_1.weight f4 [400, 117]
00000000: 409d a73f d560 743e f3f8 033f b559 53be
00000010: 331c e53d ef30 af3d 98ff 7c3e 4696 8a3d
00000020: a152 84bf de73 81bf eb3f 5ebd aea8 a03d
00000030: b8a4 5d3f 272d 2f3f 6cf2 1ebf 6a74 02c0
00000040: 00b4 b1bf 28e6 adbe 080e 25bf 4d98 afbd
00000050: 74ee 58bf dacf f73e 2930 1ebe e45e 33be
00000060: 630d 6d3e d316 f8be 54c5 70bd f065 fabd
00000070: f94c 533e 8197 543f d5b5 923e e381 833d
00000080: ef9e 153f a2d3 77be 8515 f33e 6851 f83d
00000090: 0357 e13e fd9e 09be 1f9c f1be 8e61 1e3f
000000a0: d79e 5c3e d600 9e3f 0c9f 013f e403 d33e
000000b0: d60e 1abe c781 6b3d a157 c4bc 2b93 59be
000000c0: 1ee9 0bbf cca7 9abe e054 863e c43c b63d
000000d0: 1621 ea3f f861 f1be f5d3 c5be 313b c83f
000000e0: 458c 5d3e 931c 1f3e 19b9 913f 531d c93d
000000f0: 7760 0c3f 149e e5bd 09f0 b1be 45f9 27bf
00000100: 7895 2bbe 95f5 433f 2414 65bf 9767 b33e
00000110: 5eef 1dbf 6b96 563e 918c b4be 166d dbbe
00000120: 4f7d 6cbf c45e c53e 4fbf d2bd 6e5e 663f
00000130: d53d 17bf 1f30 3f3e 9e2c 4d3f edac a63b
00000140: 7973 67bf f42e 44bf f557 aabe ef92 183e
00000150: ce2a 193e 85b1 37bf 010e d2be 318c 853e
00000160: b7e0 6a3e 8766 a5bd 679b 5e3e 64b2 56be
00000170: 617b 7cbe df20 72bc 8898 70be b63b 493e
00000180: 2119 a3bb e649 8ebe 74b0 a23e 3de6 0dbf
00000190: d697 4dbe 1f16 203f 7214 87bf 0c10 76bf
000001a0: ed4d 7c3e 9aee 6abf 8f7b 923d 02f4 cdbe
000001b0: 0775 65bf 2d28 b5bd 4c49 353f 8b25 76bf
000001c0: 901a ffbe 2172 debe 6b55 223e 1b92 b1be
000001d0: bd3a 1a3f ad51 b13f 9eee 0fbe 2a51 12bf
000001e0: 51e2 86be 568c bbbd c09b 9d3c be4f 873c
000001f0: 7f0f c6bc 04a7 443e 9166 ad3e dcd9 acbd
00000200: 87e6 1dbe 7193 67be f9aa e3be c1a2 ddbe
00000210: 6117 ebbf 6822 2cbe 69fa 05be e0c3 3ebf
00000220: 4231 cebe abf7 903e fdc3 0bbf c474 9ebf
00000230: 9390 9abe 865d 47bf beca 45bf 75f0 a0be
00000240: 407e f8be 08fe b0bd 6c9e e4bd 48ac 793e
00000250: 1c8c 863d 5e1f 273d 15e8 1a3d 9213 0cbf
00000260: 0df2 833f 56a8 20bf d307 d53e e958 eabd
00000270: 07ce ccbe 8ceb bcbd a5e0 253e 1227 1dbf
00000280: 5c79 1fbf c6d7 83bd a3fd d53c f902 563f
00000290: 1c99 31be 7645 cabf 0095 813e eb3c 2ebe
000002a0: 4211 c43d 6305 1e3f 0282 253f 3caa 17be
000002b0: be85 093f 624b 9f3f 6a9a f03d de70 30be
000002c0: 4fee 0b3e 0373 d33e 3a81 b23e 810d 28be
000002d0: bd05 9abd b6a1 a7bd 7d5a aabe f4d4 8e3e
000002e0: 0dc4 18bf 1a6a 193f fa06 c03b 0ead f93e
000002f0: 925b 103f 136f 513e 647b f73e fb75 6f3f
00000300: 585b 283c 179f c8bf 38f3 fdbb 9df5 7bbe
00000310: 4170 afbc ebbe a0bf 3323 07bf 4e3d 103f
00000320: 699a cebd 9c5e 553e 2fd3 e8bf 45fb 03bf
00000330: 2ff8 1dbf 4089 573f dfef dabe cd43 24bf
00000340: 8b1d c5be f3d2 0fbf 852a 4e3e 53db 3fbd
00000350: cc78 ba3f 0e42 81bf 6978 2a3f 9484 05bf
00000360: 28e3 01bf f47b 8abd f20c f0be 5949 b03d
00000370: b7f7 c93e 46ee 82bd 52cd 793d 5d56 8f3d
00000380: e173 d9bf 9de1 553e 1a1a 87bf 0c80 773f
00000390: e029 b93e b889 52bf 30c8 3b3f 8ade fabd
000003a0: ad78 3f3e 0332 b3be 8fbf c8bf 780f b9bd
000003b0: 9ccd 7f3e 7745 553d 0dd7 0a3c 0f0d 373c
000003c0: 6348 b53c f1dc 11be 1af0 603c c4b7 8abd
000003d0: 3b87 c4bd f2d9 4d3e 068d 263c 1d32 54bd
000003e0: 3625 5a3e 51aa 0c40 82b3 b4be 7387 713e
000003f0: ae3f f0bb e847 6fbe 5d5f f03d a186 0a3e
1.3094864 0.23865063 0.5155174 -0.2063969 0.11187019 0.08554255 0.24706876 0.06766944
-1.0337716 -1.0113485 -0.054260176 0.07844673 0.86579466 0.6842827 -0.62088656 -2.0383554
-1.3883057 -0.33964658 -0.64474535 -0.08573971 -0.8473885 0.48400766 -0.15448059 -0.17516667
0.23149638 -0.48454913 -0.058781937 -0.12226474 0.20634831 0.83043677 0.28654352 0.06421258
0.5844564 -0.24201825 0.47477356 0.12124902 0.44011697 -0.13439555 -0.47189423 0.61867607
0.21544968 1.2344005 0.5063331 0.41213906 -0.15044722 0.057496812 -0.023967566 -0.21247546
-0.54652584 -0.30206144 0.2623663 0.08898309 1.8291347 -0.47145057 -0.38638273 1.5643064
0.2163554 0.15538244 1.1384612 0.09820046 0.54834694 -0.11211792 -0.34753445 -0.6561473
-0.16756237 0.76546603 -0.8948386 0.3503997 -0.6169337 0.20955817 -0.35263494 -0.42856663
-0.92378706 0.38548863 -0.102903955 0.8998784 -0.59078723 0.186707 0.80146205 0.0050865323
-0.9041057 -0.76634145 -0.3327023 0.148998 0.14957735 -0.7175525 -0.4102631 0.2608352
0.22937284 -0.08076196 0.21738969 -0.20966488 -0.2465644 -0.014778345 -0.23495686 0.19651684
-0.004977361 -0.27790755 0.31775248 -0.5542944 -0.20077452 0.62533754 -1.0553114 -0.96118236
0.24639101 -0.9177033 0.07152473 -0.40225226 -0.89631695 -0.088455535 0.7081497 -0.96151036
-0.49824953 -0.43446448 0.15852897 -0.34681782 0.6024588 1.385305 -0.14055869 -0.57155097
-0.2634454 -0.09157626 0.019239306 0.016517516 -0.024177311 0.19204336 0.33867314 -0.08439991
-0.1541997 -0.22614838 -0.4446638 -0.43288234 -1.836651 -0.1681 -0.13083805 -0.7451763
-0.40271956 0.28313956 -0.5459593 -1.2379384 -0.30188426 -0.7787708 -0.77262485 -0.31433454
-0.4853382 -0.086422026 -0.11163029 0.24382126 0.065696925 0.0408014 0.037818987 -0.5471736
1.0308243 -0.6275686 0.41607532 -0.114427395 -0.40000936 -0.092246145 0.16198976 -0.6138774
-0.62294555 -0.0643764 0.02612192 0.83598286 -0.17343563 -1.5802448 0.2530899 -0.17015426
0.09573604 0.6172697 0.646515 -0.14811033 0.537197 1.244488 0.11748202 -0.17230555
0.13665126 0.41298684 0.34864217 -0.16411401 -0.07520626 -0.08185141 -0.33272162 0.27896845
-0.5967415 0.59927523 0.0058602067 0.48764843 0.56389725 0.20452528 0.48336327 0.935394
0.010275684 -1.567355 -0.007749941 -0.24605413 -0.021415832 -1.2558264 -0.52788085 0.56343544
-0.10088045 0.20836872 -1.8189448 -0.5155528 -0.61706823 0.841938 -0.42761132 -0.64165956
-0.38499102 -0.5618126 0.20133407 -0.046840023 1.4568114 -1.0098283 0.6658998 -0.52155423
-0.5073724 -0.067619234 -0.46884876 0.0860774 0.39446804 -0.06393103 0.060986824 0.06998894
-1.6988488 0.20886846 -1.055484 0.9667976 0.3616476 -0.8224139 0.73352337 -0.12249477
0.18698378 -0.34999093 -1.5683459 -0.090361536 0.24980778 0.0520682 0.008474124 0.011172547
0.022129243 -0.14244439 0.01372912 -0.06773332 -0.09596106 0.20102671 0.010165459 -0.051805604
0.21303257 2.1978953 -0.35293204 0.23586826 -0.00733181 -0.23367274 0.11736939 0.1352792

layer_1.bias f4 [400]
00000000: 5630 2b3e 1676 8dbd 6d86 0ebe 2510 88bc
00000010: da6b 7cbd 22eb b83c 3a1e 143d 1386 dabd
00000020: b113 bbbd f3b9 febc aff9 3dbd 6315 8f3d
00000030: c7d3 9abd d211 253d 9c88 d43f 36e8 a4ba
00000040: cbb9 bdbf e9ee e2bd bd2a 85bd 004d 8cbf
00000050: 2512 dcbc a847 153f 6c55 f7bd b8fb b8bd
00000060: 9e78 5abe 2a6f 783d 62b7 7ebd 13d9 8dbd
00000070: 9749 11bd aa1e 15bd 047c 183e 08a1 32be
00000080: 4fb3 bc3d 9c90 99bc bf78 a93d dc97 e13b
00000090: 7264 c5bd 47c4 46be fe45 7bbd e8ef 05be
000000a0: 7fa2 e8bd 17e7 14bf f9ee 88bd 4e94 37bf
000000b0: 061e 1e3d d5a0 a4bd 1026 9b3c aaf0 c93e
000000c0: 0a54 99bc 0078 bebd 7d4c bd3d 4550 d9be
000000d0: a884 c9bd 8910 a7bf 1453 63bc a426 c13c
000000e0: eb79 7bbe d4c8 85bf 6fd4 03be 645d dabd
000000f0: 2294 a5be 348d 95ba 73e2 d5ba 1441 6cbe
00000100: f424 5cbd aeee 53bd 5823 aabe 4ff8 3e3f
00000110: 7438 66bd 95f9 113d 5114 72bd ddba d9be
00000120: e87d f33e 4ca9 9cbd 5246 4b3b 50e7 58bd
00000130: 8cff 48bd 391f 383e 9c16 8fbc 8453 8c3c
00000140: a465 9c3f 33f8 b03d 743a a1bd 26be a6bb
00000150: c71d 04be 3fe1 3fbd 60b3 533b a180 66bf
00000160: 872c 33be 6cdf 04be 0073 183c 25ed b63d
00000170: 3880 d7bd b31a ddbc e886 95bd cf1b 1c3f
00000180: ac0c f33c 87a2 8cbc c028 b9ba 82a1 373d
00000190: 175f 3ebf ad13 dcbd a51c 6cbd f6a8 1f3d
000001a0: 91df d03b 14af 393d c458 023d e60a 9dbd
000001b0: 8e7b b73b c9fe e2bd 3618 ac3a 8def 92bf
000001c0: 54c3 13bf 14a7 95bd 5f0d 363e fc81 a73c
000001d0: 489c 9a3d 80a1 0c3d e149 97be 3f0e 7d3b
000001e0: 250b ad3d f492 ce3a ba66 cbbb 2bcf b83b
000001f0: e02d 003c df9f 2f3e 7f85 593c e6e5 053d
00000200: d4fa 94bc 23dc 573f eb41 0bbf d1b6 87bf
00000210: 5c16 84bd ff7b 6a3d 2a17 07bd 60fc fe3b
00000220: 7c9f a5bd 4102 933b ea3f ae3a 0680 56bd
00000230: e5d5 bbbd 549a 32bb 7ed5 2f3c 57c0 7fbd
00000240: b323 853d d5d7 33be d735 be3d f408 113d
00000250: d88b 853d 9976 40be 81f1 bf3c 7805 42bd
00000260: f3ec 833c 08bc 8bbc e65f babd 515b 68bd
00000270: a94d b1bd 109a b9bb 6f88 013d 43bb c3bd
00000280: 5f62 563d f515 12be 452d 2dbd 2206 8bbd
00000290: 9f76 00bf 6266 14bd 8b84 703d 2ddb 803c
000002a0: 307f 27bc c60f 90bc 1452 10bd 2632 333d
000002b0: d2e3 6dbd 229f b1bd 7d5f edbd 6ff5 a0bd
000002c0: 6e2e 8a3d 5b9e 913e e343 353e a122 ccbd
000002d0: 32ae 9c3d b18d db3d aaa8 6bbf b2b5 6f3b
000002e0: 704d 02be 7832 2fbd df4c c3bb 1b39 bebd
000002f0: 1806 3dbe c23f 82bc 18ba 7b3d 8cb9 b93c
00000300: b8e3 2abf 54f8 cabf ea87 3dbe 33c4 f0bc
00000310: af60 1a3d 97b7 f9bd 28a1 8c3d d4cf 4dbf
00000320: d111 a7bd e31d b1be 02f1 a9bd d5a5 f1bd
00000330: 5573 66bf 615d b9be 3aee f03d 22ce 293d
00000340: 4c3c 6dbd 0710 f1bd ca6d 033d 580b 6b3e
00000350: 5801 a6bc e3c0 03be c9bd 353c a346 f83b
00000360: affe 88bd 1d05 0cbf 60a7 543d 4ed8 45be
00000370: 6a7a 07be e67c a13b 71d6 5abe d607 90bc
00000380: 47c3 d1be 9130 d9bd bf44 833d 0d8e f03a
00000390: 6ea1 993d 5168 ae3d 2d2a aa3b 43d4 433e
000003a0: f93e 823d 10e7 5fbd cbe8 b83d d185 8bbd
000003b0: b262 9cbd 0a62 b0bd 0959 9dbd d06e e7bc
000003c0: 2268 be3f 111f 323d 74d8 9ebd b53c ce3c
000003d0: 2520 43bd 67b9 50bd 1087 9f3c aae8 173d
000003e0: 92f3 7a3d 69a6 00be db42 813d 3f92 92be
000003f0: 44c7 9a3c 0523 743d 972e 863e 1132 0c3d
0.16717657 -0.06907289 -0.13918467 -0.01660926 -0.061626293 0.022573058 0.03616164 -0.10670104
-0.09134615 -0.031094527 -0.046380695 0.06986501 -0.075599246 0.040300198 1.660419 -0.0012581411
-1.4822325 -0.11080725 -0.06502292 -1.0960999 -0.02686412 0.58312464 -0.1207684 -0.090323865
-0.21335074 0.06065289 -0.062186606 -0.06926169 -0.03547057 -0.036406197 0.14891058 -0.17444241
0.09213888 -0.018745713 0.082749836 0.006884558 -0.09638299 -0.19410811 -0.061346047 -0.13079798
-0.11359119 -0.58165115 -0.066862054 -0.7171067 0.03860285 -0.08038489 0.018939048 0.39441425
-0.01871683 -0.09300232 0.092431046 -0.42444053 -0.09839755 -1.3051921 -0.013874788 0.023577996
-0.24558227 -1.0451913 -0.12874006 -0.10662344 -0.3233958 -0.001140988 -0.0016318097 -0.230717
-0.05374618 -0.051741295 -0.3323009 0.7459764 -0.05620618 0.03563841 -0.059101406 -0.42525378
0.47556996 -0.07649478 0.0031017256 -0.05295497 -0.049071833 0.1798066 -0.017466836 0.017129667
1.2218518 0.0864109 -0.07872477 -0.0050885854 -0.12901984 -0.04684567 0.003230296 -0.9004002
-0.17497455 -0.12975854 0.009304762 0.089319505 -0.10522503 -0.02699027 -0.07301122 0.6097993
0.029669128 -0.017167343 -0.0014126524 0.04483176 -0.74363846 -0.1074594 -0.057644505 0.038979493
0.0063743074 0.045332983 0.031822935 -0.07668094 0.0055994457 -0.11083753 0.0013129774 -1.1479355
-0.5771992 -0.07307258 0.17778538 0.020447724 0.075493395 0.034333706 -0.29548553 0.0038613228
0.08449391 0.0015760348 -0.0062073143 0.0056399307 0.007823437 0.1715083 0.013276457 0.03268995
-0.01818601 0.84320277 -0.5439746 -1.0602666 -0.06449577 0.05724716 -0.032981075 0.0077815503
-0.0808706 0.0044863527 0.0013294194 -0.052368186 -0.091716565 -0.0027252631 0.010732053 -0.06243929
0.0650095 -0.17562802 0.09287613 0.03540893 0.06520814 -0.18795241 0.023430588 -0.047368497
0.016104197 -0.017057434 -0.091003224 -0.05672771 -0.086573906 -0.0056641176 0.031624254 -0.09557202
0.052339908 -0.14266188 -0.0422795 -0.06788279 -0.50181 -0.036230452 0.058720153 0.015729511
-0.010223195 -0.017585646 -0.035234526 0.043748997 -0.058078595 -0.0867293 -0.115904786 -0.07859313
0.06747137 0.28441128 0.17701678 -0.099675424 0.076504126 0.10720385 -0.92054236 0.0036576805
-0.12724853 -0.04277274 -0.0059600915 -0.09288236 -0.18459356 -0.015899543 0.06145677 0.022671483
-0.6675372 -1.5857034 -0.18508878 -0.02939043 0.03768986 -0.1219322 0.068666756 -0.80395246
-0.08157695 -0.34593114 -0.08297922 -0.11799208 -0.9001973 -0.36204055 0.11764188 0.04145635
-0.05791883 -0.11770635 0.032087125 0.22953546 -0.020264313 -0.12866549 0.011092612 0.00757678
-0.06689202 -0.546953 0.051917434 -0.19320795 -0.13230291 0.004928219 -0.21370865 -0.017581861
-0.40969297 -0.106049664 0.06409597 0.0018352881 0.075014934 0.085159905 0.005193016 0.1912394
0.06359667 -0.054663718 0.09028777 -0.06812633 -0.07636012 -0.086124495 -0.07682998 -0.028251082
1.4875529 0.04348666 -0.07756129 0.025175432 -0.047638077 -0.050958063 0.019473583 0.03708712
0.061267443 -0.1256348 0.0631158 -0.28627202 0.018893845 0.05960371 0.2620742 0.034227435

layer_2.weight f4 [300, 400]
00000000: 995d dfbd d254 e8bd 1b41 debd 5791 37bd
00000010: 87f2 e5bb 49b1 8e3d 352b 8bbc 5748 bdbb
00000020: ba77 7cbc 80b9 04be 6bbe 183d 138f d1bc
00000030: 3a30 ebbc 86d2 803c 97d5 14bf 0b14 04be
00000040: d07d a5bd 38c8 e3bd f28a 1cbe 6577 93bd
00000050: 1697 abbd fa06 7cbd 5c3d 2d3c 32df e2bd
00000060: 3304 bebb 58b6 c8bb 812e a6bd fdcd 5f3d
00000070: 00a5 323c 6a24 9cbc 52c5 12bd adfb 1bbd
00000080: 8337 4b3d e28d 84bb 76c7 a43c 4741 17be
00000090: f11b a73c e803 11ba 03aa 273d 97ef dabd
000000a0: 4a0d dfbd d37d 17bd 9136 1ebd f49b 51bc
000000b0: 6043 d03a cc67 97bd bd37 113d d690 90bd
000000c0: c02b bebc dee5 1fbe a877 cd3b 7d01 a2bc
000000d0: dd76 41bd 0068 4dbd 3f85 3f3d 9441 71bc
000000e0: 919c 9abb e41c f8bc a1cd 71bc 221b 30bd
000000f0: bc75 03bd 00f3 50bb 9ac2 fcbc f067 febc
00000100: eb6c 4dbc b43e 4f3c bcc2 5b3b dec6 163c
00000110: b5ef 0abd 4638 e93d 7c60 a7bd 1ffb 173d
00000120: 1ecf 8abd 30da 86bb b485 1ebd 0005 e839
00000130: 39d0 13bd 86a6 28be 3e8a c63c 04e7 553c
00000140: 2991 7dbd 1811 193c 408d c9bc 7cfa 28bd
00000150: e748 e4bd 0af4 893c e032 3bbd a052 b23b
00000160: cf72 3abd 187f 29bd 3a46 4abd e844 1bbc
00000170: be69 c3bb 6d8d bdbd 18e4 0fbe edc2 d93c
00000180: b4f8 373c 26d1 8dbc 8b63 44be c3a5 153c
00000190: ed40 4cbc a196 25be 43c7 88bb caa6 1dbd
000001a0: d2fe d43c ed1e 29be ca6f 553c 9709 e53c
000001b0: d9d3 f6bd d067 a7bc e40a 07be c35b bebc
000001c0: c25b a0bc 618b 4b3d 24db 8f3d 229e 54bd
000001d0: 2f29 95bc 8b94 e1bd c774 963c c239 20be
000001e0: 008a 7ab9 6f16 3cbd 6277 34bc 8b31 9abd
000001f0: 2253 e63c f65a a13c 12f4 c23c 1e77 443c
00000200: d18c 0e3d 821e a5bc e617 3fbd 56a0 92bd
00000210: 0241 943c c289 b3bc 5e17 b43c daf5 dcbc
00000220: e404 77bd e593 803c ddd9 96bc 8516 0bbd
00000230: d992 1e3d 5a30 b2bb 01e2 0dbe 0f61 51bd
00000240: 0050 55bb e5e2 373d 843e 3e3d 8118 cc3b
00000250: f7e6 11bd b0df 373c b7a2 0d3e d87a 78bd
00000260: 21a2 dd3c 8998 403d 3728 0e3d 0a39 c53c
00000270: 85fe 41bd e84a 29bc 48c0 303d ead1 42be
00000280: 1a53 b93c 483a 4fbe 32d5 8c3c 9370 a2bc
00000290: af18 9f3c 0533 333c 7889 873c c92d e2bc
000002a0: f195 173d 46e2 3cbe 9bdb e2bb 5635 24bd
000002b0: 4f58 ef3c 1895 dabd f8d1 3ebd 0ab3 87bc
000002c0: 7560 11bd a27d 4dbd 0f7d 19bd 48ff 34bd
000002d0: b462 a73c 7ab5 99bd c3d8 f1bc 9d01 44bd
000002e0: 7d6d dfbd c48d 40bd 9804 b4bd 89b1 4b3d
000002f0: 39a3 08bd 900f 28bd 76a7 48bd 7804 05bd
00000300: c52f eebb b202 08bd 2de8 9b3c 2639 123d
00000310: 72e8 073c 2c5a 1dbc 15ec 38bd 81b7 6abd
00000320: 58ed 21bc 10f1 9ebd 0593 23bd c1ff febd
00000330: 1c5b 87bc 25e0 313d 1598 f3bb f191 57bd
00000340: 496b 03be 1e0a a5bd 97bb e8bc 897b 8abc
00000350: 44e8 babc 3093 7cbd 9e62 06be ea6b 78bb
00000360: a63d 0ebe 52b7 46bd 25d4 f9bd 249b 013d
00000370: 309c c43c 1d1f 2b3d 6cac b239 0f2e 93bd
00000380: 292f 293c 006f c93c ab13 2fbe 063c f6bc
00000390: 23e7 31bd 4a98 11bd 9e0a 92bc 0547 a1bd
000003a0: fa16 413d 1838 d5bd faad 0dbd 0141 0fbe
000003b0: 40a1 31ba 668d d93d 0115 adbc 6e21 ba3c
000003c0: db39 953c 6a9c debc 8c2f 5bbd 42b2 33bb
000003d0: 0949 983e 401e 0cbd ea0e f6bc d6a7 12be
000003e0: eded 9fbc 0335 e8bd 9c49 58bc a20a b23c
000003f0: a4ed d23c 1d34 febc abdc 5fbd eafa cebc
-0.10906524 -0.11344303 -0.10852262 -0.04481634 -0.007017437 0.06967408 -0.016988376 -0.005776446
-0.015409404 -0.12961388 0.03729097 -0.025580918 -0.02870952 0.015725385 -0.5813841 -0.12898271
-0.080806375 -0.11122173 -0.15287378 -0.07200507 -0.08378427 -0.06153009 0.010573711 -0.110777274
-0.0057988404 -0.0061252527 -0.08114339 0.054639805 0.010903597 -0.019060332 -0.03583271 -0.038081814
0.049613487 -0.004045234 0.020114642 -0.14770995 0.020399066 -0.0005531893 0.04093362 -0.106902294
-0.108912066 -0.03698523 -0.038626257 -0.01279353 0.001588922 -0.073928446 0.035453547 -0.07058875
-0.023214221 -0.15615031 0.0062703677 -0.0197761 -0.047232497 -0.05014801 0.046757933 -0.014725108
-0.004718371 -0.030287214 -0.014758498 -0.042994626 -0.032094702 -0.003188312 -0.030854512 -0.03105542
-0.012538175 0.012649227 0.0033532819 0.009202687 -0.03392001 0.113876864 -0.081727 0.037104722
-0.06777786 -0.0041153654 -0.038701728 0.00044254214 -0.03608725 -0.16469774 0.02423584 0.013055567
-0.061906014 0.009342454 -0.024603486 -0.041254506 -0.111467175 0.01684 -0.045702815 0.0054419786
-0.045519646 -0.04138097 -0.04938338 -0.009476878 -0.005963533 -0.092554905 -0.14051855 0.026582206
0.011228729 -0.017311644 -0.19178598 0.009133759 -0.012466651 -0.16170742 -0.0041741445 -0.03848914
0.026000414 -0.16515703 0.013027141 0.027958674 -0.120521255 -0.020435244 -0.13187748 -0.023237115
-0.019575004 0.04969347 0.0702422 -0.05190862 -0.018208114 -0.110146604 0.01836623 -0.15647033
-0.00023893267 -0.04591983 -0.011014791 -0.07528981 0.028115813 0.019696694 0.023798022 0.01199129
0.03480226 -0.020156149 -0.04665365 -0.07159488 0.018097404 -0.021916274 0.021983799 -0.0269727
-0.0603074 0.015695522 -0.018414432 -0.033957023 0.038714264 -0.005437893 -0.13855745 -0.051117953
-0.0032548904 0.044894118 0.04644634 0.006228507 -0.035620656 0.011222765 0.13831602 -0.060664028
0.027054848 0.04702047 0.03470632 0.02407505 -0.04736187 -0.0103328 0.043152124 -0.19025388
0.022622634 -0.20237076 0.017191503 -0.01982907 0.01942095 0.010937457 0.016545042 -0.027609723
0.03700823 -0.18445691 -0.0069231517 -0.040089928 0.029216914 -0.106729686 -0.04658696 -0.016564865
-0.03549238 -0.05016864 -0.03747278 -0.044188768 0.020432808 -0.07505317 -0.029522305 -0.0478531
-0.10909555 -0.0470102 -0.08789939 0.049729858 -0.033358786 -0.041030467 -0.04898783 -0.032474965
-0.007268878 -0.033205695 0.019031608 0.035699032 0.008295165 -0.009604018 -0.04514702 -0.05730391
-0.009883247 -0.07760823 -0.03993513 -0.12451125 -0.016522937 0.04342665 -0.007433901 -0.052629415
-0.12833895 -0.0805857 -0.028409762 -0.01690461 -0.022815831 -0.061663806 -0.13123557 -0.0037906119
-0.13890705 -0.04851467 -0.121986665 0.031642094 0.024000257 0.04177772 0.0003407927 -0.07186519
0.010326185 0.024589062 -0.17097346 -0.030057918 -0.04343332 -0.035545625 -0.017827328 -0.07874874
0.047141053 -0.1041109 -0.034589745 -0.13989641 -0.0006776042 0.10622673 -0.02112818 0.022721019
0.018216064 -0.027174193 -0.05351214 -0.0027419482 0.2974322 -0.034208536 -0.030036408 -0.14321837
-0.019522632 -0.11338236 -0.013201144 0.021733586 0.025748082 -0.031030709 -0.054653805 -0.02526613

layer_2.bias f4 [300]
00000000: ab7a 14bd 72fb 08bd abf0 14bd 3dea c2bc
00000010: 81bf 473e 2a8f a83b 9396 aebd 9e9a 88bc
00000020: 33d9 75be 789c 53bc 0ede 9bbd a09d 85be
00000030: 3969 96bd 84c7 02bc 2532 f73e 3732 41bd
00000040: 7593 14be 6bfe 3abd 5774 08bd c2bb 99bd
00000050: ef77 98bd 5c13 94ba f09c efbc 8a8d dabc
00000060: 5109 8ebb 9e9d 173c fb38 603e b003 cf3d
00000070: ddd9 65bd f212 8bbd 9425 2fbd 8daf 8bbe
00000080: 2fb3 983c 2522 b9bd a3e4 83bc 56c2 e0bd
00000090: 741b 12be 98c5 84bd 5772 bb3a 500e f5bc
000000a0: c00b 58be 7c0e 9abe 037c 22bd 5d01 e03b
000000b0: a39b 4bbd c0d0 e3be d888 c33c 82a8 85bd
000000c0: cd13 bbbe a94f b2bd d7bd 29bd 0c8e 40be
000000d0: 0b13 523a 7c74 34be 8a8e 2a3e 6571 473c
000000e0: 0c0a 1fbe 9f47 e0bc 6a31 cfbb 5ea1 71bd
000000f0: b6ec 38bd a211 20bd 478d 833b 5b86 483c
00000100: 110f 74be 33ba 503c 6d23 81bd 2aa2 4cbd
00000110: b132 673d 7187 6f3d 5da1 273a 9503 05bd
00000120: 4a99 a73d ecc5 8bbb 773a 01bd b42f debc
00000130: 5186 c0bc 1d71 6ebe 3efe 86bc 21ac 85bc
00000140: 38c7 313c a6f9 57bc c4a9 90b9 7ccf 35bd
00000150: ddd4 c43b 005e e43e e846 97bd ffca a2bc
00000160: beaf 02bf 4785 05bd f79a 06bc 3651 07bc
00000170: 15d8 b9bd 546f 253b 1c67 7a3e 3ffd 92bd
00000180: f8b9 c0bc 144e e9bc 5a1f 913c ca57 a3bd
00000190: b67b 19bd 0c1d d3be ac74 6ebe c368 e23d
000001a0: 28e8 d2be a2be d5bd 9228 b73d 5ef0 85bd
000001b0: b17c 8cbc cb0c 21bd 1f42 80bd 2096 42bc
000001c0: 5bd3 35bc f5ab 61bd 3c8b 80bc fc04 1bbc
000001d0: de20 533c 157b 813c abcd 223d 0298 16bd
000001e0: 156c c43c 7706 78bd 2db7 c13e 1b0b b7bd
000001f0: a395 18bf 43df d3bc dab3 7b3c a030 3fbd
00000200: 8b76 48bc 5535 e9bc 08e2 cb3d 134f 12bd
00000210: 0e20 333c 2eb7 4ebd 3c23 61be f7ca 02be
00000220: dfb2 ce3c 7305 593d da2a 8ebd ed1d d0bc
00000230: 257a 86bd c091 57bd 69b8 243c 49fc 19bd
00000240: 7639 ba3c 6be0 823d a8a4 e6bc 88a1 80ba
00000250: 288c d13e fd97 3fbd 0736 733b 802b 2dbe
00000260: ee84 863b 77de a2b9 692e 8fbd 3179 44bd
00000270: dc43 1f3d eafc abbc 89ff 8dbd 1420 55be
00000280: 12cc 883c a23f 32bd dd0f 743b 4099 28bc
00000290: b3fc 173d d73c 85be 8bd1 1bbd 85df 3fbd
000002a0: daf0 fcbc ebc5 32b9 786c 0abe 6fae 58bd
000002b0: 3466 faba 4181 2c3d 30e0 34bc 5a85 5cbd
000002c0: adc0 3fbc db0b f8bb 9c5d 95bd 6b07 143a
000002d0: e678 8cbd 1749 303d 4eac 2e3c 0633 1d3d
000002e0: 867a bbbd 83c7 f5bc a500 28bd 6d57 debb
000002f0: 9139 83bd 13d3 15bd 0538 41bd 91c7 dcbd
00000300: 7e11 163d 1080 29bc a1bb 4dbd c46f 0e40
00000310: 94bd c2bd 5f0e 89bd b2d7 31bc 7b19 2ebd
00000320: 1a91 b2ba ff5f 5abd 7401 003f 387b 793b
00000330: 6921 9bbd 20e0 1fbd 892b 58bb ba73 7bbc
00000340: 98db 92bb ff08 13bd 3e9a 803c 373b 293c
00000350: 9ec9 1f3d bf7a 43bd d563 f73c 6da6 a7bd
00000360: 50e7 a4ba ca47 8abc 743d 9cbd f5b8 a5be
00000370: 08ce 05bd 1616 e63c 49f6 b3bb 5a3b b93d
00000380: ca63 9bbc 9ab1 62bd f4be 79be b7e1 16bd
00000390: 501b 6dbd 91aa f5bc 4615 f3bc 9698 e73d
000003a0: df19 a8bc 95ec 23bd 3140 52bd 8b51 8cbd
000003b0: e3d2 c53a e4cb 83bd 30b5 9d3b bc66 83bd
000003c0: 8960 863b d31a 753e 3f9b 513c 5185 d9bd
000003d0: c496 403e d1d1 9a3d f051 e7be 86bc abbc
000003e0: fbef b0bc cc02 843b 007d 7bbd 91d3 92bc
000003f0: d858 8bbd f4aa ecbd f11e 9abc d269 3cbd
-0.036249798 -0.033442922 -0.03636233 -0.023793334 0.19506647 0.0051440196 -0.085248135 -0.01667529
-0.24008636 -0.012915723 -0.07610713 -0.2609682 -0.073442884 -0.007982139 0.48280445 -0.04716703
-0.14509375 -0.045652788 -0.033314075 -0.07506515 -0.074447505 -0.0011297273 -0.029249638 -0.02667882
-0.0043346067 0.009253887 0.21896736 0.10108125 -0.056115974 -0.06790723 -0.042760447 -0.27282372
0.018640129 -0.09039716 -0.016100233 -0.10974567 -0.14268285 -0.064830005 0.0014301044 -0.029914051
-0.21098232 -0.30089176 -0.039669048 0.0068361 -0.049708974 -0.444952 0.023868963 -0.06526281
-0.36538544 -0.087066 -0.04144081 -0.18804187 0.0008013702 -0.1762256 0.16655937 0.012173031
-0.15531176 -0.027377902 -0.0063230293 -0.058991782 -0.04514762 -0.039079316 0.0040146443 0.012239064
-0.23833872 0.012739706 -0.06305585 -0.04995934 0.056444827 0.058478776 0.00063945894 -0.03247412
0.081835344 -0.0042655375 -0.031549897 -0.027122356 -0.023501547 -0.23285337 -0.016478654 -0.016317429
0.01085072 -0.013182079 -0.00027592306 -0.044387326 0.0060068206 0.44602966 -0.07386571 -0.019872187
-0.5104941 -0.032597806 -0.008215657 -0.008259108 -0.090744175 0.0025243359 0.24453396 -0.07177209
-0.023526177 -0.028479613 0.017715145 -0.07975729 -0.037471496 -0.41233099 -0.23286694 0.11055138
-0.41192746 -0.10436751 0.08943285 -0.06539987 -0.017149301 -0.03931884 -0.062626116 -0.011876613
-0.011097754 -0.05509563 -0.015691392 -0.009461638 0.012886254 0.01580576 0.03974692 -0.03676606
0.023977319 -0.06055304 0.37835065 -0.08937665 -0.5960333 -0.025863295 0.015362704 -0.04667723
-0.012235294 -0.028467814 0.099552214 -0.035719942 0.010932935 -0.050467663 -0.21986097 -0.12772737
0.025231777 0.052983712 -0.06941767 -0.025404895 -0.06566266 -0.052629232 0.010053732 -0.037594113
0.022732478 0.063904606 -0.028154686 -0.0009813765 0.40927243 -0.046775807 0.003711106 -0.16911125
0.004105202 -0.00031064797 -0.06991274 -0.04796714 0.038883075 -0.020994622 -0.06933505 -0.20813018
0.01669887 -0.043517716 0.00372409 -0.010290444 0.037106227 -0.2602298 -0.038041633 -0.046844024
-0.030876566 -0.00017049133 -0.1351794 -0.052900728 -0.0019103945 0.042115454 -0.011039779 -0.05383811
-0.011703652 -0.0075697727 -0.07293245 0.00056468573 -0.06858997 0.043038454 0.010661198 0.038378738
-0.09154229 -0.030002361 -0.04101624 -0.0067853243 -0.06407464 -0.03657825 -0.047172565 -0.10780252
0.036637776 -0.010345474 -0.050227765 2.2255716 -0.095088154 -0.06692194 -0.010854648 -0.04250477
-0.0013623566 -0.053314205 0.5000222 0.003806783 -0.07574732 -0.0390321 -0.0032984933 -0.015347416
-0.004481744 -0.03589725 0.015698548 0.010329059 0.039010637 -0.04772448 0.03019897 -0.0818604
-0.0012581144 -0.016879935 -0.07628909 -0.32367674 -0.03266719 0.028086703 -0.005492006 0.090445235
-0.018968482 -0.055345155 -0.24389249 -0.036836352 -0.057887375 -0.029988559 -0.02967323 0.113084
-0.020520149 -0.040020544 -0.05133075 -0.068514906 0.0015092756 -0.064353734 0.004812859 -0.064160794
0.0041008634 0.23936014 0.012793361 -0.10621131 0.18807513 0.075595506 -0.451797 -0.020963918
-0.021598807 0.0040286537 -0.061398506 -0.017923148 -0.06804055 -0.11556044 -0.018813582 -0.045999356

layer_3.weight f4 [1, 300]
00000000: 52d8 fabc ca5c 5b3c 3483 b53c 2e65 8fbd
00000010: cf68 063d 8e0a 363b b73b e1bc 825f 9b3c
00000020: 800d d1bb 606b b4bb 8c82 5a3c c32e 80bb
00000030: e332 433c 2743 3339 4157 883c 1672 d93c
00000040: 0e10 f73c a9d7 48bc b9bf b9b7 a7cb b6bc
00000050: cac8 643b f140 4b3d af32 353c a535 5fbc
00000060: 2e76 91ba 4c3e e43c aeae b0bb de11 c7bc
00000070: b66d c1ba 409d 9cbc 5661 903c 0471 a63c
00000080: aaf4 763c 0d88 fdb7 684f 223d 7b54 a6bb
00000090: 14d6 e4b9 18b5 e9bc c78f abbc 82f8 51bc
000000a0: 468f bcbc 9706 9c3a d56c 41bc 164d a4bc
000000b0: 696e 773a 1b3d 873c dbda 3cbd c082 e8bb
000000c0: b874 1ebd a995 f1ba b132 623b a109 133a
000000d0: 811a b43c 3e11 c2bb 876b a2bc 1de7 1bbd
000000e0: 0e46 e03c 58f0 83bb 98fa cebc 92d5 3c3c
000000f0: d0eb db3b 1993 403a ffe2 5cbc 9e04 9dbc
00000100: 73c3 cbbc f497 3dbc 9e54 39bd 276a fc3a
00000110: fcae 4c3c 601c cb3b 7451 19bd 9e54 653a
00000120: c862 22bd 7b44 bfbc a33c f63c 7739 0dbc
00000130: d573 e3bc 265a 823c 6f33 72bc d028 cc38
00000140: cc70 d43b 080a 293b 26da 48b9 9309 46bc
00000150: 76dd babc 7aee 153c 0dc2 abbb 7ee8 14bd
00000160: 9d5e 76bb 99a2 3d3d 7ef7 623c b1fb 503e
00000170: bfa8 2739 c4fa 4bbd fc68 0f3e b508 97bc
00000180: 36aa fbbc ea00 0eb9 903d e63c efd6 f63c
00000190: 80c7 e83c f81a 1cbc 91dd 613d c28a 553d
000001a0: 9dcc 8cbb 61a5 dfbc 70e3 c1bc d0ef 423d
000001b0: b73b 74bc 20cc 5ebb 35d2 b7bc 4593 7dba
000001c0: 83e5 8bbc b25e c03b e8e8 90bc db40 38bd
000001d0: 38db 02bc cf09 083d ec20 87bb 4166 433d
000001e0: 56d9 53b9 00c5 253c 7e0a 2eba 4237 1836
000001f0: 0807 afbc 5689 cf3c 02d8 cabc 8f40 3fbd
00000200: 73dd 8aba 5f5a 16bd 09e3 5fbb 33de 99bc
00000210: 18bc 9d3c 10f2 fbbc 1bff 7dbb feb4 9c3c
00000220: 4201 18bc bd8d d5ba 15d7 4bbb a78e 52bc
00000230: 19f2 97bb 1385 523a 43da fc3a 9eea b338
00000240: 704c 033d 7ea6 82bc dba3 393c bb43 403c
00000250: bada 473d ee2b a53b 2431 b23c a09f b33b
00000260: cb49 043d f83c 69bc 5dae f1bc dd00 a6ba
00000270: 274d 85b9 f531 17ba ed45 b43c fdc8 aabb
00000280: 7adb 0e3d 68fc c93c 5a94 a13b 8413 51bd
00000290: 40d9 0a3c cd8b ba3c c1d3 ca3c 42ac 213c
000002a0: 2586 e9bc 35bf 9f3a 5f23 d5bb df9c bdba
000002b0: b7e6 903c d088 babc 0e02 983c 8722 073c
000002c0: baf3 a8bc 9644 963b 1ce8 b4bb e33e a53c
000002d0: 49fc f13a 19bc 87bc 70ff 883c a529 9b3c
000002e0: 9542 0f3d 8ccd a5bb 719d b53b b097 573c
000002f0: a4c7 a1bd 9304 8a3c b67d f2bc f3dd bcbc
00000300: c05b 2c3d a59a 803c 82b0 9fbb c685 cab9
00000310: 40bb 8ebc a1fb 98bb b874 5bbb d511 2739
00000320: 6226 6fb9 d8f3 73bc 0aa6 32bc 0aa2 c63a
00000330: 066a eabc d2f2 02bd d139 bfbb 6180 6fbc
00000340: b67e a5bc 326f 1f3c 630b e1bb 64c5 0abd
00000350: dc24 393c 220d da3c ced2 1dbb 513c e7bc
00000360: ca0e bbbc 8155 43b8 87f3 05bc 7e5a e5bc
00000370: ab95 cf3c bbd9 8fbc 2013 d5bc 02c0 f8bb
00000380: 55a8 883c 6ed3 36bb fbd8 8e3c 58a1 363c
00000390: 105d f93c 9607 853c 4950 be3c 600e 043d
000003a0: 6af6 55bc f352 6abc 23e6 b138 bea0 04bb
000003b0: b8ff 5dbc 764c d5bc ef6e 51bd 5cce 8ebc
000003c0: 9d07 dcbc 4a46 9f3c 87c7 0e3d 0b37 0bbb
000003d0: 20b9 ccbc b17e 6b3c 2dbd 2c3c e28e 2cbc
000003e0: 34fb e13c a137 d13c fa45 423c cfa4 1d3b
000003f0: 5387 5b3c b8a9 58bd f3ca 55bd 3ed9 97bc
-0.030620728 0.013388822 0.02215729 -0.0700172 0.032814797 0.0027777287 -0.027494295 0.01896644
-0.006379783 -0.005505964 0.013336789 -0.0039118244 0.011913988 0.00017095786 0.016643168 0.026543658
0.030159023 -0.012258449 -2.2142996e-05 -0.022313906 0.0034909719 0.04962248 0.011059447 -0.01362363
-0.0011097842 0.027861737 -0.005391917 -0.024300512 -0.0014757428 -0.019117951 0.017624538 0.020317562
0.015072981 -3.0223304e-05 0.03962651 -0.005075989 -0.0004364705 -0.028528735 -0.020942582 -0.012815597
-0.023017537 0.0011903819 -0.011805733 -0.020056289 0.00094387546 0.01650863 -0.046107154 -0.0070956647
-0.03868553 -0.0018431443 0.0034515078 0.000560904 0.021985294 -0.0059224656 -0.019826664 -0.038062204
0.027377155 -0.004026454 -0.025265977 0.0115255285 0.0067114606 0.0007346138 -0.013481854 -0.01916724
-0.02487347 -0.011571873 -0.045246713 0.001925771 0.012492891 0.006198451 -0.037431195 0.00087482657
-0.039644986 -0.023348084 0.03005821 -0.008619658 -0.027765194 0.015912127 -0.014782771 9.73508e-05
0.006483173 0.0025793333 -0.00019154753 -0.012087244 -0.022810679 0.0091510955 -0.0052416385 -0.036354534
-0.0037593015 0.046297643 0.013852952 0.20408513 0.00015989224 -0.049799696 0.14004892 -0.018436769
-0.030720811 -0.00013542516 0.028105527 0.030131785 0.028415442 -0.009527914 0.055142943 0.052134283
-0.0042968527 -0.027300538 -0.023668021 0.047591984 -0.014906815 -0.003399618 -0.022439102 -0.0009673129
-0.017077213 0.0058706636 -0.017689183 -0.044983726 -0.007986836 0.03321248 -0.0041237976 0.04770494
-0.00020203492 0.010117769 -0.00066391367 2.268193e-06 -0.021365657 0.025334042 -0.024761204 -0.046692427
-0.0010594561 -0.03670728 -0.0034162423 -0.01878271 0.01925473 -0.030755073 -0.003875679 0.019129273
-0.009277644 -0.0016292852 -0.003110354 -0.012851394 -0.0046370146 0.0008030694 0.0019291121 8.579086e-05
0.03205532 -0.01594853 0.01133057 0.011734898 0.04879258 0.005040637 0.021751948 0.0054816753
0.032296937 -0.0142357275 -0.029502088 -0.0012665052 -0.0002542522 -0.0005767637 0.022006 -0.005211948
0.034877278 0.02465649 0.004931015 -0.051044002 0.008474648 0.02277174 0.024759175 0.00986773
-0.028506348 0.0012187721 -0.0065044607 -0.0014466307 0.017688138 -0.022770315 0.018555667 0.008247978
-0.02062403 0.004585813 -0.0055208337 0.020171588 0.0018462028 -0.016569184 0.016723365 0.018940756
0.034975607 -0.0050599035 0.00554245 0.013158724 -0.078994066 0.016847884 -0.02960096 -0.023055052
0.042079687 0.01569874 -0.0048733363 -0.0003862811 -0.017423272 -0.0046686684 -0.0033486318 0.00015933004
-0.00022807115 -0.01488968 -0.010903845 0.0015154493 -0.028615009 -0.031969853 -0.0058357497 -0.01461801
-0.020202022 0.009731101 -0.0068678125 -0.033879653 0.011300292 0.02661759 -0.0024081948 -0.028227003
-0.0228342 -4.6571255e-05 -0.008175737 -0.027997252 0.025339922 -0.017559877 -0.026010096 -0.0075912485
0.01668183 -0.0027897018 0.017437449 0.011146866 0.030439883 0.016238969 0.023231642 0.03224027
-0.013059238 -0.014302003 8.482884e-05 -0.0020237411 -0.013549738 -0.026037436 -0.051131185 -0.017432384
-0.026859099 0.019442696 0.034858253 -0.0021242525 -0.024990618 0.014373467 0.01054315 -0.010532113
0.027585603 0.025539221 0.011857504 0.0024054532 0.013398963 -0.05289623 -0.0521955 -0.018536206
