models/ddpg_model_episode_200_critic.pth (torch, 674589 bytes, 5 tensors)

layer_1.weight f4 [400, 117]
00000000: c0b2 913f 075f 3f3e 447f 0c3f 81b6 efbc
00000010: ba27 f93c 5cec 853b bd96 293e 08e0 61bc
00000020: 8bf8 27bf f1a5 24bf b719 d0bd 4d98 acbd
00000030: 0ffd 4d3f 0a9e 3b3f 1923 a5be 9693 ebbf
00000040: cd8e 9fbe 22aa b2be e9b4 fd3d 8807 873e
00000050: a286 96bf a632 213f daec 20be 44f9 97be
00000060: b892 563e 7e08 58be 0926 e4bd 6062 85be
00000070: 9d2d b33d 10e7 8d3f dcee 8a3e 9eb6 7d3e
00000080: edd2 1f3f 3d83 a1bd 418e ae3e 7f4f 063d
00000090: 4d22 043f 2239 103e 2f7a d9be 39dd 263f
000000a0: a9b2 553d 6c3e ce3f 8745 323f a02c bf3e
000000b0: 01f1 5b3d d8af 203e a2d9 00bd 1ad7 1ebe
000000c0: 71fc 6dbd 2444 0dbe edae 563e d7a0 c0bd
000000d0: 0fe7 e23f ac0e cfbe a696 40be 810f b73f
000000e0: 8747 03be 5cee 39be d613 983f 8971 603e
000000f0: 0ebf 1f3f a51e a0be ad48 b1bd af23 3cbf
00000100: df80 133e 0f65 583f 5920 4fbf 737a d33d
00000110: 0220 3cbf c6a7 153e b425 6dbe 3aa3 bbbe
00000120: 012e bdbf 5828 463e 87db efbe 32a2 203f
00000130: e76d 8abd d99f 25bd 5f13 1b3f 97ed 46be
00000140: a3cd 65bf dea4 34bf ed9d cabe 9bac 69bd
00000150: e70d 9c3e 2022 16be 96aa c2be ecc7 323e
00000160: e572 863e b565 c0bc 0fb2 473e 27ba c0bd
00000170: 82c0 743d 1b28 1a3e 2f90 aa3e 70a9 a4be
00000180: a8ce c93e 714b 47bf efb9 5a3e ff56 cfbe
00000190: d8f6 a7bd 6e84 883f 617e 85bf e5fc bfbf
000001a0: c44a c23d 5654 48bf 8fe7 9838 9dfe 203e
000001b0: 500a 72bf 3558 2dbe a8a6 483f f07b 5ebf
000001c0: 5f0e fcbe eab4 73bf 3844 6e3e a037 473e
000001d0: 367a 013f ca31 b43f 9233 5c3d ad22 a4be
000001e0: 205b 18be b415 8b3d 6004 373e e43a 343e
000001f0: 248f 0a3e e665 273f 8506 4a3f 82a8 8dbd
00000200: 5e3c 40be 7c73 96bc 899b 8abd 3e56 d1be
00000210: 2cd0 07c0 b9b8 f33e b1b7 a4be a384 883d
00000220: 80a8 953e 4470 99bd ad49 bfbd 8a32 76bf
00000230: 3dba 27be d32f fbbe b8d1 6bbe 7146 19be
00000240: 5381 e8be d766 8a3d de5b f73e ef8b d53e
00000250: 0529 fb3e 5a65 70bd 13af aebc 012a fabe
00000260: cebd 3e3f 7f72 96be 3862 203e 136c 58bf
00000270: 9bb8 18be 17f1 29bd 85bb 653f 98ce 3bbe
00000280: 0be8 d4be 8439 5fbe d0ad c0bd b07e ff3e
00000290: f950 87bd 1d21 3cbf c75f ef3e 58b1 523d
000002a0: ee78 933d 4a0b 4b3f aead e13e 77c3 50be
000002b0: 0c43 143f 9fc2 0d3f 2743 24bd 8204 843e
000002c0: 3f3c 973e bc54 413f 8d56 acbc 373e 9b3c
000002d0: a940 d1be 675d 3f3e 753c 743d 9d21 0b3e
000002e0: 8fda 0bbf dbc9 3e3e b3af 923d 5658 bf3e
000002f0: 66a6 cc3e e989 1cbf e537 5f3e 1064 cc3e
00000300: cdf8 2fbe 430d 2cbf 5ae8 6bbd 9b76 1dbe
00000310: 65fd 5cbd cec6 b1bf 4d3b b8be bfe7 353e
00000320: f7da 8dbd 95b1 123e 3702 53bf a443 a0be
00000330: 7665 01bf 76b4 543f 6f45 00be d69f c0be
00000340: 2aef 4ebd 160d 5c3c 7bce f03d c45a 4d3f
00000350: 00fd 063f b5c7 68be 52bd 97bd 951b fabe
00000360: b01f d2be 2309 e6bd d506 673e 88c0 b2bd
00000370: c239 efbe d9d2 c83c fc16 debc e6b2 3cbe
00000380: c59c 49bf 07a8 07be 96e0 4bbf b402 9c3f
00000390: f177 153e f34c 86bf 6b87 d4bd 7010 963e
000003a0: df02 823e 3a76 33be 9a6a c7bf f5b8 94bd
000003b0: 4e17 813e 60d5 8e3d a3d1 d63c 79ec ec3c
000003c0: 3057 233d c260 ffbd 1af0 603c c4b7 8abd
000003d0: 3b87 c4bd 7e2a 553e ef58 4b3d ccaf 3dbd
000003e0: 13ac 443e c528 0040 f305 babe 24ac 5a3e
000003f0: 5637 2dbc a48f 4fbe 35dc cb3d 53ba 223e
1.1382675 0.18688594 0.5488169 -0.02926183 0.03041445 0.004087014 0.16561408 -0.013786323
-0.6561362 -0.64315706 -0.10161155 -0.084274866 0.8046426 0.73288023 -0.3225334 -1.8404415
-0.31163636 -0.34895426 0.123880215 0.26372933 -1.1759837 0.6296791 -0.15715352 -0.29682362
0.20954406 -0.2109699 -0.11140067 -0.26051617 0.087489344 1.108614 0.2713536 0.24776694
0.6243122 -0.0788636 0.34092906 0.032790657 0.5161484 0.14084294 -0.4247603 0.6518131
0.052172337 1.61128 0.6963734 0.37338734 0.053696636 0.15692079 -0.03145755 -0.15511742
-0.058102075 -0.13795525 0.20965166 -0.09405678 1.7726763 -0.4044088 -0.18807468 1.4301606
-0.12820254 -0.18157333 1.1881053 0.2191831 0.624009 -0.3127338 -0.0865644 -0.7349195
0.14404629 0.84529203 -0.80908734 0.1032609 -0.7348634 0.14614782 -0.23158914 -0.3664797
-1.4779664 0.19351327 -0.46847174 0.6274749 -0.067592435 -0.040435646 0.6057643 -0.19426571
-0.897669 -0.7056407 -0.39573613 -0.057049375 0.30479357 -0.14661455 -0.38020772 0.17459077
0.26259533 -0.023485998 0.19501518 -0.09410506 0.059753902 0.15054362 0.33313128 -0.3216052
0.3941548 -0.7784949 0.2135999 -0.4049606 -0.082013786 1.0665414 -1.0429193 -1.4999052
0.09486917 -0.78253686 7.291056e-05 0.15722127 -0.94546986 -0.1692818 0.783793 -0.86907864
-0.49229714 -0.9519793 0.23268211 0.19454813 0.50577104 1.4077694 0.05376012 -0.32057706
-0.14878511 0.06791249 0.17872763 0.1760059 0.13531166 0.6538986 0.789162 -0.06916906
-0.18773028 -0.018365614 -0.06767947 -0.4088611 -2.1220808 0.4760187 -0.32171395 0.066659234
0.29230118 -0.07492116 -0.093402244 -0.96170866 -0.16379638 -0.49059924 -0.2302922 -0.14968278
-0.45411167 0.067578964 0.48312277 0.41708323 0.49054733 -0.058690406 -0.021323716 -0.4886017
0.7450837 -0.2938423 0.15662467 -0.8453991 -0.14914171 -0.041489687 0.8973926 -0.18340528
-0.41583285 -0.21799284 -0.09408152 0.49901342 -0.06607241 -0.73488027 0.4675276 0.05143866
0.072008 0.793141 0.4407782 -0.20387064 0.57914805 0.55375093 -0.040103104 0.2578469
0.29538152 0.7551992 -0.021037364 0.018950565 -0.40869644 0.18687974 0.05962797 0.13587041
-0.5463037 0.18631689 0.07162418 0.37372082 0.39970702 -0.61147934 0.21798666 0.39920092
-0.17184754 -0.67207736 -0.057594635 -0.15377276 -0.053952593 -1.3888795 -0.35982743 0.17764185
-0.0692653 0.14325555 -0.82425255 -0.31301606 -0.5054544 0.8308786 -0.12526487 -0.37621945
-0.050521053 0.013430854 0.11758133 0.8021662 0.527298 -0.22732432 -0.07409157 -0.48849168
-0.410398 -0.112322114 0.225612 -0.08728129 -0.46723753 0.024514602 -0.02711057 -0.1842762
-0.78754836 -0.13247691 -0.79639566 1.2188325 0.14596535 -1.0492233 -0.103773914 0.29309416
0.25392815 -0.17525569 -1.5579407 -0.0726184 0.25213093 0.06974292 0.02622301 0.028921353
0.03987807 -0.12469627 0.01372912 -0.06773332 -0.09596106 0.2081699 0.04964536 -0.04631023
0.19206266 2.0024884 -0.36332664 0.21354729 -0.010572275 -0.20269638 0.099541105 0.1589139

layer_1.bias f4 [400]
00000000: 318e af3d f12b b93d b3b3 f8bd 2510 88bc
00000010: b3b2 21be 3470 043d 65cd 6ebd 1386 dabd
00000020: b113 bbbd 665c cc3b aff9 3dbd 6315 8f3d
00000030: c7d3 9abd d211 253d 9661 bf3e 807f 6b3c
00000040: b3f3 d4be b088 2abd 31ac 34bd 2e13 14be
00000050: 7862 82bb 12a7 bebc f776 e2bd 87ba 9dbd
00000060: 9e78 5abe 2a6f 783d d36d 2abd b646 dabb
00000070: 9749 11bd aa1e 15bd 3e1a 793d ec10 2cbe
00000080: 4fb3 bc3d 9c90 99bc bf78 a93d 7205 863c
00000090: 7264 c5bd 5dd4 25be fe45 7bbd 8beb debd
000000a0: 2c17 c5bd a9a4 e1bd 7849 853c b081 f63d
000000b0: 061e 1e3d 1fd1 8cbd 1026 9b3c cd3b 393c
000000c0: 0a54 99bc bd7d 4ebd 7d4c bd3d 0841 033d
000000d0: a884 c9bd a230 213d 1453 63bc a426 c13c
000000e0: 19d6 52be 7863 d0be 6788 34bd 645d dabd
000000f0: 2294 a5be 40c2 873c 1d64 9b3c 1441 6cbe
00000100: f8e7 bd3d aeee 53bd b085 38be 628a ed3d
00000110: 819e 5dbd 0432 673d e090 2abd ddba d9be
00000120: 9a5f 823d 0be3 9ebc e081 883c 50e7 58bd
00000130: 8cff 48bd 15f1 febc 9c16 8fbc 8453 8c3c
00000140: 6150 8b3e 33f8 b03d 743a a1bd 20e0 3a3d
00000150: 1949 aebd 3fe1 3fbd 60b3 533b 8bdd eebe
00000160: 862d 763e 6cdf 04be 0073 183c 25ed b63d
00000170: 4113 38bd c5d3 1ebc 79cf 48bd 3c31 0c3e
00000180: ac0c f33c 87a2 8cbc 2961 9e3c 0b4a cd3d
00000190: ebfe 48bd 49cb adbd a51c 6cbd f6a8 1f3d
000001a0: 91df d03b 66ae b83d c458 023d 8db3 f63d
000001b0: e774 59bd 1a3c 42bd 6e2b c93c 25d0 96be
000001c0: 13fd 1dbe 14a7 95bd 10ba a43e fc81 a73c
000001d0: 94f3 cc3d e496 563d e149 97be 81be 54bd
000001e0: 250b ad3d ab43 e23c ba66 cbbb fd9a eb3c
000001f0: e02d 003c 7584 573c 7f85 593c e6e5 053d
00000200: d4fa 94bc 19e0 f03d eb41 0bbf 0a49 57bd
00000210: 5c16 84bd 7f0a 083e 2a17 07bd 60fc fe3b
00000220: b2b3 8ebd 4102 933b ea3f ae3a 0680 56bd
00000230: e5d5 bbbd 549a 32bb 6f8a 093d d194 6abd
00000240: b323 853d d5d7 33be d735 be3d f408 113d
00000250: 0229 083e 51f0 30bb e37c a73d f8ed ccbc
00000260: f3ec 833c 08bc 8bbc e65f babd 515b 68bd
00000270: 3eea 2bbd 109a b9bb 2d74 823d 9a14 6bbd
00000280: 5f62 563d 08e1 cebd 452d 2dbd 2206 8bbd
00000290: 5268 3ebc 6266 14bd 8b84 703d a980 74bd
000002a0: 307f 27bc 797f 2b3e 696d e33c 2632 333d
000002b0: 3e37 5cbd 2d71 7ebd 7d5f edbd dd15 87bd
000002c0: 65ae 183d b14c 6d3e b5ad 8ebc ee0f d7bc
000002d0: 32ae 9c3d ceb6 053d 4060 30be b2b5 6f3b
000002e0: f61b d3bd fdf5 42bc d30b f33c 1b39 bebd
000002f0: 5aa7 283d 8cb5 edbc 18ba 7b3d 8cb9 b93c
00000300: 52ea da3d a774 a8be ea87 3dbe ac25 bebc
00000310: af60 1a3d 97b7 f9bd 28a1 8c3d 0d24 873c
00000320: d111 a7bd 4046 5bbe 02f1 a9bd aebd c8bd
00000330: 1b5f 823d 1c29 edbd 3f72 273e 22ce 293d
00000340: 504a 4fbd 2aa2 033d ea6f 1d3d 9151 233e
00000350: 78d8 9f3a c464 e8bd 2759 153d 29cb 2c3d
00000360: 263c 66bd 2603 44be 8637 923d 8459 49be
00000370: 6a7a 07be e67c a13b 71d6 5abe fbed 0e3c
00000380: dd13 2dbe 541e 14be 9512 d33d cd58 9a3d
00000390: d762 a03d 5168 ae3d 5e88 e23c 355f 323e
000003a0: f93e 823d d173 ecbc cbe8 b83d bf00 44bd
000003b0: b262 9cbd bbff 89bd 4ffa 80bd d06e e7bc
000003c0: 1b38 cd3e 5fa7 313e de2c f1bc a354 f23c
000003d0: f255 003e 67b9 50bd 1087 9f3c 7429 5f3d
000003e0: 92f3 7a3d 9ced e4bd 0dcc b73d 3f92 92be
000003f0: 96c8 1e3e 0523 743d 16cc 713e 1132 0c3d
0.08572043 0.09041584 -0.1214365 -0.01660926 -0.15790825 0.032333568 -0.05830135 -0.10670104
-0.09134615 0.0062366007 -0.046380695 0.06986501 -0.075599246 0.040300198 0.3737914 0.01437366
-0.41592178 -0.04163426 -0.044109527 -0.14460441 -0.0039790235 -0.023273025 -0.11057847 -0.07701593
-0.21335074 0.06065289 -0.041608643 -0.0066612614 -0.03547057 -0.036406197 0.060816042 -0.1680333
0.09213888 -0.018745713 0.082749836 0.016360018 -0.09638299 -0.16194291 -0.061346047 -0.1088477
-0.0962356 -0.110177346 0.016270384 0.12036455 0.03860285 -0.06875824 0.018939048 0.0113057615
-0.01871683 -0.050412882 0.092431046 0.03204444 -0.09839755 0.03935302 -0.013874788 0.023577996
-0.20589484 -0.4070089 -0.044075396 -0.10662344 -0.3233958 0.016572118 0.018968636 -0.230717
0.0927276 -0.051741295 -0.18019748 0.1159866 -0.05410624 0.056444183 -0.04164207 -0.42525378
0.06365891 -0.019395372 0.016663492 -0.05295497 -0.049071833 -0.031120816 -0.017466836 0.017129667
0.27209762 0.0864109 -0.07872477 0.0456239 -0.08510036 -0.04684567 0.003230296 -0.466534
0.24040803 -0.12975854 0.009304762 0.089319505 -0.044940237 -0.0096940445 -0.049025986 0.13690656
0.029669128 -0.017167343 0.019333439 0.10023888 -0.049071234 -0.08486039 -0.057644505 0.038979493
0.0063743074 0.09017639 0.031822935 0.12045965 -0.053090002 -0.0474206 0.024556842 -0.29455677
-0.15428571 -0.07307258 0.32173204 0.020447724 0.10007396 0.052389994 -0.29548553 -0.05193949
0.08449391 0.027620157 -0.0062073143 0.028760428 0.007823437 0.013154139 0.013276457 0.03268995
-0.01818601 0.11761493 -0.5439746 -0.05255989 -0.06449577 0.13285254 -0.032981075 0.0077815503
-0.06967868 0.0044863527 0.0013294194 -0.052368186 -0.091716565 -0.0027252631 0.033579286 -0.05727083
0.0650095 -0.17562802 0.09287613 0.03540893 0.13296893 -0.0026998708 0.08178117 -0.025015816
0.016104197 -0.017057434 -0.091003224 -0.05672771 -0.041971438 -0.0056641176 0.06369815 -0.057392694
0.052339908 -0.10101515 -0.0422795 -0.06788279 -0.011621552 -0.036230452 0.058720153 -0.059693012
-0.010223195 0.16747846 0.027762132 0.043748997 -0.05376362 -0.06211965 -0.115904786 -0.06595967
0.03727569 0.23173787 -0.017416814 -0.026252713 0.076504126 0.03264504 -0.17224216 0.0036576805
-0.103080675 -0.0118994685 0.029668724 -0.09288236 0.041175224 -0.029017232 0.06145677 0.022671483
0.10689224 -0.329015 -0.18508878 -0.023211323 0.03768986 -0.1219322 0.068666756 0.016496683
-0.08157695 -0.21413517 -0.08297922 -0.098018035 0.06365796 -0.115801066 0.16352175 0.04145635
-0.05060798 0.032137074 0.038436808 0.15949084 0.001219525 -0.113473445 0.036461975 0.042185936
-0.056209706 -0.19141826 0.071394965 -0.19663054 -0.13230291 0.004928219 -0.21370865 0.008723731
-0.16902108 -0.14464694 0.103062786 0.07536469 0.07831352 0.085159905 0.027652916 0.17419131
0.06359667 -0.02886382 0.09028777 -0.047852274 -0.07636012 -0.0673823 -0.062977426 -0.028251082
0.40081868 0.17349003 -0.02944034 0.029581374 0.12532786 -0.050958063 0.019473583 0.054482892
0.061267443 -0.11178133 0.089744665 -0.28627202 0.15506205 0.05960371 0.23613009 0.034227435

layer_2.weight f4 [300, 400]
00000000: 995d dfbd d254 e8bd 1b41 debd 5791 37bd
00000010: 87f2 e5bb 49b1 8e3d 352b 8bbc 5748 bdbb
00000020: ba77 7cbc 80b9 04be 6bbe 183d 138f d1bc
00000030: 3a30 ebbc 86d2 803c 97d5 14bf 0b14 04be
00000040: 63e3 48bd 38c8 e3bd f28a 1cbe b4dd 24bd
00000050: 1697 abbd 3ae1 f3bc 5c3d 2d3c 32df e2bd
00000060: 3304 bebb 58b6 c8bb 812e a6bd fdcd 5f3d
00000070: 00a5 323c 6a24 9cbc 52c5 12bd adfb 1bbd
00000080: 8337 4b3d e28d 84bb 76c7 a43c 4741 17be
00000090: f11b a73c e803 11ba 03aa 273d 97ef dabd
000000a0: 4a0d dfbd 7bdb abbb 9136 1ebd f49b 51bc
000000b0: 6043 d03a cc67 97bd bd37 113d cd5c 1fbd
000000c0: c02b bebc dee5 1fbe a877 cd3b 7d01 a2bc
000000d0: dd76 41bd 4796 96bc 3f85 3f3d 9441 71bc
000000e0: 919c 9abb 362d c03a a1cd 71bc 221b 30bd
000000f0: bc75 03bd 00f3 50bb 9ac2 fcbc f067 febc
00000100: 2031 9d3c b43e 4f3c 068c 0f3d 53c6 273d
00000110: b5ef 0abd 4638 e93d 7c60 a7bd 1ffb 173d
00000120: 2889 13bd 30da 86bb b485 1ebd 0005 e839
00000130: 39d0 13bd 86a6 28be 3e8a c63c 04e7 553c
00000140: 8f1f f7bc 1811 193c 408d c9bc 7cfa 28bd
00000150: e748 e4bd 0af4 893c e032 3bbd 5f57 183d
00000160: cf72 3abd 187f 29bd 3a46 4abd e844 1bbc
00000170: be69 c3bb 6d8d bdbd 18e4 0fbe edc2 d93c
00000180: b4f8 373c 26d1 8dbc 8b63 44be c3a5 153c
00000190: 7d0d 9e3c a196 25be 43c7 88bb caa6 1dbd
000001a0: d2fe d43c ed1e 29be ca6f 553c 9709 e53c
000001b0: d9d3 f6bd d067 a7bc e40a 07be 5f39 0b3c
000001c0: c52e 473c 618b 4b3d 24db 8f3d 229e 54bd
000001d0: 08f6 5d3c 8b94 e1bd c774 963c c239 20be
000001e0: 008a 7ab9 6f16 3cbd 6277 34bc 8b31 9abd
000001f0: 2253 e63c f65a a13c 12f4 c23c 1e77 443c
00000200: d18c 0e3d acaa 3c3c e617 3fbd bcbf 23bd
00000210: 0241 943c c289 b3bc 5e17 b43c daf5 dcbc
00000220: e404 77bd e593 803c ddd9 96bc 8516 0bbd
00000230: d992 1e3d 5a30 b2bb 01e2 0dbe 0f61 51bd
00000240: 0050 55bb e5e2 373d 843e 3e3d 8118 cc3b
00000250: f7e6 11bd b0df 373c b7a2 0d3e d87a 78bd
00000260: 21a2 dd3c 8998 403d 3728 0e3d 0a39 c53c
00000270: 85fe 41bd e84a 29bc 48c0 303d ead1 42be
00000280: 1a53 b93c 483a 4fbe 32d5 8c3c 9370 a2bc
00000290: af18 9f3c 0533 333c 7889 873c 982b 883b
000002a0: f195 173d 46e2 3cbe 9bdb e2bb 5635 24bd
000002b0: 4f58 ef3c 1895 dabd f8d1 3ebd 0ab3 87bc
000002c0: 6473 7cbb 0270 97bc b99d bbbb 48ff 34bd
000002d0: b462 a73c 7ab5 99bd 3c02 133b 9d01 44bd
000002e0: 7d6d dfbd c48d 40bd 9804 b4bd 89b1 4b3d
000002f0: 39a3 08bd bb46 18bc 76a7 48bd 7804 05bd
00000300: 7ca3 c83c 114e bdba 2de8 9b3c 2639 123d
00000310: 72e8 073c 2c5a 1dbc 15ec 38bd d848 d1bc
00000320: 58ed 21bc 67d1 3bbd 0593 23bd c1ff febd
00000330: db92 793c 25e0 313d 1598 f3bb f191 57bd
00000340: 496b 03be 1e0a a5bd 97bb e8bc 897b 8abc
00000350: 44e8 babc 3093 7cbd 9e62 06be ea6b 78bb
00000360: a63d 0ebe c2e5 8fbc 25d4 f9bd 249b 013d
00000370: 309c c43c 1d1f 2b3d 6cac b239 0f2e 93bd
00000380: f152 2c3d 006f c93c ab13 2fbe 063c f6bc
00000390: 23e7 31bd 4a98 11bd 9e0a 92bc 0547 a1bd
000003a0: fa16 413d 1838 d5bd faad 0dbd 0141 0fbe
000003b0: 40a1 31ba 668d d93d 0115 adbc 6e21 ba3c
000003c0: db39 953c 6a9c debc 8c2f 5bbd 42b2 33bb
000003d0: 0949 983e 401e 0cbd ea0e f6bc d6a7 12be
000003e0: eded 9fbc 0335 e8bd 9c49 58bc a20a b23c
000003f0: a4ed d23c 1d34 febc abdc 5fbd eafa cebc
-0.10906524 -0.11344303 -0.10852262 -0.04481634 -0.007017437 0.06967408 -0.016988376 -0.005776446
-0.015409404 -0.12961388 0.03729097 -0.025580918 -0.02870952 0.015725385 -0.5813841 -0.12898271
-0.049044978 -0.11122173 -0.15287378 -0.040250495 -0.08378427 -0.029770482 0.010573711 -0.110777274
-0.0057988404 -0.0061252527 -0.08114339 0.054639805 0.010903597 -0.019060332 -0.03583271 -0.038081814
0.049613487 -0.004045234 0.020114642 -0.14770995 0.020399066 -0.0005531893 0.04093362 -0.106902294
-0.108912066 -0.00524467 -0.038626257 -0.01279353 0.001588922 -0.073928446 0.035453547 -0.03890686
-0.023214221 -0.15615031 0.0062703677 -0.0197761 -0.047232497 -0.018382205 0.046757933 -0.014725108
-0.004718371 0.0014661911 -0.014758498 -0.042994626 -0.032094702 -0.003188312 -0.030854512 -0.03105542
0.019188464 0.012649227 0.035045646 0.04096062 -0.03392001 0.113876864 -0.081727 0.037104722
-0.036019474 -0.0041153654 -0.038701728 0.00044254214 -0.03608725 -0.16469774 0.02423584 0.013055567
-0.030166415 0.009342454 -0.024603486 -0.041254506 -0.111467175 0.01684 -0.045702815 0.0371927
-0.045519646 -0.04138097 -0.04938338 -0.009476878 -0.005963533 -0.092554905 -0.14051855 0.026582206
0.011228729 -0.017311644 -0.19178598 0.009133759 0.019293541 -0.16170742 -0.0041741445 -0.03848914
0.026000414 -0.16515703 0.013027141 0.027958674 -0.120521255 -0.020435244 -0.13187748 0.008497565
0.012157147 0.04969347 0.0702422 -0.05190862 0.013547428 -0.110146604 0.01836623 -0.15647033
-0.00023893267 -0.04591983 -0.011014791 -0.07528981 0.028115813 0.019696694 0.023798022 0.01199129
0.03480226 0.011515301 -0.04665365 -0.039977774 0.018097404 -0.021916274 0.021983799 -0.0269727
-0.0603074 0.015695522 -0.018414432 -0.033957023 0.038714264 -0.005437893 -0.13855745 -0.051117953
-0.0032548904 0.044894118 0.04644634 0.006228507 -0.035620656 0.011222765 0.13831602 -0.060664028
0.027054848 0.04702047 0.03470632 0.02407505 -0.04736187 -0.0103328 0.043152124 -0.19025388
0.022622634 -0.20237076 0.017191503 -0.01982907 0.01942095 0.010937457 0.016545042 0.0041555874
0.03700823 -0.18445691 -0.0069231517 -0.040089928 0.029216914 -0.106729686 -0.04658696 -0.016564865
-0.0038520927 -0.018486027 -0.005725589 -0.044188768 0.020432808 -0.07505317 0.0022431752 -0.0478531
-0.10909555 -0.0470102 -0.08789939 0.049729858 -0.033358786 -0.009294207 -0.04898783 -0.032474965
0.024492018 -0.0014442821 0.019031608 0.035699032 0.008295165 -0.009604018 -0.04514702 -0.02554743
-0.009883247 -0.045854 -0.03993513 -0.12451125 0.015232767 0.04342665 -0.007433901 -0.052629415
-0.12833895 -0.0805857 -0.028409762 -0.01690461 -0.022815831 -0.061663806 -0.13123557 -0.0037906119
-0.13890705 -0.017565612 -0.121986665 0.031642094 0.024000257 0.04177772 0.0003407927 -0.07186519
0.042071287 0.024589062 -0.17097346 -0.030057918 -0.04343332 -0.035545625 -0.017827328 -0.07874874
0.047141053 -0.1041109 -0.034589745 -0.13989641 -0.0006776042 0.10622673 -0.02112818 0.022721019
0.018216064 -0.027174193 -0.05351214 -0.0027419482 0.2974322 -0.034208536 -0.030036408 -0.14321837
-0.019522632 -0.11338236 -0.013201144 0.021733586 0.025748082 -0.031030709 -0.054653805 -0.02526613

layer_2.bias f4 [300]
00000000: c246 93bb 72fb 08bd abf0 14bd 3dea c2bc
00000010: 760a 223e 2a8f a83b 7c57 47bd 9e9a 88bc
00000020: 1798 02bd 46ea 173c fe37 31bd 97f9 1ebd
00000030: 3969 96bd 84c7 02bc 7148 ac3e 3732 41bd
00000040: 4c70 d6bd 6bfe 3abd 5774 08bd 1032 42bd
00000050: ef77 98bd 5c13 94ba 7dfd 27ba 8a8d dabc
00000060: 2306 47bd 9e9d 173c 036c 7a3d 97ce 0b3e
00000070: ddd9 65bd 7609 14bd 3d4d 0dbc ff92 703b
00000080: 2fb3 983c 2522 b9bd a3e4 83bc c0bf 9fbd
00000090: 741b 12be 98c5 84bd 5772 bb3a 500e f5bc
000000a0: 43a9 e4bd 0ad8 f0bd a36f 35bc 5d01 e03b
000000b0: 7cd3 523e 968e 16bd d888 c33c 82a8 85bd
000000c0: 32a8 83be a94f b2bd d586 1ebc 66e0 2fbe
000000d0: 3eea cd3c 42d1 2cbe ca37 5c3e 6571 473c
000000e0: 5011 76bd d4a6 8f3b 0e66 d03c 5ea1 71bd
000000f0: b6ec 38bd a211 20bd 8e3a 123d 8e6f 123d
00000100: 3cd1 0fbd 33ba 503c d92e 00bd 2aa2 4cbd
00000110: b132 673d c4fa 923d 5da1 273a 9503 05bd
00000120: 340b 6cbc ecc5 8bbb 773a 01bd a3cd 1bbc
00000130: 2b69 723c 1d71 6ebe 3efe 86bc 21ac 85bc
00000140: 38c7 313c 3b36 783c 70d5 60bc 7ccf 35bd
00000150: ddd4 c43b bcfc 793e ecda 37bd ffca a2bc
00000160: a580 4d3d 4785 05bd f79a 06bc f576 26bc
00000170: 39df 5fbd 306e be3b d698 7b3e 3ffd 92bd
00000180: ceab fc3b 144e e9bc 5a1f 913c ca57 a3bd
00000190: b67b 19bd 9960 86bd 161c 9a3b b35a 8c3d
000001a0: 20a0 ae3c 5eed 89bd e4b3 d93d 79e3 87bd
000001b0: 2c66 6f3c cb0c 21bd 1f42 80bd 2096 42bc
000001c0: 5bd3 35bc f5ab 61bd 9a8d a73b fc04 1bbc
000001d0: de20 533c 2d2a 5e3c caa5 f2bc 0298 16bd
000001e0: 3332 263d 7706 78bd 9557 e83d 75d5 91bd
000001f0: a7b4 37bd 43df d3bc dab3 7b3c a030 3fbd
00000200: 762d bc3d 5535 e9bc 3f38 683e 134f 12bd
00000210: 0e20 333c 2eb7 4ebd c3fc 003d 5d5d 0ebd
00000220: dbc0 093d 89c6 e23d 7209 8f3e bd05 a53b
00000230: 257a 86bd e1ee aabc 69b8 243c 49fc 19bd
00000240: 7639 ba3c b765 aa3d a8a4 e6bc 822e fc3c
00000250: 4abd 893e fd97 3fbd bb0b 523b 4dfa 473d
00000260: ee84 863b 77de a2b9 692e 8fbd 9db0 39bd
00000270: 48d9 203d eafc abbc 46e2 19bd 4024 20bd
00000280: 12cc 883c c20b 853c c954 843b 4099 28bc
00000290: b3fc 173d 25f3 69be 8bd1 1bbd 85df 3fbd
000002a0: daf0 fcbc ee3f cb3c f39b eabd 77af c7bc
000002b0: 6491 f43c a9a3 cf3d 30e0 34bc c9e7 5ebd
000002c0: adc0 3fbc db0b f8bb bcbc 28bd 6b07 143a
000002d0: e678 8cbd b7b5 583d 4eac 2e3c b306 343e
000002e0: a564 9e3d 59bf ed3a 5147 4bbc 3473 903c
000002f0: 65fb 5abd 13d3 15bd 0538 41bd ca07 a2bd
00000300: ca26 cd3d 4f91 863c 9f6a 1c3e 2704 013f
00000310: 7c35 49bd 9e00 10bd b2d7 31bc 7b19 2ebd
00000320: 0239 de3c ff5f 5abd 59b3 2d3e 42be 5b3b
00000330: 6921 9bbd 10d2 16bd 892b 58bb 1b14 873c
00000340: 98db 92bb ff08 13bd 3e9a 803c 373b 293c
00000350: 9ec9 1f3d bf7a 43bd 8031 a43d 6f32 4dbd
00000360: 50e7 a4ba f6c8 88bc 7ed2 21bd 149e 16be
00000370: 08ce 05bd 1616 e63c 49f6 b3bb 010a ef3d
00000380: ca63 9bbc 9ab1 62bd 53b5 5bbe 453e a6bb
00000390: 1d37 d6bc 28db e83a 4615 f3bc b5b7 433d
000003a0: df19 a8bc 95ec 23bd 1f35 8ebc 96e4 89bd
000003b0: d171 fa3c a6d3 01bd 30b5 9d3b be60 1dbd
000003c0: 8fd7 063d 11be ae3e 3f9b 513c 5185 d9bd
000003d0: 032f 4e3e d2a6 ab3d 9371 5a3c 86bc abbc
000003e0: 5591 b03c cc02 843b 007d 7bbd 91d3 92bc
000003f0: d858 8bbd f4aa ecbd f11e 9abc d269 3cbd
-0.004494519 -0.033442922 -0.03636233 -0.023793334 0.15824303 0.0051440196 -0.048667416 -0.01667529
-0.031883325 0.009272164 -0.04326629 -0.038812246 -0.073442884 -0.007982139 0.33649018 -0.04716703
-0.10470638 -0.045652788 -0.033314075 -0.047411025 -0.074447505 -0.0011297273 -0.0006408317 -0.02667882
-0.048589837 0.009253887 0.061138164 0.13653027 -0.056115974 -0.036141835 -0.008624372 0.003670871
0.018640129 -0.09039716 -0.016100233 -0.07800245 -0.14268285 -0.064830005 0.0014301044 -0.029914051
-0.111650966 -0.11759956 -0.01107398 0.0068361 0.20588487 -0.036757074 0.023868963 -0.06526281
-0.2571426 -0.087066 -0.009675701 -0.17175445 0.02513611 -0.168767 0.21505657 0.012173031
-0.060075104 0.004383901 0.025439288 -0.058991782 -0.04514762 -0.039079316 0.035700373 0.035750918
-0.03511165 0.012739706 -0.031294677 -0.04995934 0.056444827 0.07176736 0.00063945894 -0.03247412
-0.014406968 -0.0042655375 -0.031549897 -0.009509477 0.014795582 -0.23285337 -0.016478654 -0.016317429
0.01085072 0.015149648 -0.013722762 -0.044387326 0.0060068206 0.24412817 -0.044886515 -0.019872187
0.050171513 -0.032597806 -0.008215657 -0.0101601975 -0.05465624 0.005811475 0.24570021 -0.07177209
0.0077109104 -0.028479613 0.017715145 -0.07975729 -0.037471496 -0.06561393 0.004703055 0.06853237
0.021316588 -0.06734727 0.106300145 -0.06635184 0.014611762 -0.03931884 -0.062626116 -0.011876613
-0.011097754 -0.05509563 0.005113316 -0.009461638 0.012886254 0.01355986 -0.02962007 -0.03676606
0.040575217 -0.06055304 0.1134483 -0.07120792 -0.044850018 -0.025863295 0.015362704 -0.04667723
0.091883585 -0.028467814 0.22677706 -0.035719942 0.010932935 -0.050467663 0.031491052 -0.034757007
0.033631187 0.11073024 0.27936894 0.0050360844 -0.06566266 -0.02086586 0.010053732 -0.037594113
0.022732478 0.08320182 -0.028154686 0.030783895 0.2690223 -0.046775807 0.003205045 0.04882269
0.004105202 -0.00031064797 -0.06991274 -0.045334447 0.039269716 -0.020994622 -0.037569307 -0.03909707
0.01669887 0.016240958 0.0040384275 -0.010290444 0.037106227 -0.22846659 -0.038041633 -0.046844024
-0.030876566 0.024810757 -0.11455526 -0.02437566 0.029854484 0.101386376 -0.011039779 -0.054420266
-0.011703652 -0.0075697727 -0.041195616 0.00056468573 -0.06858997 0.05290767 0.010661198 0.1758068
0.0773404 0.0018138691 -0.01240714 0.017633058 -0.053462405 -0.03657825 -0.047172565 -0.07911642
0.10017164 0.01642671 0.15275048 0.5039696 -0.049123272 -0.03515684 -0.010854648 -0.04250477
0.027126793 -0.053314205 0.16962947 0.003353015 -0.07574732 -0.036821425 -0.0032984933 0.01648908
-0.004481744 -0.03589725 0.015698548 0.010329059 0.039010637 -0.04772448 0.08017254 -0.050096925
-0.0012581144 -0.016697388 -0.03950738 -0.1470874 -0.03266719 0.028086703 -0.005492006 0.1167183
-0.018968482 -0.055345155 -0.21455888 -0.005073341 -0.026149327 0.0017765509 -0.02967323 0.04778262
-0.020520149 -0.040020544 -0.017359314 -0.067330524 0.03057185 -0.031695984 0.004812859 -0.03842234
0.032920416 0.34129384 0.012793361 -0.10621131 0.20135121 0.08381428 0.013332742 -0.020963918
0.021553675 0.0040286537 -0.061398506 -0.017923148 -0.06804055 -0.11556044 -0.018813582 -0.045999356

layer_3.weight f4 [1, 300]
00000000: 990a 953a ca5c 5b3c 3483 b53c 2e65 8fbd
00000010: cebd 203b 8e0a 363b 07f3 c1b7 825f 9b3c
00000020: b2f2 17bc c61e 9c3c c77c a7ba 2f3a 3abb
00000030: e332 433c 2743 3339 ccd7 e63b 1672 d93c
00000040: 9cdc ee3a a9d7 48bc b9bf b9b7 a05a 15b8
00000050: cac8 643b f140 4b3d be75 223d a535 5fbc
00000060: 8322 2bbd 4c3e e43c 395f 7d3b 652f e63a
00000070: b66d c1ba 0439 4f3c 7956 38ba 5a18 25bc
00000080: aaf4 763c 0d88 fdb7 684f 223d bcc5 a7bb
00000090: 14d6 e4b9 18b5 e9bc c78f abbc 82f8 51bc
000000a0: 8b9c 06bc 2077 faba 3584 25bd 164d a4bc
000000b0: 9ee5 06bc c276 92bc dbda 3cbd c082 e8bb
000000c0: c931 763c a995 f1ba f43f 103d fa93 d5ba
000000d0: b161 343d 8231 49ba 04f6 9238 1de7 1bbd
000000e0: 3ef4 c6b9 fe3c e33c 90fc d43b 92d5 3c3c
000000f0: d0eb db3b 1993 403a 365d 8abc f58f 43bd
00000100: 7edd ddbc f497 3dbc 1d8c 39bd 276a fc3a
00000110: fcae 4c3c 0474 4c3d 7451 19bd 9e54 653a
00000120: 36c5 4d3c 7b44 bfbc a33c f63c c747 2e39
00000130: d393 4d39 265a 823c 6f33 72bc d028 cc38
00000140: cc70 d43b c16f 0c3d 97be c03c 9309 46bc
00000150: 76dd babc 483b 613a d865 bf3c 7ee8 14bd
00000160: ca22 c4bb 99a2 3d3d 7ef7 623c f95f 503e
00000170: 8e98 10ba d9fe 4bbd b5a9 0f3e b508 97bc
00000180: e98a 883a ea00 0eb9 903d e63c efd6 f63c
00000190: 80c7 e83c 7342 47bc d40b 65bb 27d9 263d
000001a0: 2a2e 323b 2e4e 26ba b3b2 c2bc 5016 403d
000001b0: dc1b 8a3c 20cc 5ebb 35d2 b7bc 4593 7dba
000001c0: 83e5 8bbc b25e c03b 0989 2b3d db40 38bd
000001d0: 38db 02bc 3895 053d a052 fc38 4166 433d
000001e0: 7e34 69b9 00c5 253c 1561 e539 cd8d ecb9
000001f0: 66ae e0bb 5689 cf3c 02d8 cabc 8f40 3fbd
00000200: 8232 48b9 5f5a 16bd cbb6 e937 33de 99bc
00000210: 18bc 9d3c 10f2 fbbc 2a64 dabb 7dfc 6cba
00000220: 9281 b9bc 78ce a5bc e711 d6bc 40be 36bd
00000230: 19f2 97bb dc66 053d 43da fc3a 9eea b338
00000240: 704c 033d 30d5 cd39 dba3 393c e817 a4bc
00000250: adb9 703b ee2b a53b a74d d13c 9899 d8bc
00000260: cb49 043d f83c 69bc 5dae f1bc d22f a7ba
00000270: ebaa dc38 f531 17ba a0e7 1fbc b940 e3bb
00000280: 7adb 0e3d 556c ebbb 4d1b a23b 8413 51bd
00000290: 40d9 0a3c b20f bd3c c1d3 ca3c 42ac 213c
000002a0: 2586 e9bc ae45 c6bc a354 dabb da71 f53c
000002b0: 786c 66bc 610f cebc 0e02 983c 8af5 063c
000002c0: baf3 a8bc 9644 963b 7fff d63c e33e a53c
000002d0: 49fc f13a bb48 88bc 70ff 883c 9fa6 133b
000002e0: 96b8 e5bc f597 c1bb aeb0 d6bc acd1 95ba
000002f0: 648a 1cbd 9304 8a3c b67d f2bc f507 b83b
00000300: 497b f43a d68c 423d 7cdf 6c39 cd30 b43c
00000310: 1088 9ebc 563c 15bd b874 5bbb d511 2739
00000320: 0973 e83c d8f3 73bc 75ab 153c 3717 b43a
00000330: 066a eabc d2f2 02bd d139 bfbb 590a c1b9
00000340: b67e a5bc 326f 1f3c 630b e1bb 64c5 0abd
00000350: dc24 393c 220d da3c 5955 f5bd 2900 0bbd
00000360: ca0e bbbc d4c0 80b8 b31a 13bc bde4 85ba
00000370: ab95 cf3c bbd9 8fbc 2013 d5bc 2ec5 81bd
00000380: 55a8 883c 6ed3 36bb 82ec 923c 1ae9 a8bc
00000390: fac0 adba 5664 7ebc 4950 be3c 0bd1 303d
000003a0: 6af6 55bc f352 6abc bedd 4fb9 c47d ea39
000003b0: b072 563a 0971 d5bc ef6e 51bd ee46 0a3c
000003c0: 6c4e c6b7 f19c 753b 87c7 0e3d 0b37 0bbb
000003d0: cf47 b03b 90ef 92b9 5ae2 74ba e28e 2cbc
000003e0: 1c02 7239 a137 d13c fa45 423c cfa4 1d3b
000003f0: 5387 5b3c b8a9 58bd f3ca 55bd 3ed9 97bc
0.0011370956 0.013388822 0.02215729 -0.0700172 0.0024527195 0.0027777287 -2.3120561e-05 0.01896644
-0.009274172 0.019057643 -0.0012778275 -0.0028416028 0.011913988 0.00017095786 0.007044768 0.026543658
0.0018223706 -0.012258449 -2.2142996e-05 -3.560877e-05 0.0034909719 0.04962248 0.03966307 -0.01362363
-0.04178096 0.027861737 0.0038661493 0.0017561732 -0.0014757428 0.012647871 -0.00070319284 -0.010076607
0.015072981 -3.0223304e-05 0.03962651 -0.0051200073 -0.0004364705 -0.028528735 -0.020942582 -0.012815597
-0.008216034 -0.0019108988 -0.040409286 -0.020056289 -0.008233456 -0.017878894 -0.046107154 -0.0070956647
0.015026518 -0.0018431443 0.03521724 -0.0016294711 0.04403848 -0.0007674919 7.0076465e-05 -0.038062204
-0.00037947478 0.027739044 0.0064998344 0.0115255285 0.0067114606 0.0007346138 -0.01689015 -0.04774471
-0.027083155 -0.011571873 -0.045299638 0.001925771 0.012492891 0.04991533 -0.037431195 0.00087482657
0.012559226 -0.023348084 0.03005821 0.00016620672 0.00019605392 0.015912127 -0.014782771 9.73508e-05
0.006483173 0.034286264 0.02352838 -0.012087244 -0.022810679 0.00085919024 0.023363993 -0.036354534
-0.0059855925 0.046297643 0.013852952 0.2034911 -0.00055158965 -0.04980359 0.14029582 -0.018436769
0.0010417375 -0.00013542516 0.028105527 0.030131785 0.028415442 -0.012161839 -0.0034949677 0.040734436
0.002718816 -0.0006344047 -0.023766851 0.04689628 0.016858988 -0.003399618 -0.022439102 -0.0009673129
-0.017077213 0.0058706636 0.041878734 -0.044983726 -0.007986836 0.03261301 0.000120316865 0.04770494
-0.00022240166 0.010117769 0.00043750615 -0.00045119078 -0.0068567274 0.025334042 -0.024761204 -0.046692427
-0.00019092302 -0.03670728 2.7860884e-05 -0.01878271 0.01925473 -0.030755073 -0.0066647725 -0.0009040309
-0.022644792 -0.020240054 -0.026131583 -0.04461503 -0.0046370146 0.032568797 0.0019291121 8.579086e-05
0.03205532 0.00039259484 0.01133057 -0.02003093 0.0036731765 0.005040637 0.025549723 -0.026440427
0.032296937 -0.0142357275 -0.029502088 -0.001275534 0.000105222534 -0.0005767637 -0.009759814 -0.006935206
0.034877278 -0.007184545 0.004947102 -0.051044002 0.008474648 0.023078773 0.024759175 0.00986773
-0.028506348 -0.024203148 -0.0066629215 0.029961515 -0.014063947 -0.025153818 0.018555667 0.008237252
-0.02062403 0.004585813 0.026244877 0.020171588 0.0018462028 -0.016636243 0.016723365 0.0022529734
-0.028042119 -0.0059080073 -0.026207294 -0.0011430285 -0.038217917 0.016847884 -0.02960096 0.005616183
0.0018652464 0.047497593 0.00022589968 0.021995926 -0.019351989 -0.036434494 -0.0033486318 0.00015933004
0.028375166 -0.01488968 0.009135117 0.0013739829 -0.028615009 -0.031969853 -0.0058357497 -0.00036819538
-0.020202022 0.009731101 -0.0068678125 -0.033879653 0.011300292 0.02661759 -0.119791694 -0.0339357
-0.0228342 -6.139433e-05 -0.008978534 -0.0010215264 0.025339922 -0.017559877 -0.026010096 -0.06336437
0.01668183 -0.0027897018 0.017935041 -0.020618964 -0.0013256364 -0.015526852 0.023231642 0.04316811
-0.013059238 -0.014302003 -0.00019823664 0.0004472566 0.0008180542 -0.026054876 -0.051131185 0.0084397625
-2.3639957e-05 0.0037477578 0.034858253 -0.0021242525 0.005379654 -0.00028025778 -0.00093415903 -0.010532113
0.00023079704 0.025539221 0.011857504 0.0024054532 0.013398963 -0.05289623 -0.0521955 -0.018536206
