models/ddpg_model_episode_500_actor.pth (torch, 631313 bytes, 6 tensors)

layer_1.weight f4 [400, 11]
00000000: 4c40 b73d 7251 50be b05e 9fbd 5434 87be
00000010: cea6 233e e4e5 5c3e bf28 8cbe f601 37be
00000020: c8dd 97bd 7cfc 8a3d ccff 54be 3984 a1be
00000030: eb33 853d 4290 1dbe 2bfd 2a3e 946a 6fbe
00000040: 48f2 2f3e 8e91 273e 2804 a53c 3a08 003e
00000050: f06a 5d3e ac3d 07be 9b7a d73e e3b1 5d3e
00000060: dc91 e0bc f55d 9abc 8fa0 69bd 3411 123e
00000070: eb63 643d a117 8d3c 5ac0 923e 57ea 79be
00000080: 53f4 b6bd 310a 71be f1a1 7dbe 7cca c0bd
00000090: d858 813e 8f0a 8fbe c0f3 a83c e8c9 eb3d
000000a0: cef0 443e 54b4 0cbe 1a21 8cbd 408e 19bd
000000b0: 7df3 3e3e ecd2 63be ba7f 2ebe e7b8 033e
000000c0: 8349 dcbd 5c81 56bc 5982 66bd 5cb2 503d
000000d0: af24 06be 1984 eebc f2a5 813e acd0 5cbd
000000e0: fc43 2dbe 3dfa 70be a2c0 7ebe a011 29bc
000000f0: 9a9a e4bd c88a 533d 1ed2 8dbe a4d5 343e
00000100: 50dd 883e fdfd 87be 0b87 4c3d 7293 28bd
00000110: 8800 2fbc 0191 233e 3a2c 45bd 72ca a33d
00000120: 5fa8 67be c20c a0be 4052 6b3e 3699 a1bd
00000130: a664 d73d df67 90be 12bf f83d 7990 3ebe
00000140: 0d25 de3d ac65 81bd 7d9f 083c 0177 1b3d
00000150: 5021 18be eb27 09be 101c 5ebe b2d4 2bbe
00000160: 36ea abbd 200a 83be 04cc b9be 546a 5abe
00000170: e048 1d3e 28cf c53c c67c 4ebc 6f20 573e
00000180: 1467 7cbe acef 523e 1237 e9bd 7c9f b6bd
00000190: f092 92bc 78b6 e13d f1cb 63be 69de 8bbe
000001a0: b73d 2bbe 005e c4bc 04f4 743e 9d12 7ebe
000001b0: 5540 88be c8ed 87bd fe44 583e 6a33 32bb
000001c0: 3d18 4f3e 90fa 42be 7b11 bdbd 9bd0 10be
000001d0: decf 99be 1d50 893e a5e6 863e 1b8b dc3d
000001e0: c0c1 d03d 6a27 6abe b5ec 113e 959b f9bd
000001f0: c14d 883d 52f4 4bbe de3a 913e 0185 903e
00000200: ad69 8f3d ec55 843d f83e 233d 4ce2 54be
00000210: fc34 23be d452 45be 7ed7 37be be59 6cbe
00000220: 7219 7a3e 2bb4 d8bd decd a73d 8941 58be
00000230: 2075 693c d0d0 4c3d 14bc 73bd a725 bdbd
00000240: 8944 1f3e 169b 2c3d 4654 81be e9ef 67be
00000250: d399 b0bd c6c9 0bbd 6716 ebbd 577e aa3d
00000260: 31b6 29bd 6b19 0d3e 8131 b83e c09f 4c3e
00000270: a72a 5fbc bec6 30be 8851 053e f19b 4d3d
00000280: 0a83 70be 5962 063e 5435 f83d 7d5c a83d
00000290: 6032 283e ecf4 183e 90ff 3fbe 86bc 94be
000002a0: d438 ff3d b876 81be 3485 b13d 7afd 1e3e
000002b0: 0eda 7ebe 3692 3a3e f6da 35be ee09 5ebe
000002c0: 0803 a5be b11e ff3d 463f 88be ec7b 993e
000002d0: 7412 32be 074c 913e 2f28 c7bb 1bb4 41be
000002e0: d8cd c03d 20ae 1d3d c046 42bd d8b0 203d
000002f0: f201 7fbc f5df 53be 4dc9 98be dd8f 8c3d
00000300: ec5a 3fbe 7b56 d4bd 4d3c fa3d d99c 8f3e
00000310: f43b 54bd d94b d63d 9f99 8dbd e32d 883e
00000320: 291f 1e3e 4067 57be bb73 1fbe 0e4f ea3d
00000330: 020a ac3d da42 00bd 1ef2 f43c bffb 98be
00000340: 799d bdbd 206a dabd b6e1 db3b 91da 5c3e
00000350: bdf2 3cbe 235a 903d 7351 8abe 65a0 78be
00000360: 1142 99be 2b58 24be ae4b 78bd d5fb a43c
00000370: 24a0 91be ca5c 7cbe 63f8 863e 543d 7fbe
00000380: edd1 6e3e 3ac1 ea3d 6d39 f9bd d98f cd3d
00000390: 4a72 28bd 7622 09be ba53 6d3e 1895 22bd
000003a0: 377a 3ebe 1cc2 65be 5f97 8abe 4085 2dbd
000003b0: bb0d 06be a4f0 dbbd 317d 5abe b4c7 923e
000003c0: f82a 0c3d e4f0 6ebe 2432 8b3e 9bd3 183e
000003d0: 306e ce3d dd16 283d 0e6d 20be 9e69 ad3d
000003e0: b852 2dbc 814d c43d 2111 8f3e cbc1 f2ba
000003f0: af8c 2cbd 4a61 bc3e 322c 4fbd 5cab 293e
0.089478105 -0.20343569 -0.07781732 -0.2640711 0.159816 0.21572071 -0.27374837 -0.17871842
-0.07415348 0.06786439 -0.20800704 -0.3154619 0.06504043 -0.15387061 0.16698138 -0.233805
0.17182267 0.16364118 0.020143583 0.12503138 0.21622825 -0.1320712 0.42085728 0.2164989
-0.027413301 -0.01884363 -0.057037886 0.14264375 0.05575935 0.017223181 0.28662378 -0.244058
-0.0893332 -0.23539044 -0.24768807 -0.09413621 0.25263095 -0.27937743 0.020624042 0.1151312
0.19232485 -0.13740665 -0.06842251 -0.037489176 0.18647571 -0.22248429 -0.17040911 0.12863503
-0.10756209 -0.013092365 -0.056276653 0.050951347 -0.13099931 -0.029115723 0.2532192 -0.053909943
-0.16920465 -0.23532958 -0.24878171 -0.0103191435 -0.111623004 0.051646024 -0.2769937 0.17659622
0.26731348 -0.26560965 0.049933475 -0.04115624 -0.010681279 0.15973283 -0.04813788 0.07997598
-0.22622822 -0.31259733 0.22980595 -0.07890551 0.10517244 -0.28204247 0.12145819 -0.186098
0.108469106 -0.063182205 0.008338806 0.037955288 -0.14856458 -0.13394134 -0.21690392 -0.16780356
-0.083942816 -0.25593662 -0.36288464 -0.21329623 0.15359831 0.024146631 -0.0126029905 0.21008466
-0.24648696 0.2059924 -0.11387457 -0.08917138 -0.01789233 0.11021131 -0.22245766 -0.27318123
-0.16722761 -0.023970604 0.2392121 -0.24811788 -0.2661158 -0.0663715 0.21120068 -0.002719129
0.2022409 -0.19040895 -0.0923185 -0.14142077 -0.30041403 0.26818934 0.26347843 0.1076872
0.10193205 -0.22866598 0.14250453 -0.12187878 0.066554554 -0.1991742 0.28365225 0.28226474
0.07002578 0.06461701 0.039854974 -0.2078945 -0.1593818 -0.19269878 -0.17953297 -0.23081109
0.24423769 -0.10581239 0.08193563 -0.2111875 0.014249116 0.050003827 -0.059505537 -0.09235697
0.15553488 0.04214009 -0.25259608 -0.22650112 -0.0862309 -0.034127973 -0.11478882 0.08324879
-0.041433517 0.13779227 0.35975268 0.19982815 -0.013621009 -0.17263314 0.13019383 0.050197545
-0.23487487 0.13123454 0.121195465 0.08220766 0.16425467 0.1493718 -0.18749833 -0.29050082
0.12462011 -0.25285888 0.086679846 0.15526381 -0.24887869 0.18219838 -0.17759308 -0.21683475
-0.32228875 0.12457026 -0.26610774 0.29977357 -0.17389852 0.28378317 -0.0060777883 -0.18916361
0.094142616 0.038496137 -0.047430754 0.03923115 -0.015564429 -0.20690902 -0.2984108 0.06863377
-0.18687028 -0.10368057 0.12218533 0.28049353 -0.05181499 0.104636855 -0.069140665 0.2659751
0.15441574 -0.2103548 -0.15571491 0.1144086 0.08400346 -0.031313755 0.029900607 -0.29879567
-0.09258551 -0.10664773 0.0067102564 0.21567751 -0.18451972 0.07048442 -0.27015266 -0.24279936
-0.29933217 -0.16049258 -0.06061905 0.020139614 -0.2844249 -0.24644771 0.2636138 -0.24925739
0.23322268 0.11462636 -0.12169156 0.100372024 -0.04112462 -0.13392052 0.2317647 -0.039692968
-0.18601309 -0.22437328 -0.27068612 -0.042363405 -0.13091175 -0.10739258 -0.21336819 0.28667986
0.034220666 -0.2333408 0.27186692 0.14924471 0.1007961 0.04103743 -0.15666601 0.084674105
-0.010578804 0.09585095 0.27942756 -0.001852089 -0.042126354 0.36792976 -0.050579257 0.16569275

layer_1.bias f4 [400]
00000000: 9ab1 8bbe f1c3 25be 68be 96be 7038 8fbc
00000010: 975a 503d d0d1 963c b424 a03c 674a 0f3e
00000020: ce18 89be bc5c 4c3e e42d 51be d574 02be
00000030: 7b60 7bbe d2ab 38be ef43 97be c462 7e3e
00000040: 23b1 06be 0c73 8cbd 1146 43be 798e 50be
00000050: fd79 2bbd 40c7 1dbc 4048 4abe cec5 203e
00000060: dde8 3cbd 4c97 65be 20dd 7ebe d99b 6abe
00000070: 1042 aebd e27c 66be ed8a 94be db4a 93be
00000080: b86a d2bc a090 da3c 8043 543e 5a6e 8dbe
00000090: 09b4 733e 8761 11bd c727 80be 72db 8a3e
000000a0: 35ff 503e f16b b53d b445 743e 458f 9bbd
000000b0: 0b88 95be 1d85 fdbd 6bea 213e d7ce d7bd
000000c0: 688b 8a3d 882d 06be ab5b 13be 9aa2 813d
000000d0: 7452 fdbd bf5f 013e c701 d23d 75f5 fd3d
000000e0: 6326 66be 7a6a 613c f2a7 d7bd 08d7 3b3d
000000f0: ef9a 9abe 0e1e 5bbe abc7 50be 7c3b 0f3d
00000100: 8dd8 fc3d bc00 733e 5195 1cbb 318e 1bbe
00000110: a847 893d 8b21 863d 255e 5cbe 4ffe 523e
00000120: e844 81be 8f76 123e f0b5 43bd feb1 b7bd
00000130: 6ad4 21be 53fd 39be b9dd 933e fda6 12be
00000140: 804e 8abe 36f5 953d c257 95be a7f6 333e
00000150: 5495 67be 94af 133e cec7 043e 144a 933e
00000160: 1626 b23d df8d a13c 8e78 133e 129b 59be
00000170: f799 05be 0084 313b a327 81be 8b7c 30be
00000180: 17e6 1c3e de30 58be eedf 05bd c975 043e
00000190: 3485 27be f77d 6ebd 3e82 f8bd c394 8b3d
000001a0: 76d2 9cbe c8b7 853e b505 93be 68d2 8dbe
000001b0: c9b1 b9bd e83d 7fbe cb0c 1f3e ab2a 83be
000001c0: 70f7 2bbd 2041 7f3e d023 033e 222f 56bd
000001d0: b657 9bbd 5ec7 423d 5469 de3d a248 8ebe
000001e0: d764 9e3e c1c9 85be 44cf 56be d62d 4cbe
000001f0: 2a6d 403e a42c eabd e7ae 74be eadc 283e
00000200: 60d1 93bc f85d 593e 755f 86bd 76ed 95be
00000210: 2a4e 683e bdd2 e23d 8176 0e3e 2466 9c3d
00000220: 003b dbbc 9f32 40bd 5c97 2fbe d84d 053e
00000230: df0b f8bd 0ac1 523e 4819 943e 00ea 653c
00000240: 29fc 5dbc 107f f6bd 2ec5 72be f1c1 19be
00000250: 6258 c6bc 84ae 823d de30 d1bd 9415 90be
00000260: cd4a 8a3d 1013 693d 3814 c73d ec93 d13d
00000270: 4c3a 883e d9a9 11bc 4e28 eebd c086 cd3b
00000280: 3ab2 4a3e d5d7 563e f483 8cbd 4a84 433e
00000290: e20d 6c3d 04fe 55bd aa3e 8c3d c15f 233e
000002a0: 62fa 8abe 52bc 10be 05a4 5c3e 142a 37be
000002b0: d434 79be 1bdd 65bd 08b9 4f3e 0d0a 91be
000002c0: 9165 1abe 2521 2e3e 0f0f 4e3e c8f4 3b3e
000002d0: 4fd6 533e 7809 a8bd ac58 6bbe e572 be3d
000002e0: 2a49 6b3e 9610 983e e4f2 933d bcc3 223e
000002f0: c0da 29be c9eb 843d cc61 f73d d44c 84be
00000300: 2ef3 103d 23a7 2b3e 08f8 82be d421 9a3e
00000310: 8462 7cbe 4dc4 5bbe 93e0 99be 7c22 3b3e
00000320: 3ebf 89bd 662f 923e 9fc6 243e ae04 ddbd
00000330: 49ba 02bd 65e2 d4bd a275 47bc 4a58 203e
00000340: d976 09be c29e cfbd 3da8 90be da9f cbbd
00000350: 1def 813e 77b6 8f3e 480c 043e 2fd3 bc3c
00000360: 48d8 40be 2a6c 5bbe 6a8d 3b3e fea0 05bd
00000370: c0d8 11be 2079 0b3e 3616 ebbd ff12 993e
00000380: 5664 653e 9fc1 c43c d8d8 2cbb 4395 21be
00000390: ab0f 1b3e 791a 263e a492 9dbe 6ed6 293d
000003a0: 31d0 683e c11d 3c3e 64f0 643e 89b0 733e
000003b0: c890 21be 0a17 9d3d d941 90be 1383 bcbd
000003c0: 1f3e 2abe 9b6c 75bc f864 923e 7295 0cbb
000003d0: 59ae 8bbe c32d 2abe 10a2 3c3e 90aa cb3d
000003e0: 51d8 4cba a1b0 0abe 5430 a0bd f139 34be
000003f0: 553e 823e 1830 8e3e 2c45 913e 5c6c 8c3e
-0.27283937 -0.16188027 -0.29442143 -0.017482966 0.050867643 0.018410593 0.019548751 0.13993226
-0.26776737 0.1995725 -0.20427662 -0.1273988 -0.24548523 -0.18034294 -0.29544017 0.24842364
-0.1315351 -0.06857881 -0.19069697 -0.20366849 -0.041864384 -0.009630024 -0.19754124 0.15700457
-0.046120513 -0.22420996 -0.2488904 -0.22911014 -0.08508694 -0.22508577 -0.29012242 -0.28768048
-0.025685653 0.02668029 0.20728874 -0.27623254 0.23799147 -0.0354934 -0.25030348 0.27120548
0.20409854 0.08858479 0.23854715 -0.07595686 -0.29205355 -0.12378905 0.1581208 -0.105374984
0.06764871 -0.13103306 -0.14390437 0.06329842 -0.12369242 0.1263418 0.10254245 0.12400333
-0.22475581 0.013758296 -0.1053008 0.045859367 -0.3019633 -0.21398184 -0.20388667 0.034968838
0.12345991 0.23730749 -0.002389271 -0.1519096 0.067031205 0.065493666 -0.21520288 0.20604824
-0.25247884 0.14303039 -0.04778093 -0.08969496 -0.15803686 -0.18163042 0.28880098 -0.14321513
-0.27013016 0.07322161 -0.29168516 0.17574559 -0.22615558 0.14422446 0.12966844 0.28767455
0.086986706 0.01972097 0.14401457 -0.21250561 -0.13047014 0.0027086735 -0.25225553 -0.1723501
0.15322147 -0.21112391 -0.03268426 0.12935556 -0.16359407 -0.0582256 -0.12134217 0.068154834
-0.3062932 0.26116776 -0.28715292 -0.2769959 -0.09067113 -0.24925959 0.15532224 -0.2561849
-0.04198402 0.24927187 0.1280663 -0.052291043 -0.07585089 0.047553413 0.108599335 -0.2778979
0.3093631 -0.2613049 -0.20977503 -0.1993936 0.18791643 -0.11434296 -0.23894845 0.16490522
-0.018044174 0.21227252 -0.06561176 -0.2928273 0.22686067 0.110753514 0.13912393 0.07636669
-0.026761532 -0.046923276 -0.17147583 0.13017976 -0.12111639 0.20581451 0.28925538 0.014032841
-0.013548889 -0.12035954 -0.2370803 -0.15015389 -0.024212066 0.063809425 -0.10214399 -0.28141463
0.06752548 0.056902945 0.09720653 0.10233292 0.26606977 -0.0088905925 -0.11628781 0.006272167
0.1979455 0.20980771 -0.068611056 0.19093433 0.057630427 -0.0522442 0.0684789 0.15954496
-0.27144152 -0.14134338 0.21546943 -0.17887145 -0.24336559 -0.056119066 0.20285428 -0.2832798
-0.15077807 0.17004831 0.20122932 0.18355095 0.20687221 -0.08204931 -0.22983044 0.09299258
0.22977129 0.29700154 0.07224062 0.15894979 -0.16587353 0.06490285 0.120792 -0.25839865
0.035388164 0.16762976 -0.25579858 0.30103934 -0.24646956 -0.21461602 -0.3005415 0.18274873
-0.0672593 0.28551787 0.16091393 -0.10791908 -0.031915937 -0.10394744 -0.012174042 0.1565868
-0.13424243 -0.101377025 -0.28253356 -0.09942599 0.2537774 0.28068897 0.1289531 0.023049919
-0.18832505 -0.2142798 0.18315664 -0.032624237 -0.1424284 0.13620424 -0.11478846 0.29897305
0.22401556 0.024018107 -0.0026374366 -0.15779595 0.15142696 0.16221036 -0.3077594 0.04146426
0.22735669 0.18370725 0.22357327 0.23797812 -0.15777886 0.0767041 -0.28175238 -0.09204688
-0.1662526 -0.014979507 0.28592658 -0.002145138 -0.27281454 -0.16619019 0.18421197 0.099446416
-0.0007814216 -0.13543941 -0.07821718 -0.17600228 0.2543818 0.27771068 0.28373086 0.27426422

layer_2.weight f4 [300, 400]
00000000: 82a2 3abd 1078 39bd 8bbd b23c ac69 323c
00000010: f847 63bc 12e5 893c a0bf 4bbd 4c22 d33c
00000020: cce0 b9bc 1494 583c 32b3 e23c fe56 95bc
00000030: cd27 153d e79f bdbc 1d00 58bd f457 70bc
00000040: e42f e4bc e2db 883c 7d50 39bc fd87 09bd
00000050: 9a41 023d 0992 213d 78d1 133c 534c a7bc
00000060: 3360 58bc 8325 2cbd 330a a7bc 4124 313d
00000070: 9d6d 10bd fe85 8d3c 337d 9d3c 3988 e23b
00000080: 2f4b 443c 2491 05bd c48a 19bd 7c76 9abc
00000090: 36bf 053d 9205 cc3b 126a f3bb 34db cb3c
000000a0: fe06 083d 142f 38bd 097c 8f3a fee4 883c
000000b0: 159b 0bbd 3875 0abd d352 dc3b b3c2 16bd
000000c0: 20b4 1fbc 0d3d bebc c2f3 4abd d0c1 bd3b
000000d0: d036 81bc 86d1 04bd 8064 32ba b9ea a7bc
000000e0: e7c4 a93c 41bf 013c 1cae 283b 51be 063d
000000f0: 65b1 6dbc ac82 2dbd 607d 263d 59d7 9b3c
00000100: df69 33bd 4afa 96bc 2d48 febc 2dcc 313d
00000110: fe36 923c 3894 4c3c fc93 3abd f170 e3bc
00000120: 6b24 1e3c e56b f5bc f789 113d 98b2 39bd
00000130: ca73 babc dd19 15bc 81fc babb b33c 273d
00000140: bbdb 42bd 004c c539 7d4b 37bd 7211 353d
00000150: 3214 d13c ba02 46bd 2579 38bd 08ac 72bc
00000160: 11f8 073d c3f0 edbc 3a38 8d3c a6d4 ecbc
00000170: 3a3f a3bc d0cd f33b 727b 113d 7da5 303d
00000180: 0d60 2bbd 3029 bc3c 2e38 ddbc 4fba 04bd
00000190: aadc 18bc 4f9c b63b c3f1 133d 1aa3 353d
000001a0: c6a6 a8bb df26 b4bb 228e bd3c df58 03bd
000001b0: f461 a0bc b0a0 c63b 7edd 38bd 5003 d73c
000001c0: 17b5 9dbc 9c9d 92bc ee35 11bd e080 4c3b
000001d0: fc60 ffbb b81f 0d3c c19b 273d 305e aebc
000001e0: 1a61 843c 6bf7 4fbc fe15 9039 2241 903c
000001f0: c5f2 ea3c d899 b8bc aa9c b73c 7212 f03c
00000200: a061 0abd f695 8bbc fe81 a33c a710 ffbc
00000210: b2b7 b93b 90ab d83c e4a6 ddbc 7d4a 26bd
00000220: a6a1 cc3c aa07 47bd 467f 86bc 4f8d 92bc
00000230: fd7b cbbb d45a 47bc a0ab 98bc 4f23 4cbb
00000240: 1913 84bc eef3 9a3c f229 fa3c e1a5 37bd
00000250: 6995 e4bc 8065 233c 609d adba caab e33c
00000260: 8350 c93c ebd6 023d 9e0d d53c 803c 2fbd
00000270: 98f2 96bb a890 c4bc 3f25 3cbd f8d2 073c
00000280: 2288 20bd f471 18bc d57a 29bc b898 24bc
00000290: f0ac 30bd 2127 063d a0e1 75bc 6328 ccbc
000002a0: 306e 83bb 63ff 743b ee2d d33c 3192 f2bc
000002b0: b6ce c6bc aea5 133d 5d45 ecbc 5098 b7bc
000002c0: 5f45 d63c 8808 f5bc 132e 17bd e8af cf3b
000002d0: 3857 8a3c 5a86 b33c 9200 8e3b b583 213d
000002e0: bd80 9bbc 8d5d 00bc 942e 0d3c e938 393d
000002f0: a736 1cbd 0451 103c 8e81 b1bc e5b1 423d
00000300: 801b 05ba 64be 6c3c 5e2f b33c 80b6 633a
00000310: 548a 78bc 60ad 0cbb aaeb 5c3c d8b7 56bc
00000320: 4df7 cabc f8dc 4ebc 12a4 3b3d 4db9 323d
00000330: 90b9 043d 34b0 48bc 426a 14bc a006 22bd
00000340: 667b 27bc 9afc 5bbd 0140 2d3d 63b2 11bd
00000350: 2033 15bb 67b9 0dbd 42ba 42bd 452d 9ebc
00000360: 2eab bc3b 6f33 dcbc 1d1e e13c ac36 3ebc
00000370: 5a7b 5dbb 2a09 8a3c 3451 1c3d 9b22 1b3c
00000380: b74e 323b c116 8a3c 64e4 bdbc 00a0 ab3a
00000390: fd07 9dbc adb9 f5bc b03e 213b e175 103d
000003a0: 6fae 1e3c 74f3 28bc bf6b 2d3d 8934 543c
000003b0: e631 19bd 9dc8 9c3c d5f9 243d 20d6 503b
000003c0: fdde 94bc 5166 1abd cca6 1f3c a60d 58bd
000003d0: b2af ba3c 8278 94bb fbbf 35bd 7320 fcbc
000003e0: 5dbc 4abd a018 d13a d838 143c d0d8 2e3d
000003f0: 2f5f 363d 26f0 2d3c 00d1 f83b b042 45bc
-0.045565136 -0.045280516 0.021818897 0.010889452 -0.013872139 0.016832862 -0.049743295 0.02577319
-0.0226902 0.013218898 0.027673338 -0.018229958 0.03641491 -0.023147536 -0.052734483 -0.014669407
-0.027854867 0.01670641 -0.011310694 -0.033576954 0.031800844 0.03944591 0.009022109 -0.020422136
-0.013206529 -0.04202796 -0.020390606 0.043247465 -0.035260785 0.017275807 0.019224739 0.0069132117
0.011980816 -0.03260912 -0.037485853 -0.018855326 0.032653056 0.00622625 -0.007428416 0.024884798
0.033209793 -0.044966772 0.0010947 0.016710754 -0.034083445 -0.033803195 0.0067237406 -0.036806773
-0.009747535 -0.02322247 -0.04954887 0.0057909265 -0.015773207 -0.03242638 -0.0006805137 -0.020497667
0.020723773 0.007919134 0.0025738543 0.032896344 -0.014507626 -0.042360947 0.04064691 0.019023584
-0.04380214 -0.018429894 -0.031040275 0.043407608 0.017848488 0.01248651 -0.045551285 -0.027763816
0.009652237 -0.029958675 0.035531964 -0.045336336 -0.02276029 -0.009100405 -0.0057063703 0.04082937
-0.047572833 0.00037631392 -0.044749726 0.04420609 0.025522325 -0.048342444 -0.045037407 -0.014811523
0.03319556 -0.029045468 0.017238725 -0.028909992 -0.01992761 0.0074403062 0.035518117 0.043126572
-0.041839648 0.022968858 -0.027004328 -0.03240424 -0.009329954 0.0055728327 0.036119234 0.044345
-0.005146834 -0.005497798 0.023139063 -0.032067176 -0.019577958 0.006061636 -0.045133106 0.026246697
-0.01925139 -0.01789742 -0.035451822 0.0031204745 -0.007793544 0.008613519 0.040920023 -0.021285146
0.016159583 -0.012693266 0.00027482206 0.017609183 0.028680215 -0.022534296 0.02241357 0.02930567
-0.03378451 -0.01703928 0.019959446 -0.03113587 0.00566765 0.026448995 -0.027057119 -0.04059838
0.024979424 -0.048591293 -0.01641811 -0.017889647 -0.006209849 -0.012167651 -0.018636525 -0.0031148975
-0.016122388 0.018915143 0.03053758 -0.04483593 -0.027903276 0.00997293 -0.0013245754 0.027791876
0.024574524 0.031943243 0.02600747 -0.042782307 -0.004606556 -0.023994759 -0.04593396 0.008290045
-0.039192326 -0.009304512 -0.010344227 -0.010046177 -0.043133676 0.03275216 -0.0150074065 -0.024921602
-0.004010938 0.0037383668 0.025778737 -0.029610725 -0.02426849 0.036046676 -0.028841669 -0.022411495
0.026156126 -0.029911295 -0.036909174 0.0063381083 0.016887292 0.02191465 0.004333564 0.039432246
-0.018982286 -0.007834804 0.008617062 0.04522029 -0.038138058 0.008808378 -0.021668222 0.047532935
-0.0005077645 0.01444969 0.021873172 0.00086865574 -0.015169699 -0.0021465644 0.013483921 -0.013105355
-0.024776125 -0.012625925 0.045810767 0.043633748 0.03240353 -0.012249041 -0.009058537 -0.0395571
-0.010222292 -0.053707696 0.042297367 -0.035570513 -0.0022766069 -0.03460064 -0.04754091 -0.019308696
0.005757711 -0.026879994 0.02748018 -0.0116097145 -0.0033795447 0.016850073 0.03816338 0.0094687
0.0027207562 0.016856553 -0.023180194 0.0013093948 -0.019168848 -0.029995764 0.0024604015 0.035268668
0.009685143 -0.01031195 0.042339083 0.0129519785 -0.037401102 0.019138629 0.04027732 0.003186591
-0.018172735 -0.037695233 0.009744357 -0.05274739 0.022788856 -0.004530967 -0.04437254 -0.030777192
-0.049496043 0.0015952773 0.009046756 0.042687237 0.044524368 0.010616338 0.007593274 -0.012039825

layer_2.bias f4 [300]
00000000: e6cc 4fbd 77bf 5bbd 7c0f edbc 49a0 2f3d
00000010: 9dd1 913b 6995 18bd 07e0 9fbc 6654 68bd
00000020: f2ca 733c 0f9f 47bc 3da5 0a3d 3e2c 943b
00000030: 3acf 41bd 8850 00bd 4066 10bd 7e32 4b3d
00000040: db6e 06bc 4f5d 32bd c0f4 74bc 6221 c3bc
00000050: 32b6 053c 9fd8 2f3d 708d 68bc 2143 403d
00000060: 1545 7e3c b113 633c 101d 7f3d 1aad d2bc
00000070: 6575 c1bc 5bd9 323d e298 a2bc a8f3 e8bc
00000080: 5f57 9cbb 4ada 06bd 02e4 c93c 933b fabc
00000090: 6a5e e73c b087 6e3c a5f1 b3bc e5e3 04bd
000000a0: ec91 1f3d d9d1 eabc 03b2 373d a2f1 a43c
000000b0: de18 c1bb cd53 273d 5ebe 283d 33ef 55bd
000000c0: c0c2 a5bc 7532 f43b 5115 9abc 5e01 73bc
000000d0: 7428 b5bc 2994 debc 5483 eabc 452c 2dbd
000000e0: 4eb5 ac3c c2fe a8bc e483 0d3d 179e a8bc
000000f0: 6eac 0cbd 44e1 1a3c 0ee3 2e3d e0bb 103d
00000100: 3322 e83c 2dc1 ec3a 3325 183c 3a40 0a3d
00000110: 816b 1d3d 15d0 10bd f1ec 3d3b e88a 4abd
00000120: 3af8 32bd 156c f5bc 4942 263c eb55 35bd
00000130: f7fe 203d eb65 51bd 9305 8f3c 98e8 34bc
00000140: 6fa8 96bc 92bd 92bc 7b53 89bc 1beb 3fbd
00000150: ba23 44bd e9e7 473d 8ea1 d83c 3ac6 443d
00000160: 6dff 40bd a122 dfbc 0378 2dbb 8611 be3c
00000170: 93da 253c bf01 2dbd 49aa 0dbc 9c4b 31b9
00000180: 32e4 8e3c fc95 2fbd c97f 98bc bf7e d43c
00000190: 8022 f33c cba3 233d 71eb ba3c 6999 6bbb
000001a0: 76d5 47bd 87bb 58bd ca7a b33c 53d7 63bd
000001b0: 3d3b 123d a0a5 93bc 031d 2c3d 018d 453b
000001c0: 50ef b03b 3f0b 073d 8675 11bd 146b 673c
000001d0: 6ea5 9abc b26f ecbc 7e35 d4bc b754 a7bc
000001e0: c727 0abd 098c b9bc 5b88 21bd 29e6 043d
000001f0: 7a2d e93c 93a6 25bd fc87 51bd 0a36 e9bc
00000200: 4732 173d de13 80bc ebf1 57bc bc90 163d
00000210: 533a 823c c27f 0b3d 5a16 f9bc f678 3cbc
00000220: d0f7 013d ca59 24bd 9a8b e23c 5faf 4cbd
00000230: 98ce 023b 362e efbc 69b4 00bc 8c49 f5bc
00000240: 100b 663c 85a6 993a 69a7 5cbd c9b7 28bd
00000250: 39a2 3a3d d9e5 0d3c e0aa 8ebc ca03 fcbc
00000260: 1949 07bd 5ecc 723c bbcc 4ebd 0bb0 103d
00000270: 04e7 0abd 06dc 31bd 78ee 32bd 68e6 07bd
00000280: ebc9 dabc 0869 4cbd 4555 1e3c cbfc e1bc
00000290: d5d1 2bb9 849c 943c 6de7 f0bc 91d3 2cbd
000002a0: b7ea d9bc dd84 babc af18 153d 4b78 82bc
000002b0: 317e 2ebc 9134 6abd 1c7d dbbc 98e0 a6bc
000002c0: 3210 303d 670a 983c b45e 733b 4a06 db3b
000002d0: 1a6d 3abd 8917 fdbb 8d8f 3c3d d443 f8bc
000002e0: 18bb 4bbd 965b 2bbd 4bab f8bb b407 633c
000002f0: fa4b 293d 556d a0bc ceb5 b03c e211 07bc
00000300: c4c6 1a3d f9ab 0dbc 2f34 c83c 394e 25bd
00000310: 7b4e 2e3d 630d 45bd f1b8 13bc fbf5 88bc
00000320: aef2 3ebb b82a 20bd c549 1d3d 211a df3c
00000330: 818a 5fbd 7536 0c3d 50b4 b6bb cbe2 e4bc
00000340: 1f48 81bc 7090 af3b 8934 4b3d 81f6 b0bc
00000350: 45e3 2cbd f819 183d 3e40 953c 7310 a8bc
00000360: 7a3e f4bc 3c20 143c acf0 fcba 0c0f e0bc
00000370: 9692 0e3d a430 90bc d870 13bd 9278 b23c
00000380: e7d7 40bd f60f 52bd c0b7 3a3c 3f1b 383d
00000390: a6d2 ca3a 4336 84bc 8ca2 0bbd 3ee4 f43c
000003a0: cb51 6bbc a4e7 223c 9a69 053d 79f2 0d3d
000003b0: 6e7c b3bc 0ab7 c23c c52c 5ebc aba1 473d
000003c0: 63cb b73c 76d0 ea3c 6b33 143d c6e9 01bc
000003d0: d229 2e3c 003e db3c 8d9c 24bd e64b 213d
000003e0: e2da c33c b36c 48bd b2e1 793d 051d 43bd
000003f0: 0643 2d3c 4c5c 83bc ac56 c2bb b8cd fe3c
-0.050732516 -0.053649392 -0.028938048 0.04287747 0.0044500367 -0.037251864 -0.019516004 -0.056721114
0.014879929 -0.012183919 0.03384899 0.0045218756 -0.047316767 -0.0313268 -0.035253763 0.0496087
-0.008205141 -0.043546017 -0.014950931 -0.02381963 0.0081611145 0.042931195 -0.014193878 0.04693902
0.0155194 0.013859675 0.062283576 -0.025717307 -0.023615548 0.043664318 -0.01984829 -0.028436497
-0.0047711576 -0.03292302 0.024644855 -0.030545985 0.028243262 0.014558718 -0.021965811 -0.0324439
0.03895752 -0.028664516 0.0448475 0.02013475 -0.005892857 0.040851403 0.041197173 -0.05223007
-0.020234466 0.007452304 -0.018808993 -0.014831869 -0.022114016 -0.027170258 -0.028627075 -0.042278547
0.021082547 -0.02062929 0.03454961 -0.020583196 -0.03434413 0.009453122 0.042697005 0.03533542
0.02833662 0.0018062942 0.009286213 0.033752657 0.0384326 -0.035354692 0.002898034 -0.049448878
-0.04369376 -0.029958764 0.01014764 -0.04427139 0.039305653 -0.051122587 0.017458713 -0.011041783
-0.018390862 -0.01791266 -0.01676344 -0.046855073 -0.047885634 0.04880515 0.026444223 0.048040606
-0.047118593 -0.027238192 -0.0026469238 0.023201715 0.010122913 -0.042237993 -0.008646556 -0.00016908202
0.017442796 -0.042867646 -0.01861562 0.025939343 0.029679537 0.039951127 0.022817345 -0.0035949594
-0.048787557 -0.052913215 0.021909136 -0.05562527 0.035701025 -0.018023312 0.042019855 0.003014386
0.005399622 0.03296971 -0.03551247 0.0141246505 -0.018877711 -0.028861854 -0.025904413 -0.020426137
-0.03372934 -0.022649782 -0.03943668 0.03244606 0.028464068 -0.04044206 -0.051155075 -0.02846815
0.036913183 -0.015634473 -0.013180236 0.036759123 0.015896952 0.034057386 -0.030406166 -0.011503449
0.031730473 -0.040124692 0.027654458 -0.049971934 0.0019959565 -0.02919684 -0.007855513 -0.029942296
0.014040723 0.00117226 -0.053870592 -0.041190896 0.045564864 0.008660757 -0.017415464 -0.030763526
-0.033028696 0.014819233 -0.050488215 0.035324138 -0.03391172 -0.04342272 -0.043684453 -0.033178717
-0.02670761 -0.049904853 0.0096638845 -0.027586361 -0.00016386 0.018141039 -0.029407227 -0.042193953
-0.026601179 -0.022768432 0.036400493 -0.0159265 -0.010650204 -0.057179037 -0.026793055 -0.020370767
0.042984195 0.018559648 0.0037135305 0.0066840993 -0.045514204 -0.007723753 0.04603534 -0.03030578
-0.049738973 -0.04183539 -0.007588779 0.013856817 0.041332223 -0.019583384 0.021571066 -0.00824401
0.037787214 -0.0086469585 0.024438946 -0.040357802 0.042555314 -0.04810847 -0.009016261 -0.016718855
-0.0029136348 -0.03910324 0.03840043 0.027234139 -0.054575447 0.03423162 -0.005575694 -0.027940175
-0.01578146 0.0053577945 0.04961065 -0.021601917 -0.04220893 0.03713414 0.01821911 -0.020515656
-0.029814947 0.009040888 -0.00192978 -0.027350925 0.034807764 -0.017601319 -0.035996288 0.021786008
-0.0470809 -0.051284753 0.0113963485 0.04494786 0.0015474155 -0.016139155 -0.034090564 0.02989399
-0.014362763 0.009942923 0.032571413 0.034655068 -0.021909919 0.02376892 -0.013560479 0.048738163
0.02243585 0.028663855 0.03618185 -0.007929271 0.010630088 0.026762962 -0.04018836 0.039379023
0.023908082 -0.04893179 0.061006255 -0.047635097 0.010575062 -0.016035222 -0.0059307422 0.031103954

layer_3.weight f4 [106, 300]
00000000: 021f 483d b55b 473b d090 a93c 2a75 68bd
00000010: 561e 16bd 4af2 75bc cebc 123d dd1c 643d
00000020: 225f 68bd e37f 833a d9a8 20bd e24a 103d
00000030: 3045 383d 6e4e 28bd efeb 5ebd 1659 32bd
00000040: 0b99 1abd 2885 bc3b 58bd 01bd 8a5b 21bd
00000050: 998c 02bd 78c8 023c e63c 073d b060 1dbc
00000060: 0491 34bd 40a8 f1bb 3d8d 49bd f466 b13c
00000070: 5c27 2fbd a3dc 0dbd 5633 8cbc 6e81 3b3d
00000080: 387b 87bb c00d 4d3c c21b 193d 66bc 83bc
00000090: a339 19bd d480 42bd 0ccc fb3c c8bd 403c
000000a0: 1cb7 64bc f01b 313c 78ca 61bd e0b0 8ebc
000000b0: 541d 833c 78f2 26bd e140 d1bc a0a8 1a3b
000000c0: 229a 0c3d 8026 5bbb e0d6 5f3d 37be 2fbd
000000d0: d621 14bd f871 e1bc b613 303d f8c1 c9bc
000000e0: 2005 a8bc 3f52 503b 3ea3 9f3b 90f0 a23c
000000f0: 125d 403d c6ce 47bd 4099 a43b 82cd 253d
00000100: 9464 3f3d 385a 0d3d 6e29 2d3d ca50 043d
00000110: ece5 4e3d d852 bd3c a6a2 4a3d 8bb2 57bd
00000120: b0a0 fc3c 406f 19ba 146b 353d a867 f93c
00000130: 7c1b 953c 3c71 b4bc 7b59 493d ee7f 25bd
00000140: 589d 753c fa6a bcbc bc82 253d e68e 4bbd
00000150: ccb3 16bb f81b d3bb 1a2b 5c3d 0088 5dba
00000160: c434 bb3c e822 993b 6af8 643d 0ec3 063d
00000170: b984 f8bc 4ef3 30bd 6890 3a3c b005 753c
00000180: bc0e 45bd f23a 233d c447 103d a493 9b3c
00000190: 99fa 5a3d 68a9 6dbc a8ed 293d 0879 723c
000001a0: e29d e5bc e8e7 a33c dbdd e8bc a048 e73b
000001b0: f058 343c 673f 58bd 90ac d0bc e8d6 c6bc
000001c0: 0a02 25bd a05b 95bc d825 0d3c e0a0 82bb
000001d0: c826 283c 4c3f 0c3d 1e80 37bd 74e2 4dbc
000001e0: 6856 01bc a035 7c3c 3813 263c a0f3 913c
000001f0: 8130 debc de6f 0ebd 5c86 2d3d 443d e73c
00000200: 0736 3abd 4c63 33bd 2860 a93c 122e 073d
00000210: 459c 0bbd 6b33 f6bb d462 003d 54e5 863c
00000220: 9886 713d bc9e 7a3d cabf 10bd 5473 143d
00000230: bef0 15bd e6d3 8cbc 00ac d3bc ec69 953c
00000240: c40f c5bb 1ea6 403d dcdd c43c 6425 27bd
00000250: 5a58 1dbd 8e77 4ebd 52ff d6bc 68ad 5e3c
00000260: 9049 fa3b c204 243d e0d7 233c cb71 753c
00000270: 572c 1dbd e817 d53c bc02 ea3c a8bb c03c
00000280: e1ee 373c 9eab 393d 8dce 9fbc 7c11 31bd
00000290: 8418 adbc 34d5 4cbc 681e 7fbc 6a67 4b3d
000002a0: 0883 b53c 3b01 bb3c 806d 803a 4777 b3bc
000002b0: 8089 35ba ca33 42bd 533e 02bd 7640 54bd
000002c0: e814 3c3c ae2d 583d 242f 1ebd 2235 ebbc
000002d0: 480e a13c 4e76 2cbd fcfd 42bd 8e96 9ebb
000002e0: 0c3d 343d cfd9 f8bc c4bf a43c d01c 05bd
000002f0: 02d0 5bbd 322f 4b3d 0870 fdbb f474 4b3d
00000300: 8868 383c 2085 44bb a0b2 ec3b cc47 8cbc
00000310: 807c a43c 69a0 45bd 7c7c 35bd a4be e33c
00000320: 1cee a33c 68b8 04bc 4447 e33c 5ec2 30bd
00000330: 2c0a 373d 386b cabc ccb1 d1bc e2aa 2f3d
00000340: 954d 513c 0053 973a d0bd 7abb 8632 2e3d
00000350: 4fba 953c b8b0 a5bb c4cc 24bc 0aaa f43c
00000360: ccc5 063c 60b2 0c3d 9b9e 403d d649 283c
00000370: be42 a4bc 30dc 1cbd 203c 16bc f2d7 1dbc
00000380: a010 683d ae0c 41bc 20e1 be3c 96b2 073d
00000390: 164a f5bc 6731 3e3c bce7 9c3c e487 5e3d
000003a0: 8fc5 c33c 4eff 053d 9289 433d 2caa 673d
000003b0: 4101 fabc 987d c2bb 9629 023d 7044 b93b
000003c0: 5e5f 5dbb 904c f0bb 2441 a0bc 5079 14bd
000003d0: f0d4 08bc ee3f 42bc 02d7 67bd 52c3 ccbc
000003e0: 78e2 4b3c 0aec 49bd b7f4 223d 50ee 3ebd
000003f0: d2c1 cd3c e417 56bc 6522 a13b 59b8 d9bc
0.048857696 0.0030419652 0.020698935 -0.05675236 -0.036650024 -0.0150113795 0.03582459 0.05569159
-0.05673135 0.001003262 -0.039223526 0.035227664 0.044987857 -0.04109042 -0.054424223 -0.04354199
-0.03774361 0.005753178 -0.031674713 -0.03939394 -0.031872366 0.007982366 0.03301706 -0.009605572
-0.04408361 -0.0073747933 -0.04920696 0.021655537 -0.042762145 -0.034634244 -0.017114323 0.04577773
-0.004134562 0.012515485 0.037379988 -0.016081046 -0.037408482 -0.04748614 0.030736946 0.011763997
-0.013959672 0.0108098835 -0.05512473 -0.017418325 0.016005196 -0.04075858 -0.025543632 0.0023599043
0.03432668 -0.0033439696 0.05464828 -0.042906012 -0.03616508 -0.027520165 0.042987548 -0.024628624
-0.020510256 0.0031787304 0.004871755 0.0198901 0.04696376 -0.04878118 0.0050231516 0.04047919
0.04672678 0.034509867 0.04227584 0.03230361 0.05051224 0.023110792 0.04947152 -0.052660506
0.03083834 -0.00058530644 0.04429157 0.030444935 0.018201582 -0.02202665 0.0491576 -0.040405206
0.014991127 -0.02300023 0.04040788 -0.049696825 -0.002299535 -0.006442543 0.053752042 -0.00084507465
0.022852309 0.0046733506 0.05590097 0.032900862 -0.030336725 -0.043200783 0.011386968 0.014954969
-0.048109755 0.039851137 0.03522469 0.018991299 0.053461645 -0.014505722 0.041486412 0.014799364
-0.028029386 0.020008042 -0.028426101 0.007058218 0.0110075325 -0.05279484 -0.02547291 -0.024272397
-0.040285148 -0.018232167 0.00861498 -0.003986463 0.010263152 0.034240052 -0.044799916 -0.012566198
-0.007894136 0.015393645 0.010136418 0.017816365 -0.027122738 -0.034774654 0.042364463 0.028227456
-0.04546168 -0.04379587 0.020675734 0.03300292 -0.034084577 -0.0075134537 0.03134425 0.016466774
0.05896625 0.061186537 -0.035339154 0.036242798 -0.036606543 -0.017190885 -0.025838852 0.018238984
-0.0060138423 0.04703342 0.024031572 -0.040807143 -0.038414337 -0.050406985 -0.026244793 0.013591148
0.007638164 0.0400436 0.010000199 0.014980744 -0.038372364 0.026012376 0.028565757 0.023526981
0.011226387 0.045329683 -0.01950767 -0.043229565 -0.021129854 -0.012502003 -0.015571214 0.04965917
0.022157207 0.022827735 0.0009798259 -0.021907462 -0.0006925091 -0.04741267 -0.03179772 -0.051819287
0.011479594 0.05277794 -0.038619176 -0.02871186 0.01966013 -0.04210501 -0.0476055 -0.004839725
0.04400353 -0.030377297 0.020110972 -0.03249818 -0.05366517 0.049605556 -0.0077343024 0.049672082
0.011255391 -0.0029986575 0.007223442 -0.01712408 0.020078897 -0.048248682 -0.04430817 0.027800865
0.020011 -0.0081006065 0.027743943 -0.043154113 0.044687435 -0.024709329 -0.025597475 0.042887576
0.012774845 0.0011545122 -0.003826011 0.04252865 0.018277315 -0.005056467 -0.010058586 0.029866237
0.008225869 0.0343498 0.047026258 0.01027151 -0.020051356 -0.038295925 -0.009169608 -0.009634005
0.05665648 -0.011782808 0.023300707 0.033129297 -0.029942553 0.011608458 0.019153468 0.054328814
0.023897914 0.03271418 0.04773862 0.056558773 -0.030518176 -0.005935382 0.03177794 0.0056539103
-0.0033778767 -0.0073333457 -0.019562311 -0.036248505 -0.0083515495 -0.011856062 -0.05660153 -0.02499548
0.012444131 -0.04929737 0.03978416 -0.04661399 0.025116835 -0.013067219 0.00491743 -0.026577162

layer_3.bias f4 [106]
00000000: 90f0 703d 464c 503d b808 4fbd 4fde a83c
00000010: 0a1a 2e3c dee7 8abc ee48 02bd c370 cdbb
00000020: 6aef 47bc 2998 ec3c ca28 be3c 3185 5abd
00000030: 05d7 d5bc 6b11 5cbd 5b3f a03c 1474 e43b
00000040: 343b 833d e851 4cbd a056 54bd 52a7 203d
00000050: f684 b53b f95e 0d3d 1b19 5fbd ee1e 533d
00000060: b891 173b a17b 9bbc 11d4 4dbc 8d3d 2f3d
00000070: 5fda 17bd 7e21 08bd a751 28bd 8a5e 423c
00000080: 1b4e a23c a5e1 483c 7d7c 68bd 2cd5 45bd
00000090: 1566 54bd 9455 f53c ee9b 11bd 45b5 1f3d
000000a0: cd05 02bd cb4e 1b3d 516e 83bc b5d8 853c
000000b0: 40f2 fe3c 3793 6ebd 6a67 dabc b945 f23b
000000c0: f440 6a3d 96d7 043d f2e8 07bd 6585 c73c
000000d0: 7527 81bd 4640 263d b4aa 9fbc aaa4 a6bc
000000e0: ae3d 4f3d 31ba 303d 55dd 203c 8e85 643d
000000f0: 0ceb 4fbd d5c6 0fbd 2b0f 0c3c 9f16 5dbd
00000100: e69c 3bbd 7d07 3fbd b235 15bd 29a1 09bd
00000110: 282e 6a3d 4f9b efbb f6f7 e4bb 1c05 3dbd
00000120: 8125 443d c69f 1cbd dc44 6b3d 4373 2dbd
00000130: 7a02 52bd c8b8 2fbd 295c afbc 7378 053d
00000140: 89b1 3dbc 501a 8fbc c433 5e3d f7ca 2fba
00000150: ac48 f4bc 98ae 7c3d 317e b5bc 937a 57bd
00000160: a784 76bc 90e0 23bd d0e7 ea3b 6e15 86bb
00000170: a4fe da3b 9411 f63c b9d0 503d 7cd9 0bbd
00000180: 9e21 02bd c532 4fbd 895c 423c 19ba 1b3d
00000190: 701a bd3c cf92 1b3c d4bb 1a3d 6744 06bd
000001a0: a542 d4bc d44a 7a3c
0.05882317 0.05085399 -0.050545424 0.020613817 0.010626325 -0.016956266 -0.031807832 -0.0062695458
-0.012203077 0.02888115 0.02321281 -0.053349677 -0.026103506 -0.05372755 0.01956146 0.0069718454
0.064077765 -0.0498828 -0.051840425 0.03922207 0.005539532 0.0345144 -0.0544673 0.05154317
0.0023127627 -0.01897985 -0.012562768 0.04278331 -0.03707349 -0.033235066 -0.041093495 0.01186336
0.019812634 0.012260829 -0.056759346 -0.048299 -0.051855166 0.029948033 -0.035549097 0.03899123
-0.031743813 0.03791694 -0.016043814 0.016338686 0.031121373 -0.058245864 -0.02666064 0.0073935655
0.05719085 0.03243216 -0.03318114 0.0243556 -0.06306354 0.04058864 -0.019490577 -0.02034219
0.05059593 0.043146316 0.009818395 0.05579143 -0.050761268 -0.03510173 0.008548538 -0.05397665
-0.045803927 -0.046638 -0.03642816 -0.03360096 0.057172924 -0.0073122154 -0.006987567 -0.04614745
0.04788733 -0.03823831 0.057438716 -0.04234625 -0.051271893 -0.04290083 -0.02140625 0.032585572
-0.011577972 -0.017468601 0.054248586 -0.00067059643 -0.029819809 0.061689943 -0.0221549 -0.05260713
-0.015046275 -0.04000908 0.0071687475 -0.00409191 0.0066831876 0.030037679 0.050980303 -0.034142956
-0.03177034 -0.050585527 0.011862882 0.038019273 0.023083895 0.009495451 0.037776783 -0.032780077
-0.025910685 0.0152766295
