models/ddpg_model_episode_200_actor.pth (torch, 631313 bytes, 6 tensors)

layer_1.weight f4 [400, 11]
00000000: 4c40 b73d 7251 50be b05e 9fbd 5434 87be
00000010: cea6 233e e4e5 5c3e bf28 8cbe f601 37be
00000020: c8dd 97bd 7cfc 8a3d ccff 54be b7ac 34be
00000030: 4f85 a93d 5e45 eebd e2d3 243e dc07 62be
00000040: ed54 3d3e 46f4 343e 980a 083d 3a08 003e
00000050: f06a 5d3e ac3d 07be 47a3 963e 6737 5f3e
00000060: ce2a 85bd 4c95 c53b 1f9b 48bd be52 1a3e
00000070: b0b4 823d 4922 cf3c 2ce2 8e3e 6d98 80be
00000080: 74fa e0bd 310a 71be f1a1 7dbe 7cca c0bd
00000090: d858 813e 8f0a 8fbe c0f3 a83c e8c9 eb3d
000000a0: cef0 443e 54b4 0cbe 1a21 8cbd 408e 19bd
000000b0: 989a 4d3e dc4e 56be 5b2e 20be f7df ea3d
000000c0: 9840 c1bd 969f d338 5d70 30bd 265c 833d
000000d0: b1e3 02be df39 d5bc 79a4 813e acd0 5cbd
000000e0: fc43 2dbe 3dfa 70be a2c0 7ebe a011 29bc
000000f0: 9a9a e4bd c88a 533d 1ed2 8dbe a4d5 343e
00000100: 50dd 883e fdfd 87be fa81 6f3d 9c7c e1bc
00000110: 545c 1cba 87bf 1d3e 5b35 dbbc 1a90 cf3d
00000120: 67c4 51be 011c 95be 8666 6f3e af6a 99bd
00000130: 01fc b83d 7188 04be f7be 003e ecca 13be
00000140: 2ca4 b73d d671 81bd 343d 083c c65e 1b3d
00000150: 8827 18be eb27 09be 101c 5ebe b2d4 2bbe
00000160: 6390 af3d def9 60be 6fc0 91be 83c7 59be
00000170: a24d 393e 61f8 523d cdca 713c d324 733e
00000180: 1467 7cbe acef 523e 1237 e9bd 7c9f b6bd
00000190: f092 92bc 78b6 e13d f1cb 63be 69de 8bbe
000001a0: b73d 2bbe 005e c4bc 04f4 743e 9d12 7ebe
000001b0: 5540 88be c8ed 87bd fc96 4f3e a59e 15bc
000001c0: 97d9 453e 94e4 32be de9f b5bd cc19 0dbe
000001d0: 62f3 97be 0c2b 8b3e 8bdd 823e 002e cc3d
000001e0: 67fb e03d 4460 30be c299 fd3d 0a9a f0bd
000001f0: 54a8 7d3d ccf2 64be a9bb 843e 9605 843e
00000200: 02db 3a3d ec55 843d f83e 233d 4ce2 54be
00000210: 5b36 59be fbbe 50be bc51 f0bd 59dd 78be
00000220: 1262 613e 730f 05be 75be 6c3d a4f5 70be
00000230: 2075 693c d0d0 4c3d 14bc 73bd df32 b3bd
00000240: d387 263e 5830 443d 920b 82be 9747 5dbe
00000250: 3e4c 9bbd 8352 c2bc 2fca d5bd 0b7a ac3d
00000260: 9e7a 26bd 07e8 063e 9ec9 863e 28d5 603e
00000270: dff1 3dbd 5677 f2bd 6cd1 293e 01cd af3d
00000280: 2603 4cbe bae1 2a3e 6286 ce3d b339 7e3d
00000290: ba7d 213e ecf4 183e 90ff 3fbe 86bc 94be
000002a0: d438 ff3d b876 81be 3485 b13d 7afd 1e3e
000002b0: 0eda 7ebe 3692 3a3e f6da 35be ee09 5ebe
000002c0: 2fe1 37be c46c f43d 6f16 66be 7951 8c3e
000002d0: 49ad 3abe bdfe 8c3e f140 6dbc d64e 4abe
000002e0: d8cd c03d 20ae 1d3d c046 42bd 046c c83c
000002f0: c693 0bbd b6f6 63be c9ea 92be e147 3a3d
00000300: 640e 57be 40e1 01be 67d7 ca3d aedb 893e
00000310: 78c6 80bd 0619 d13d cd6e 11be cfc7 8c3e
00000320: bddc 0e3e 0ce6 3abe 25f8 12be 5ea3 013e
00000330: cd01 c53d 1aa7 9cbc 4348 163d 4c60 95be
00000340: 5541 c4bd c0c5 a5bd cc06 073d 38b7 773e
00000350: dd86 52be c14b c53d 452c 7abe 8827 5ebe
00000360: 5a07 8cbe da24 12be 09e0 30bd 3e90 e43c
00000370: 6787 78be a531 74be 67b7 8e3e 6646 82be
00000380: ac5b 783e cad3 fd3d 9d26 e6bd f4a1 e03d
00000390: 2c9b 22bd 59fe 07be 7919 663e 1895 22bd
000003a0: 377a 3ebe 1cc2 65be 5f97 8abe 4085 2dbd
000003b0: bb0d 06be a4f0 dbbd 317d 5abe b4c7 923e
000003c0: f82a 0c3d e4f0 6ebe ec21 283e 27a1 153e
000003d0: d4b0 7c3d 2a44 593d 2278 1cbe cb53 b53d
000003e0: 2b02 dcbb 9437 cc3d d51b 893e 28c9 56bc
000003f0: a141 6fbd 96df 8d3e ca4f 1cbd ab7f 073e
0.089478105 -0.20343569 -0.07781732 -0.2640711 0.159816 0.21572071 -0.27374837 -0.17871842
-0.07415348 0.06786439 -0.20800704 -0.1764401 0.0827738 -0.116343245 0.16096452 -0.2207331
0.18489428 0.17671308 0.033213228 0.12503138 0.21622825 -0.1320712 0.29421446 0.21798478
-0.06502305 0.0060297605 -0.04897606 0.15070626 0.0638212 0.025284903 0.2790693 -0.25116292
-0.1098527 -0.23539044 -0.24768807 -0.09413621 0.25263095 -0.27937743 0.020624042 0.1151312
0.19232485 -0.13740665 -0.06842251 -0.037489176 0.20078504 -0.2092852 -0.15642683 0.11468499
-0.094361484 0.00010090989 -0.043075908 0.0641406 -0.1278217 -0.026028572 0.25320795 -0.053909943
-0.16920465 -0.23532958 -0.24878171 -0.0103191435 -0.111623004 0.051646024 -0.2769937 0.17659622
0.26731348 -0.26560965 0.058473565 -0.027525239 -0.00059646857 0.15405093 -0.02675884 0.10134907
-0.20485078 -0.29122928 0.23378953 -0.074910514 0.09032441 -0.12942673 0.12572847 -0.14432877
0.0896686 -0.063205406 0.008315373 0.03793218 -0.1485883 -0.13394134 -0.21690392 -0.16780356
0.085724615 -0.21970317 -0.28467128 -0.21267514 0.18096021 0.051506404 0.014757824 0.23744516
-0.24648696 0.2059924 -0.11387457 -0.08917138 -0.01789233 0.11021131 -0.22245766 -0.27318123
-0.16722761 -0.023970604 0.2392121 -0.24811788 -0.2661158 -0.0663715 0.2027244 -0.009132062
0.19321285 -0.17470008 -0.08868383 -0.13779372 -0.29677874 0.2718128 0.2555965 0.09969711
0.10985451 -0.17224222 0.123828426 -0.117481306 0.06192811 -0.22358245 0.25924423 0.25785512
0.04561902 0.06461701 0.039854974 -0.2078945 -0.21212141 -0.20385353 -0.117343396 -0.24303187
0.22010067 -0.12994175 0.05779882 -0.23531204 0.014249116 0.050003827 -0.059505537 -0.08749937
0.1626275 0.047897667 -0.25399452 -0.2160934 -0.075829014 -0.023720985 -0.10438954 0.08421715
-0.04064428 0.13174449 0.26325697 0.21956313 -0.046373244 -0.11839168 0.16583794 0.08584023
-0.19923076 0.1668767 0.10084225 0.062066745 0.15770617 0.1493718 -0.18749833 -0.29050082
0.12462011 -0.25285888 0.086679846 0.15526381 -0.24887869 0.18219838 -0.17759308 -0.21683475
-0.17956994 0.11934808 -0.22469495 0.2740591 -0.18230166 0.275381 -0.014480815 -0.19756636
0.094142616 0.038496137 -0.047430754 0.024465568 -0.034076475 -0.22262082 -0.28694752 0.045478705
-0.21001583 -0.12683582 0.09904366 0.26925415 -0.06287855 0.10209851 -0.14202423 0.27496192
0.13951392 -0.18251818 -0.14352472 0.12659976 0.09619484 -0.019122649 0.036690008 -0.2917503
-0.095827736 -0.080943584 0.032965466 0.24190986 -0.20559259 0.096335895 -0.2443095 -0.21694767
-0.2734936 -0.1427187 -0.043182407 0.027900811 -0.24270402 -0.23847063 0.278743 -0.25444335
0.2425372 0.12393911 -0.11237834 0.1096839 -0.039698765 -0.1328062 0.22470655 -0.039692968
-0.18601309 -0.22437328 -0.27068612 -0.042363405 -0.13091175 -0.10739258 -0.21336819 0.28667986
0.034220666 -0.2333408 0.1641919 0.14612256 0.061692074 0.053043522 -0.15280202 0.08853873
-0.0067141256 0.09971538 0.26779047 -0.013109483 -0.058412198 0.27709645 -0.03816203 0.13232295

layer_1.bias f4 [400]
00000000: 9ab1 8bbe a987 18be d1a2 92be 7038 8fbc
00000010: 575f 7e3d d0d1 963c 8de1 203d 863a 0f3e
00000020: 546f 76be bc5c 4c3e ca1d 4fbe b516 1bbe
00000030: 39fd 88be 0952 2fbe 1230 85be c462 7e3e
00000040: 1c4e 0fbe 4e0f b7bd 63dc 36be 3a9b 38be
00000050: 6c90 06bd 40c7 1dbc 1c57 46be cac3 373e
00000060: b575 46bd 63a3 55be 20dd 7ebe e4f5 4fbe
00000070: f77c 72bd e27c 66be 2dda 7fbe c93b 8cbe
00000080: 9628 00bc 3189 443d a824 683e 8e62 8ebe
00000090: 9886 823e ff46 8bbc fc9a 82be e179 933e
000000a0: d593 673e ca35 e43d 7003 6d3e 701f 68bd
000000b0: 7de7 89be 5c7e f0bd d45d 083e d7ce d7bd
000000c0: 688b 8a3d 882d 06be dc4f 03be 56ba 9a3d
000000d0: 7452 fdbd 662d 003e bb7e e53d 7a34 083e
000000e0: 4eb6 60be 7355 f73c 4ea5 9bbd 08d7 3b3d
000000f0: f2dd 8bbe e686 57be c187 49be ec1f 0f3d
00000100: 599c fc3d 9899 743e 52d9 f2b9 28b7 1fbe
00000110: a847 893d 5266 723d 148f 49be 91ce 563e
00000120: 9114 65be 4d0c 1e3e f0b5 43bd feb1 b7bd
00000130: 1f9f 38be d9f0 37be 5bf5 943e 1fcd 0ebe
00000140: 4dc3 7ebe 3733 863d 3f6a 8bbe 2215 3c3e
00000150: f597 61be 0891 223e cec7 043e 144a 933e
00000160: 7f8e c83d 1a67 553b 8380 0a3e 7a29 3abe
00000170: 3256 00be 0084 313b a919 81be 8b7c 30be
00000180: 3e54 293e 5ef2 42be e53c 17bd 7920 143e
00000190: 3485 27be dbdf 69bd 601c f1bd 8e56 ad3d
000001a0: 00a4 97be f808 8f3e 735d 95be 126f 88be
000001b0: d0ce babd 878d 83be 94fe 283e e818 8bbe
000001c0: 70f7 2bbd b03d 7f3e 31ad 103e 887e 7abd
000001d0: 6fbc 93bd b479 8b3d 5469 de3d 6603 8abe
000001e0: b2f0 913e b704 8cbe c297 44be ed19 59be
000001f0: 26ab 483e d851 d1bd 2bf4 61be f31b 2a3e
00000200: 1209 0ebb f85d 593e fbce 5abd 76ed 95be
00000210: 996a 773e 769c 033e ad43 123e 2466 9c3d
00000220: 003b dbbc a785 21bc 8e3c 26be 8116 203e
00000230: cfb7 ffbd 87e9 613e 9f07 8e3e 8569 793a
00000240: 9a27 79ba 107f f6bd f529 6cbe 5580 15be
00000250: 40ed e7bc 84ae 823d 71ab d6bd 304f 88be
00000260: 5c2a c33d 1013 693d 3814 c73d 309c f23d
00000270: 4c3a 883e 51dc 26bc 4e28 eebd c086 cd3b
00000280: ca87 573e 7356 5c3e dae3 a0bd 4a84 433e
00000290: fb06 813d 04fe 55bd f40b a23d d43d 1e3e
000002a0: 62fa 8abe 6581 04be d39e 673e a57e 19be
000002b0: 35d3 56be 5c4b 41bd 08b9 4f3e d458 96be
000002c0: e8dd 0cbe 12b1 353e d8bc 503e 4d19 233e
000002d0: 7ec2 643e 7809 a8bd 5031 6ebe c337 d03d
000002e0: 0b89 633e 8635 8e3e e4f2 933d bcc3 223e
000002f0: 7b66 38be 06dc 1f3d 4cd8 0d3e d44c 84be
00000300: 2022 2e3c 94e9 543e 3d41 8bbe d421 9a3e
00000310: f04e 80be 5093 5abe b5ee 83be 7c22 3b3e
00000320: 3ebf 89bd 662f 923e 0393 2f3e 83e7 a2bd
00000330: 5cd5 d3bb 4056 babd 6b37 8b3c e1b8 3b3e
00000340: 0c5b e3bd 9823 f1bd 3169 8abe 7bf6 b4bd
00000350: f9b2 913e 65a7 923e 480c 043e ffa9 0e3c
00000360: aa8a 35be 2f8e 4fbe 245b 443e 92a1 12bd
00000370: 14c9 12be 03ce 1a3e ae1d aabd a591 9a3e
00000380: 1f4b 6f3e 9ff6 253d 35a2 84bc 9625 15be
00000390: f815 1b3e 901f 2f3e 5442 98be f66c 0a3d
000003a0: 475b 673e 2de1 3d3e 64f0 643e 9165 713e
000003b0: c890 21be 82bb 0c3e 0bf5 98be edf9 c9bd
000003c0: fbff 59be fcb9 953b f864 923e 0709 453c
000003d0: 8a62 83be 36d8 3cbe 4e25 373e 90aa cb3d
000003e0: 6f30 dfbb a1b0 0abe 2cc0 58bd 6221 2ebe
000003f0: d716 803e a70d 903e 2c45 913e 0d73 943e
-0.27283937 -0.148955 -0.28639844 -0.017482966 0.062102642 0.018410593 0.039277602 0.13987169
-0.24065906 0.1995725 -0.20226207 -0.15145381 -0.26755694 -0.17121138 -0.26013237 0.24842364
-0.1399464 -0.08938466 -0.17857508 -0.18027964 -0.032852575 -0.009630024 -0.19369167 0.17945781
-0.048452098 -0.20863108 -0.2488904 -0.20308644 -0.059201207 -0.22508577 -0.24985571 -0.27389362
-0.007822176 0.0479824 0.22670233 -0.27809566 0.25493312 -0.017001627 -0.2550887 0.28803924
0.22614987 0.11143072 0.23145843 -0.056670606 -0.26934424 -0.11742851 0.13317043 -0.105374984
0.06764871 -0.13103306 -0.12823433 0.07555072 -0.12369242 0.12517318 0.112058125 0.13301268
-0.21944544 0.030192113 -0.07599889 0.045859367 -0.27317768 -0.21047553 -0.19680692 0.034942552
0.123345084 0.23886716 -0.00046319753 -0.15597212 0.067031205 0.05917961 -0.19683486 0.20977236
-0.22371127 0.1543438 -0.04778093 -0.08969496 -0.1802945 -0.1796297 0.2909344 -0.13945435
-0.24879189 0.06552737 -0.27229497 0.18367437 -0.22030623 0.15875638 0.12966844 0.28767455
0.09792804 0.0032562674 0.13525586 -0.18179885 -0.12532881 0.0027086735 -0.2521489 -0.1723501
0.16536042 -0.19037768 -0.036923308 0.14465512 -0.16359407 -0.05709825 -0.1177299 0.084637746
-0.2961731 0.2793653 -0.2917286 -0.2664724 -0.091214776 -0.25693914 0.16503364 -0.2716744
-0.04198402 0.24925876 0.14128567 -0.061155826 -0.07213675 0.068103224 0.108599335 -0.26955718
0.28503948 -0.27347347 -0.19198516 -0.21201296 0.19596538 -0.102206886 -0.22065799 0.16612224
-0.0021672887 0.21227252 -0.05342005 -0.2928273 0.24161758 0.12852654 0.14283629 0.07636669
-0.026761532 -0.009858525 -0.16234037 0.15633585 -0.124862306 0.2206174 0.2774019 0.000951432
-0.0009504497 -0.12035954 -0.2306288 -0.14599736 -0.028311372 0.063809425 -0.104819186 -0.26622915
0.09529564 0.056902945 0.09720653 0.11846197 0.26606977 -0.010184363 -0.11628781 0.006272167
0.21047893 0.21517353 -0.07855959 0.19093433 0.063001595 -0.0522442 0.07912436 0.15453273
-0.27144152 -0.12939985 0.2261918 -0.14989717 -0.20979007 -0.04719101 0.20285428 -0.29364645
-0.13756526 0.17743328 0.20384538 0.1592762 0.22339818 -0.08204931 -0.23260999 0.10166886
0.22220246 0.2777521 0.07224062 0.15894979 -0.18007843 0.03902819 0.13852042 -0.25839865
0.010628253 0.20792228 -0.2719821 0.30103934 -0.25060225 -0.21345258 -0.25768057 0.18274873
-0.0672593 0.28551787 0.17145924 -0.079543136 -0.0064646434 -0.09098482 0.016994199 0.18332244
-0.1110135 -0.11774367 -0.2703338 -0.08836075 0.28456858 0.28643337 0.1289531 0.008707522
-0.17728677 -0.20269082 0.19175392 -0.035798617 -0.14334518 0.1511765 -0.08306442 0.30189243
0.233685 0.0405184 -0.016190628 -0.14565119 0.15145099 0.17101884 -0.29738104 0.03379532
0.22593413 0.18542929 0.22357327 0.23573901 -0.15777886 0.13743404 -0.29874453 -0.09862123
-0.21289055 0.00456929 0.28592658 0.012026078 -0.25661117 -0.18441853 0.17885324 0.099446416
-0.0068111937 -0.13543941 -0.052917644 -0.17004922 0.25017425 0.28135416 0.28373086 0.28994027

layer_2.weight f4 [300, 400]
00000000: 82a2 3abd 387e 2cbd 78b8 cc3c ac69 323c
00000010: f847 63bc 12e5 893c a0bf 4bbd fe6d ec3c
00000020: e7e2 9fbc 1494 583c 32b3 e23c 0fb2 76bc
00000030: 0d20 223d e79f bdbc 8d06 4bbd f457 70bc
00000040: dd7c cabc e2db 883c 7d50 39bc fd87 09bd
00000050: cb3a 0f3d 0992 213d 78d1 133c 6456 8dbc
00000060: 5b66 24bc b835 1fbd 330a a7bc 4124 313d
00000070: 9d6d 10bd fe85 8d3c 5a7a b73c d846 253c
00000080: e34e 783c 2e21 f1bc 718a 0cbd 2c79 80bc
00000090: 4ac0 123d 9205 cc3b 3a25 8cbb d2c8 e53c
000000a0: af05 153d 2934 2bbd 58ad 8b3b 28df a23c
000000b0: 159b 0bbd 65fd fabc 20be 213c b3c2 16bd
000000c0: 20b4 1fbc 0d3d bebc f0f5 3dbd d0c1 bd3b
000000d0: d036 81bc f9af efbc 8064 32ba 09ea 8dbc
000000e0: b5b2 c33c 08be 353c bd1e bc3b 51be 063d
000000f0: 8bc6 39bc 93d7 20bd a67a 333d b0d3 b53c
00000100: de7e 26bd 4afa 96bc 9548 e4bc 7dcc 3e3d
00000110: fe36 923c 894b 803c 5895 2dbd 197f c9bc
00000120: 55fd 513c a07a dbbc f789 113d 98b2 39bd
00000130: 1c74 a0bc 6e37 c2bb 06ec 25bb b33c 273d
00000140: 4edb 35bd 004c c539 7d4b 37bd 9e0f 423d
00000150: 6f12 eb3c ba02 46bd 2579 38bd 08ac 72bc
00000160: 11f8 073d c3f0 edbc 8d2d a73c 9bdc d2bc
00000170: 3a3f a3bc d0cd f33b a575 1e3d 7da5 303d
00000180: 4d65 1ebd 660d d63c 0336 c3bc 7485 efbc
00000190: aadc 18bc 5079 0e3c c3f1 133d afa3 423d
000001a0: 3f9b 01bb 8c99 18bb 228e bd3c df58 03bd
000001b0: 7563 86bc b0a0 c63b 01dd 2bbd 0ffc f03c
000001c0: 17b5 9dbc 9c9d 92bc ee35 11bd e080 4c3b
000001d0: b062 97bb 2111 413c c19b 273d 305e aebc
000001e0: da5f 9e3c 9439 1cbc d5fd 613b 2241 903c
000001f0: 0177 023d d899 b8bc aa9c b73c 7212 f03c
00000200: a061 0abd f695 8bbc fe81 a33c a710 ffbc
00000210: d284 103c a1ad f23c dcb8 c3bc 7d4a 26bd
00000220: a6a1 cc3c f206 3abd 467f 86bc c82f 71bc
00000230: fd7b cbbb d45a 47bc a0ab 98bc 4f23 4cbb
00000240: 1913 84bc eef3 9a3c f229 fa3c e3a5 2abd
00000250: 1796 cabc 8065 233c 609d adba caab e33c
00000260: d032 e33c ebd6 023d 9e0d d53c 803c 2fbd
00000270: 98f2 96bb 2b90 aabc 3f25 3cbd f8d2 073c
00000280: 2288 20bd f471 18bc 66f0 eabb b898 24bc
00000290: 6bbd 23bd 2127 063d 85fe 41bc 6328 ccbc
000002a0: 306e 83bb 2f85 e23b ee2d d33c 4dbb dcbc
000002b0: a2d7 acbc 0fa6 203d 5d45 ecbc a99a 9dbc
000002c0: b745 f03c fd1f dbbc 712d 0abd e8af cf3b
000002d0: 732b a43c 5a86 b33c 10c3 f43b af5f 2e3d
000002e0: bd80 9bbc 70b2 98bb 942e 0d3c e938 393d
000002f0: 393b 0fbd 2016 443c de88 97bc e5b1 423d
00000300: 801b 05ba 64be 6c3c 5e2f b33c 80b6 633a
00000310: 548a 78bc 60ad 0cbb 5878 883c d8b7 56bc
00000320: 4df7 cabc f8dc 4ebc 9da4 483d 4db9 323d
00000330: bfb9 113d 34b0 48bc 426a 14bc 4c1f 15bd
00000340: 4906 e7bb 77ff 4ebd 0140 2d3d 63b2 11bd
00000350: 2033 15bb 31b9 00bd 42ba 42bd fc3b 84bc
00000360: 0540 123c 3d32 c2bc 8120 fb3c ac36 3ebc
00000370: 0ca3 58b9 2a09 8a3c 7550 293d 64ff 4e3c
00000380: 95d3 bf3b f614 a43c 2df2 a3bc 00a0 ab3a
00000390: fd07 9dbc adb9 f5bc b03e 213b e175 103d
000003a0: d473 523c 74f3 28bc bf6b 2d3d 5f04 843c
000003b0: e631 19bd dec3 b63c d5f9 243d 20d6 503b
000003c0: e8dc 75bc c635 0ebd cca6 1f3c b917 4bbd
000003d0: b2af ba3c 0ec2 b1ba fbbf 35bd 7320 fcbc
000003e0: 64be 3dbd a018 d13a d838 143c 29cf 3b3d
000003f0: 4d5c 433d f0f0 613c 00d1 f83b d8ad 11bc
-0.045565136 -0.04211256 0.024990305 0.010889452 -0.013872139 0.016832862 -0.049743295 0.028861042
-0.019517375 0.013218898 0.027673338 -0.015057101 0.039581347 -0.023147536 -0.049566794 -0.014669407
-0.024717743 0.01670641 -0.011310694 -0.033576954 0.03496818 0.03944591 0.009022109 -0.017253108
-0.010034169 -0.03886959 -0.020390606 0.043247465 -0.035260785 0.017275807 0.022397209 0.010087691
0.015155527 -0.029434767 -0.034311716 -0.01568278 0.035827912 0.00622625 -0.0042768987 0.02804986
0.036382373 -0.04179779 0.0042626075 0.0198818 -0.034083445 -0.030638406 0.0098719895 -0.036806773
-0.009747535 -0.02322247 -0.046377122 0.0057909265 -0.015773207 -0.029258715 -0.0006805137 -0.01732351
0.023888925 0.01109267 0.005740969 0.032896344 -0.01133884 -0.039268088 0.04381814 0.022195667
-0.040648334 -0.018429894 -0.027866641 0.046581734 0.017848488 0.015661018 -0.042378753 -0.024596738
0.012816747 -0.02679187 0.035531964 -0.045336336 -0.019586615 -0.005927018 -0.0025317683 0.04082937
-0.0443986 0.00037631392 -0.044749726 0.047378175 0.028695313 -0.048342444 -0.045037407 -0.014811523
0.03319556 -0.029045468 0.020407462 -0.025739959 -0.01992761 0.0074403062 0.038686413 0.043126572
-0.038670827 0.026129436 -0.023829466 -0.02923844 -0.009329954 0.008695915 0.036119234 0.047519382
-0.0019776372 -0.002328488 0.023139063 -0.032067176 -0.016404847 0.006061636 -0.041958813 0.029417066
-0.01925139 -0.01789742 -0.035451822 0.0031204745 -0.0046199188 0.011783869 0.040920023 -0.021285146
0.019332815 -0.009535212 0.003448357 0.017609183 0.031851772 -0.022534296 0.02241357 0.02930567
-0.03378451 -0.01703928 0.019959446 -0.03113587 0.008820729 0.029623808 -0.023891859 -0.04059838
0.024979424 -0.04541678 -0.01641811 -0.014720865 -0.006209849 -0.012167651 -0.018636525 -0.0031148975
-0.016122388 0.018915143 0.03053758 -0.04166211 -0.024729772 0.00997293 -0.0013245754 0.027791876
0.02773419 0.031943243 0.02600747 -0.042782307 -0.004606556 -0.020820698 -0.04593396 0.008290045
-0.039192326 -0.009304512 -0.007169771 -0.010046177 -0.039975565 0.03275216 -0.011840467 -0.024921602
-0.004010938 0.0069128494 0.025778737 -0.02694478 -0.021098915 0.039220866 -0.028841669 -0.019238787
0.029330118 -0.026748652 -0.033734743 0.0063381083 0.02004025 0.02191465 0.0074695423 0.04257172
-0.018982286 -0.0046599433 0.008617062 0.04522029 -0.03496859 0.011968166 -0.01849788 0.047532935
-0.0005077645 0.01444969 0.021873172 0.00086865574 -0.015169699 -0.0021465644 0.016658947 -0.013105355
-0.024776125 -0.012625925 0.048985112 0.043633748 0.035577532 -0.012249041 -0.009058537 -0.0364068
-0.00705031 -0.0505366 0.042297367 -0.035570513 -0.0022766069 -0.031426612 -0.04754091 -0.016141884
0.008926396 -0.023705596 0.030655148 -0.0116097145 -0.00020660105 0.016850073 0.041336495 0.012634132
0.00585408 0.020029526 -0.02001294 0.0013093948 -0.019168848 -0.029995764 0.0024604015 0.035268668
0.012844998 -0.01031195 0.042339083 0.016115366 -0.037401102 0.022310194 0.04027732 0.003186591
-0.015006281 -0.03471925 0.009744357 -0.04958317 0.022788856 -0.0013561861 -0.04437254 -0.030777192
-0.04632415 0.0015952773 0.009046756 0.04585186 0.047695447 0.013790354 0.007593274 -0.008891545

layer_2.bias f4 [300]
00000000: 03c2 43bd 2d7b 25bd 4026 dfbc 8f27 303d
00000010: 2852 943b d42c e9bc 07e0 9fbc d693 32bd
00000020: f2ca 733c f995 2bbc da75 383d af08 313c
00000030: 3acf 41bd 8850 00bd 4066 10bd 80be f63c
00000040: a547 03bc 76bb 61bd c0f4 74bc 6221 c3bc
00000050: b3bf 493c ce1d 3b3d 8ccf 65bc 2143 403d
00000060: 1545 7e3c a114 043d fd59 643d 1aad d2bc
00000070: 6575 c1bc e350 973c 49ef 9fbc 3483 bebb
00000080: 5f57 9cbb daef edbc 02e4 c93c 933b fabc
00000090: 9595 403c a6e7 8c3c a5f1 b3bc e5e3 04bd
000000a0: ec91 1f3d d9d1 eabc 03b2 373d a2f1 a43c
000000b0: de18 c1bb cd53 273d 05e2 103d 33ef 55bd
000000c0: c0c2 a5bc 7532 f43b 13d0 96bc 0f99 72bc
000000d0: f723 b5bc 733e d2bc 5483 eabc 452c 2dbd
000000e0: 4eb5 ac3c 3240 fabb 4baa 133d 179e a8bc
000000f0: c021 0dbd 44e1 1a3c 0ee3 2e3d f3a2 0d3d
00000100: 3322 e83c 4674 65bc 48ad 4b3c 62bf 623d
00000110: 816b 1d3d 15d0 10bd f1ec 3d3b e88a 4abd
00000120: 3af8 32bd 8d51 f4bc 1337 733c 7694 c7bc
00000130: f7fe 203d eb65 51bd 2efe 103c 98e8 34bc
00000140: 4373 8fbc 92bd 92bc a9d4 bcbc 3a14 3ebd
00000150: b43d 29bd e9e7 473d 8ea1 d83c 3ac6 443d
00000160: f606 40bd c7c9 1bbd 0378 2dbb 38cb 9b3c
00000170: 0043 bb39 bf01 2dbd 15eb f7bb 04e8 893b
00000180: 32e4 8e3c fc95 2fbd c97f 98bc eb04 d53c
00000190: 0825 323d cba3 233d 72fb cb3c 6999 6bbb
000001a0: 6555 0cbd 87bb 58bd ca7a b33c f040 67bd
000001b0: 3d3b 123d a0a5 93bc 031d 2c3d 018d 453b
000001c0: 50ef b03b 3f0b 073d 8675 11bd fa75 a13c
000001d0: 244f 09bc 8d5b ecbc 7e35 d4bc 3c71 a2bc
000001e0: 6e8e febc 098c b9bc 5b88 21bd 29e6 043d
000001f0: 7a2d e93c 93a6 25bd a4bb 48bd 0a36 e9bc
00000200: 4732 173d 1ffb 6abc ebf1 57bc bc90 163d
00000210: 533a 823c 10e9 7d3c 5a16 f9bc f678 3cbc
00000220: 0229 233d eaed fcbc 9a8b e23c 2cdd cbbc
00000230: 11d4 103b 362e efbc 69b4 00bc a3ca 4bbc
00000240: 5101 8c3c 7090 b53a 69a7 5cbd c9b7 28bd
00000250: 39a2 3a3d 01d0 f03c e0aa 8ebc 93df fbbc
00000260: 1949 07bd 449f 803c bbcc 4ebd 26c3 1b3d
00000270: 04e7 0abd 3834 3bbd 78ee 32bd 68e6 07bd
00000280: c4eb 61bc c422 0fbd 87f2 98bc cbfc e1bc
00000290: d5d1 2bb9 849c 943c 5650 dabc 91d3 2cbd
000002a0: b7ea d9bc 76c3 47bd f7eb 183d a36e 5bbc
000002b0: 317e 2ebc 9e8b 5dbd 8484 f8bc 98e0 a6bc
000002c0: 5bd4 3c3d 670a 983c 5fc0 403c e23e 803c
000002d0: 1a6d 3abd 0533 313c 8d8f 3c3d 095a 4dbd
000002e0: 18bb 4bbd 965b 2bbd 4bab f8bb b407 633c
000002f0: fa4b 293d 1eae 14bc ceb5 b03c e211 07bc
00000300: c4c6 1a3d f9ab 0dbc 2f34 c83c 8129 efbc
00000310: 22c3 333d 630d 45bd f1b8 13bc fbf5 88bc
00000320: 5b99 873b b82a 20bd c549 1d3d 211a df3c
00000330: 818a 5fbd 7536 0c3d 50b4 b6bb f154 d4bc
00000340: 6d21 66bc 7090 af3b 8934 4b3d 81f6 b0bc
00000350: d016 55bc 4b41 183d 3e40 953c 7b5c 27bb
00000360: e19c 3fbd 3c20 143c 7d26 75bb 2f6b 28bd
00000370: e3f0 133d d0d8 bcba d870 13bd 9ecf 30ba
00000380: b57b 3ebd d388 15bd c0b7 3a3c dbbc 403d
00000390: a6d2 ca3a eec4 86bb 8ca2 0bbd ca9c f93c
000003a0: 58f0 acbc b425 4a3c a26c 053d 79f2 0d3d
000003b0: 6e7c b3bc 0ab7 c23c c52c 5ebc aba1 473d
000003c0: cd4d 263c 76d0 ea3c 6b33 143d c6e9 01bc
000003d0: d229 2e3c c0e3 c43c 8d9c 24bd e64b 213d
000003e0: e2da c33c 08c2 39bd f0b0 063d e59e 3fbd
000003f0: b1df b93c 4c5c 83bc a603 0abb 3971 ed3c
-0.047792446 -0.040400673 -0.027239919 0.043006476 0.0045263954 -0.028463759 -0.019516004 -0.04359802
0.014879929 -0.010472768 0.045034267 0.010805293 -0.047316767 -0.0313268 -0.035253763 0.030120134
-0.008012687 -0.055110417 -0.014950931 -0.02381963 0.012313771 0.04568272 -0.014026534 0.04693902
0.0155194 0.032246236 0.055749882 -0.025717307 -0.023615548 0.018471187 -0.01952328 -0.0058139805
-0.0047711576 -0.029045034 0.024644855 -0.030545985 0.011754413 0.017200302 -0.021965811 -0.0324439
0.03895752 -0.028664516 0.0448475 0.02013475 -0.005892857 0.040851403 0.0353718 -0.05223007
-0.020234466 0.007452304 -0.018409764 -0.014807 -0.022111876 -0.025664544 -0.028627075 -0.042278547
0.021082547 -0.007637047 0.036051076 -0.020583196 -0.034456015 0.009453122 0.042697005 0.03457923
0.02833662 -0.0140047725 0.01243145 0.055358298 0.0384326 -0.035354692 0.002898034 -0.049448878
-0.04369376 -0.029824043 0.014844674 -0.024362784 0.039305653 -0.051122587 0.008849664 -0.011041783
-0.017511016 -0.01791266 -0.023050623 -0.04640601 -0.04131861 0.04880515 0.026444223 0.048040606
-0.04688164 -0.038034227 -0.0026469238 0.0190178 0.00035717338 -0.042237993 -0.0075658658 0.0042085666
0.017442796 -0.042867646 -0.01861562 0.026003322 0.043492347 0.039951127 0.024900172 -0.0035949594
-0.034261126 -0.052913215 0.021909136 -0.056458414 0.035701025 -0.018023312 0.042019855 0.003014386
0.005399622 0.03296971 -0.03551247 0.019709576 -0.008380685 -0.028852249 -0.025904413 -0.019829385
-0.031073775 -0.022649782 -0.03943668 0.03244606 0.028464068 -0.04044206 -0.049007073 -0.02846815
0.036913183 -0.0143420985 -0.013180236 0.036759123 0.015896952 0.015497461 -0.030406166 -0.011503449
0.03983403 -0.030875165 0.027654458 -0.024885736 0.0022099058 -0.02919684 -0.007855513 -0.012438449
0.017090471 0.001385225 -0.053870592 -0.041190896 0.045564864 0.029396059 -0.017415464 -0.030746257
-0.033028696 0.015700944 -0.050488215 0.038027905 -0.03391172 -0.045704097 -0.043684453 -0.033178717
-0.013789121 -0.034945264 -0.018670334 -0.027586361 -0.00016386 0.018141039 -0.026649635 -0.042193953
-0.026601179 -0.04877039 0.03733441 -0.013393077 -0.010650204 -0.054088227 -0.030336626 -0.020370767
0.046100955 0.018559648 0.011764615 0.015654985 -0.045514204 0.010815387 0.04603534 -0.050134692
-0.049738973 -0.04183539 -0.007588779 0.013856817 0.041332223 -0.009074716 0.021571066 -0.00824401
0.037787214 -0.0086469585 0.024438946 -0.029194595 0.043887265 -0.04810847 -0.009016261 -0.016718855
0.0041381544 -0.03910324 0.03840043 0.027234139 -0.054575447 0.03423162 -0.005575694 -0.02591941
-0.014046055 0.0053577945 0.04961065 -0.021601917 -0.013005927 0.037171643 0.01821911 -0.00255373
-0.04678047 0.009040888 -0.0037406974 -0.041117843 0.0361184 -0.0014407877 -0.035996288 -0.00067448046
-0.046504695 -0.03650744 0.0113963485 0.047055107 0.0015474155 -0.0041128313 -0.034090564 0.03047027
-0.021110699 0.012338091 0.032574303 0.034655068 -0.021909919 0.02376892 -0.013560479 0.048738163
0.010150385 0.028663855 0.03618185 -0.007929271 0.010630088 0.02403438 -0.04018836 0.039379023
0.023908082 -0.04535106 0.032883584 -0.046782393 0.022689672 -0.016035222 -0.0021059304 0.028984653

layer_3.weight f4 [106, 300]
00000000: 021f 483d 2087 463b d090 a93c 2a75 68bd
00000010: 561e 16bd f61b 8bbc cebc 123d 387e 633d
00000020: 225f 68bd 4d1a 8aba 7253 21bd f037 0f3d
00000030: 3045 383d 6e4e 28bd efeb 5ebd 1d92 3cbd
00000040: 0b99 1abd 18c2 803b 58bd 01bd 8a5b 21bd
00000050: 998c 02bd 78c8 023c e63c 073d b060 1dbc
00000060: 0491 34bd 40a8 f1bb 96cb 4bbd f466 b13c
00000070: 5c27 2fbd 1ab5 10bd 5633 8cbc 280c 373d
00000080: 387b 87bb c00d 4d3c c21b 193d 66bc 83bc
00000090: 637e 27bd d480 42bd 0ccc fb3c c8bd 403c
000000a0: 1cb7 64bc f01b 313c 78ca 61bd e0b0 8ebc
000000b0: 541d 833c 78f2 26bd d5d6 ebbc a0a8 1a3b
000000c0: 229a 0c3d 8026 5bbb e0d6 5f3d 37be 2fbd
000000d0: d621 14bd f871 e1bc b613 303d f8c1 c9bc
000000e0: 2005 a8bc b052 4b3b 61e2 283b 90f0 a23c
000000f0: 125d 403d c6ce 47bd 4099 a43b 82cd 253d
00000100: 9464 3f3d 385a 0d3d 6e29 2d3d 2e37 013d
00000110: ece5 4e3d d852 bd3c a6a2 4a3d 8bb2 57bd
00000120: b0a0 fc3c 406f 19ba 146b 353d 5f60 f53c
00000130: 7c1b 953c 3c71 b4bc 6c2c 3d3d ee7f 25bd
00000140: 589d 753c fa6a bcbc ec5e 1a3d e68e 4bbd
00000150: 5008 18bb f81b d3bb 1a2b 5c3d 0088 5dba
00000160: c434 bb3c e822 993b 6af8 643d aeda 023d
00000170: b984 f8bc 4ef3 30bd 6890 3a3c b005 753c
00000180: bc0e 45bd f23a 233d c447 103d a493 9b3c
00000190: 78a6 533d 68a9 6dbc a8ed 293d 0879 723c
000001a0: 54af e5bc e8e7 a33c dbdd e8bc a048 e73b
000001b0: f058 343c 673f 58bd 90ac d0bc e8d6 c6bc
000001c0: 0a02 25bd a05b 95bc d825 0d3c e0a0 82bb
000001d0: c826 283c 4c3f 0c3d 1e80 37bd 74e2 4dbc
000001e0: fb2e 02bc a035 7c3c 3813 263c a0f3 913c
000001f0: 8130 debc de6f 0ebd 5c86 2d3d 443d e73c
00000200: 0736 3abd f464 33bd 2860 a93c 122e 073d
00000210: 459c 0bbd 5ead 13bc d462 003d 54e5 863c
00000220: 8043 703d 9562 7a3d cabf 10bd 5473 143d
00000230: bef0 15bd e6d3 8cbc 00ac d3bc ce76 893c
00000240: e8ca f8bb 1ea6 403d dcdd c43c 6425 27bd
00000250: 5a58 1dbd a575 51bd 52ff d6bc 68ad 5e3c
00000260: 9049 fa3b 3fd7 1b3d e0d7 233c 9f2a 3c3c
00000270: 572c 1dbd e817 d53c bc02 ea3c a8bb c03c
00000280: d2a0 373c fd8e 363d efd0 c2bc 7c11 31bd
00000290: 8418 adbc 34d5 4cbc 681e 7fbc 6a67 4b3d
000002a0: 0883 b53c 6053 ab3c 806d 803a 2e7a b3bc
000002b0: 8089 35ba ca33 42bd 533e 02bd 7640 54bd
000002c0: e814 3c3c ae2d 583d 7cf2 20bd a6f9 edbc
000002d0: 480e a13c 6588 2fbd fcfd 42bd 084c a1bb
000002e0: 0c3d 343d cfd9 f8bc c4bf a43c d01c 05bd
000002f0: 02d0 5bbd d015 4b3d 0870 fdbb f474 4b3d
00000300: 8868 383c 2085 44bb a0b2 ec3b 9e5c 91bc
00000310: 807c a43c 69a0 45bd 7c7c 35bd a4be e33c
00000320: 1cee a33c 68b8 04bc 4447 e33c 5ec2 30bd
00000330: 2c0a 373d 386b cabc ccb1 d1bc e2aa 2f3d
00000340: 954d 513c 0053 973a d0bd 7abb 8632 2e3d
00000350: b3c6 8f3c b8b0 a5bb c4cc 24bc 0aaa f43c
00000360: 24de 043c 60b2 0c3d 7655 3c3d 4825 253c
00000370: be42 a4bc bc04 1fbd 203c 16bc dc0d 32bc
00000380: a010 683d 646c 75bc 20e1 be3c 9f98 f93c
00000390: 164a f5bc 3bda 243c bce7 9c3c e487 5e3d
000003a0: 9f7b ac3c 4eff 053d 9289 433d 2caa 673d
000003b0: 4101 fabc 987d c2bb 9629 023d 7044 b93b
000003c0: 443c c0bb 904c f0bb 2441 a0bc 5079 14bd
000003d0: f0d4 08bc 3fb3 5cbc 02d7 67bd 52c3 ccbc
000003e0: 78e2 4b3c 0aec 49bd bef7 183d 50ee 3ebd
000003f0: 9d7b c93c e417 56bc 0b2b 983b 2d57 ecbc
0.048857696 0.0030292943 0.020698935 -0.05675236 -0.036650024 -0.016981106 0.03582459 0.055540293
-0.05673135 -0.0010536403 -0.03938622 0.034965456 0.044987857 -0.04109042 -0.054424223 -0.046037782
-0.03774361 0.003929388 -0.031674713 -0.03939394 -0.031872366 0.007982366 0.03301706 -0.009605572
-0.04408361 -0.0073747933 -0.0497547 0.021655537 -0.042762145 -0.035328962 -0.017114323 0.044689327
-0.004134562 0.012515485 0.037379988 -0.016081046 -0.040892016 -0.04748614 0.030736946 0.011763997
-0.013959672 0.0108098835 -0.05512473 -0.017418325 0.016005196 -0.04075858 -0.028788963 0.0023599043
0.03432668 -0.0033439696 0.05464828 -0.042906012 -0.03616508 -0.027520165 0.042987548 -0.024628624
-0.020510256 0.0031024627 0.0025769698 0.0198901 0.04696376 -0.04878118 0.0050231516 0.04047919
0.04672678 0.034509867 0.04227584 0.031546764 0.05051224 0.023110792 0.04947152 -0.052660506
0.03083834 -0.00058530644 0.04429157 0.02995318 0.018201582 -0.02202665 0.046184942 -0.040405206
0.014991127 -0.02300023 0.03768818 -0.049696825 -0.0023198314 -0.006442543 0.053752042 -0.00084507465
0.022852309 0.0046733506 0.05590097 0.03194683 -0.030336725 -0.043200783 0.011386968 0.014954969
-0.048109755 0.039851137 0.03522469 0.018991299 0.05167243 -0.014505722 0.041486412 0.014799364
-0.028037705 0.020008042 -0.028426101 0.007058218 0.0110075325 -0.05279484 -0.02547291 -0.024272397
-0.040285148 -0.018232167 0.00861498 -0.003986463 0.010263152 0.034240052 -0.044799916 -0.012566198
-0.007945771 0.015393645 0.010136418 0.017816365 -0.027122738 -0.034774654 0.042364463 0.028227456
-0.04546168 -0.04379745 0.020675734 0.03300292 -0.034084577 -0.009013502 0.03134425 0.016466774
0.058658123 0.06112917 -0.035339154 0.036242798 -0.036606543 -0.017190885 -0.025838852 0.016780283
-0.0075925477 0.04703342 0.024031572 -0.040807143 -0.038414337 -0.051137585 -0.026244793 0.013591148
0.007638164 0.03804707 0.010000199 0.011484771 -0.038372364 0.026012376 0.028565757 0.023526981
0.011207776 0.044569958 -0.023781268 -0.043229565 -0.021129854 -0.012502003 -0.015571214 0.04965917
0.022157207 0.02091378 0.0009798259 -0.021908846 -0.0006925091 -0.04741267 -0.03179772 -0.051819287
0.011479594 0.05277794 -0.03929375 -0.029049706 0.01966013 -0.042854685 -0.0476055 -0.0049223937
0.04400353 -0.030377297 0.020110972 -0.03249818 -0.05366517 0.04958135 -0.0077343024 0.049672082
0.011255391 -0.0029986575 0.007223442 -0.017744359 0.020078897 -0.048248682 -0.04430817 0.027800865
0.020011 -0.0081006065 0.027743943 -0.043154113 0.044687435 -0.024709329 -0.025597475 0.042887576
0.012774845 0.0011545122 -0.003826011 0.04252865 0.017550802 -0.005056467 -0.010058586 0.029866237
0.008109603 0.0343498 0.04597994 0.010079689 -0.020051356 -0.038822874 -0.009169608 -0.010867562
0.05665648 -0.014979456 0.023300707 0.030468283 -0.029942553 0.010061796 0.019153468 0.054328814
0.02105504 0.03271418 0.04773862 0.056558773 -0.030518176 -0.005935382 0.03177794 0.0056539103
-0.005866559 -0.0073333457 -0.019562311 -0.036248505 -0.0083515495 -0.01347047 -0.05660153 -0.02499548
0.012444131 -0.04929737 0.03734564 -0.04661399 0.024595076 -0.013067219 0.004643803 -0.028850162

layer_3.bias f4 [106]
00000000: f8db 703d 464c 503d 600d 5bbd 2cff a83c
00000010: d142 533c dee7 8abc 8618 02bd bfe2 24bc
00000020: b978 37ba 810e aa3c ca28 be3c 3185 5abd
00000030: 072a d6bc 6b11 5cbd 5b3f a03c 8179 e33b
00000040: 7f64 543d e851 4cbd 4982 61bd 1fa1 2c3d
00000050: f684 b53b 8483 0a3d 9be5 4fbd ee1e 533d
00000060: b891 173b 99a7 abbc 1da8 1abc 0ef0 493d
00000070: 37ed 17bd 58fd 19bd a751 28bd 8a5e 423c
00000080: aef2 423c 1d44 4c3c f9d1 61bd 2189 45bd
00000090: 9eab 63bd 9455 f53c c44f 51bd 289f 1f3d
000000a0: 189c 0ebd cb4e 1b3d 516e 83bc b5d8 853c
000000b0: 2be3 ef3c 3793 6ebd e884 7abc c017 f23b
000000c0: 153c 483d 96d7 043d 51a1 05bd 03f2 cc3c
000000d0: f5ec 80bd f0f1 503d 9336 a1bc 322c 83bc
000000e0: dc38 223d 31ba 303d ae92 203c 8e85 643d
000000f0: 0ceb 4fbd d5c6 0fbd 188e 243c 9f16 5dbd
00000100: a9b5 11bd d546 25bd a216 1dbd 01f0 eabc
00000110: 107d 4f3d f9d6 86bb 4c15 603c aa00 2bbd
00000120: 7983 373d c69f 1cbd dc44 6b3d 676f 3abd
00000130: 7a02 52bd c8b8 2fbd c26e afbc 7378 053d
00000140: 89b1 3dbc 501a 8fbc 1d51 5e3d ee39 6abc
00000150: 5d16 edbc 98ae 7c3d 317e b5bc 937a 57bd
00000160: 4290 05bd 3eb0 23bd 7f6d 843c e8b1 0fbb
00000170: a4fe da3b 9411 f63c b9d0 503d 34aa 01bd
00000180: 9e21 02bd b3ba 51bd 895c 423c ae7a 123d
00000190: 701a bd3c 10ba 4f3c 81c3 1a3d 5747 06bd
000001a0: 23b3 95bc 0703 4a3c
0.05880353 0.05085399 -0.053479552 0.020629488 0.012894348 -0.016956266 -0.03176167 -0.010063826
-0.0006998885 0.02075887 0.02321281 -0.053349677 -0.026143087 -0.05372755 0.01956146 0.0069419746
0.051853653 -0.0498828 -0.05505589 0.042145845 0.005539532 0.03381683 -0.05075608 0.05154317
0.0023127627 -0.02095394 -0.009439495 0.0493012 -0.03709146 -0.037595123 -0.041093495 0.01186336
0.01189868 0.012467411 -0.055131886 -0.04822648 -0.05558359 0.029948033 -0.05110146 0.038970143
-0.03481683 0.03791694 -0.016043814 0.016338686 0.029283127 -0.058245864 -0.015290476 0.007388085
0.048885424 0.03243216 -0.032624546 0.025017744 -0.06295196 0.05101198 -0.019679343 -0.016012285
0.039605007 0.043146316 0.009800596 0.05579143 -0.050761268 -0.03510173 0.010043643 -0.05397665
-0.035573635 -0.040350754 -0.038351662 -0.028678896 0.05065638 -0.004114982 0.013676953 -0.04174868
0.044803116 -0.03823831 0.057438716 -0.045516398 -0.051271893 -0.04290083 -0.021415118 0.032585572
-0.011577972 -0.017468601 0.054276574 -0.014296038 -0.028941328 0.061689943 -0.0221549 -0.05260713
-0.032608278 -0.039963 0.016165493 -0.0021926109 0.0066831876 0.030037679 0.050980303 -0.03165646
-0.03177034 -0.05120344 0.011862882 0.035761528 0.023083895 0.012678638 0.037784103 -0.03278288
-0.018273896 0.012329823
