models/ddpg_model_episode_350_actor.pth (torch, 631313 bytes, 6 tensors)

layer_1.weight f4 [400, 11]
000000 4c 40 b7 3d 72 51 50 be b0 5e 9f bd 54 34 87 be
       0.089478105 -0.20343569 -0.07781732 -0.2640711
000010 ce a6 23 3e e4 e5 5c 3e bf 28 8c be f6 01 37 be
       0.159816 0.21572071 -0.27374837 -0.17871842
000020 c8 dd 97 bd 7c fc 8a 3d cc ff 54 be b9 af 91 be
       -0.07415348 0.06786439 -0.20800704 -0.28454378
000030 fa 17 95 3d 1b aa 20 be dc a5 30 3e c4 f3 65 be
       0.07279964 -0.1568989 0.1725077 -0.2245627
000040 00 69 39 3e 5e 08 31 3e b1 b5 f0 3c 3a 08 00 3e
       0.1810646 0.17288348 0.029383512 0.12503138
000050 f0 6a 5d 3e ac 3d 07 be 57 73 cc 3e 39 63 5e 3e
       0.21622825 -0.1320712 0.39931747 0.21717538
000060 56 67 95 bc b4 36 9b bc c8 da 6d bd c2 02 11 3e
       -0.018237751 -0.018946983 -0.058069974 0.14161208
000070 c0 29 60 3d b7 a3 84 3c 97 5f 93 3e b8 80 78 be
       0.054727316 0.016191347 0.28783867 -0.24267852
000080 40 99 c0 bd 31 0a 71 be f1 a1 7d be 7c ca c0 bd
       -0.0940423 -0.23539044 -0.24768807 -0.09413621
000090 d8 58 81 3e 8f 0a 8f be c0 f3 a8 3c e8 c9 eb 3d
       0.25263095 -0.27937743 0.020624042 0.1151312
0000a0 ce f0 44 3e 54 b4 0c be 1a 21 8c bd 40 8e 19 bd
       0.19232485 -0.13740665 -0.06842251 -0.037489176
0000b0 2d ce 3e 3e ca 88 64 be 10 b1 2e be 44 df 03 3e
       0.18633337 -0.22317806 -0.17059731 0.12878138
0000c0 dd 78 de bd 26 00 68 bc fe e0 6a bd f8 51 4c 3d
       -0.108628966 -0.014160192 -0.057343476 0.04988286
0000d0 0a 2f 06 be f2 d8 ee bc d5 27 82 3e ac d0 5c bd
       -0.13103881 -0.029156182 0.25421014 -0.053909943
0000e0 fc 43 2d be 3d fa 70 be a2 c0 7e be a0 11 29 bc
       -0.16920465 -0.23532958 -0.24878171 -0.0103191435
0000f0 9a 9a e4 bd c8 8a 53 3d 1e d2 8d be a4 d5 34 3e
       -0.111623004 0.051646024 -0.2769937 0.17659622
000100 50 dd 88 3e fd fd 87 be d2 a5 42 3d 2a 43 2b bd
       0.26731348 -0.26560965 0.04752142 -0.0418121
000110 9e 9a 41 bc 38 9e 21 3e 32 71 39 bd b4 a8 a9 3d
       -0.011816649 0.15783012 -0.045273967 0.08284131
000120 c6 b9 64 be 2d 95 9e be 0b 69 68 3e dc 11 a7 bd
       -0.22336492 -0.30973187 0.2269632 -0.08157703
000130 ff 40 b9 3d 0a 4e 6e be 8c d6 08 3e 90 fc 29 be
       0.090456 -0.23271957 0.13363093 -0.16600251
000140 cc 18 e4 3d 90 51 56 bd 82 42 9d 3c d8 f0 47 3d
       0.11137542 -0.052323878 0.019196752 0.04881367
000150 0a 03 0d be eb 27 09 be 10 1c 5e be b2 d4 2b be
       -0.1377069 -0.13394134 -0.21690392 -0.16780356
000160 2c c7 f4 bc 26 7a 73 be 3a 04 af be 0d f3 51 be
       -0.029880129 -0.23777065 -0.34182912 -0.20502873
000170 66 79 2f 3e dc a8 2b 3d 54 17 a9 3b b4 50 69 3e
       0.17136154 0.041909084 0.0051602516 0.22784692
000180 14 67 7c be ac ef 52 3e 12 37 e9 bd 7c 9f b6 bd
       -0.24648696 0.2059924 -0.11387457 -0.08917138
000190 f0 92 92 bc 78 b6 e1 3d f1 cb 63 be 69 de 8b be
       -0.01789233 0.11021131 -0.22245766 -0.27318123
0001a0 b7 3d 2b be 00 5e c4 bc 04 f4 74 3e 9d 12 7e be
       -0.16722761 -0.023970604 0.2392121 -0.24811788
0001b0 55 40 88 be c8 ed 87 bd 51 a4 52 3e 8e ee 85 bb
       -0.2661158 -0.0663715 0.20570494 -0.004087276
0001c0 71 0c 49 3e 96 00 30 be 4d 86 ae bd 83 8c 09 be
       0.19633652 -0.17187724 -0.085217096 -0.13432507
0001d0 0c 2d 96 be c0 f1 8c 3e b4 41 85 3e 1e 93 d5 3d
       -0.29331243 0.2752819 0.2602669 0.10428451
0001e0 95 fb e6 3d 09 b0 78 be 04 64 f2 3d 96 81 22 be
       0.11278454 -0.24285902 0.11835483 -0.15869746
0001f0 2e 9b 94 3d 43 0d 62 be 81 2e 86 3e 7f 78 85 3e
       0.07256161 -0.22075371 0.26207355 0.26068494
000200 1f 71 46 3d ec 55 84 3d f8 3e 23 3d 4c e2 54 be
       0.048447724 0.06461701 0.039854974 -0.2078945
000210 4b 97 36 be 67 40 41 be 6a ea 24 be 8b 32 68 be
       -0.17831151 -0.18872224 -0.16105047 -0.2267553
000220 2c f9 75 3e 45 f4 e0 bd 4e 8d 9f 3d 6c 61 5c be
       0.24020833 -0.10984091 0.077906236 -0.21521538
000230 20 75 69 3c d0 d0 4c 3d 14 bc 73 bd 8d f7 c1 bd
       0.014249116 0.050003827 -0.059505537 -0.09471045
000240 3a 89 1e 3e 5c 33 25 3d c5 62 7c be 50 65 63 be
       0.15482035 0.040332183 -0.24647053 -0.22206616
000250 a7 86 a7 bd f1 40 f3 bc e6 03 e2 bd 58 a8 a8 3d
       -0.0817998 -0.029694052 -0.110359 0.08235234
000260 43 b3 2d bd 14 40 09 3e a5 c3 b3 3e d7 06 5a 3e
       -0.042407285 0.1340335 0.35110202 0.21291672
000270 d6 e4 30 ba 3b a9 17 be 1b 99 19 3e 9b 5c 8f 3d
       -0.00067479664 -0.1481065 0.14999811 0.07000085
000280 77 3b 5c be 96 a9 1a 3e d2 cb e7 3d 33 b1 97 3d
       -0.21507059 0.15103754 0.113181725 0.07406845
000290 aa ec 2f 3e ec f4 18 3e 90 ff 3f be 86 bc 94 be
       0.17180124 0.1493718 -0.18749833 -0.29050082
0002a0 d4 38 ff 3d b8 76 81 be 34 85 b1 3d 7a fd 1e 3e
       0.12462011 -0.25285888 0.086679846 0.15526381
0002b0 0e da 7e be 36 92 3a 3e f6 da 35 be ee 09 5e be
       -0.24887869 0.18219838 -0.17759308 -0.21683475
0002c0 62 4f 8b be 0d 8d 0b 3e 95 3e 7a be db 06 9a 3e
       -0.27209002 0.13628025 -0.24437936 0.30083355
0002d0 f6 e2 27 be e5 63 96 3e 34 99 7d 3b 9c 84 37 be
       -0.16395172 0.29373088 0.0038696053 -0.1792168
0002e0 d8 cd c0 3d 20 ae 1d 3d c0 46 42 bd 18 3f 0b 3d
       0.094142616 0.038496137 -0.047430754 0.033995718
0002f0 d7 ae aa bc f3 4d 59 be e9 6c 95 be 5a 80 82 3d
       -0.020835323 -0.21221142 -0.29184654 0.06372137
000300 c9 62 44 be 09 66 de bd ef 2b f0 3d 07 02 8c 3e
       -0.19178309 -0.108593054 0.1172713 0.27345297
000310 1d 6a 71 bd 28 25 d7 3d ce 05 bb bd c0 ed 85 3e
       -0.058939088 0.10505134 -0.091319665 0.2615795
000320 61 ee 10 3e c0 5e 53 be e9 d8 21 be 26 85 e5 3d
       0.14153434 -0.20641613 -0.15805401 0.11207037
000330 e9 3f a7 3d aa d6 09 bd 1d d4 12 3d d0 cd 95 be
       0.08166487 -0.033651985 0.03584682 -0.29258585
000340 a8 3e c5 bd ba be b3 bd a2 2e ca 3c 9f 8c 70 3e
       -0.09631091 -0.087766126 0.02468044 0.23491143
000350 ad 77 50 be 58 5b b0 3d ea 51 82 be c4 9f 68 be
       -0.20358153 0.086111724 -0.2545312 -0.22717196
000360 e3 42 91 be 2d 2b 13 be 9a 0c 34 bd 4e 84 00 3d
       -0.28371343 -0.14371939 -0.04395733 0.031376176
000370 29 59 8c be 10 18 6c be e8 a2 8a 3e 6f 01 70 be
       -0.27411774 -0.23056054 0.27077413 -0.23438047
000380 53 04 82 3e 08 97 0a 3e 5b cc ce bd d9 fb f7 3d
       0.25393924 0.13534176 -0.100975715 0.12108583
000390 0e b4 23 bd 0e fe 07 be 6d e0 6a 3e 18 95 22 bd
       -0.039966635 -0.13280508 0.22937174 -0.039692968
0003a0 37 7a 3e be 1c c2 65 be 5f 97 8a be 40 85 2d bd
       -0.18601309 -0.22437328 -0.27068612 -0.042363405
0003b0 bb 0d 06 be a4 f0 db bd 31 7d 5a be b4 c7 92 3e
       -0.13091175 -0.10739258 -0.21336819 0.28667986
0003c0 f8 2a 0c 3d e4 f0 6e be 1e ae 8b 3e 3e 71 19 3e
       0.034220666 -0.2333408 0.27281278 0.14984605
0003d0 36 6f e6 3d 79 20 fc 3c 01 7d 22 be 05 4a a9 3d
       0.112516806 0.030777203 -0.15867998 0.08266071
0003e0 95 50 4e bc d8 2d c0 3d 27 af 8d 3e f2 3d 93 bb
       -0.012592454 0.09383744 0.27672693 -0.0044934684
0003f0 b7 60 3a bd 61 8c b7 3e f9 fa 25 bd 0b 60 32 3e
       -0.04550239 0.35849288 -0.04052255 0.1741945

layer_1.bias f4 [400]
000000 9a b1 8b be ed 70 1c be 34 43 97 be 70 38 8f bc
       -0.27283937 -0.15277453 -0.2954346 -0.017482966
000010 1d d7 4a 3d d0 d1 96 3c cb 43 b9 3c 38 54 1a 3e
       0.049521554 0.018410593 0.022615334 0.1507119
000020 50 1f 80 be bc 5c 4c 3e 3e 3e 4b be 1e 45 18 be
       -0.2502389 0.1995725 -0.19847962 -0.14870116
000030 d7 39 7f be 82 dd 34 be bf 3f 8d be c4 62 7e 3e
       -0.24924408 -0.17662624 -0.27587697 0.24842364
000040 0e 1e f9 bd d2 c2 96 bd 36 a0 45 be 8d 3a 42 be
       -0.121639356 -0.07361378 -0.19299397 -0.18967648
000050 57 ac b0 bc 40 c7 1d bc d5 54 4c be e8 dc 2b 3e
       -0.021566553 -0.009630024 -0.19954236 0.16783488
000060 5f 02 5e bd e7 fe 58 be 20 dd 7e be 13 e3 65 be
       -0.05420148 -0.21190988 -0.2488904 -0.22449903
000070 d3 54 98 bd e2 7c 66 be 96 ae 88 be c6 53 91 be
       -0.07438054 -0.22508577 -0.26695698 -0.28384227
000080 d7 60 0d bd f9 2e 26 3d 43 06 55 3e 4b 53 96 be
       -0.03451618 0.04057214 0.2080317 -0.29360422
000090 81 10 7c 3e e1 e6 1c bd fb 9f 8d be 88 35 8e 3e
       0.2461567 -0.03830612 -0.27661118 0.27775216
0000a0 5f fb 55 3e 20 90 a9 3d 1c b8 6c 3e 2f de 89 bd
       0.20896672 0.08279443 0.23117107 -0.06731831
0000b0 63 e9 94 be 20 2d ff bd b3 03 22 3e d7 ce d7 bd
       -0.2908431 -0.12459779 0.15821724 -0.105374984
0000c0 68 8b 8a 3d 88 2d 06 be d8 00 00 be 56 4b 85 3d
       0.06764871 -0.13103306 -0.12500322 0.0650851
0000d0 74 52 fd bd eb 2f 09 3e 78 a9 eb 3d 50 19 e1 3d
       -0.12369242 0.13397186 0.11506933 0.10991156
0000e0 8f 0a 6e be 60 1d e4 3c 57 0c b0 bd 08 d7 3b 3d
       -0.23246215 0.027846038 -0.08596104 0.045859367
0000f0 0c 84 92 be 18 1d 5f be 33 52 3b be c4 9b 09 3d
       -0.2861637 -0.21788442 -0.18293075 0.033595815
000100 d6 eb 0a 3e bc 00 73 3e 06 0d dc bb b0 15 23 be
       0.13566527 0.23730749 -0.0067154197 -0.15926242
000110 a8 47 89 3d 15 2f 4e 3d 21 04 5f be 44 8c 56 3e
       0.067031205 0.05033787 -0.21778919 0.20951945
000120 77 6e 73 be 6f d8 0f 3e f0 b5 43 bd fe b1 b7 bd
       -0.23772608 0.14047407 -0.04778093 -0.08969496
000130 c4 d0 3b be 8f 7d 3a be 06 9a 90 3e ef 8a 18 be
       -0.18341357 -0.1821196 0.2824251 -0.14896749
000140 7a 09 8a be de ac 74 3d 81 71 95 be 65 81 38 3e
       -0.26960355 0.05973517 -0.2918816 0.1801811
000150 d1 e1 73 be db 04 17 3e ce c7 04 3e 14 4a 93 3e
       -0.23816611 0.14747946 0.12966844 0.28767455
000160 96 27 b4 3d d7 e6 97 3c 87 fe 1d 3e b8 c1 4c be
       0.08796613 0.01854269 0.15429126 -0.19995773
000170 bb ce 05 be 00 84 31 3b 4e 76 78 be 8b 7c 30 be
       -0.13067143 0.0027086735 -0.2426388 -0.1723501
000180 17 3e 1d 3e 97 fe 41 be 44 0a 59 bd e5 68 09 3e
       0.15355717 -0.18944775 -0.052988306 0.1341892
000190 34 85 27 be a2 a0 44 bd 22 fb eb bd 1a 76 9b 3d
       -0.16359407 -0.048004754 -0.11522509 0.075908855
0001a0 8c 58 9e be 04 7e 8a 3e 3b 0c 94 be e9 3f 8f be
       -0.3092693 0.27049267 -0.2891558 -0.27978447
0001b0 c6 b4 c0 bd 72 93 84 be 9f 45 1d 3e 3d a2 8c be
       -0.0940948 -0.25893742 0.1535859 -0.27467528
0001c0 70 f7 2b bd aa fa 80 3e 42 b3 f6 3d 5b 99 46 bd
       -0.04198402 0.25191242 0.120459095 -0.048486095
0001d0 1c 03 9d bd 0e 06 54 3d 54 69 de 3d d3 93 91 be
       -0.07666609 0.051763587 0.108599335 -0.28433093
0001e0 32 28 92 3e 18 d9 85 be c7 c0 48 be fd cb 3d be
       0.28546292 -0.26142192 -0.19604789 -0.18534847
0001f0 ef 92 4c 3e 4f 01 e7 bd c8 0a 5b be 90 bd 22 3e
       0.19977926 -0.112795465 -0.21390831 0.15892625
000200 9d dd 9e bc f8 5d 59 3e f8 3f 84 bd 76 ed 95 be
       -0.019392783 0.21227252 -0.064575136 -0.2928273
000210 bf 92 6c 3e 80 1e e8 3d c6 be 1a 3e 24 66 9c 3d
       0.23102854 0.113339424 0.15111837 0.07636669
000220 00 3b db bc a6 4c a9 bc ab 9c 37 be 9b dd 0f 3e
       -0.026761532 -0.020666432 -0.17930858 0.1404938
000230 7f e0 0b be 84 4f 49 3e c6 e9 93 3e d2 a1 46 3c
       -0.13659857 0.19659239 0.28889292 0.012123542
000240 00 b9 79 bc 10 7f f6 bd 11 ca 6c be 26 74 22 be
       -0.015241861 -0.12035954 -0.23123957 -0.1586462
000250 9a 03 08 bd 84 ae 82 3d f9 06 da bd 46 6f 91 be
       -0.03320656 0.063809425 -0.10645861 -0.28405207
000260 d2 80 8c 3d 10 13 69 3d 38 14 c7 3d e0 e3 d2 3d
       0.06860508 0.056902945 0.09720653 0.1029737
000270 4c 3a 88 3e 69 ae 9f bc 4e 28 ee bd c0 86 cd 3b
       0.26606977 -0.019492345 -0.11628781 0.006272167
000280 52 f9 48 3e 2f 2a 5e 3e 54 29 a0 bd 4a 84 43 3e
       0.19626358 0.2169578 -0.07820383 0.19093433
000290 91 d6 64 3d 04 fe 55 bd 85 ed a9 3d 0d 0a 28 3e
       0.05586869 -0.0522442 0.082972564 0.16410084
0002a0 62 fa 8a be 2a 94 1f be 89 b0 59 3e e3 16 23 be
       -0.27144152 -0.15583864 0.21258749 -0.159267
0002b0 06 72 6e be 90 f4 77 bd 08 b9 4f 3e ac 94 99 be
       -0.23285684 -0.060535967 0.20285428 -0.2999624
0002c0 9d b2 16 be cb d0 2a 3e 39 e2 4c 3e f3 b4 3d 3e
       -0.14716573 0.1668121 0.20008172 0.18526058
0002d0 af 19 57 3e 78 09 a8 bd 62 65 68 be c4 05 be 3d
       0.21005891 -0.08204931 -0.22694924 0.092784435
0002e0 6c ab 66 3e ee 7d 8b 3e e4 f2 93 3d bc c3 22 3e
       0.2252633 0.27244514 0.07224062 0.15894979
0002f0 d7 13 4c be e6 12 80 3d 3c 1e e3 3d d4 4c 84 be
       -0.19929443 0.062536046 0.11089751 -0.25839865
000300 20 22 2e 3c 4c 56 37 3e a6 cb 88 be d4 21 9a 3e
       0.010628253 0.17904013 -0.2671787 0.30103934
000310 b2 bc 7b be 72 04 5c be dc dd 8a be 7c 22 3b 3e
       -0.245837 -0.21486071 -0.2712239 0.18274873
000320 3e bf 89 bd 66 2f 92 3e a8 13 1c 3e 58 13 a7 bd
       -0.0672593 0.28551787 0.15241873 -0.081579864
000330 c2 2f 7d bc 0f 79 d9 bd 4e 10 52 3b 45 56 24 3e
       -0.015453281 -0.10618793 0.0032053175 0.16048534
000340 24 cb e7 bd e4 f7 f5 bd f3 49 93 be 68 3e ca bd
       -0.11318043 -0.12010172 -0.28767356 -0.09875184
000350 10 13 86 3e ba 80 91 3e 48 0c 04 3e 9c ca 9c 3c
       0.2618642 0.28418523 0.1289531 0.01913958
000360 bf 50 32 be 64 dc 5b be b6 da 36 3e 19 89 f7 bc
       -0.17413615 -0.21470791 0.17856869 -0.03021674
000370 53 83 1d be c3 16 15 3e 35 40 bb bd d8 f9 9a 3e
       -0.15382127 0.14559464 -0.09143106 0.3026874
000380 36 c4 65 3e 04 97 fe 3c 58 c7 1a bb 85 f6 1b be
       0.2243813 0.03107787 -0.0023617353 -0.15230758
000390 29 44 1e 3e f8 0f 40 3e 01 67 9f be db 69 2a 3d
       0.15455689 0.18756092 -0.31133273 0.041604858
0003a0 e5 71 5c 3e b6 01 3f 3e 64 f0 64 3e 33 20 6f 3e
       0.21527822 0.18652996 0.22357327 0.23352127
0003b0 c8 90 21 be a7 22 eb 3d 93 54 90 be 0e b0 d6 bd
       -0.15777886 0.11481219 -0.28189525 -0.104827985
0003c0 f8 12 31 be 3d 91 c6 bb f8 64 92 3e 67 c3 98 3c
       -0.17292392 -0.006059794 0.28592658 0.018647863
0003d0 be 23 8b be 22 5a 3e be bc 16 3b 3e 90 aa cb 3d
       -0.27175707 -0.1858907 0.18270391 0.099446416
0003e0 4f 66 75 bc a1 b0 0a be 60 21 93 bd 18 1e 38 be
       -0.014978006 -0.13543941 -0.071841 -0.1798023
0003f0 01 98 7a 3e 72 ff 8a 3e 2c 45 91 3e be 48 8b 3e
       0.24472047 0.27148014 0.28373086 0.27203935

layer_2.weight f4 [300, 400]
000000 82 a2 3a bd 38 7e 2c bd 78 b8 cc 3c ac 69 32 3c
       -0.045565136 -0.04211256 0.024990305 0.010889452
000010 f8 47 63 bc 12 e5 89 3c a0 bf 4b bd fe 6d ec 3c
       -0.013872139 0.016832862 -0.049743295 0.028861042
000020 e7 e2 9f bc 14 94 58 3c 32 b3 e2 3c 0f b2 76 bc
       -0.019517375 0.013218898 0.027673338 -0.015057101
000030 0d 20 22 3d e7 9f bd bc 8d 06 4b bd f4 57 70 bc
       0.039581347 -0.023147536 -0.049566794 -0.014669407
000040 dd 7c ca bc e2 db 88 3c 7d 50 39 bc fd 87 09 bd
       -0.024717743 0.01670641 -0.011310694 -0.033576954
000050 cb 3a 0f 3d 09 92 21 3d 78 d1 13 3c 64 56 8d bc
       0.03496818 0.03944591 0.009022109 -0.017253108
000060 5b 66 24 bc b8 35 1f bd 33 0a a7 bc 41 24 31 3d
       -0.010034169 -0.03886959 -0.020390606 0.043247465
000070 9d 6d 10 bd fe 85 8d 3c 5a 7a b7 3c d8 46 25 3c
       -0.035260785 0.017275807 0.022397209 0.010087691
000080 e3 4e 78 3c 2e 21 f1 bc 71 8a 0c bd 2c 79 80 bc
       0.015155527 -0.029434767 -0.034311716 -0.01568278
000090 4a c0 12 3d 92 05 cc 3b 3a 25 8c bb d2 c8 e5 3c
       0.035827912 0.00622625 -0.0042768987 0.02804986
0000a0 af 05 15 3d 29 34 2b bd 58 ad 8b 3b 28 df a2 3c
       0.036382373 -0.04179779 0.0042626075 0.0198818
0000b0 15 9b 0b bd 65 fd fa bc 20 be 21 3c b3 c2 16 bd
       -0.034083445 -0.030638406 0.0098719895 -0.036806773
0000c0 20 b4 1f bc 0d 3d be bc f0 f5 3d bd d0 c1 bd 3b
       -0.009747535 -0.02322247 -0.046377122 0.0057909265
0000d0 d0 36 81 bc f9 af ef bc 80 64 32 ba 09 ea 8d bc
       -0.015773207 -0.029258715 -0.0006805137 -0.01732351
0000e0 b5 b2 c3 3c 08 be 35 3c bd 1e bc 3b 51 be 06 3d
       0.023888925 0.01109267 0.005740969 0.032896344
0000f0 8b c6 39 bc 93 d7 20 bd a6 7a 33 3d b0 d3 b5 3c
       -0.01133884 -0.039268088 0.04381814 0.022195667
000100 de 7e 26 bd 4a fa 96 bc 95 48 e4 bc 7d cc 3e 3d
       -0.040648334 -0.018429894 -0.027866641 0.046581734
000110 fe 36 92 3c 89 4b 80 3c 58 95 2d bd 19 7f c9 bc
       0.017848488 0.015661018 -0.042378753 -0.024596738
000120 55 fd 51 3c a0 7a db bc f7 89 11 3d 98 b2 39 bd
       0.012816747 -0.02679187 0.035531964 -0.045336336
000130 1c 74 a0 bc 6e 37 c2 bb 06 ec 25 bb b3 3c 27 3d
       -0.019586615 -0.005927018 -0.0025317683 0.04082937
000140 4e db 35 bd 00 4c c5 39 7d 4b 37 bd 9e 0f 42 3d
       -0.0443986 0.00037631392 -0.044749726 0.047378175
000150 6f 12 eb 3c ba 02 46 bd 25 79 38 bd 08 ac 72 bc
       0.028695313 -0.048342444 -0.045037407 -0.014811523
000160 11 f8 07 3d c3 f0 ed bc 8d 2d a7 3c 9b dc d2 bc
       0.03319556 -0.029045468 0.020407462 -0.025739959
000170 3a 3f a3 bc d0 cd f3 3b a5 75 1e 3d 7d a5 30 3d
       -0.01992761 0.0074403062 0.038686413 0.043126572
000180 4d 65 1e bd 66 0d d6 3c 03 36 c3 bc 74 85 ef bc
       -0.038670827 0.026129436 -0.023829466 -0.02923844
000190 aa dc 18 bc 50 79 0e 3c c3 f1 13 3d af a3 42 3d
       -0.009329954 0.008695915 0.036119234 0.047519382
0001a0 3f 9b 01 bb 8c 99 18 bb 22 8e bd 3c df 58 03 bd
       -0.0019776372 -0.002328488 0.023139063 -0.032067176
0001b0 75 63 86 bc b0 a0 c6 3b 01 dd 2b bd 0f fc f0 3c
       -0.016404847 0.006061636 -0.041958813 0.029417066
0001c0 17 b5 9d bc 9c 9d 92 bc ee 35 11 bd e0 80 4c 3b
       -0.01925139 -0.01789742 -0.035451822 0.0031204745
0001d0 b0 62 97 bb 21 11 41 3c c1 9b 27 3d 30 5e ae bc
       -0.0046199188 0.011783869 0.040920023 -0.021285146
0001e0 da 5f 9e 3c 94 39 1c bc d5 fd 61 3b 22 41 90 3c
       0.019332815 -0.009535212 0.003448357 0.017609183
0001f0 01 77 02 3d d8 99 b8 bc aa 9c b7 3c 72 12 f0 3c
       0.031851772 -0.022534296 0.02241357 0.02930567
000200 a0 61 0a bd f6 95 8b bc fe 81 a3 3c a7 10 ff bc
       -0.03378451 -0.01703928 0.019959446 -0.03113587
000210 d2 84 10 3c a1 ad f2 3c dc b8 c3 bc 7d 4a 26 bd
       0.008820729 0.029623808 -0.023891859 -0.04059838
000220 a6 a1 cc 3c f2 06 3a bd 46 7f 86 bc c8 2f 71 bc
       0.024979424 -0.04541678 -0.01641811 -0.014720865
000230 fd 7b cb bb d4 5a 47 bc a0 ab 98 bc 4f 23 4c bb
       -0.006209849 -0.012167651 -0.018636525 -0.0031148975
000240 19 13 84 bc ee f3 9a 3c f2 29 fa 3c e3 a5 2a bd
       -0.016122388 0.018915143 0.03053758 -0.04166211
000250 17 96 ca bc 80 65 23 3c 60 9d ad ba ca ab e3 3c
       -0.024729772 0.00997293 -0.0013245754 0.027791876
000260 d0 32 e3 3c eb d6 02 3d 9e 0d d5 3c 80 3c 2f bd
       0.02773419 0.031943243 0.02600747 -0.042782307
000270 98 f2 96 bb 2b 90 aa bc 3f 25 3c bd f8 d2 07 3c
       -0.004606556 -0.020820698 -0.04593396 0.008290045
000280 22 88 20 bd f4 71 18 bc 66 f0 ea bb b8 98 24 bc
       -0.039192326 -0.009304512 -0.007169771 -0.010046177
000290 6b bd 23 bd 21 27 06 3d 85 fe 41 bc 63 28 cc bc
       -0.039975565 0.03275216 -0.011840467 -0.024921602
0002a0 30 6e 83 bb 2f 85 e2 3b ee 2d d3 3c 4d bb dc bc
       -0.004010938 0.0069128494 0.025778737 -0.02694478
0002b0 a2 d7 ac bc 0f a6 20 3d 5d 45 ec bc a9 9a 9d bc
       -0.021098915 0.039220866 -0.028841669 -0.019238787
0002c0 b7 45 f0 3c fd 1f db bc 71 2d 0a bd e8 af cf 3b
       0.029330118 -0.026748652 -0.033734743 0.0063381083
0002d0 73 2b a4 3c 5a 86 b3 3c 10 c3 f4 3b af 5f 2e 3d
       0.02004025 0.02191465 0.0074695423 0.04257172
0002e0 bd 80 9b bc 70 b2 98 bb 94 2e 0d 3c e9 38 39 3d
       -0.018982286 -0.0046599433 0.008617062 0.04522029
0002f0 39 3b 0f bd 20 16 44 3c de 88 97 bc e5 b1 42 3d
       -0.03496859 0.011968166 -0.01849788 0.047532935
000300 80 1b 05 ba 64 be 6c 3c 5e 2f b3 3c 80 b6 63 3a
       -0.0005077645 0.01444969 0.021873172 0.00086865574
000310 54 8a 78 bc 60 ad 0c bb 58 78 88 3c d8 b7 56 bc
       -0.015169699 -0.0021465644 0.016658947 -0.013105355
000320 4d f7 ca bc f8 dc 4e bc 9d a4 48 3d 4d b9 32 3d
       -0.024776125 -0.012625925 0.048985112 0.043633748
000330 bf b9 11 3d 34 b0 48 bc 42 6a 14 bc 4c 1f 15 bd
       0.035577532 -0.012249041 -0.009058537 -0.0364068
000340 49 06 e7 bb 77 ff 4e bd 01 40 2d 3d 63 b2 11 bd
       -0.00705031 -0.0505366 0.042297367 -0.035570513
000350 20 33 15 bb 31 b9 00 bd 42 ba 42 bd fc 3b 84 bc
       -0.0022766069 -0.031426612 -0.04754091 -0.016141884
000360 05 40 12 3c 3d 32 c2 bc 81 20 fb 3c ac 36 3e bc
       0.008926396 -0.023705596 0.030655148 -0.0116097145
000370 0c a3 58 b9 2a 09 8a 3c 75 50 29 3d 64 ff 4e 3c
       -0.00020660105 0.016850073 0.041336495 0.012634132
000380 95 d3 bf 3b f6 14 a4 3c 2d f2 a3 bc 00 a0 ab 3a
       0.00585408 0.020029526 -0.02001294 0.0013093948
000390 fd 07 9d bc ad b9 f5 bc b0 3e 21 3b e1 75 10 3d
       -0.019168848 -0.029995764 0.0024604015 0.035268668
0003a0 d4 73 52 3c 74 f3 28 bc bf 6b 2d 3d 5f 04 84 3c
       0.012844998 -0.01031195 0.042339083 0.016115366
0003b0 e6 31 19 bd de c3 b6 3c d5 f9 24 3d 20 d6 50 3b
       -0.037401102 0.022310194 0.04027732 0.003186591
0003c0 e8 dc 75 bc c6 35 0e bd cc a6 1f 3c b9 17 4b bd
       -0.015006281 -0.03471925 0.009744357 -0.04958317
0003d0 b2 af ba 3c 0e c2 b1 ba fb bf 35 bd 73 20 fc bc
       0.022788856 -0.0013561861 -0.04437254 -0.030777192
0003e0 64 be 3d bd a0 18 d1 3a d8 38 14 3c 29 cf 3b 3d
       -0.04632415 0.0015952773 0.009046756 0.04585186
0003f0 4d 5c 43 3d f0 f0 61 3c 00 d1 f8 3b d8 ad 11 bc
       0.047695447 0.013790354 0.007593274 -0.008891545

layer_2.bias f4 [300]
000000 03 c2 43 bd 2c 88 26 bd 7c 0f ed bc 49 a0 2f 3d
       -0.047792446 -0.040657207 -0.028938048 0.04287747
000010 9d d1 91 3b ef 8e f9 bc 07 e0 9f bc c6 fc 55 bd
       0.0044500367 -0.030463664 -0.019516004 -0.052243017
000020 f2 ca 73 3c d8 a6 db ba 6b 14 2f 3d 3e 2c 94 3b
       0.014879929 -0.0016758097 0.04274408 0.0045218756
000030 3a cf 41 bd 88 50 00 bd 40 66 10 bd e3 74 09 3d
       -0.047316767 -0.0313268 -0.035253763 0.033558737
000040 db 6e 06 bc 54 55 40 bd c0 f4 74 bc 62 21 c3 bc
       -0.008205141 -0.046956375 -0.014950931 -0.02381963
000050 b3 bf 49 3c ce 1d 3b 3d 70 8d 68 bc 21 43 40 3d
       0.012313771 0.04568272 -0.014193878 0.04693902
000060 15 45 7e 3c ae ad ef 3c 2d 31 69 3d 1a ad d2 bc
       0.0155194 0.029257622 0.056931663 -0.025717307
000070 65 75 c1 bc d6 5d 30 3d e2 98 a2 bc 7e c1 43 bc
       -0.023615548 0.04305824 -0.01984829 -0.011947988
000080 5f 57 9c bb 4a da 06 bd 02 e4 c9 3c 93 3b fa bc
       -0.0047711576 -0.03292302 0.024644855 -0.030545985
000090 93 66 93 3c a6 e7 8c 3c a5 f1 b3 bc e5 e3 04 bd
       0.017993247 0.017200302 -0.021965811 -0.0324439
0000a0 ec 91 1f 3d d9 d1 ea bc 03 b2 37 3d a2 f1 a4 3c
       0.03895752 -0.028664516 0.0448475 0.02013475
0000b0 de 18 c1 bb cd 53 27 3d 29 49 01 3d 33 ef 55 bd
       -0.005892857 0.040851403 0.03156391 -0.05223007
0000c0 c0 c2 a5 bc 75 32 f4 3b 58 e9 96 bc 0f 99 72 bc
       -0.020234466 0.007452304 -0.018421814 -0.014807
0000d0 f7 23 b5 bc 29 94 de bc 54 83 ea bc 45 2c 2d bd
       -0.022111876 -0.027170258 -0.028627075 -0.042278547
0000e0 4e b5 ac 3c a5 4e 4c 39 16 64 0b 3d 17 9e a8 bc
       0.021082547 0.00019484253 0.034030996 -0.020583196
0000f0 fc a0 01 bd 44 e1 1a 3c 0e e3 2e 3d f3 a2 0d 3d
       -0.031647667 0.009453122 0.042697005 0.03457923
000100 33 22 e8 3c 7f bc 3e bc 33 25 18 3c f1 19 17 3d
       0.02833662 -0.011641621 0.009286213 0.036889974
000110 81 6b 1d 3d 15 d0 10 bd f1 ec 3d 3b e8 8a 4a bd
       0.0384326 -0.035354692 0.002898034 -0.049448878
000120 3a f8 32 bd 15 6c f5 bc 49 42 26 3c ec 40 f1 bc
       -0.04369376 -0.029958764 0.01014764 -0.029449902
000130 f7 fe 20 3d eb 65 51 bd 3b 0e 3d 3c 98 e8 34 bc
       0.039305653 -0.051122587 0.011539037 -0.011041783
000140 6f a8 96 bc 92 bd 92 bc b7 87 b4 bc 1b eb 3f bd
       -0.018390862 -0.01791266 -0.02203737 -0.046855073
000150 ba 23 44 bd e9 e7 47 3d 8e a1 d8 3c 3a c6 44 3d
       -0.047885634 0.04880515 0.026444223 0.048040606
000160 6d ff 40 bd 4d b4 db bc 03 78 2d bb 28 27 0d 3c
       -0.047118593 -0.026819373 -0.0026469238 0.008615293
000170 00 43 bb 39 bf 01 2d bd 49 aa 0d bc a2 0d 6f 3b
       0.00035717338 -0.042237993 -0.008646556 0.0036476632
000180 32 e4 8e 3c fc 95 2f bd c9 7f 98 bc 57 ff d4 3c
       0.017442796 -0.042867646 -0.01861562 0.026000662
000190 51 c1 15 3d cb a3 23 3d 71 eb ba 3c 69 99 6b bb
       0.036561314 0.039951127 0.022817345 -0.0035949594
0001a0 d9 94 26 bd 87 bb 58 bd ca 7a b3 3c 53 d7 63 bd
       -0.040669296 -0.052913215 0.021909136 -0.05562527
0001b0 3d 3b 12 3d a0 a5 93 bc 03 1d 2c 3d 01 8d 45 3b
       0.035701025 -0.018023312 0.042019855 0.003014386
0001c0 50 ef b0 3b 3f 0b 07 3d 86 75 11 bd 14 6b 67 3c
       0.005399622 0.03296971 -0.03551247 0.0141246505
0001d0 24 4f 09 bc b2 6f ec bc 7e 35 d4 bc 16 54 a7 bc
       -0.008380685 -0.028861854 -0.025904413 -0.020425837
0001e0 c7 27 0a bd 09 8c b9 bc 5b 88 21 bd 29 e6 04 3d
       -0.03372934 -0.022649782 -0.03943668 0.03244606
0001f0 7a 2d e9 3c 93 a6 25 bd a4 bb 48 bd 0a 36 e9 bc
       0.028464068 -0.04044206 -0.049007073 -0.02846815
000200 47 32 17 3d de 13 80 bc eb f1 57 bc bc 90 16 3d
       0.036913183 -0.015634473 -0.013180236 0.036759123
000210 53 3a 82 3c 22 bb d3 3c 5a 16 f9 bc f6 78 3c bc
       0.015896952 0.025846068 -0.030406166 -0.011503449
000220 cd 23 ea 3c 65 fa 24 bd 9a 8b e2 3c cc db 41 bd
       0.028581524 -0.040277857 0.027654458 -0.047328755
000230 11 d4 10 3b 36 2e ef bc 69 b4 00 bc 86 d1 5f bc
       0.0022099058 -0.02919684 -0.007855513 -0.013660794
000240 a7 ac cf 3c 85 a6 99 3a 69 a7 5c bd c9 b7 28 bd
       0.025350882 0.00117226 -0.053870592 -0.041190896
000250 39 a2 3a 3d 5c e3 85 3c e0 aa 8e bc be fa fb bc
       0.045564864 0.016343765 -0.017415464 -0.030759212
000260 19 49 07 bd 0f 05 21 3c bb cc 4e bd ce d9 15 3d
       -0.033028696 0.009827866 -0.050488215 0.036584668
000270 04 e7 0a bd d7 3f 1c bd 78 ee 32 bd 68 e6 07 bd
       -0.03391172 -0.03814682 -0.043684453 -0.033178717
000280 cc 69 2b bc aa f1 23 bd 4b ce 9f bc cb fc e1 bc
       -0.010462236 -0.04002539 -0.019507548 -0.027586361
000290 d5 d1 2b b9 84 9c 94 3c 56 50 da bc 91 d3 2c bd
       -0.00016386 0.018141039 -0.026649635 -0.042193953
0002a0 b7 ea d9 bc 6c 78 3b bd f7 eb 18 3d 4b 78 82 bc
       -0.026601179 -0.04576914 0.03733441 -0.0159265
0002b0 31 7e 2e bc e6 6d 57 bd c6 89 f8 bc 98 e0 a6 bc
       -0.010650204 -0.05259504 -0.030339133 -0.020370767
0002c0 32 10 30 3d 67 0a 98 3c c0 10 10 3c fa a8 98 3c
       0.042984195 0.018559648 0.008793056 0.018635262
0002d0 1a 6d 3a bd d6 14 cc bb 8d 8f 3c 3d 10 65 31 bd
       -0.045514204 -0.00622807 0.04603534 -0.04330927
0002e0 18 bb 4b bd 96 5b 2b bd 4b ab f8 bb b4 07 63 3c
       -0.049738973 -0.04183539 -0.007588779 0.013856817
0002f0 fa 4b 29 3d 21 df 34 bc ce b5 b0 3c e2 11 07 bc
       0.041332223 -0.011039526 0.021571066 -0.00824401
000300 c4 c6 1a 3d f9 ab 0d bc 2f 34 c8 3c 07 e3 28 bd
       0.037787214 -0.0086469585 0.024438946 -0.041232135
000310 fe 45 30 3d 63 0d 45 bd f1 b8 13 bc fb f5 88 bc
       0.0430355 -0.04810847 -0.009016261 -0.016718855
000320 57 be 62 ba b8 2a 20 bd c5 49 1d 3d 21 1a df 3c
       -0.00086495787 -0.03910324 0.03840043 0.027234139
000330 81 8a 5f bd 75 36 0c 3d 50 b4 b6 bb cb e2 e4 bc
       -0.054575447 0.03423162 -0.005575694 -0.027940175
000340 1f 48 81 bc 70 90 af 3b 89 34 4b 3d 81 f6 b0 bc
       -0.01578146 0.0053577945 0.04961065 -0.021601917
000350 2c d4 f7 bc 4b 41 18 3d 3e 40 95 3c c7 8a 21 39
       -0.030252539 0.037171643 0.01821911 0.00015405855
000360 ea c2 3e bd 3c 20 14 3c 6d 36 a1 39 d4 85 0e bd
       -0.046572603 0.009040888 0.00030748863 -0.034795597
000370 96 92 0e 3d b5 18 47 bb d8 70 13 bd f8 6c 9c 3c
       0.034807764 -0.0030379717 -0.035996288 0.01909493
000380 e7 d7 40 bd 8a c1 e4 bc c0 b7 3a 3c 50 6b 3b 3d
       -0.0470809 -0.027924318 0.0113963485 0.045756638
000390 a6 d2 ca 3a a0 79 12 bb 8c a2 0b bd ca 9c f9 3c
       0.0015474155 -0.0022350326 -0.034090564 0.03047027
0003a0 ff 97 29 bc b4 25 4a 3c a2 6c 05 3d 79 f2 0d 3d
       -0.01035118 0.012338091 0.032574303 0.034655068
0003b0 6e 7c b3 bc 0a b7 c2 3c c5 2c 5e bc ab a1 47 3d
       -0.021909919 0.02376892 -0.013560479 0.048738163
0003c0 1a 59 54 3b 76 d0 ea 3c 6b 33 14 3d c6 e9 01 bc
       0.0032401741 0.028663855 0.03618185 -0.007929271
0003d0 d2 29 2e 3c ca 1d df 3c 8d 9c 24 bd e6 4b 21 3d
       0.010630088 0.027235884 -0.04018836 0.039379023
0003e0 e2 da c3 3c 34 1d 3a bd 61 76 77 3d 05 1d 43 bd
       0.023908082 -0.045438007 0.06041563 -0.047635097
0003f0 0a 60 61 3c 4c 5c 83 bc 6d 84 59 3c 9e ed f8 3c
       0.013755808 -0.016035222 0.013276202 0.030386742

layer_3.weight f4 [106, 300]
000000 02 1f 48 3d b5 5b 47 3b d0 90 a9 3c 2a 75 68 bd
       0.048857696 0.0030419652 0.020698935 -0.05675236
000010 56 1e 16 bd fc 4f 88 bc ce bc 12 3d 42 19 64 3d
       -0.036650024 -0.016639702 0.03582459 0.05568815
000020 22 5f 68 bd f7 04 0f ba d9 a8 20 bd e2 4a 10 3d
       -0.05673135 -0.0005455757 -0.039223526 0.035227664
000030 30 45 38 3d 6e 4e 28 bd ef eb 5e bd 2d 21 3b bd
       0.044987857 -0.04109042 -0.054424223 -0.045685936
000040 0b 99 1a bd 18 c2 80 3b 58 bd 01 bd 8a 5b 21 bd
       -0.03774361 0.003929388 -0.031674713 -0.03939394
000050 99 8c 02 bd 78 c8 02 3c e6 3c 07 3d b0 60 1d bc
       -0.031872366 0.007982366 0.03301706 -0.009605572
000060 04 91 34 bd 40 a8 f1 bb 96 cb 4b bd f4 66 b1 3c
       -0.04408361 -0.0073747933 -0.0497547 0.021655537
000070 5c 27 2f bd 1a b5 10 bd 56 33 8c bc 4d 32 3a 3d
       -0.042762145 -0.035328962 -0.017114323 0.045458127
000080 38 7b 87 bb c0 0d 4d 3c c2 1b 19 3d 66 bc 83 bc
       -0.004134562 0.012515485 0.037379988 -0.016081046
000090 15 22 24 bd d4 80 42 bd 0c cc fb 3c c8 bd 40 3c
       -0.040071566 -0.04748614 0.030736946 0.011763997
0000a0 1c b7 64 bc f0 1b 31 3c 78 ca 61 bd e0 b0 8e bc
       -0.013959672 0.0108098835 -0.05512473 -0.017418325
0000b0 54 1d 83 3c 78 f2 26 bd 78 8a e2 bc a0 a8 1a 3b
       0.016005196 -0.04075858 -0.027653918 0.0023599043
0000c0 22 9a 0c 3d 80 26 5b bb e0 d6 5f 3d 37 be 2f bd
       0.03432668 -0.0033439696 0.05464828 -0.042906012
0000d0 d6 21 14 bd f8 71 e1 bc b6 13 30 3d f8 c1 c9 bc
       -0.03616508 -0.027520165 0.042987548 -0.024628624
0000e0 20 05 a8 bc 3f 52 50 3b b8 cc 51 3b 90 f0 a2 3c
       -0.020510256 0.0031787304 0.003201289 0.0198901
0000f0 12 5d 40 3d c6 ce 47 bd 40 99 a4 3b 82 cd 25 3d
       0.04696376 -0.04878118 0.0050231516 0.04047919
000100 94 64 3f 3d 38 5a 0d 3d 6e 29 2d 3d ca 50 04 3d
       0.04672678 0.034509867 0.04227584 0.03230361
000110 ec e5 4e 3d d8 52 bd 3c a6 a2 4a 3d 8b b2 57 bd
       0.05051224 0.023110792 0.04947152 -0.052660506
000120 b0 a0 fc 3c 40 6f 19 ba 14 6b 35 3d a8 67 f9 3c
       0.03083834 -0.00058530644 0.04429157 0.030444935
000130 7c 1b 95 3c 3c 71 b4 bc 81 58 41 3d ee 7f 25 bd
       0.018201582 -0.02202665 0.047203545 -0.040405206
000140 58 9d 75 3c fa 6a bc bc 93 44 1e 3d e6 8e 4b bd
       0.014991127 -0.02300023 0.038639616 -0.049696825
000150 cc b3 16 bb f8 1b d3 bb 1a 2b 5c 3d 00 88 5d ba
       -0.002299535 -0.006442543 0.053752042 -0.00084507465
000160 c4 34 bb 3c e8 22 99 3b 6a f8 64 3d b9 49 04 3d
       0.022852309 0.0046733506 0.05590097 0.03229687
000170 b9 84 f8 bc 4e f3 30 bd 68 90 3a 3c b0 05 75 3c
       -0.030336725 -0.043200783 0.011386968 0.014954969
000180 bc 0e 45 bd f2 3a 23 3d c4 47 10 3d a4 93 9b 3c
       -0.048109755 0.039851137 0.03522469 0.018991299
000190 63 85 56 3d 68 a9 6d bc a8 ed 29 3d 08 79 72 3c
       0.0523733 -0.014505722 0.041486412 0.014799364
0001a0 e2 9d e5 bc e8 e7 a3 3c db dd e8 bc a0 48 e7 3b
       -0.028029386 0.020008042 -0.028426101 0.007058218
0001b0 f0 58 34 3c 67 3f 58 bd 90 ac d0 bc e8 d6 c6 bc
       0.0110075325 -0.05279484 -0.02547291 -0.024272397
0001c0 0a 02 25 bd a0 5b 95 bc d8 25 0d 3c e0 a0 82 bb
       -0.040285148 -0.018232167 0.00861498 -0.003986463
0001d0 c8 26 28 3c 4c 3f 0c 3d 1e 80 37 bd 74 e2 4d bc
       0.010263152 0.034240052 -0.044799916 -0.012566198
0001e0 68 56 01 bc a0 35 7c 3c 38 13 26 3c a0 f3 91 3c
       -0.007894136 0.015393645 0.010136418 0.017816365
0001f0 81 30 de bc de 6f 0e bd 5c 86 2d 3d 44 3d e7 3c
       -0.027122738 -0.034774654 0.042364463 0.028227456
000200 07 36 3a bd 4c 63 33 bd 28 60 a9 3c 12 2e 07 3d
       -0.04546168 -0.04379587 0.020675734 0.03300292
000210 45 9c 0b bd dc be 0a bc d4 62 00 3d 54 e5 86 3c
       -0.034084577 -0.008468356 0.03134425 0.016466774
000220 e3 61 71 3d bc 9e 7a 3d ca bf 10 bd 54 73 14 3d
       0.058931243 0.061186537 -0.035339154 0.036242798
000230 be f0 15 bd e6 d3 8c bc 00 ac d3 bc 62 51 8c 3c
       -0.036606543 -0.017190885 -0.025838852 0.01712865
000240 e8 ca f8 bb 1e a6 40 3d dc dd c4 3c 64 25 27 bd
       -0.0075925477 0.04703342 0.024031572 -0.040807143
000250 5a 58 1d bd 47 18 4f bd 52 ff d6 bc 68 ad 5e 3c
       -0.038414337 -0.050560262 -0.026244793 0.013591148
000260 90 49 fa 3b 16 55 1f 3d e0 d7 23 3c 5e ba 53 3c
       0.007638164 0.038899504 0.010000199 0.012922851
000270 57 2c 1d bd e8 17 d5 3c bc 02 ea 3c a8 bb c0 3c
       -0.038372364 0.026012376 0.028565757 0.023526981
000280 d2 a0 37 3c db 6a 38 3d 86 a2 b7 bc 7c 11 31 bd
       0.011207776 0.04502378 -0.022416364 -0.043229565
000290 84 18 ad bc 34 d5 4c bc 68 1e 7f bc 6a 67 4b 3d
       -0.021129854 -0.012502003 -0.015571214 0.04965917
0002a0 08 83 b5 3c 60 53 ab 3c 80 6d 80 3a 47 77 b3 bc
       0.022157207 0.02091378 0.0009798259 -0.021907462
0002b0 80 89 35 ba ca 33 42 bd 53 3e 02 bd 76 40 54 bd
       -0.0006925091 -0.04741267 -0.03179772 -0.051819287
0002c0 e8 14 3c 3c ae 2d 58 3d 64 8f 1f bd 22 35 eb bc
       0.011479594 0.05277794 -0.038955107 -0.02871186
0002d0 48 0e a1 3c 4e 76 2c bd fc fd 42 bd 65 bb a0 bb
       0.01966013 -0.04210501 -0.0476055 -0.0049051517
0002e0 0c 3d 34 3d cf d9 f8 bc c4 bf a4 3c d0 1c 05 bd
       0.04400353 -0.030377297 0.020110972 -0.03249818
0002f0 02 d0 5b bd 32 2f 4b 3d 08 70 fd bb f4 74 4b 3d
       -0.05366517 0.049605556 -0.0077343024 0.049672082
000300 88 68 38 3c 20 85 44 bb a0 b2 ec 3b cc 47 8c bc
       0.011255391 -0.0029986575 0.007223442 -0.01712408
000310 80 7c a4 3c 69 a0 45 bd 7c 7c 35 bd a4 be e3 3c
       0.020078897 -0.048248682 -0.04430817 0.027800865
000320 1c ee a3 3c 68 b8 04 bc 44 47 e3 3c 5e c2 30 bd
       0.020011 -0.0081006065 0.027743943 -0.043154113
000330 2c 0a 37 3d 38 6b ca bc cc b1 d1 bc e2 aa 2f 3d
       0.044687435 -0.024709329 -0.025597475 0.042887576
000340 95 4d 51 3c 00 53 97 3a d0 bd 7a bb 86 32 2e 3d
       0.012774845 0.0011545122 -0.003826011 0.04252865
000350 4f ba 95 3c b8 b0 a5 bb c4 cc 24 bc 0a aa f4 3c
       0.018277315 -0.005056467 -0.010058586 0.029866237
000360 06 dc 05 3c 60 b2 0c 3d 28 59 3c 3d 04 0c 26 3c
       0.008170133 0.0343498 0.045983464 0.010134701
000370 be 42 a4 bc 30 dc 1c bd 20 3c 16 bc dc 0d 32 bc
       -0.020051356 -0.038295925 -0.009169608 -0.010867562
000380 a0 10 68 3d 57 72 62 bc 20 e1 be 3c e5 7d 00 3d
       0.05665648 -0.013821206 0.023300707 0.031370062
000390 16 4a f5 bc 77 c6 30 3c bc e7 9c 3c e4 87 5e 3d
       -0.029942553 0.010789505 0.019153468 0.054328814
0003a0 17 63 b1 3c 4e ff 05 3d 92 89 43 3d 2c aa 67 3d
       0.021653695 0.03271418 0.04773862 0.056558773
0003b0 41 01 fa bc 98 7d c2 bb 96 29 02 3d 70 44 b9 3b
       -0.030518176 -0.005935382 0.03177794 0.0056539103
0003c0 11 2d ae bb 90 4c f0 bb 24 41 a0 bc 50 79 14 bd
       -0.005315431 -0.0073333457 -0.019562311 -0.036248505
0003d0 f0 d4 08 bc 24 a5 45 bc 02 d7 67 bd 52 c3 cc bc
       -0.0083515495 -0.012063298 -0.05660153 -0.02499548
0003e0 78 e2 4b 3c 0a ec 49 bd be f7 18 3d 50 ee 3e bd
       0.012444131 -0.04929737 0.03734564 -0.04661399
0003f0 d2 c1 cd 3c e4 17 56 bc 3d b0 9d 3b 2e 8f e6 bc
       0.025116835 -0.013067219 0.004812269 -0.028144445

layer_3.bias f4 [106]
000000 38 e2 70 3d 46 4c 50 3d 60 0d 5b bd 4f de a8 3c
       0.05880949 0.05085399 -0.053479552 0.020613817
000010 1e 1c 3d 3c de e7 8a bc ee 48 02 bd c3 70 cd bb
       0.011542348 -0.016956266 -0.031807832 -0.0062695458
000020 ea 24 12 3b 81 0e aa 3c ca 28 be 3c 31 85 5a bd
       0.0022299835 0.02075887 0.02321281 -0.053349677
000030 c7 d7 d5 bc 6b 11 5c bd 5b 3f a0 3c 0f d7 e3 3b
       -0.026103867 -0.05372755 0.01956146 0.006953127
000040 6c aa 78 3d e8 51 4c bd a0 56 54 bd 52 a7 20 3d
       0.060709402 -0.0498828 -0.051840425 0.03922207
000050 f6 84 b5 3b 6b 5d 0d 3d d9 ea 4f bd ee 1e 53 3d
       0.005539532 0.03451292 -0.050761078 0.05154317
000060 b8 91 17 3b 1c 9e ab bc 36 da 6c bc 8d 3d 2f 3d
       0.0023127627 -0.020949416 -0.014456322 0.04278331
000070 5f da 17 bd 80 b5 08 bd a7 51 28 bd 8a 5e 42 3c
       -0.03707349 -0.033376217 -0.041093495 0.01186336
000080 1b 4e a2 3c a5 e1 48 3c 71 d5 61 bd 2c d5 45 bd
       0.019812634 0.012260829 -0.055135194 -0.048299
000090 e2 bc 20 bd 94 55 f5 3c ee 9b 11 bd 45 b5 1f 3d
       -0.039242633 0.029948033 -0.035549097 0.03899123
0000a0 18 9c 0e bd cb 4e 1b 3d 51 6e 83 bc b5 d8 85 3c
       -0.03481683 0.03791694 -0.016043814 0.016338686
0000b0 2b e3 ef 3c 37 93 6e bd fe 65 7a bc c0 17 f2 3b
       0.029283127 -0.058245864 -0.015283106 0.007388085
0000c0 ed 58 2a 3d 96 d7 04 3d f2 e8 07 bd 43 22 46 3c
       0.041588712 0.03243216 -0.03318114 0.01209313
0000d0 f5 ec 80 bd f0 f1 50 3d b4 aa 9f bc aa a4 a6 bc
       -0.06295196 0.05101198 -0.019490577 -0.02034219
0000e0 9c fd 4c 3d 31 ba 30 3d 55 dd 20 3c 8e 85 64 3d
       0.05004655 0.043146316 0.009818395 0.05579143
0000f0 0c eb 4f bd d5 c6 0f bd a6 2c b0 3b 9f 16 5d bd
       -0.050761268 -0.03510173 0.0053764163 -0.05397665
000100 e6 9c 3b bd 71 f6 24 bd b2 35 15 bd 6b 26 22 bd
       -0.045803927 -0.040274087 -0.03642816 -0.03958742
000110 0d 17 2f 3d 4f 9b ef bb 50 88 8c 3c 1c 05 3d bd
       0.042746592 -0.0073122154 0.017154843 -0.04614745
000120 81 25 44 3d c6 9f 1c bd dc 44 6b 3d 67 6f 3a bd
       0.04788733 -0.03823831 0.057438716 -0.045516398
000130 7a 02 52 bd c8 b8 2f bd 57 5c af bc 73 78 05 3d
       -0.051271893 -0.04290083 -0.021406336 0.032585572
000140 89 b1 3d bc 50 1a 8f bc 1d 51 5e 3d 30 6e 80 bc
       -0.011577972 -0.017468601 0.054276574 -0.015677541
000150 41 bd ec bc 98 ae 7c 3d 31 7e b5 bc 93 7a 57 bd
       -0.028898837 0.061689943 -0.0221549 -0.05260713
000160 5c 98 25 bd 3e b0 23 bd 64 80 bc 3c 60 3b 85 bb
       -0.040428504 -0.039963 0.02301044 -0.004065916
000170 a4 fe da 3b 94 11 f6 3c b9 d0 50 3d f5 aa 01 bd
       0.0066831876 0.030037679 0.050980303 -0.031657178
000180 9e 21 02 bd bd ba 51 bd 89 5c 42 3c fb 9d 03 3d
       -0.03177034 -0.051203478 0.011862882 0.032133084
000190 70 1a bd 3c af 87 4f 3c d4 bb 1a 3d 67 44 06 bd
       0.023083895 0.012666627 0.037776783 -0.032780077
0001a0 27 1d d4 bc 73 d0 39 3c
       -0.025892807 0.011341202
