models/ddpg_model_episode_300_critic.pth (torch, 674589 bytes, 5 tensors)

layer_1.weight f4 [400, 117]
00000000: f792 933f e716 1d3e 26d3 f33e ae20 90bd
00000010: c04d 773c 710b 38bc 80e6 193e c770 eebc
00000020: 82a6 54bf d02b 50bf 0fef bfbd 1973 98bd
00000030: 5a1c 463f 4076 333f 7661 a7be 4b7f f0bf
00000040: b220 f2be 9c12 aebe afb0 343e adf8 623e
00000050: 07b6 88bf f889 143f eec1 23be e060 94be
00000060: 9372 413e e497 91be b2ba e3bd ca77 9bbe
00000070: d685 813d 4457 873f 58ba 6b3e 6bee 5a3e
00000080: f8ff 193f 167d adbd c42f 9e3e 9d8d 023d
00000090: 5ca9 003f 5f33 f4bc 2f19 08bf b451 283f
000000a0: eebe 643d 5f83 c73f db0d 233f 9be0 a93e
000000b0: 24fc b83d c816 2a3e ca00 13bd 3564 d4bd
000000c0: b9d1 20be b56a 94bd a327 623e 0895 d0bd
000000d0: 11ce df3f f2e3 babe 0e05 34be a1ec b73f
000000e0: ea34 d4bd 97e7 66be a279 963f 3458 6b3e
000000f0: 9f58 163f 3dd9 99be 561c 94bd 416a 34bf
00000100: 42e4 303e cac6 543f 1e26 52bf d344 f43d
00000110: 11cc 2dbf 834c 283e 978f 73be d267 bdbe
00000120: 6039 b1bf faa0 dd3d 19fa c8be 0f48 133f
00000130: 485a b0be 6e70 08bd fa8c 0b3f f615 5cbe
00000140: fa1b 64bf 05c5 3ebf e8b7 cfbe 37f6 aabd
00000150: 5ca8 a43e e163 75be 4cbd c8be 8d33 223e
00000160: 7284 913e 82b8 7dbd d288 7b3e 7042 06be
00000170: f2ea babc 8ca4 313e 8bde c03e aa8c 2fbe
00000180: e88e 953e e7f8 30bf 4d97 6b3e 5d25 00bf
00000190: 55fc 8cbd 447e 7a3f 5e54 83bf 2dc2 aebf
000001a0: abc2 ad3d 9920 42bf f8b5 0f3c b257 803d
000001b0: 1012 6abf 68ff 3cbe a6cd 433f 67ef 60bf
000001c0: a1f8 fbbe 6d7d 5bbf 57b8 4c3e d068 0e3e
000001d0: 75ff 033f 04cc b43f a23a 34bc d907 d6be
000001e0: 44b6 3ebe 5a1f 863d 5589 343e d9bf 313e
000001f0: 0f14 083e c090 eb3e a2d3 193f 3b85 a1bd
00000200: 9946 fbbd 67ad 86bd fbad c3bd 4d7f f2be
00000210: 0e1e 05c0 01b3 223e 4658 aebe cbc9 e93d
00000220: 3387 613e 78e1 da3d 3e11 36be 1971 70bf
00000230: b0c2 0cbe 70cb 03bf 8a4c babe c2fe f0bd
00000240: 6b6a f0be e9cb 0e3d 8140 c93e f4da aa3e
00000250: d70a cd3e b3ad ebbd 9295 33bd fbd1 06bf
00000260: f0a0 313f f2b0 97be 9e7e 57bc ad94 68bf
00000270: e48a e6bd 6f30 c33c 35ed 3b3f 3e25 85be
00000280: ff02 d6be 09fa 33be cd16 04be 1d86 fd3e
00000290: 604a b63b 75ee 69bf d5b0 0f3f 1589 823d
000002a0: ed60 a43d c78f 4b3f cfe7 fe3e f58a 52be
000002b0: 4964 1f3f 3582 133f 5ca4 0cbe 2085 823e
000002c0: 0383 873e de39 393f ee02 44bc 4000 4b3d
000002d0: 302d bfbe 2409 753e c978 323d 1346 c23d
000002e0: 145e 00bf 1bd3 8f3e ecc9 0c3e ff70 b43e
000002f0: ab18 d43e d919 e1be f39e 173d 671c f63e
00000300: f47e 8ebe c96f 9bbf 6785 5d3c 3c1c 59be
00000310: 7e9b 33bd face b2bf a60b dcbe 23cd 263e
00000320: 030f 9ebd 3f49 1c3e f120 7ebf 79c2 9fbe
00000330: 5972 06bf a7ee 4e3f 2c43 2bbe c3e1 8abe
00000340: 111c c3bd 8865 03be 7282 f83d a54f 5e3f
00000350: 0a80 4f3f 4ce1 ccbe cb78 543d 41c5 e5be
00000360: 9682 02bf d62d c7bd 9255 fb3d 724d f3bd
00000370: eab5 5ebe 8f03 413c 545c babb 12f8 59be
00000380: d6f5 75bf 08a8 f7bd a139 57bf 736d 953f
00000390: 46e5 d03d c6fb 87bf 6fe8 4a3d 3780 783e
000003a0: 6743 113e a1db 2fbe 8fbf c8bf b81d adbd
000003b0: 9ccd 7f3e 222e 6d3d 8a6c 6a3c 4551 8b3c
000003c0: 1f13 e53c a4e3 0bbe 1af0 603c c4b7 8abd
000003d0: 3b87 c4bd 0bb0 533e ba8b 823c be9a 3abd
000003e0: dc30 553e db40 0c40 46f6 b7be 9136 6b3e
000003f0: 89db 5ebc a91f 6abe 4e2c e73d 1794 0f3e
1.1529225 0.15340768 0.4762203 -0.07037483 0.015094221 -0.011233197 0.15029335 -0.02910651
-0.8306657 -0.8131685 -0.09371769 -0.07443828 0.7738701 0.7010231 -0.32691544 -1.8788847
-0.4729057 -0.33998573 0.17645524 0.22165175 -1.068055 0.58023024 -0.15991947 -0.2898016
0.18891363 -0.28436196 -0.11119594 -0.3036483 0.06324355 1.0573506 0.23020303 0.21380012
0.601562 -0.08471124 0.30895817 0.031873334 0.5025842 -0.029809652 -0.5316343 0.6574967
0.055846147 1.5586966 0.63693017 0.33179173 0.09032467 0.16610253 -0.035889424 -0.103706755
-0.15705003 -0.07246915 0.22085433 -0.101846755 1.7484761 -0.36502033 -0.17580053 1.4369088
-0.10361655 -0.22549282 1.1755869 0.22982866 0.58728975 -0.30048552 -0.07231967 -0.7047463
0.17274573 0.8311583 -0.8208941 0.1192719 -0.67889506 0.16435437 -0.23785244 -0.3699327
-1.3845634 0.108217195 -0.3925331 0.5753183 -0.3444388 -0.033310346 0.5451199 -0.21492752
-0.8910519 -0.7451938 -0.40569997 -0.08347743 0.32159698 -0.23963882 -0.39206922 0.15839978
0.2842136 -0.06194354 0.24563912 -0.13111281 -0.022817109 0.17347926 0.37669787 -0.17143503
0.2921059 -0.69129795 0.23006935 -0.5005701 -0.06884066 0.97848916 -1.0260122 -1.3653008
0.084843956 -0.7583099 0.008771412 0.062667266 -0.9143381 -0.18456805 0.7648567 -0.878653
-0.49213126 -0.8573826 0.19992195 0.1390717 0.5156167 1.4124761 -0.011000307 -0.41802862
-0.18624216 0.065489486 0.17630513 0.1735834 0.13288902 0.46008873 0.6008855 -0.0788674
-0.12269325 -0.065760426 -0.095546685 -0.47362748 -2.0799594 0.15888597 -0.34051722 0.11415442
0.2202423 0.10687536 -0.17780015 -0.93922573 -0.13746142 -0.51482296 -0.3638652 -0.11767341
-0.4695619 0.034862433 0.39307025 0.33370173 0.40047333 -0.1150774 -0.043843813 -0.52664155
0.69386196 -0.29627186 -0.0131527465 -0.9085186 -0.1125696 0.023826806 0.73408824 -0.26004976
-0.4179916 -0.1757585 -0.12899323 0.49516383 0.0055630654 -0.9137948 0.561292 0.063738026
0.080262996 0.7951626 0.4978623 -0.2056082 0.622624 0.57620555 -0.13734573 0.2549219
0.26467142 0.72353923 -0.011963589 0.049560785 -0.37339163 0.23929268 0.04357222 0.09486022
-0.5014355 0.28090748 0.13748902 0.3524246 0.4142507 -0.43965033 0.03701682 0.48068544
-0.27831233 -1.2143489 0.013520575 -0.21202177 -0.04384946 -1.3969414 -0.42977637 0.16289191
-0.07717707 0.15262316 -0.99269015 -0.31203058 -0.5251823 0.80832905 -0.16724843 -0.27125368
-0.095268376 -0.128317 0.121342555 0.8684028 0.8105475 -0.40015638 0.05187301 -0.44877055
-0.5098051 -0.097255394 0.122721806 -0.11880006 -0.21749082 0.011780634 -0.005687276 -0.21286038
-0.9607824 -0.12092596 -0.8407231 1.1674026 0.101999804 -1.062371 0.049538072 0.2426766
0.14185868 -0.17173626 -1.5683459 -0.08452934 0.24980778 0.057905324 0.014308104 0.017006526
0.02796322 -0.13661057 0.01372912 -0.06773332 -0.09596106 0.20672624 0.015935767 -0.04555773
0.2081942 2.1914585 -0.3593008 0.22970034 -0.013602146 -0.2286364 0.11287747 0.14021336

layer_1.bias f4 [400]
00000000: 1b2e 903d 9635 b43d 248d 08be 2510 88bc
00000010: da6b 7cbd 34b5 f53c 7bf5 283d 1386 dabd
00000020: b113 bbbd b3a9 b2bc aff9 3dbd 6315 8f3d
00000030: c7d3 9abd d211 253d 4980 633f 184c a13b
00000040: 79ed 52bf eb68 40bd 7557 6ebd 78d2 d8be
00000050: c412 99bc 0aad 3e3e 083e e7bd b631 a6bd
00000060: 9e78 5abe 2a6f 783d 58c6 5dbd 241f 2cbd
00000070: 9749 11bd aa1e 15bd c0cd 1bbd ec10 2cbe
00000080: 4fb3 bc3d 9c90 99bc bf78 a93d ee94 7b3c
00000090: 7264 c5bd 9148 32be fe45 7bbd a0a4 fbbd
000000a0: 5383 dcbd a330 5bbd cd74 58bd 2b1a 133d
000000b0: 061e 1e3d 7468 94bd 1026 9b3c d24a f43d
000000c0: 0a54 99bc a668 97bd 7d4c bd3d 7d0b 883c
000000d0: a884 c9bd c0f6 b3be 1453 63bc a426 c13c
000000e0: 74d6 68be 8612 98be 6fd4 03be 645d dabd
000000f0: 2294 a5be 40c2 873c 3c16 333b 1441 6cbe
00000100: b38f ae3e aeee 53bd 7956 a0be 1416 0d3e
00000110: 7438 66bd 59e1 353d 0d7e 2fbd ddba d9be
00000120: 85d2 153e 4ca9 9cbd d346 1b3c 50e7 58bd
00000130: 8cff 48bd 0705 d5bc 9c16 8fbc 8453 8c3c
00000140: 8a77 053f 33f8 b03d 743a a1bd e271 b63c
00000150: b710 e0bd 3fe1 3fbd 60b3 533b 582d acbe
00000160: 433e 9f3d 6cdf 04be 0073 183c 25ed b63d
00000170: eb60 cfbd 8835 b0bc 32ba 8abd 99d3 cd3e
00000180: ac0c f33c 87a2 8cbc d120 763b 82a1 373d
00000190: 1a06 2bbe 9c03 d1bd a51c 6cbd f6a8 1f3d
000001a0: 91df d03b bf65 783d c458 023d 6a02 2ebd
000001b0: d4e4 b1bd c9fe e2bd 31db 063c e6bf 08bf
000001c0: 0dad 14be 14a7 95bd 58b0 033f fc81 a73c
000001d0: f16b 533e c1a3 203d e149 97be bad4 a9bd
000001e0: 250b ad3d ce42 d43c ba66 cbbb b6a7 3d3c
000001f0: e02d 003c 3bba f7bb 7f85 593c e6e5 053d
00000200: d4fa 94bc d820 643e eb41 0bbf d1d5 2dbe
00000210: 5c16 84bd 5ecf b23d 2a17 07bd 60fc fe3b
00000220: 7dc2 95bd 4102 933b ea3f ae3a 0680 56bd
00000230: e5d5 bbbd 549a 32bb ec34 a03c 0015 023c
00000240: b323 853d d5d7 33be d735 be3d f408 113d
00000250: 7c75 8c3d 9976 40be a69c 4a3d d5e6 21bd
00000260: f3ec 833c 08bc 8bbc e65f babd 515b 68bd
00000270: 3c75 9dbd 109a b9bb 6f88 013d 79d8 b4bd
00000280: 5f62 563d 548a 04be 452d 2dbd 2206 8bbd
00000290: 3918 1d3d 6266 14bd 8b84 703d 627b 2dbe
000002a0: 307f 27bc 27ab 053e 9527 0abb 2632 333d
000002b0: d2e3 6dbd da01 a4bd 7d5f edbd 5a07 85bd
000002c0: 8d5a f03c d4fb 9e3e 0d83 0e3e 2526 8bbd
000002d0: 32ae 9c3d a2fe d73c 9995 98be b2b5 6f3b
000002e0: 84dc f4bd 7832 2fbd 926f 8c3b 1b39 bebd
000002f0: 903e c7bb aa18 f6bb 18ba 7b3d 8cb9 b93c
00000300: cc9b dfbc ac1f 45bf ea87 3dbe 33c4 f0bc
00000310: af60 1a3d 97b7 f9bd 28a1 8c3d 5e23 bdbc
00000320: d111 a7bd 9943 61be 02f1 a9bd 1c68 e4bd
00000330: a5a6 6bbe 615d b9be 3aee f03d 22ce 293d
00000340: d0a3 51bd b1b2 b5bc ca6d 033d f290 693e
00000350: 726a 97bb a4ee fbbd ca5a 983c 0212 513c
00000360: a037 72bd e7e6 1ebe 2799 6b3d ebe0 0cbe
00000370: 6a7a 07be e67c a13b 71d6 5abe d885 85bb
00000380: 689e d03c 9130 d9bd fe68 a83d b532 023d
00000390: 4c9d 293e 5168 ae3d ddb8 e73c ee9e 2a3e
000003a0: f93e 823d 958c 4cbd cbe8 b83d c148 66bd
000003b0: b262 9cbd 786c 9ebd 6f15 8ebd d06e e7bc
000003c0: 287d 003f 9875 833d ea78 72bd b53c ce3c
000003d0: 1fef f03d 67b9 50bd 1087 9f3c 31b3 313d
000003e0: 92f3 7a3d 3c89 e5bd db42 813d 3f92 92be
000003f0: 6f3a bf3d 0523 743d 8fa6 b03e 1132 0c3d
0.07040044 0.08799283 -0.13335091 -0.01660926 -0.061626293 0.029993631 0.041249733 -0.10670104
-0.09134615 -0.021809435 -0.046380695 0.06986501 -0.075599246 0.040300198 0.8886762 0.004922401
-0.82393605 -0.046975058 -0.058188874 -0.42348075 -0.018685706 0.18620697 -0.112911284 -0.0811495
-0.21335074 0.06065289 -0.054144233 -0.042021886 -0.03547057 -0.036406197 -0.038038015 -0.1680333
0.09213888 -0.018745713 0.082749836 0.015355332 -0.09638299 -0.17410494 -0.061346047 -0.12287259
-0.107672356 -0.05351318 -0.052845765 0.035913628 0.03860285 -0.07246485 0.018939048 0.11928333
-0.01871683 -0.07393007 0.092431046 0.01660704 -0.09839755 -0.35149193 -0.013874788 0.023577996
-0.22738057 -0.29701632 -0.12874006 -0.10662344 -0.3233958 0.016572118 0.0027326485 -0.230717
0.3409401 -0.051741295 -0.31315973 0.13777953 -0.05620618 0.04440436 -0.04284482 -0.42525378
0.14631088 -0.07649478 0.009477335 -0.05295497 -0.049071833 -0.026003374 -0.017466836 0.017129667
0.5213553 0.0864109 -0.07872477 0.0222711 -0.10940688 -0.04684567 0.003230296 -0.33628345
0.07775547 -0.12975854 0.009304762 0.089319505 -0.101259075 -0.0215099 -0.06773795 0.402005
0.029669128 -0.017167343 0.0037556181 0.04483176 -0.16701546 -0.102057666 -0.057644505 0.038979493
0.0063743074 0.060643908 0.031822935 -0.04248277 -0.086862236 -0.11083753 0.00823097 -0.53417814
-0.14519139 -0.07307258 0.51440954 0.020447724 0.20646645 0.039218668 -0.29548553 -0.082925275
0.08449391 0.025910761 -0.0062073143 0.01157563 0.007823437 -0.007560042 0.013276457 0.03268995
-0.01818601 0.22278154 -0.5439746 -0.16976096 -0.06449577 0.087309584 -0.032981075 0.0077815503
-0.07312486 0.0044863527 0.0013294194 -0.052368186 -0.091716565 -0.0027252631 0.019556485 0.007939577
0.0650095 -0.17562802 0.09287613 0.03540893 0.06858346 -0.18795241 0.049465798 -0.03952678
0.016104197 -0.017057434 -0.091003224 -0.05672771 -0.07688376 -0.0056641176 0.031624254 -0.088303514
0.052339908 -0.12943393 -0.0422795 -0.06788279 0.03835318 -0.036230452 0.058720153 -0.16941598
-0.010223195 0.1305357 -0.0021080722 0.043748997 -0.058078595 -0.08008166 -0.115904786 -0.06495543
0.029340053 0.31051505 0.1391718 -0.06794385 0.076504126 0.026366536 -0.29801634 0.0036576805
-0.119561225 -0.04277274 0.004285761 -0.09288236 -0.006080456 -0.0075102644 0.06145677 0.022671483
-0.02729597 -0.7700145 -0.18508878 -0.02939043 0.03768986 -0.1219322 0.068666756 -0.023088153
-0.08157695 -0.21998443 -0.08297922 -0.1115267 -0.23012789 -0.36204055 0.11764188 0.04145635
-0.051181614 -0.022179933 0.032087125 0.22809198 -0.0046208436 -0.123013765 0.01859798 0.012760641
-0.05913508 -0.1551777 0.057519104 -0.13757674 -0.13230291 0.004928219 -0.21370865 -0.0040747933
0.025466159 -0.106049664 0.08223151 0.03178664 0.1656391 0.085159905 0.028286392 0.1666219
0.06359667 -0.049938757 0.09028777 -0.056221727 -0.07636012 -0.077355325 -0.06937682 -0.028251082
0.50190973 0.064189136 -0.059197344 0.025175432 0.11764359 -0.050958063 0.019473583 0.04338378
0.061267443 -0.11207816 0.0631158 -0.28627202 0.09337317 0.05960371 0.34502074 0.034227435

layer_2.weight f4 [300, 400]
00000000: 995d dfbd d254 e8bd 1b41 debd 5791 37bd
00000010: 87f2 e5bb 49b1 8e3d 352b 8bbc 5748 bdbb
00000020: ba77 7cbc 80b9 04be 6bbe 183d 138f d1bc
00000030: 3a30 ebbc 86d2 803c 97d5 14bf 0b14 04be
00000040: 63e3 48bd 38c8 e3bd f28a 1cbe b4dd 24bd
00000050: 1697 abbd 3ae1 f3bc 5c3d 2d3c 32df e2bd
00000060: 3304 bebb 58b6 c8bb 812e a6bd fdcd 5f3d
00000070: 00a5 323c 6a24 9cbc 52c5 12bd adfb 1bbd
00000080: 8337 4b3d e28d 84bb 76c7 a43c 4741 17be
00000090: f11b a73c e803 11ba 03aa 273d 97ef dabd
000000a0: 4a0d dfbd 7bdb abbb 9136 1ebd f49b 51bc
000000b0: 6043 d03a cc67 97bd bd37 113d cd5c 1fbd
000000c0: c02b bebc dee5 1fbe a877 cd3b 7d01 a2bc
000000d0: dd76 41bd 4796 96bc 3f85 3f3d 9441 71bc
000000e0: 919c 9abb 362d c03a a1cd 71bc 221b 30bd
000000f0: bc75 03bd 00f3 50bb 9ac2 fcbc f067 febc
00000100: 2031 9d3c b43e 4f3c 068c 0f3d 53c6 273d
00000110: b5ef 0abd 4638 e93d 7c60 a7bd 1ffb 173d
00000120: 2889 13bd 30da 86bb b485 1ebd 0005 e839
00000130: 39d0 13bd 86a6 28be 3e8a c63c 04e7 553c
00000140: 8f1f f7bc 1811 193c 408d c9bc 7cfa 28bd
00000150: e748 e4bd 0af4 893c e032 3bbd 5f57 183d
00000160: cf72 3abd 187f 29bd 3a46 4abd e844 1bbc
00000170: be69 c3bb 6d8d bdbd 18e4 0fbe edc2 d93c
00000180: b4f8 373c 26d1 8dbc 8b63 44be c3a5 153c
00000190: 7d0d 9e3c a196 25be 43c7 88bb caa6 1dbd
000001a0: d2fe d43c ed1e 29be ca6f 553c 9709 e53c
000001b0: d9d3 f6bd d067 a7bc e40a 07be 5f39 0b3c
000001c0: c52e 473c 618b 4b3d 24db 8f3d 229e 54bd
000001d0: 08f6 5d3c 8b94 e1bd c774 963c c239 20be
000001e0: 008a 7ab9 6f16 3cbd 6277 34bc 8b31 9abd
000001f0: 2253 e63c f65a a13c 12f4 c23c 1e77 443c
00000200: d18c 0e3d acaa 3c3c e617 3fbd bcbf 23bd
00000210: 0241 943c c289 b3bc 5e17 b43c daf5 dcbc
00000220: e404 77bd e593 803c ddd9 96bc 8516 0bbd
00000230: d992 1e3d 5a30 b2bb 01e2 0dbe 0f61 51bd
00000240: 0050 55bb e5e2 373d 843e 3e3d 8118 cc3b
00000250: f7e6 11bd b0df 373c b7a2 0d3e d87a 78bd
00000260: 21a2 dd3c 8998 403d 3728 0e3d 0a39 c53c
00000270: 85fe 41bd e84a 29bc 48c0 303d ead1 42be
00000280: 1a53 b93c 483a 4fbe 32d5 8c3c 9370 a2bc
00000290: af18 9f3c 0533 333c 7889 873c 982b 883b
000002a0: f195 173d 46e2 3cbe 9bdb e2bb 5635 24bd
000002b0: 4f58 ef3c 1895 dabd f8d1 3ebd 0ab3 87bc
000002c0: 6473 7cbb 0270 97bc b99d bbbb 48ff 34bd
000002d0: b462 a73c 7ab5 99bd 3c02 133b 9d01 44bd
000002e0: 7d6d dfbd c48d 40bd 9804 b4bd 89b1 4b3d
000002f0: 39a3 08bd bb46 18bc 76a7 48bd 7804 05bd
00000300: 7ca3 c83c 114e bdba 2de8 9b3c 2639 123d
00000310: 72e8 073c 2c5a 1dbc 15ec 38bd d848 d1bc
00000320: 58ed 21bc 67d1 3bbd 0593 23bd c1ff febd
00000330: db92 793c 25e0 313d 1598 f3bb f191 57bd
00000340: 496b 03be 1e0a a5bd 97bb e8bc 897b 8abc
00000350: 44e8 babc 3093 7cbd 9e62 06be ea6b 78bb
00000360: a63d 0ebe c2e5 8fbc 25d4 f9bd 249b 013d
00000370: 309c c43c 1d1f 2b3d 6cac b239 0f2e 93bd
00000380: f152 2c3d 006f c93c ab13 2fbe 063c f6bc
00000390: 23e7 31bd 4a98 11bd 9e0a 92bc 0547 a1bd
000003a0: fa16 413d 1838 d5bd faad 0dbd 0141 0fbe
000003b0: 40a1 31ba 668d d93d 0115 adbc 6e21 ba3c
000003c0: db39 953c 6a9c debc 8c2f 5bbd 42b2 33bb
000003d0: 0949 983e 401e 0cbd ea0e f6bc d6a7 12be
000003e0: eded 9fbc 0335 e8bd 9c49 58bc a20a b23c
000003f0: a4ed d23c 1d34 febc abdc 5fbd eafa cebc
-0.10906524 -0.11344303 -0.10852262 -0.04481634 -0.007017437 0.06967408 -0.016988376 -0.005776446
-0.015409404 -0.12961388 0.03729097 -0.025580918 -0.02870952 0.015725385 -0.5813841 -0.12898271
-0.049044978 -0.11122173 -0.15287378 -0.040250495 -0.08378427 -0.029770482 0.010573711 -0.110777274
-0.0057988404 -0.0061252527 -0.08114339 0.054639805 0.010903597 -0.019060332 -0.03583271 -0.038081814
0.049613487 -0.004045234 0.020114642 -0.14770995 0.020399066 -0.0005531893 0.04093362 -0.106902294
-0.108912066 -0.00524467 -0.038626257 -0.01279353 0.001588922 -0.073928446 0.035453547 -0.03890686
-0.023214221 -0.15615031 0.0062703677 -0.0197761 -0.047232497 -0.018382205 0.046757933 -0.014725108
-0.004718371 0.0014661911 -0.014758498 -0.042994626 -0.032094702 -0.003188312 -0.030854512 -0.03105542
0.019188464 0.012649227 0.035045646 0.04096062 -0.03392001 0.113876864 -0.081727 0.037104722
-0.036019474 -0.0041153654 -0.038701728 0.00044254214 -0.03608725 -0.16469774 0.02423584 0.013055567
-0.030166415 0.009342454 -0.024603486 -0.041254506 -0.111467175 0.01684 -0.045702815 0.0371927
-0.045519646 -0.04138097 -0.04938338 -0.009476878 -0.005963533 -0.092554905 -0.14051855 0.026582206
0.011228729 -0.017311644 -0.19178598 0.009133759 0.019293541 -0.16170742 -0.0041741445 -0.03848914
0.026000414 -0.16515703 0.013027141 0.027958674 -0.120521255 -0.020435244 -0.13187748 0.008497565
0.012157147 0.04969347 0.0702422 -0.05190862 0.013547428 -0.110146604 0.01836623 -0.15647033
-0.00023893267 -0.04591983 -0.011014791 -0.07528981 0.028115813 0.019696694 0.023798022 0.01199129
0.03480226 0.011515301 -0.04665365 -0.039977774 0.018097404 -0.021916274 0.021983799 -0.0269727
-0.0603074 0.015695522 -0.018414432 -0.033957023 0.038714264 -0.005437893 -0.13855745 -0.051117953
-0.0032548904 0.044894118 0.04644634 0.006228507 -0.035620656 0.011222765 0.13831602 -0.060664028
0.027054848 0.04702047 0.03470632 0.02407505 -0.04736187 -0.0103328 0.043152124 -0.19025388
0.022622634 -0.20237076 0.017191503 -0.01982907 0.01942095 0.010937457 0.016545042 0.0041555874
0.03700823 -0.18445691 -0.0069231517 -0.040089928 0.029216914 -0.106729686 -0.04658696 -0.016564865
-0.0038520927 -0.018486027 -0.005725589 -0.044188768 0.020432808 -0.07505317 0.0022431752 -0.0478531
-0.10909555 -0.0470102 -0.08789939 0.049729858 -0.033358786 -0.009294207 -0.04898783 -0.032474965
0.024492018 -0.0014442821 0.019031608 0.035699032 0.008295165 -0.009604018 -0.04514702 -0.02554743
-0.009883247 -0.045854 -0.03993513 -0.12451125 0.015232767 0.04342665 -0.007433901 -0.052629415
-0.12833895 -0.0805857 -0.028409762 -0.01690461 -0.022815831 -0.061663806 -0.13123557 -0.0037906119
-0.13890705 -0.017565612 -0.121986665 0.031642094 0.024000257 0.04177772 0.0003407927 -0.07186519
0.042071287 0.024589062 -0.17097346 -0.030057918 -0.04343332 -0.035545625 -0.017827328 -0.07874874
0.047141053 -0.1041109 -0.034589745 -0.13989641 -0.0006776042 0.10622673 -0.02112818 0.022721019
0.018216064 -0.027174193 -0.05351214 -0.0027419482 0.2974322 -0.034208536 -0.030036408 -0.14321837
-0.019522632 -0.11338236 -0.013201144 0.021733586 0.025748082 -0.031030709 -0.054653805 -0.02526613

layer_2.bias f4 [300]
00000000: c246 93bb 72fb 08bd abf0 14bd 3dea c2bc
00000010: 6818 893e 2a8f a83b 9396 aebd 9e9a 88bc
00000020: a66d 2dbe 46ea 173c 0603 36bd 53df 41be
00000030: 3969 96bd 84c7 02bc ac16 6a3f 3732 41bd
00000040: 35f8 d8bd 6bfe 3abd 5774 08bd 55da 4abd
00000050: ef77 98bd 5c13 94ba 7dfd 27ba 8a8d dabc
00000060: 5109 8ebb 9e9d 173c faa2 8e3e d320 ed3d
00000070: ddd9 65bd 7609 14bd 9425 2fbd 7fda 76be
00000080: 2fb3 983c 2522 b9bd a3e4 83bc c0bf 9fbd
00000090: 741b 12be 98c5 84bd 5772 bb3a 500e f5bc
000000a0: a83b 39be 4588 97be a36f 35bc 5d01 e03b
000000b0: 1938 453d 0a71 c6be d888 c33c 82a8 85bd
000000c0: bddd 81be a94f b2bd d586 1ebc 0c8e 40be
000000d0: 3eea cd3c 7c74 34be fdf9 743e 6571 473c
000000e0: 7774 90bd d4a6 8f3b 0e66 d03c 5ea1 71bd
000000f0: b6ec 38bd a211 20bd 8e3a 123d 8e6f 123d
00000100: edad 18be 33ba 503c d92e 00bd 2aa2 4cbd
00000110: b132 673d e498 0f3e 5da1 273a 9503 05bd
00000120: 7f92 1c3e ecc5 8bbb 773a 01bd 9734 1dbc
00000130: dea9 3d3c 1d71 6ebe 3efe 86bc 21ac 85bc
00000140: 38c7 313c 3b36 783c c061 673d 7ccf 35bd
00000150: ddd4 c43b a9d7 073f ecda 37bd ffca a2bc
00000160: d497 e5bd 4785 05bd f79a 06bc 3651 07bc
00000170: 15d8 b9bd 546f 253b e741 803e 3ffd 92bd
00000180: f8b9 c0bc 144e e9bc 5a1f 913c ca57 a3bd
00000190: b67b 19bd ceec 25be 7cfc 84be d3a5 f43d
000001a0: 50f9 a8be 82da 96bd 9228 b73d 5ef0 85bd
000001b0: b17c 8cbc cb0c 21bd 1f42 80bd 2096 42bc
000001c0: 5bd3 35bc f5ab 61bd 2922 f23d fc04 1bbc
000001d0: de20 533c 157b 813c 14e6 a63d 0298 16bd
000001e0: 156c c43c 7706 78bd 578b 073f 1b0b b7bd
000001f0: 68a9 cabe 43df d3bc dab3 7b3c a030 3fbd
00000200: f724 193d 5535 e9bc e1b1 953e 134f 12bd
00000210: 0e20 333c 2eb7 4ebd 3c23 61be b864 97bd
00000220: dbc0 093d a2b8 af3d a718 153e ed1d d0bc
00000230: 257a 86bd e1ee aabc 69b8 243c 49fc 19bd
00000240: 7639 ba3c 9dd3 843d a8a4 e6bc 88a1 80ba
00000250: a3f8 d93e fd97 3fbd 0736 733b 58a4 0cbe
00000260: ee84 863b 77de a2b9 692e 8fbd 3179 44bd
00000270: dc43 1f3d eafc abbc 89ff 8dbd 6114 cbbd
00000280: 12cc 883c d28f 40bc dd0f 743b 4099 28bc
00000290: b3fc 173d 25f3 69be 8bd1 1bbd 85df 3fbd
000002a0: daf0 fcbc ebc5 32b9 786c 0abe 77af c7bc
000002b0: 6491 f43c 82f8 7e3d 30e0 34bc 5a85 5cbd
000002c0: adc0 3fbc db0b f8bb 9c5d 95bd 6b07 143a
000002d0: e678 8cbd 1749 303d 4eac 2e3c 3cec 353e
000002e0: 1a33 2fbd 83c7 f5bc a500 28bd 6d57 debb
000002f0: b25c 65bd 13d3 15bd 0538 41bd ca07 a2bd
00000300: a726 863e 4f91 863c cd5d d23d 0683 843f
00000310: 1bb4 c1bd 9e00 10bd b2d7 31bc 7b19 2ebd
00000320: 0239 de3c ff5f 5abd 4b93 0b3f 387b 793b
00000330: 6921 9bbd 20e0 1fbd 892b 58bb ba73 7bbc
00000340: 98db 92bb ff08 13bd 3e9a 803c 373b 293c
00000350: 9ec9 1f3d bf7a 43bd 5c9b 9b3d 6da6 a7bd
00000360: 50e7 a4ba ca47 8abc 7ed2 21bd ac6f 52be
00000370: 08ce 05bd 1616 e63c 49f6 b3bb f580 e23d
00000380: ca63 9bbc 9ab1 62bd 53b5 5bbe 453e a6bb
00000390: 1d37 d6bc 28db e83a 4615 f3bc 815e 393e
000003a0: df19 a8bc 95ec 23bd 1f35 8ebc 8b51 8cbd
000003b0: e3d2 c53a e4cb 83bd 30b5 9d3b be60 1dbd
000003c0: a4fa 043d 506b d33e 3f9b 513c 5185 d9bd
000003d0: c496 403e d1d1 9a3d a708 c1be 86bc abbc
000003e0: 5591 b03c cc02 843b 007d 7bbd 91d3 92bc
000003f0: d858 8bbd f4aa ecbd f11e 9abc d269 3cbd
-0.004494519 -0.033442922 -0.03636233 -0.023793334 0.26776433 0.0051440196 -0.085248135 -0.01667529
-0.16936359 0.009272164 -0.044436477 -0.18932848 -0.073442884 -0.007982139 0.91440845 -0.04716703
-0.10594217 -0.045652788 -0.033314075 -0.049524624 -0.074447505 -0.0011297273 -0.0006408317 -0.02667882
-0.0043346067 0.009253887 0.27858716 0.11578526 -0.056115974 -0.036141835 -0.042760447 -0.24106787
0.018640129 -0.09039716 -0.016100233 -0.07800245 -0.14268285 -0.064830005 0.0014301044 -0.029914051
-0.18089163 -0.29596153 -0.01107398 0.0068361 0.048149202 -0.38758117 0.023868963 -0.06526281
-0.25364485 -0.087066 -0.009675701 -0.18804187 0.02513611 -0.1762256 0.23923488 0.012173031
-0.07053464 0.004383901 0.025439288 -0.058991782 -0.04514762 -0.039079316 0.035700373 0.035750918
-0.14910097 0.012739706 -0.031294677 -0.04995934 0.056444827 0.14023167 0.00063945894 -0.03247412
0.15290259 -0.0042655375 -0.031549897 -0.009595058 0.011576144 -0.23285337 -0.016478654 -0.016317429
0.01085072 0.015149648 0.056489706 -0.044387326 0.0060068206 0.53063446 -0.044886515 -0.019872187
-0.112105995 -0.032597806 -0.008215657 -0.008259108 -0.090744175 0.0025243359 0.2505028 -0.07177209
-0.023526177 -0.028479613 0.017715145 -0.07975729 -0.037471496 -0.16203615 -0.2597388 0.11945691
-0.3300271 -0.07365896 0.08943285 -0.06539987 -0.017149301 -0.03931884 -0.062626116 -0.011876613
-0.011097754 -0.05509563 0.11822922 -0.009461638 0.012886254 0.01580576 0.08149353 -0.03676606
0.023977319 -0.06055304 0.5294699 -0.08937665 -0.39582372 -0.025863295 0.015362704 -0.04667723
0.037388768 -0.028467814 0.29237273 -0.035719942 0.010932935 -0.050467663 -0.21986097 -0.073922575
0.033631187 0.08580138 0.14560185 -0.025404895 -0.06566266 -0.02086586 0.010053732 -0.037594113
0.022732478 0.064856745 -0.028154686 -0.0009813765 0.42572507 -0.046775807 0.003711106 -0.13734567
0.004105202 -0.00031064797 -0.06991274 -0.04796714 0.038883075 -0.020994622 -0.06933505 -0.09915996
0.01669887 -0.011753039 0.00372409 -0.010290444 0.037106227 -0.22846659 -0.038041633 -0.046844024
-0.030876566 -0.00017049133 -0.1351794 -0.02437566 0.029854484 0.062248714 -0.011039779 -0.05383811
-0.011703652 -0.0075697727 -0.07293245 0.00056468573 -0.06858997 0.043038454 0.010661198 0.17765898
-0.042773344 -0.030002361 -0.04101624 -0.0067853243 -0.055996604 -0.03657825 -0.047172565 -0.07911642
0.26201364 0.01642671 0.10271797 1.0352485 -0.094581805 -0.03515684 -0.010854648 -0.04250477
0.027126793 -0.053314205 0.54521626 0.003806783 -0.07574732 -0.0390321 -0.0032984933 -0.015347416
-0.004481744 -0.03589725 0.015698548 0.010329059 0.039010637 -0.04772448 0.07597992 -0.0818604
-0.0012581144 -0.016879935 -0.03950738 -0.20550412 -0.03266719 0.028086703 -0.005492006 0.11059753
-0.018968482 -0.055345155 -0.21455888 -0.005073341 -0.026149327 0.0017765509 -0.02967323 0.18102457
-0.020520149 -0.040020544 -0.017359314 -0.068514906 0.0015092756 -0.064353734 0.004812859 -0.03842234
0.032465592 0.4129281 0.012793361 -0.10621131 0.18807513 0.075595506 -0.37701914 -0.020963918
0.021553675 0.0040286537 -0.061398506 -0.017923148 -0.06804055 -0.11556044 -0.018813582 -0.045999356

layer_3.weight f4 [1, 300]
00000000: 990a 953a ca5c 5b3c 3483 b53c 2e65 8fbd
00000010: 8e84 a9bc 8e0a 363b b73b e1bc 825f 9b3c
00000020: d245 9abb c61e 9c3c 972d a4ba 3166 0c3c
00000030: e332 433c 2743 3339 1e45 81bc 1672 d93c
00000040: 394c c13a a9d7 48bc b9bf b9b7 f2a5 3e39
00000050: cac8 643b f140 4b3d be75 223d a535 5fbc
00000060: 2e76 91ba 4c3e e43c b3fe f8bb 651b c7bc
00000070: b66d c1ba 0439 4f3c 5661 903c 840c d5bb
00000080: aaf4 763c 0d88 fdb7 684f 223d bcc5 a7bb
00000090: 14d6 e4b9 18b5 e9bc c78f abbc 82f8 51bc
000000a0: 9174 d2b8 c74b d63a 3584 25bd 164d a4bc
000000b0: 815f 9ebb 373a 99bc dbda 3cbd c082 e8bb
000000c0: f5cf 753c a995 f1ba f43f 103d a109 133a
000000d0: b161 343d 3e11 c2bb 09e5 9c3b 1de7 1bbd
000000e0: 1be0 2939 fe3c e33c 90fc d43b 92d5 3c3c
000000f0: d0eb db3b 1993 403a 365d 8abc f58f 43bd
00000100: 911f afbc f497 3dbc 1d8c 39bd 276a fc3a
00000110: fcae 4c3c 5d41 3b3d 7451 19bd 9e54 653a
00000120: af9a 16bb 7b44 bfbc a33c f63c 4852 1e39
00000130: 2081 e4bc 265a 823c 6f33 72bc d028 cc38
00000140: cc70 d43b c16f 0c3d 2d8e cabb 9309 46bc
00000150: 76dd babc 38cd ad3c d865 bf3c 7ee8 14bd
00000160: 044c bfbc 99a2 3d3d 7ef7 623c b1fb 503e
00000170: bfa8 2739 c4fa 4bbd 6cd4 113e b508 97bc
00000180: 36aa fbbc ea00 0eb9 903d e63c efd6 f63c
00000190: 80c7 e83c 27a2 38bc ee22 cabc d01b 2c3d
000001a0: 708e 363c 7299 123b 70e3 c1bc d0ef 423d
000001b0: b73b 74bc 20cc 5ebb 35d2 b7bc 4593 7dba
000001c0: 83e5 8bbc b25e c03b 336d 3f3d db40 38bd
000001d0: 38db 02bc cf09 083d d06d acbb 4166 433d
000001e0: 56d9 53b9 00c5 253c c295 a93c 4237 1836
000001f0: b603 1dbc 5689 cf3c 02d8 cabc 8f40 3fbd
00000200: 00e0 43b9 5f5a 16bd 28aa 47bb 33de 99bc
00000210: 18bc 9d3c 10f2 fbbc 1bff 7dbb 9131 cbba
00000220: 9281 b9bc 7b97 99bc ff13 9bbc a78e 52bc
00000230: 19f2 97bb dc66 053d 43da fc3a 9eea b338
00000240: 704c 033d f0a6 82bc dba3 393c bb43 403c
00000250: d2e1 563c ee2b a53b 2431 b23c 3d00 d7bc
00000260: cb49 043d f83c 69bc 5dae f1bc dd00 a6ba
00000270: 274d 85b9 f531 17ba ed45 b43c fc1e e9bb
00000280: 7adb 0e3d 5af5 e8bb 5a94 a13b 8413 51bd
00000290: 40d9 0a3c b20f bd3c c1d3 ca3c 42ac 213c
000002a0: 2586 e9bc 35bf 9f3a 5f23 d5bb da71 f53c
000002b0: 786c 66bc a335 bcbc 0e02 983c 8722 073c
000002c0: baf3 a8bc 9644 963b 1ce8 b4bb e33e a53c
000002d0: 49fc f13a 19bc 87bc 70ff 883c 5b12 85bb
000002e0: 55b8 dfbc 8ccd a5bb 719d b53b b097 573c
000002f0: 388a 1cbd 9304 8a3c b67d f2bc f507 b83b
00000300: 4f45 0cbc d68c 423d 5a2d 79bc 0c7d f239
00000310: 332d 9ebc 563c 15bd b874 5bbb d511 2739
00000320: 0973 e83c d8f3 73bc 0058 60bc 0aa2 c63a
00000330: 066a eabc d2f2 02bd d139 bfbb 6180 6fbc
00000340: b67e a5bc 326f 1f3c 630b e1bb 64c5 0abd
00000350: dc24 393c 220d da3c fad7 bcbd 513c e7bc
00000360: ca0e bbbc 8155 43b8 b31a 13bc 43f3 f0bc
00000370: ab95 cf3c bbd9 8fbc 2013 d5bc 074e aabb
00000380: 55a8 883c 6ed3 36bb 82ec 923c 1ae9 a8bc
00000390: fac0 adba 5664 7ebc 4950 be3c e28d 7f3c
000003a0: 6af6 55bc f352 6abc bedd 4fb9 bea0 04bb
000003b0: b8ff 5dbc 764c d5bc ef6e 51bd ee46 0a3c
000003c0: 0d9f e8b6 c398 3fbc 87c7 0e3d 0b37 0bbb
000003d0: 20b9 ccbc b17e 6b3c bcff c1bc e28e 2cbc
000003e0: 1c02 7239 a137 d13c fa45 423c cfa4 1d3b
000003f0: 5387 5b3c b8a9 58bd f3ca 55bd 3ed9 97bc
0.0011370956 0.013388822 0.02215729 -0.0700172 -0.02069309 0.0027777287 -0.027494295 0.01896644
-0.0047080303 0.019057643 -0.0012525794 0.008569286 0.011913988 0.00017095786 -0.015780028 0.026543658
0.0014747448 -0.012258449 -2.2142996e-05 0.00018181631 0.0034909719 0.04962248 0.03966307 -0.01362363
-0.0011097842 0.027861737 -0.007598722 -0.024305055 -0.0014757428 0.012647871 0.017624538 -0.006501736
0.015072981 -3.0223304e-05 0.03962651 -0.0051200073 -0.0004364705 -0.028528735 -0.020942582 -0.012815597
-0.000100352925 0.0016349488 -0.040409286 -0.020056289 -0.0048331623 -0.018704517 -0.046107154 -0.0070956647
0.015003194 -0.0018431443 0.03521724 0.000560904 0.04403848 -0.0059224656 0.0047880453 -0.038062204
0.00016200582 0.027739044 0.0064998344 0.0115255285 0.0067114606 0.0007346138 -0.01689015 -0.04774471
-0.021377357 -0.011571873 -0.045299638 0.001925771 0.012492891 0.045716632 -0.037431195 0.00087482657
-0.0022980382 -0.023348084 0.03005821 0.00015098706 -0.027893603 0.015912127 -0.014782771 9.73508e-05
0.006483173 0.034286264 -0.0061814995 -0.012087244 -0.022810679 0.02121602 0.023363993 -0.036354534
-0.023351677 0.046297643 0.013852952 0.20408513 0.00015989224 -0.049799696 0.14241189 -0.018436769
-0.030720811 -0.00013542516 0.028105527 0.030131785 0.028415442 -0.011269129 -0.024674859 0.04201871
0.011142358 0.0022369293 -0.023668021 0.047591984 -0.014906815 -0.003399618 -0.022439102 -0.0009673129
-0.017077213 0.0058706636 0.046735 -0.044983726 -0.007986836 0.03321248 -0.005262114 0.04770494
-0.00020203492 0.010117769 0.020701293 2.268193e-06 -0.009583404 0.025334042 -0.024761204 -0.046692427
-0.00018680096 -0.03670728 -0.0030466411 -0.01878271 0.01925473 -0.030755073 -0.003875679 -0.0015502443
-0.022644792 -0.01874899 -0.018930433 -0.012851394 -0.0046370146 0.032568797 0.0019291121 8.579086e-05
0.03205532 -0.015948743 0.01133057 0.011734898 0.013115363 0.005040637 0.021751948 -0.02624523
0.032296937 -0.0142357275 -0.029502088 -0.0012665052 -0.0002542522 -0.0005767637 0.022006 -0.0071142893
0.034877278 -0.0071093263 0.004931015 -0.051044002 0.008474648 0.023078773 0.024759175 0.00986773
-0.028506348 0.0012187721 -0.0065044607 0.029961515 -0.014063947 -0.022974795 0.018555667 0.008247978
-0.02062403 0.004585813 -0.0055208337 0.020171588 0.0018462028 -0.016569184 0.016723365 -0.004061026
-0.027309576 -0.0050599035 0.00554245 0.013158724 -0.038217753 0.016847884 -0.02960096 0.005616183
-0.008561446 0.047497593 -0.015208567 0.00046251004 -0.019308662 -0.036434494 -0.0033486318 0.00015933004
0.028375166 -0.01488968 -0.013692856 0.0015154493 -0.028615009 -0.031969853 -0.0058357497 -0.01461801
-0.020202022 0.009731101 -0.0068678125 -0.033879653 0.011300292 0.02661759 -0.09220882 -0.028227003
-0.0228342 -4.6571255e-05 -0.008978534 -0.029412871 0.025339922 -0.017559877 -0.026010096 -0.00519729
0.01668183 -0.0027897018 0.017935041 -0.020618964 -0.0013256364 -0.015526852 0.023231642 0.015597792
-0.013059238 -0.014302003 -0.00019823664 -0.0020237411 -0.013549738 -0.026037436 -0.051131185 0.0084397625
-6.9326547e-06 -0.011694136 0.034858253 -0.0021242525 -0.024990618 0.014373467 -0.023681514 -0.010532113
0.00023079704 0.025539221 0.011857504 0.0024054532 0.013398963 -0.05289623 -0.0521955 -0.018536206
