models/ddpg_model_episode_50_critic.pth (torch, 674577 bytes, 5 tensors)

layer_1.weight f4 [400, 117]
0.2533499 0.12181126 0.26953563 0.066169664 0.00377595 -0.022551445 0.13897558 -0.040424854
-0.034974664 -0.030172784 -0.06719257 0.044772863 0.5504473 0.589491 -0.13024673 0.06355616
-0.13838097 -0.38171 0.004035604 0.28474972 -1.3075309 0.5176267 0.009496217 -0.13596916
-0.0770288 -0.0010155337 -0.046321683 0.02921824 0.08381999 1.328209 0.11248135 -0.102890335
-0.09707846 -0.05989555 0.33886367 -0.18206072 0.32886216 0.039648067 -0.5055703 0.614917
0.15676677 0.95043963 0.9454017 0.79090345 0.2510189 0.11000768 0.30525005 -0.17771342
-0.28147224 0.26780102 0.18100269 0.07111155 1.5311526 -0.28258973 -0.015982095 1.2543799
-0.27771577 -0.30143797 0.8058673 -0.010671171 0.062032152 0.26725468 0.1036477 -0.53095907
0.06314774 0.38870832 -0.77419925 -0.23933218 -0.54100776 0.16288653 0.16236487 0.15429518
-1.0131497 0.019574719 -0.3767249 0.628133 -0.07253125 0.019493582 0.43120414 -0.062331703
-0.47686917 -0.5807577 0.12499083 -0.01119739 0.24447545 0.096565716 -0.040353388 -0.031150179
0.412217 -0.029049903 -0.3618334 0.0040728725 -0.068898395 0.0895939 0.5878337 -0.2958634
0.3565271 -0.8663715 -0.059085954 -0.38166466 -0.033361647 0.99096435 -1.0528395 -1.4934185
0.03254123 -0.547455 -0.09746355 0.28836504 -0.77978164 -0.4218888 0.4993976 -0.48149818
-0.19935472 -0.8819601 -0.008174536 0.14366125 -0.046988737 0.8244493 -0.000333925 -0.47542807
-0.057411022 0.037228625 0.14804414 0.14532241 0.10462817 -0.03931859 0.09009912 -0.05178279
-0.059286114 -0.24839674 -0.18494764 -0.22159684 -0.28741196 0.6390682 -0.3387495 -0.047741223
0.29388478 -0.21609928 -0.192984 -0.79133296 -0.016655562 -0.7647716 -0.025561715 -0.08390104
-0.18366434 0.059730712 0.7196173 0.25764567 0.15644509 -0.74360585 -1.1674143e-05 -0.4771323
0.5455152 -0.45504287 0.05123531 -0.9240283 -0.17208074 0.053911123 0.29690114 0.06129593
-0.022425804 -0.02172225 -0.1257314 0.81373906 -0.08494566 -0.9315681 0.8337942 0.017299222
0.22210267 0.5578455 0.5466251 -0.033946894 0.4063681 0.38808656 -0.15682623 -0.09193126
0.07291646 0.20923133 0.5258178 0.21255594 -0.2090369 0.11210195 -0.35959202 0.1641344
-0.86740714 0.3614008 0.08580775 0.7311348 0.88761663 -0.20132172 0.042743146 0.4743978
-0.16241813 -0.6447448 -0.011278073 -0.3107442 0.06493163 -0.9854731 -0.23692046 0.6663368
-0.024248192 0.08852089 -0.5851998 -4.373455e-05 -0.6870805 0.976698 -0.13078757 -0.9025196
0.035026785 -0.100988224 0.059859864 1.0313389 0.5078033 -0.24887988 -0.16272068 -0.7445505
-0.38665804 -0.06603065 0.17125005 -0.09383634 -0.470767 -0.03708745 0.19252726 -0.2720136
-0.64491826 0.006479156 -1.0438145 0.9508637 0.50365955 -0.7652295 -0.05333259 0.047350064
0.21190806 -0.6841856 -0.8628344 0.027463183 0.51574695 0.034874734 0.095069245 0.09776749
0.1087241 -0.055849783 0.04542411 -0.03603843 -0.06426531 0.11913069 0.29073843 0.08728377
-0.03247498 0.14866897 -0.54405224 0.20529802 0.056427043 -0.17430697 0.20056759 0.27940747
00000000: 14b7 813e 2f78 f93d 9300 8a3e f683 873d
00000010: ee75 773b cfbd b8bc 9d4f 0e3e 8894 25bd
00000020: 9841 0fbd ea2c f7bc 429c 89bd c063 373d
00000030: 1dea 0c3f e2e8 163f 665f 05be bb29 823d
00000040: beb3 0dbe 7e6f c3be 1a3d 843b b7ca 913e
00000050: 2c5d a7bf 2f83 043f 0596 1b3c 803b 0bbe
00000060: 47c1 9dbd a81b 85ba cebb 3dbd 175b ef3c
00000070: d1a9 ab3d c102 aa3f 9f5c e63d 2bb8 d2bd
00000080: 12d1 c6bd 0955 75bd 8a7f ad3e 206e 3abe
00000090: 9f60 a83e 0366 223d 0e6d 01bf 336b 1d3f
000000a0: 7887 203e 0350 733f d905 723f a678 4a3f
000000b0: 8d85 803e b54b e13d bc49 9c3e 82fa 35be
000000c0: 211d 90be 371d 893e c558 393e efa2 913d
000000d0: cffc c33f 9aaf 90be e2ec 82bc 858f a03f
000000e0: c330 8ebe 1456 9abe 524d 4e3f 23d6 2ebc
000000f0: 6d15 7e3d 9bd5 883e 3f45 d43d efec 07bf
00000100: 9a53 813d c704 c73e ec31 46bf 7f13 75be
00000110: 7c7f 0abf bacb 263e fa42 263e 8eff 1d3e
00000120: e4ae 81bf 295b a03c 16e2 c0be 53cd 203f
00000130: 448b 94bd 01b1 9f3c cac6 dc3e 874f 7fbd
00000140: 3228 f4be 89ac 14bf 31fb ff3d 4275 37bc
00000150: c657 7a3e 3fc4 c53d 9849 25bd a92e ffbc
00000160: 1b0e d33e 10fa edbc 3a42 b9be bb75 853b
00000170: 9a1a 8dbd 027d b73d 457c 163f 687b 97be
00000180: b88a b63e 86ca 5dbf 1d04 72bd 8d69 c3be
00000190: 39a6 08bd d7af 7d3f 72c3 86bf 5628 bfbf
000001a0: f449 053d 0326 0cbf f89a c7bd 95a4 933e
000001b0: c59f 47bf cf01 d8be 0bb1 ff3e ee86 f6be
000001c0: a523 4cbe 23c8 61bf 7dee 05bc ef1b 133e
000001d0: 4377 40bd 1c0f 533f a812 afb9 4f6b f3be
000001e0: d227 6bbd 0b7d 183d e298 173e 66cf 143e
000001f0: 4b47 d63d 880c 21bd e385 b83d 311a 54bd
00000200: ffd5 72bd b75b 7ebe ea62 3dbe 48ea 62be
00000210: a927 93be f999 233f 9370 adbe 4d8c 43bd
00000220: 1178 963e 2149 5dbe 999d 45be cc94 4abf
00000230: 3f71 88bc 12c8 43bf cd66 d1bc 4fd4 abbd
00000240: 8112 3cbe 31a8 743d d738 383f 22ea 833e
00000250: 2433 203e f45c 3ebf 10dc 43b7 af4a f4be
00000260: e2a6 0b3f 61fb e8be 1edc 513d 1e8d 6cbf
00000270: ef35 30be e9d1 5c3d 6d03 983e 7111 7b3d
00000280: 52b6 b7bc dcf2 b1bc bbbf 00be 3451 503f
00000290: fdf7 adbd 3f7b 6ebf 8973 553f 19b7 8d3c
000002a0: e26e 633e f6ce 0e3f 9fef 0b3f e60b 0bbd
000002b0: 7b0f d03e 48b3 c63e 0e97 20be 7546 bcbd
000002c0: 3a55 953d bd40 563e ff9b 063f 44a8 593e
000002d0: c50d 56be b595 e53d 721c b8be d912 283e
000002e0: 650e 5ebf 8709 b93e f9bb af3d a62b 3b3f
000002f0: d83a 633f 4827 4ebe 7013 2f3d 45e4 f23e
00000300: f050 26be ff0d 25bf abc7 38bc dd19 9fbe
00000310: e0fa 843d f747 7cbf 479b 72be 0c95 2a3f
00000320: 25a4 c6bc 714a b53d a7cf 15bf 9e6f 37b8
00000330: 82e4 2fbf e108 7a3f 2ded 05be 860b 67bf
00000340: 3f78 0f3d ead2 cebd 9e2f 753d ea02 843f
00000350: 66ff 013f 5eda 7ebe 40a0 26be dd9a 3ebf
00000360: 0bf8 c5be 143b 87bd 2c5c 2f3e 442d c0bd
00000370: 5f08 f1be 03e9 17bd de25 453e 5e45 8bbe
00000380: 5d19 25bf 1a4f d43b b79b 85bf ce6b 733f
00000390: d5ef 003f 15e6 43bf 4673 5abd 24f2 413d
000003a0: 6dfe 583e ca26 2fbf b7e2 5cbf 78fa e03c
000003b0: fe07 043f cfd8 0e3d aab3 c23d 523a c83d
000003c0: beaa de3d bec2 64bd a20e 3a3d 089d 13bd
000003d0: 889d 83bd cbfa f33d abdb 943e d5c1 b23d
000003e0: 7c04 05bd ae3c 183e 0247 0bbf a539 523e
000003f0: 0b20 673d 877d 32be 9761 4d3e 7f0e 8f3e

layer_1.bias f4 [400]
0.05908197 0.059732463 -0.052589737 -0.01660926 0.050588094 0.09611748 0.055011198 -0.039885648
-0.09134615 0.0799286 -0.046380695 0.024209695 -0.075599246 0.040300198 0.14313549 0.070264794
0.029294984 -0.0450252 0.019782111 -0.005727041 0.066703655 -0.005592704 -0.047718707 -0.020736603
-0.09084144 0.06065289 0.01967082 0.044032868 -0.0037155226 -0.036406197 -0.07719995 -0.10358177
0.09213888 -0.018745713 0.082749836 0.090983264 0.061421096 -0.08442218 0.04455782 -0.042621166
-0.0368618 -0.019016027 -0.03343269 0.05758425 0.03860285 -0.0073361704 0.018939048 0.030694984
-0.01871683 0.022728901 0.092431046 0.0029968913 -0.028719146 0.079609565 -0.013874788 0.023577996
-0.068008 -0.10349752 -0.11498884 -0.10662344 -0.10215672 0.016572118 0.050958168 0.023792995
0.06236875 -0.051741295 -0.08048887 0.017572584 -0.03346644 0.11700403 0.02124202 -0.018595656
-0.076433904 -0.11601394 0.033815887 -0.05295497 -0.062207043 -0.07328849 -0.017466836 0.017129667
0.056174785 0.0864109 -0.07872477 0.01259333 -0.010787764 -0.006993875 0.003230296 -0.11350456
0.03963601 -0.05063234 0.009304762 0.089319505 -0.10692107 0.047160335 0.013087588 -0.067985125
0.029669128 -0.010486294 0.09733085 0.034381405 0.0064054537 -0.011279825 -0.029657666 0.038979493
0.0063743074 0.1597824 0.025781203 -0.055321705 0.023856655 0.011137096 0.09582448 -0.06111537
-0.028468657 -0.07307258 0.3196428 0.020447724 -0.023952046 0.11785093 -0.09615861 0.013707042
0.08449391 0.09589696 -0.015389915 0.09033478 0.007823437 -0.064900205 0.013276457 0.053681213
-0.01818601 0.01649171 -0.043378476 0.038216192 -0.013475682 0.037956595 -0.032981075 0.0077815503
0.0033189706 -0.0074355337 0.014585667 -0.052368186 -0.091716565 -0.0013500063 0.10545707 -0.008027502
0.0650095 -0.09730039 0.08540081 0.03540893 0.06633451 0.05988235 0.12613614 0.029936636
0.0051841177 -0.017057434 -0.091003224 -0.05672771 0.037261408 -0.0056641176 0.051495675 0.018853415
0.038376223 -0.028568177 -0.0422795 -0.06788279 -0.0434618 -0.036230452 0.058720153 -0.043161985
-0.010223195 0.13600157 0.10094854 0.043748997 -0.010894736 0.0041401135 -0.115904786 -0.004871536
-0.03859256 -0.010010972 -0.04649217 -0.02624956 0.040296003 0.0061131567 0.017365009 0.0036576805
-0.03344326 -0.016605472 0.10063903 -0.061149422 0.018705724 -0.06698957 0.017149301 0.022671483
-0.030592496 0.03836171 -0.035060715 0.012110087 0.0015585403 -0.09021467 0.068666756 0.018055715
-0.08157695 -0.01477012 -0.08297922 -0.029861236 -0.068860516 0.039943255 0.039662726 0.04995821
0.009056786 0.009093633 0.07264676 0.004206808 0.06654207 -0.050770644 0.10837529 0.082534626
0.0133189 -0.03160184 0.13861226 -0.018821748 -0.06321903 0.056757446 -0.05813278 0.06786221
-0.008096905 -0.07493773 0.07082328 -0.065871805 -0.051589116 0.085159905 0.09318665 0.14770499
0.06359667 0.04355598 0.09028777 0.025788376 -0.07636012 -0.015699323 -0.04601242 -0.028251082
-0.020473445 0.07344528 0.048548892 0.06815603 0.1023162 -0.050958063 0.019473583 0.119826995
0.061267443 -0.041306276 0.07203116 0.0581588 0.04955235 0.060342837 0.0063662287 0.034227435
00000000: f0ff 713d 07aa 743d 5668 57bd 2510 88bc
00000010: 7635 4f3d 3ed9 c43d 6c53 613d 225f 23bd
00000020: b113 bbbd 9bb1 a33d aff9 3dbd 6953 c63c
00000030: c7d3 9abd d211 253d 1c92 123e fde6 8f3d
00000040: 09fc ef3c 586c 38bd 180e a23c e7a9 bbbb
00000050: ed9b 883d 0043 b7bb b174 43bd cfdf a9bc
00000060: 140b babd 2a6f 783d b324 a13c cf5b 343d
00000070: 2080 73bb aa1e 15bd 021b 9ebd ae22 d4bd
00000080: 4fb3 bc3d 9c90 99bc bf78 a93d 6f55 ba3d
00000090: b094 7b3d 89e5 acbd 4382 363d 8893 2ebd
000000a0: 66fc 16bd 80c7 9bbc b7f0 08bd 76dd 6b3d
000000b0: 061e 1e3d 4264 f0bb 1026 9b3c 0c74 fb3c
000000c0: 0a54 99bc f631 ba3c 7d4c bd3d 7e67 443b
000000d0: 6a44 ebbc 570a a33d 1453 63bc a426 c13c
000000e0: c747 8bbd 82f6 d3bd 457f ebbd 645d dabd
000000f0: 8b37 d1bd 40c2 873c 83b9 503d 87e9 c23c
00000100: 6076 7f3d aeee 53bd 59d7 a4bd 61f4 8f3c
00000110: 1b14 09bd cf9f ef3d bf03 ae3c eb55 98bc
00000120: 6189 9cbd b798 edbd 8782 0a3d 50e7 58bd
00000130: d0cc 7ebd 4718 96bd 9c16 8fbc 8453 8c3c
00000140: 8817 663d 33f8 b03d 743a a1bd 4154 4e3c
00000150: 29bf 30bc e02c e5bb 60b3 533b 1475 e8bd
00000160: 5e59 223d db63 4fbd 0073 183c 25ed b63d
00000170: 6ff9 dabd 322b 413d 536d 563c c93b 8bbd
00000180: ac0c f33c b4ce 2bbc 6655 c73d 84d3 0c3d
00000190: d7e4 d13b 04cf 38bc a2f4 f2bc f6a8 1f3d
000001a0: 91df d03b ff9d 233e 1a33 d33c 0399 62bd
000001b0: 086f c33c 5e78 363c a03f c43d 1c54 7abd
000001c0: 1a37 e9bc 14a7 95bd 39a8 a33e fc81 a73c
000001d0: 1537 c4bc d45b f13d ceee c4bd 8093 603c
000001e0: 250b ad3d a065 c43d fb25 7cbc 7101 b93d
000001f0: e02d 003c 66ea 84bd 7f85 593c d5e0 5b3d
00000200: d4fa 94bc 9f19 873c a1ad 31bd 9588 1c3d
00000210: 1bc9 5cbc 6078 1b3d 2a17 07bd 60fc fe3b
00000220: 1683 593b c7a5 f3bb b9f8 6e3c 0680 56bd
00000230: e5d5 bbbd b2f2 b0ba e0f9 d73d c985 03bc
00000240: b323 853d 6d45 c7bd 9fe6 ae3d f408 113d
00000250: 63da 873d 3247 753d d529 013e ad3d f53c
00000260: 88df a93b 08bc 8bbc e65f babd 515b 68bd
00000270: 6b9f 183d 109a b9bb 21ed 523d 7a72 9a3c
00000280: 6330 1d3d cf07 eabc 452d 2dbd 2206 8bbd
00000290: 0005 32bd 6266 14bd 8b84 703d 9fca 30bd
000002a0: 307f 27bc ff43 0b3e 1cbe ce3d 2632 333d
000002b0: d67f 32bc caa9 873b 7d5f edbd 68a1 9fbb
000002c0: 3b13 1ebd 0f05 24bc 936e 3ebd 5109 d7bc
000002d0: 6c0d 253d e050 c83b 1041 8e3c b2b5 6f3b
000002e0: cdfb 08bd 3308 88bc d61b ce3d d177 7abd
000002f0: bf3c 993c d431 89bd b17c 8c3c 8cb9 b93c
00000300: 1d9d fabc 2b21 1d3d d39b 0fbd 6369 463c
00000310: ef47 cc3a 78c2 b8bd 28a1 8c3d 94e9 933c
00000320: d111 a7bd 60fe 71bc 02f1 a9bd 8d9f f4bc
00000330: be06 8dbd 8a9b 233d 6275 223d fba0 4c3d
00000340: ea62 143c 76fd 143c d3c7 943d 43d9 893b
00000350: 3547 883d e1f4 4fbd ddf3 dd3d ea07 a93d
00000360: 8437 5a3c ee70 01bd 5ff0 0d3e 1130 9abc
00000370: fb78 81bd 7f7a 683d a31c 6ebd 58fb 8a3d
00000380: e2a8 04bc f478 99bd cc0b 913d cce7 86bd
00000390: 1c4f 53bd 5168 ae3d a4d8 be3d fa3f 173e
000003a0: f93e 823d c167 323d cbe8 b83d 2542 d33c
000003b0: b262 9cbd de9b 80bc 8577 3cbd d06e e7bc
000003c0: edb7 a7bc 7b6a 963d 34db 463d 6395 8b3d
000003d0: 288b d13d 67b9 50bd 1087 9f3c db67 f53d
000003e0: 92f3 7a3d c530 29bd 1385 933d ec37 6e3d
000003f0: 68f7 4a3d 0d2a 773d cc9b d03b 1132 0c3d

layer_2.weight f4 [300, 400]
-0.058980633 0.013069254 -0.018904356 -0.04481634 -0.00499803 -0.07742461 -0.013883757 -0.004820552
-0.015409404 0.0009233168 0.03729097 -0.024495613 -0.02870952 0.015725385 -0.008758734 -0.06909517
-0.047730826 0.010864167 -0.07881646 -0.03733369 0.01395755 -0.028332336 0.010331306 -0.078509204
-0.0045190635 -0.0061252527 -0.0047539845 -0.047995467 0.010903597 -0.019060332 -0.035204705 -0.036516268
0.049613487 -0.004045234 0.020114642 -0.07548754 0.02224119 0.0021227007 0.04120799 -0.03718067
-0.019716114 -0.0030941293 -0.035828244 -0.009686712 0.001588922 -0.042580616 0.035453547 -0.03651362
-0.023214221 -0.023544118 0.0062703677 -0.019767987 -0.047044005 -0.018382205 0.046757933 -0.014725108
-0.0012795245 0.004710766 -0.013838976 -0.042994626 -0.030653587 -0.003188312 -0.030853732 -0.030007446
0.022502383 0.012649227 0.036915276 0.042785496 -0.033912897 -0.015624368 -0.017887635 0.03760291
-0.03306362 -0.0029798662 0.011633392 0.00044254214 -0.03523768 0.026158225 0.02423584 0.013055567
-0.02793654 0.009342454 -0.024603486 -0.041254506 -0.07492683 0.01684 -0.045702815 0.04059594
-0.045519646 -0.040887326 -0.04938338 -0.009476878 -0.0046975724 -0.029017877 -0.054876853 0.029347822
0.011228729 -0.017283548 -0.079693064 0.010536536 0.02202162 -0.038268406 -0.0039022453 -0.03848914
0.026000414 -0.047981795 0.013040322 0.03112548 0.019736953 -0.02031039 -0.03516706 0.011481831
0.015307887 0.04969347 0.085842356 -0.05190862 0.0165702 -0.04802675 0.020845173 -0.0038962527
-0.00023893267 -0.005564982 0.01847225 0.0050471257 0.028115813 0.022829756 0.023798022 0.012006013
0.03480226 0.014190184 -0.045415055 -0.038810104 0.021569898 -0.021832665 0.021983799 -0.0269727
0.019565677 0.017600436 -0.01735859 -0.033957023 0.038714264 -0.005437893 -0.039288294 -0.049608435
-0.0032548904 0.044904113 0.046515655 0.006228507 -0.035073366 0.012710055 -0.014306384 0.0067673987
0.02706449 0.04702047 0.03470632 0.02407505 -0.019193903 -0.0103328 0.04700647 -0.053027228
0.0226314 -0.07772089 0.017191503 -0.01982907 -0.007200918 0.010937457 0.016545042 0.006351728
0.03700823 -0.060851023 -0.014957214 -0.040089928 0.03226249 -0.022967432 -0.04658696 -0.030402927
-0.00061332155 -0.014700333 -0.0020479974 -0.044188768 0.02118797 -0.024472289 0.00309719 -0.0478531
-0.04243347 -0.045145806 -0.053254787 0.049729858 -0.0045556296 -0.0063944226 -0.047781 -0.032474965
0.027828734 0.0008715302 0.020034809 0.035699032 0.009317892 -0.009604018 -0.04514702 -0.023298405
-0.009883247 -0.042047497 -0.03993513 -0.005925764 0.018660633 0.045182887 -0.006677895 -0.052629415
-0.072620064 -0.02947804 -0.028409706 -0.013497045 -0.021902667 0.010655885 -0.013214044 -0.07748907
-0.07679654 -0.015349077 -0.026134208 0.034589667 0.02406582 0.043321528 0.0003665188 0.0043764426
0.044204447 0.027206954 -0.040778503 -0.028283624 -0.04096859 -0.035545625 0.014879495 -0.020779176
0.047141053 0.0019622997 -0.034589745 -0.0450565 -0.0006776042 -0.06012572 -0.019808328 0.022721019
0.018222425 -0.025006017 -0.02649956 -0.0027373075 -0.060125016 -0.034208536 -0.030036408 -0.057064135
-0.019522632 -0.05417663 -0.01050701 0.02502403 0.028088182 -0.028566115 -0.051059946 -0.02526613
00000000: ad95 71bd 6d20 563c 4fdd 9abc 5791 37bd
00000010: 84c6 a3bb cb90 9ebd b378 63bc b9f5 9dbb
00000020: ba77 7cbc be0a 723a 6bbe 183d 06ab c8bc
00000030: 3a30 ebbc 86d2 803c cb80 0fbc c581 8dbd
00000040: 6681 43bd 9eff 313c 866a a1bd 36eb 18bd
00000050: 35ae 643c 3719 e8bc a344 293c 6fc9 a0bd
00000060: a714 94bb 58b6 c8bb 50c7 9bbb e596 44bd
00000070: 00a5 323c 6a24 9cbc cf32 10bd 1592 15bd
00000080: 8337 4b3d e28d 84bb 76c7 a43c 3699 9abd
00000090: 2833 b63c 021d 0b3b b6c9 283d c24a 18bd
000000a0: b083 a1bc e0c6 4abb a3c0 12bd 04b5 1ebc
000000b0: 6043 d03a 0369 2ebd bd37 113d 4e8f 15bd
000000c0: c02b bebc 98df c0bc a877 cd3b 79f0 a1bc
000000d0: 37b1 40bd 4796 96bc 3f85 3f3d 9441 71bc
000000e0: b8b5 a7ba c55c 9a3b dfbc 62bc 221b 30bd
000000f0: 3b1d fbbc 00f3 50bb f7c0 fcbc 2dd2 f5bc
00000100: eb56 b83c b43e 4f3c 7934 173d d83f 2f3d
00000110: 40e8 0abd 59fd 7fbc 1789 92bc 8205 1a3d
00000120: b86d 07bd dc49 43bb fc99 3e3c 0005 e839
00000130: 6355 10bd c649 d63c 3e8a c63c 04e7 553c
00000140: 2cdb e4bc 1811 193c 408d c9bc 7cfa 28bd
00000150: 3d73 99bd 0af4 893c e032 3bbd ee47 263d
00000160: cf72 3abd 7879 27bd 3a46 4abd e844 1bbc
00000170: 18ee 99bb e6b6 edbc 8dc6 60bd d86a f03c
00000180: b4f8 373c 3a96 8dbc 1e36 a3bd 6fa1 2c3c
00000190: af66 b43c 55bf 1cbd d0bc 7fbb caa6 1dbd
000001a0: d2fe d43c 8f88 44bd 13a7 553c ddfa fe3c
000001b0: 64af a13c fa61 a6bc 560b 10bd 4a1e 3c3c
000001c0: efcd 7a3c 618b 4b3d 1ece af3d 229e 54bd
000001d0: 3abe 873c b3b7 44bd 7fc3 aa3c 4658 7fbb
000001e0: 008a 7ab9 745a b6bb 1e53 973c 5c62 a53b
000001f0: 2253 e63c 7805 bb3c 12f4 c23c deb4 443c
00000200: d18c 0e3d f27d 683c 2305 3abd 58f7 1ebd
00000210: 5bb3 b03c 6bda b2bc 5e17 b43c daf5 dcbc
00000220: 3348 a03c ca2e 903c 9a33 8ebc 8516 0bbd
00000230: d992 1e3d 5a30 b2bb c3ec 20bd 3732 4bbd
00000240: 0050 55bb 60ed 373d 3387 3e3d 8118 cc3b
00000250: 17a9 0fbd d63d 503c 5365 6abc 0ec1 dd3b
00000260: 59b6 dd3c 8998 403d 3728 0e3d 0a39 c53c
00000270: 883c 9dbc e84a 29bc db89 403d 1433 59bd
00000280: 7c65 b93c 212c 9fbd 32d5 8c3c 9370 a2bc
00000290: aef5 ebbb 0533 333c 7889 873c 2822 d03b
000002a0: f195 173d ec3e 79bd 1a0f 75bc 5635 24bd
000002b0: ac25 043d 3226 bcbc f8d1 3ebd 8f0f f9bc
000002c0: 50c7 20ba aad9 70bc b237 06bb 48ff 34bd
000002d0: 6592 ad3c 1c7a c8bc 3afa 4a3b 9d01 44bd
000002e0: b8ce 2dbd cfea 38bd b121 5abd 89b1 4b3d
000002f0: 6447 95bb 4e88 d1bb 03b6 43bd 7804 05bd
00000300: 16f9 e33c 6777 643a 0a20 a43c 2639 123d
00000310: 12aa 183c 2c5a 1dbc 15ec 38bd 4cdc bebc
00000320: 58ed 21bc ff39 2cbd 0593 23bd e92c c2bb
00000330: 2fde 983c b111 393d 3ed2 dabb f191 57bd
00000340: d4b9 94bd ee7b f1bc 79bb e8bc b622 5dbc
00000350: 396d b3bc 0596 2e3c b87f 58bc 97b2 9ebd
00000360: 8147 9dbd b27a 7bbc 6817 d6bc e5ad 0d3d
00000370: af25 c53c ea71 313d 5229 c039 4368 8f3b
00000380: b90f 353d 1ee1 de3c 5c07 27bd 0fb3 e7bc
00000390: aece 27bd 4a98 11bd 20c9 733c 1739 aabc
000003a0: fa16 413d ed99 003b faad 0dbd 2a8d 38bd
000003b0: 40a1 31ba 6346 76bd 1345 a2bc 6e21 ba3c
000003c0: 3247 953c 6bd9 ccbc 9b15 d9bc 6664 33bb
000003d0: a645 76bd 401e 0cbd ea0e f6bc 15bc 69bd
000003e0: eded 9fbc 50e8 5dbd 9825 2cbc 32ff cc3c
000003f0: 3019 e63c 7c03 eabc 3c24 51bd eafa cebc

layer_2.bias f4 [300]
0.0069953743 -0.033442922 -0.03636233 -0.023635479 0.01086732 0.0051440196 -0.027171848 -0.01667529
0.036123205 0.010649475 -0.0024642958 0.022707006 -0.073442884 0.026690673 -0.00092743244 -0.045881078
-0.036613148 -0.045612596 -0.033313435 -0.023740212 -0.042690635 0.0010805723 -0.0006408317 0.0050780363
-0.012610274 0.009253887 0.012999139 -0.024167513 -0.043654863 -0.036141835 -0.00062666374 -0.040693324
0.018640198 -0.052646726 -0.01609074 -0.0031032797 0.00090189057 -0.064830005 0.03775464 -0.029914051
-0.03452029 0.008176181 -0.01107398 0.006853281 -0.025734147 -0.012828131 0.023868963 -0.02726824
-0.04788561 -0.038879048 -0.009675701 -0.01024112 0.02513611 -0.0062404987 0.038024344 0.012177157
0.018207308 0.004383901 0.025439288 -0.03042242 -0.0058825426 -0.02733618 0.035700373 0.035750918
-0.030941794 0.025417756 -0.031294677 -0.020839607 0.029602397 0.03484116 0.0013843124 -0.010802902
-0.048768427 -0.0042655375 -0.045694847 0.037335794 0.01877309 -0.024051676 -0.016478654 0.031337984
0.010923097 0.015153094 -0.044691734 -0.044387326 0.0060108756 0.004892006 -0.044886515 0.0029146746
0.0035748947 -0.010348888 -0.008215657 0.011110993 -0.05199453 0.005951818 0.25076136 -0.07177209
0.0077109104 -0.018281424 0.046336975 -0.05030478 -0.005708255 -0.0166954 0.0061305272 -0.041948617
-0.049561854 0.0042972015 0.046436533 0.03252855 0.014611762 -0.03931884 -0.062626116 0.017052604
-0.011097754 -0.05509563 -0.041339483 -0.009346243 0.012886254 0.12739922 -0.033096008 -0.03676606
0.040576622 -0.06055304 0.04993767 -0.030848015 0.0059424555 -0.025863295 0.015362704 -0.033900253
-0.031865615 -0.028467814 0.041980706 -0.035238102 0.03264948 -0.050467663 -0.026976475 -0.021437138
0.034655806 -0.03298876 0.046578325 0.005192394 -0.042603496 -0.02086586 0.03899553 -0.03418102
0.022732478 -0.014771852 0.00044756383 0.030783895 0.020822411 -0.018444754 -0.04969115 0.02724579
0.02683482 0.015205571 -0.038200803 -0.035833657 -0.026193533 -0.025545519 -0.037569307 0.022466308
0.01669887 0.016240958 0.029104276 -0.010290444 0.037106227 -0.01992761 -0.038041633 -0.046844024
-0.030864002 0.024810757 0.00081749243 -0.023523083 0.029874276 0.021122858 -0.011039779 -0.024792727
-0.011514389 0.033727035 -0.041195616 0.00056468573 -0.03976924 0.0553603 0.042372126 -0.016744832
0.050058153 -0.0060535115 -0.01240714 -0.005091453 -0.047578547 -0.0048138723 -0.047171816 -0.07911642
0.022479089 0.016429035 0.045087066 0.034315243 0.007563442 -0.03515684 -0.010854648 -0.03912443
0.03139141 -0.0015735109 0.025442408 0.042791437 -0.044067264 -0.036821425 -0.0032984933 0.040521473
-0.004481744 0.0053013405 0.015698548 0.010329059 0.044296917 -0.04772448 0.0369427 -0.049806174
0.029362874 -0.009409139 -0.02850457 -0.051766258 0.019928012 0.02812396 -0.0054547857 0.09426802
-0.012702243 -0.0051148445 -0.054840516 0.0055999863 -0.026149327 0.0017765509 0.008398748 -0.008038035
-0.020520149 -0.040020544 -0.017359314 -0.017400162 0.038702212 -0.031695984 0.004812859 -0.037002858
0.041626178 -0.042736486 0.013871845 -0.032368444 0.035855193 0.04088273 -0.040260185 -0.020963918
0.021553675 0.0040286537 -0.061398506 0.00068136316 -0.0428386 -0.06667479 -0.018813582 -0.045999356
00000000: 7439 e53b 72fb 08bd abf0 14bd 319f c1bc
00000010: d80c 323c 2a8f a83b 7f97 debc 9e9a 88bc
00000020: edf5 133d 237b 2e3c 0680 21bb 0b04 ba3c
00000030: 3969 96bd 66a6 da3c f01e 73ba cced 3bbd
00000040: abf7 15bd 46d4 3abd ab73 08bd d57a c2bc
00000050: 60dc 2ebd fda1 8d3a 7dfd 27ba a865 a63b
00000060: 539b 4ebc 9e9d 173c 57fa 543c f3fa c5bc
00000070: 71cf 32bd 7609 14bd b146 24ba 0bae 26bd
00000080: 54b3 983c 18a4 57bd bad0 83bc 6560 4bbb
00000090: da6c 6c3a 98c5 84bd 9ca4 1a3d 500e f5bc
000000a0: 2665 0dbd 64f5 053c a36f 35bc 7d91 e03b
000000b0: 6bd0 d2bc 152d 52bc d888 c33c a561 dfbc
000000c0: b423 44bd a33f 1fbd d586 1ebc 5fca 27bc
000000d0: 3eea cd3c 197d ccbb 6abf 1b3d b382 473c
000000e0: 7e27 953c d4a6 8f3b 0e66 d03c 7038 f9bc
000000f0: 58c2 c0bb 20f0 dfbc 8e3a 123d 8e6f 123d
00000100: a579 fdbc e638 d03c d92e 00bd d3b7 aabc
00000110: ba80 f23c 9bb5 0e3d d171 b53a a8fe 30bc
00000120: 67c1 47bd ecc5 8bbb 852a 3bbd 6bed 183d
00000130: 06ca 993c 0508 c5bc 3efe 86bc 425c 003d
00000140: caf6 323c af44 783c ae0e 37bd 7ccf 35bd
00000150: e1f6 c43b 1f4d a03b ecda 37bd 2004 3f3b
00000160: c848 6a3b 628e 29bc f79a 06bc e20a 363c
00000170: 37f8 54bd 7807 c33b cb63 803e 3ffd 92bd
00000180: ceab fc3b edc2 95bc d7cb 3d3d 630c 4ebd
00000190: 500c bbbb cbc4 88bc 97e2 c83b 50d2 2bbd
000001a0: 5f01 4bbd 8acf 8c3b 3c34 3e3d a83c 053d
000001b0: 2c66 6f3c cb0c 21bd 1f42 80bd e7b1 8b3c
000001c0: 5bd3 35bc f5ab 61bd 9753 29bd fc20 19bc
000001d0: de20 533c f174 023e ae8f 07bd 0298 16bd
000001e0: ac33 263d 7706 78bd 718b 4c3d fab4 fcbc
000001f0: eeb8 c23b 43df d3bc dab3 7b3c feda 0abd
00000200: 8585 02bd 5535 e9bc f6f3 2b3d d455 10bd
00000210: 76bb 053d 2eb7 4ebd c5fd dcbc f09c afbc
00000220: 3ff3 0d3d 391f 07bd eac8 3e3d f524 aa3b
00000230: 0181 2ebd e1ee aabc c7b9 1f3d 6601 0cbd
00000240: 7639 ba3c a305 72bc 00a7 ea39 822e fc3c
00000250: c393 aa3c 7419 97bc f388 4bbd 9032 df3c
00000260: b2d4 db3c ca20 793c 7278 1cbd 50c6 12bd
00000270: d293 d6bc d644 d1bc 46e2 19bd 430b b83c
00000280: 12cc 883c c20b 853c 176c ee3c 4099 28bc
00000290: b3fc 173d 3a3f a3bc 8bd1 1bbd 85df 3fbd
000002a0: 81d6 fcbc ee3f cb3c fd4c 563a 7bb3 c0bc
000002b0: e6ba f43c d809 ad3c 30e0 34bc 1e1a cbbc
000002c0: d9a6 3cbc 5c25 0a3d bcbc 28bd 6b07 143a
000002d0: 12e5 22bd 7bc1 623d 658e 2d3d 752c 89bc
000002e0: c709 4d3d 895c c6bb 5147 4bbc 34d6 a6bb
000002f0: b9e1 42bd b0bd 9dbb 3c37 41bd ca07 a2bd
00000300: 1126 b83c 2f96 863c 37ad 383d 248e 0c3d
00000310: c0d6 f73b 9e00 10bd b2d7 31bc f040 20bd
00000320: 4794 003d 443e ceba 996c d03c 1346 2f3d
00000330: e07f 34bd 10d2 16bd 892b 58bb d8f9 253d
00000340: 98db 92bb deb6 ad3b 3e9a 803c 373b 293c
00000350: af70 353d bf7a 43bd 3b51 173d 8f01 4cbd
00000360: 698a f03c ca28 1abc 6a82 e9bc db08 54bd
00000370: 1240 a33c 3864 e63c 0fbe b2bb 970f c13d
00000380: 121d 50bc 6d9a a7bb 73a0 60bd 1780 b73b
00000390: 1d37 d6bc 28db e83a e79a 093c f6b1 03bc
000003a0: df19 a8bc 95ec 23bd 1f35 8ebc c98a 8ebc
000003b0: 3686 1e3d a6d3 01bd 30b5 9d3b 4f90 17bd
000003c0: 3680 2a3d 740c 2fbd bc46 633c c694 04bd
000003d0: e5dc 123d a674 273d dde7 24bd 86bc abbc
000003e0: 5591 b03c cc02 843b 007d 7bbd 829d 323a
000003f0: 8777 2fbd cb8c 88bd f11e 9abc d269 3cbd

layer_3.weight f4 [1, 300]
0.0004937393 0.013388822 0.02215729 -0.07003319 -0.0016295596 0.0027777287 -0.0050940793 0.01896644
-0.022877889 0.019120144 0.017691761 -0.022014469 0.011913988 -0.013120492 0.046507735 0.026611816
-0.049958337 -0.0122584505 -2.2145994e-05 -0.0032194145 0.035248272 0.050196156 0.03966307 0.018135011
-0.044078194 0.027861737 0.020989144 0.03291951 0.00015216814 0.012647871 -0.00072806934 0.020660503
0.01507341 -0.017531607 0.03962651 -0.0051214113 -0.024089549 -0.028528735 -0.0026168833 -0.012815597
-0.019465504 -0.0017768225 -0.040409286 -0.020056289 0.028785815 -0.00042636372 -0.046107154 -0.02617852
-0.04133439 -0.015492399 0.03521724 -0.02312243 0.04403848 -0.02216446 0.037336305 -0.038062204
-0.012335702 0.027739044 0.0064998344 -0.017077494 -0.022812847 -0.0043710284 -0.01689015 -0.04774471
0.0026513434 0.0046721874 -0.045299638 -0.025481395 0.026603872 0.050679952 -0.037437383 0.023619728
0.044163138 -0.023348084 0.02156506 -0.026267165 -0.00066159817 -0.04357623 -0.014782771 -0.016905699
0.006483175 0.034286264 0.025488513 -0.012087244 -0.022814507 0.040064912 0.023363993 -0.0474882
0.01636607 -0.0084901815 0.013852952 0.20509805 0.0011595769 -0.04980359 0.146659 -0.018436769
0.0010417375 0.00026056933 -0.0004981309 -0.0016111131 -0.003350377 -0.009389295 0.0034312191 0.027312368
-0.0014627479 -0.029353121 0.029436646 0.03994134 0.016858988 -0.003399618 -0.022439102 0.028055405
-0.017077213 0.0058706636 0.040547635 -0.044983726 -0.007986836 0.030520055 0.00025295117 0.04770494
-0.00022240166 0.010117769 0.02466584 -0.0028640241 -0.016033173 0.025334042 -0.024761204 -0.047761533
0.029762281 -0.03670728 0.0414705 0.0004699656 0.041906863 -0.030755073 0.028412716 -0.0049849665
-0.02264577 0.02777325 0.02958448 -0.04461507 0.0005817997 0.032568797 -0.0031379014 -0.0006602845
0.03205532 0.027821783 -0.017273065 -0.02003093 0.0058015157 0.0050731646 -0.0018408727 0.00043056096
0.057692915 -0.0011463799 0.0022166893 -0.0018222391 0.02625471 0.00014447926 -0.009759814 -0.014100474
0.034877278 -0.007184545 0.030407082 -0.051044002 0.008474648 -0.04057595 0.024759175 0.00986773
-0.02850635 -0.024203148 -0.03697487 0.029962406 -0.0140640065 0.00030807234 0.018555667 0.039942674
-0.020624038 -0.0073207617 0.026244877 0.020171588 -0.026749786 0.0041048494 -0.015040234 0.0023579237
0.005932934 0.00047288332 -0.026207294 0.003924443 -0.038244538 -0.01491791 -0.02960096 0.005616183
0.008493736 0.047497593 0.02976856 0.031349283 -0.015024142 -0.036434494 -0.0033486318 -0.0018267103
-0.0016294157 -0.0063554295 0.010784402 0.0024709394 0.003148906 -0.031969853 -0.0058357497 0.0018289965
-0.020202022 0.022594905 -0.0068678125 -0.033879653 0.0037245732 0.02661759 -0.019782675 -0.0339357
-0.023182804 0.00015891071 -0.009836865 -0.016671076 0.052885704 -0.01755989 -0.026010096 -0.06508504
0.034215774 -0.0240947 -0.029131038 0.026948482 -0.0013256364 -0.015526852 -0.00957319 0.041895244
-0.013059238 -0.014302003 -0.00019823664 0.0076962244 -0.0006194997 -0.026054876 -0.051131185 0.008441246
-0.00065217627 -0.0003514689 0.034886956 -0.016119547 0.0041975933 0.021445028 -0.0006517362 -0.010532113
0.00023079704 0.025539221 0.011857504 0.008552916 0.013467411 -0.018283365 -0.0521955 -0.018536206
00000000: 496e 013a ca5c 5b3c 3483 b53c 906d 8fbd
00000010: f296 d5ba 8e0a 363b 3cec a6bb 825f 9b3c
00000020: 696a bbbc d9a1 9c3c 50ee 903c b057 b4bc
00000030: e332 433c 55f7 56bc e57e 3e3d 0601 da3c
00000040: 1da1 4cbd abd7 48bc 29c6 b9b7 d0fc 52bb
00000050: 7e60 103d 7c9a 4d3d be75 223d e08f 943c
00000060: 568b 34bd 4c3e e43c 6df1 ab3c 9cd6 063d
00000070: 538f 1f39 0439 4f3c e8db 3eba 3740 a93c
00000080: 77f6 763c 729e 8fbc 684f 223d 83d1 a7bb
00000090: 7257 c5bc 18b5 e9bc 0480 2bbb 82f8 51bc
000000a0: 1f76 9fbc 45e4 e8ba 3584 25bd 164d a4bc
000000b0: 3bd0 eb3c 9289 dfb9 dbda 3cbd 5674 d6bc
000000c0: 404e 29bd d5d3 7dbc f43f 103d 406b bdbc
000000d0: b161 343d 3e92 b5bc f4ed 183d 1de7 1bbd
000000e0: af1b 4abc fe3c e33c 90fc d43b 1ae6 8bbc
000000f0: 02e2 babc d83a 8fbb 365d 8abc f58f 43bd
00000100: 29c2 2d3b 2619 993b 1d8c 39bd 5cbe d0bc
00000110: 5df0 d93c c895 4f3d f157 19bd 297e c13c
00000120: 68e4 343d 7b44 bfbc 35a9 b03c 3d2e d7bc
00000130: 1a6f 2dba fd7c 32bd 6f33 72bc d27d 8abc
00000140: d070 d43b c16f 0c3d 49cd d03c 9309 46bc
00000150: 7de5 babc 1b1b 243d d865 bf3c fd82 42bd
00000160: 2312 863c 671a 0bbc 7ef7 623c 3905 523e
00000170: f2fc 973a d9fe 4bbd c72d 163e b508 97bc
00000180: e98a 883a 069d 8839 0095 02ba fc2b d3ba
00000190: 0092 5bbb 8fd5 19bc 4ede 603b 30be df3c
000001a0: adb9 bfba f575 f0bc 1f25 f13c 8899 233d
000001b0: dc1b 8a3c 20cc 5ebb 35d2 b7bc 73d4 e53c
000001c0: 83e5 8bbc b25e c03b 4715 263d db40 38bd
000001d0: 38db 02bc 3205 fa3c 889e 8439 4166 433d
000001e0: 7e34 69b9 00c5 253c 0410 ca3c 5ab2 3bbb
000001f0: 0058 83bc 5689 cf3c 02d8 cabc 99a1 43bd
00000200: 07d0 f33c 5f5a 16bd f9dc 293d b765 f639
00000210: 88a6 2b3d 10f2 fbbc c9c1 e83c ee58 a3bb
00000220: 9f83 b9bc ba84 e33c 275b f23c 4bbe 36bd
00000230: eb83 183a dc66 053d 40a5 4dbb f116 2dba
00000240: 704c 033d 82ea e33c 3e80 8dbc e817 a4bc
00000250: a41a be3b ca3c a63b 7049 f1ba eabc e139
00000260: 684f 6c3d 2042 96ba e045 113b 33d8 eeba
00000270: 1e14 d73c 5b7f 1739 a0e7 1fbc ad05 67bc
00000280: 7adb 0e3d 556c ebbb 4618 f93c 8413 51bd
00000290: 40d9 0a3c f832 26bd c1d3 ca3c 42ac 213c
000002a0: 2686 e9bc ae45 c6bc f672 17bd b873 f53c
000002b0: b86c 66bc c584 a139 0e02 983c ee9a 233d
000002c0: bef3 a8bc 00e3 efbb 7fff d63c e33e a53c
000002d0: 5e22 dbbc f981 863b 506b 76bc 6587 1a3b
000002e0: 0f69 c23b 53ed f739 aeb0 d6bc 9d98 803b
000002f0: 4ea6 1cbd 406a 74bc b67d f2bc f507 b83b
00000300: 5029 0b3c d68c 423d 32dd f33c 1b68 003d
00000310: d227 76bc 563c 15bd b874 5bbb 3a6e efba
00000320: 1e92 d5ba 3541 d0bb 0fb1 303c 7cef 213b
00000330: e05d 4e3b d2f2 02bd d139 bfbb f0ba ef3a
00000340: b67e a5bc f318 b93c 630b e1bb 64c5 0abd
00000350: f817 743b 220d da3c 470f a2bc 2900 0bbd
00000360: dde9 bdbc 45a1 2639 cd2a 21bc c891 88bc
00000370: ae9e 583d c2d9 8fbc 2013 d5bc 4e4b 85bd
00000380: d725 0c3d 4062 c5bc 37a4 eebc 10c3 dc3c
00000390: fac0 adba 5664 7ebc ded8 1cbc 599a 2b3d
000003a0: 6af6 55bc f352 6abc bedd 4fb9 9c30 fc3b
000003b0: ec65 22ba 0971 d5bc ef6e 51bd 274d 0a3c
000003c0: cff6 2aba 5b45 b8b9 a0e5 0e3d 240d 84bc
000003d0: f78b 893b 7cad af3c 47d9 2aba e28e 2cbc
000003e0: 1c02 7239 a137 d13c fa45 423c 8821 0c3c
000003f0: 6aa6 5c3c ffc6 95bc f3ca 55bd 3ed9 97bc
