models/ddpg_model_episode_150_actor.pth (torch, 631313 bytes, 6 tensors)

layer_1.weight f4 [400, 11]
000000 4c 40 b7 3d 72 51 50 be b0 5e 9f bd 54 34 87 be
       0.089478105 -0.20343569 -0.07781732 -0.2640711
000010 ce a6 23 3e e4 e5 5c 3e bf 28 8c be f6 01 37 be
       0.159816 0.21572071 -0.27374837 -0.17871842
000020 c8 dd 97 bd 7c fc 8a 3d cc ff 54 be 8c 2b 1a be
       -0.07415348 0.06786439 -0.20800704 -0.15055674
000030 4e 50 ae 3d fb 90 e3 bd 25 54 25 3e fe 69 60 be
       0.08511411 -0.11111637 0.1614538 -0.21915433
000040 c3 f2 3e 3e 24 92 36 3e bc 81 0e 3d 3a 08 00 3e
       0.18647294 0.17829186 0.034791693 0.12503138
000050 f0 6a 5d 3e ac 3d 07 be 9c cc 8c 3e 11 c6 61 3e
       0.21622825 -0.1320712 0.27499855 0.22048213
000060 e5 fb 9d bd 4e 7c 25 3c 80 c0 3a bd 61 c9 1d 3e
       -0.07714061 0.010100437 -0.04559374 0.15408851
000070 f1 a1 89 3d 9b d7 ea 3c de c2 8d 3e 7e b4 81 be
       0.06720341 0.028667262 0.27687734 -0.25333017
000080 7a 88 e8 bd 31 0a 71 be f1 a1 7d be 7c ca c0 bd
       -0.11354156 -0.23539044 -0.24768807 -0.09413621
000090 d8 58 81 3e 8f 0a 8f be c0 f3 a8 3c e8 c9 eb 3d
       0.25263095 -0.27937743 0.020624042 0.1151312
0000a0 ce f0 44 3e 54 b4 0c be 1a 21 8c bd 40 8e 19 bd
       0.19232485 -0.13740665 -0.06842251 -0.037489176
0000b0 e8 41 43 3e 70 81 5f be b9 9a 2a be 5f b5 f6 3d
       0.1906811 -0.2182672 -0.16660585 0.120463125
0000c0 4b 22 cb bd ec b4 9a bb ea 33 44 bd ad f9 72 3d
       -0.0991865 -0.0047212746 -0.04790107 0.05932014
0000d0 f6 31 08 be 29 7f ff bc 4e f5 7c 3e ac d0 5c bd
       -0.13300309 -0.031188564 0.24702951 -0.053909943
0000e0 fc 43 2d be 3d fa 70 be a2 c0 7e be a0 11 29 bc
       -0.16920465 -0.23532958 -0.24878171 -0.0103191435
0000f0 9a 9a e4 bd c8 8a 53 3d 1e d2 8d be a4 d5 34 3e
       -0.111623004 0.051646024 -0.2769937 0.17659622
000100 50 dd 88 3e fd fd 87 be 1e 1d 6c 3d ed 5f ff bc
       0.26731348 -0.26560965 0.057644956 -0.03117367
000110 eb 39 f0 ba a5 f0 18 3e 34 d7 03 bd ba 72 c4 3d
       -0.0018327808 0.14935549 -0.032187656 0.09592195
000120 6f 53 57 be 24 e3 97 be c8 43 71 3e 0a ac 95 bd
       -0.21027921 -0.29665482 0.23561013 -0.073082045
000130 81 9d bf 3d 36 ce 0a be 64 65 03 3e 4f d2 1a be
       0.09356213 -0.13555226 0.12831646 -0.15119289
000140 d7 6b bd 3d 60 da 77 bd fb 61 34 3c f8 67 26 3d
       0.092490844 -0.060510993 0.0110096885 0.040626496
000150 2b 65 15 be eb 27 09 be 10 1c 5e be b2 d4 2b be
       -0.14589374 -0.13394134 -0.21690392 -0.16780356
000160 53 21 f3 3d 9b 5c 62 be 82 e5 8c be 74 7d 5d be
       0.118715905 -0.22105639 -0.2751885 -0.21629888
000170 2c fa 36 3e a6 aa 49 3d 49 93 4c 3c 68 d1 70 3e
       0.1786887 0.04923501 0.012486287 0.23517382
000180 14 67 7c be ac ef 52 3e 12 37 e9 bd 7c 9f b6 bd
       -0.24648696 0.2059924 -0.11387457 -0.08917138
000190 f0 92 92 bc 78 b6 e1 3d f1 cb 63 be 69 de 8b be
       -0.01789233 0.11021131 -0.22245766 -0.27318123
0001a0 b7 3d 2b be 00 5e c4 bc 04 f4 74 3e 9d 12 7e be
       -0.16722761 -0.023970604 0.2392121 -0.24811788
0001b0 55 40 88 be c8 ed 87 bd 83 85 49 3e 92 95 60 bc
       -0.2661158 -0.0663715 0.19679837 -0.013707535
0001c0 aa 5d 3f 3e 8f 26 2c be 96 90 ba bd 91 91 0f be
       0.18688074 -0.16811584 -0.09109609 -0.14020373
0001d0 96 2f 99 be 47 ef 89 3e fb 56 83 3e 63 28 ce 3d
       -0.29919118 0.26940367 0.25652298 0.10066297
0001e0 46 b9 db 3d 42 bf 29 be c2 fe f3 3d 1f cd e1 bd
       0.107286975 -0.16576865 0.119138256 -0.11025452
0001f0 b4 06 68 3d 65 ea 69 be e8 3f 82 3e d5 89 81 3e
       0.056647018 -0.2284332 0.25439382 0.2530047
000200 98 fc 26 3d ec 55 84 3d f8 3e 23 3d 4c e2 54 be
       0.040768236 0.06461701 0.039854974 -0.2078945
000210 e1 b1 4f be d7 b4 48 be eb 6a 01 be 03 c3 70 be
       -0.20282699 -0.19600235 -0.12638442 -0.23511891
000220 8f 2b 6a 3e 20 91 f8 bd 49 f2 87 3d 03 30 68 be
       0.22868179 -0.121370554 0.06638009 -0.22674565
000230 20 75 69 3c d0 d0 4c 3d 14 bc 73 bd 72 bf a5 bd
       0.014249116 0.050003827 -0.059505537 -0.08093156
000240 2b 4f 2a 3e 90 76 5f 3d be af 86 be ef 96 5c be
       0.16631763 0.05455643 -0.26305956 -0.21541952
000250 f2 eb 99 bd 21 cd bc bc 4f 6a d4 bd 7b 97 aa 3d
       -0.07515706 -0.023047032 -0.10371839 0.08329674
000260 7f 21 2a bd 25 4c 03 3e c6 b7 86 3e 5f cb 63 3e
       -0.04153585 0.12822016 0.26312083 0.22245549
000270 6c 3e 32 bd a1 1a f0 bd aa 28 2c 3e 31 7b b4 3d
       -0.04351656 -0.11723829 0.16812387 0.088125594
000280 e8 ab 49 be f0 38 2d 3e 35 9e cc 3d 3a 83 7a 3d
       -0.19694483 0.16916251 0.09991113 0.061160304
000290 3b 3e 19 3e ec f4 18 3e 90 ff 3f be 86 bc 94 be
       0.14965145 0.1493718 -0.18749833 -0.29050082
0002a0 d4 38 ff 3d b8 76 81 be 34 85 b1 3d 7a fd 1e 3e
       0.12462011 -0.25285888 0.086679846 0.15526381
0002b0 0e da 7e be 36 92 3a 3e f6 da 35 be ee 09 5e be
       -0.24887869 0.18219838 -0.17759308 -0.21683475
0002c0 37 58 39 be e9 6f ed 3d e2 bd 67 be 5c 91 8a 3e
       -0.18100058 0.11593611 -0.22631028 0.27064025
0002d0 6c 2c 3e be 23 3f 8b 3e 69 9a 92 bc f9 cd 4d be
       -0.18571633 0.27196607 -0.017895894 -0.20098104
0002e0 d8 cd c0 3d 20 ae 1d 3d c0 46 42 bd d3 d8 dc 3c
       0.094142616 0.038496137 -0.047430754 0.026958859
0002f0 ab c8 10 bd dd cb 61 be 6d 50 97 be d9 0f 28 3d
       -0.035347622 -0.22050424 -0.29553548 0.04103074
000300 bd 9b 5b be 1e 6f 06 be 04 bd c1 3d 89 84 8c 3e
       -0.21446128 -0.13128325 0.0945988 0.27444866
000310 9c 45 6c bd 05 3b d8 3d 27 45 0c be 79 6b 8c 3e
       -0.057683572 0.10558132 -0.13698255 0.27425745
000320 3b f3 18 3e dd d4 3d be cb 2f 14 be 9a 6b 00 3e
       0.14936535 -0.18538232 -0.14471357 0.12541047
000330 84 92 c2 3d d7 65 a6 bc e0 5c 22 3d aa e4 93 be
       0.09500602 -0.020312233 0.039639354 -0.28885394
000340 02 01 b2 bd 8c 7a a3 bd 76 58 0a 3d 28 5e 78 3e
       -0.086915985 -0.07982358 0.03377577 0.24254668
000350 82 49 53 be 6a 3f c8 3d 5b b2 78 be ba ad 5c be
       -0.2063351 0.0977772 -0.24286787 -0.21550646
000360 66 4a 8b be 59 4b 0e be d3 5d 21 bd 07 80 f3 3c
       -0.272052 -0.1389593 -0.03939612 0.029724134
000370 74 7e 73 be 10 99 82 be 30 58 8b 3e 52 88 89 be
       -0.23778707 -0.25507402 0.2721572 -0.26861817
000380 77 9d 63 3e 11 5b d4 3d 76 d1 07 be 30 2b b7 3d
       0.22228037 0.10368932 -0.13263497 0.08943784
000390 24 d5 3a bd cf 13 0e be f5 5e 63 3e 18 95 22 bd
       -0.045613423 -0.13874744 0.22204192 -0.039692968
0003a0 37 7a 3e be 1c c2 65 be 5f 97 8a be 40 85 2d bd
       -0.18601309 -0.22437328 -0.27068612 -0.042363405
0003b0 bb 0d 06 be a4 f0 db bd 31 7d 5a be b4 c7 92 3e
       -0.13091175 -0.10739258 -0.21336819 0.28667986
0003c0 f8 2a 0c 3d e4 f0 6e be 78 36 06 3e bb 8e 12 3e
       0.034220666 -0.2333408 0.13106716 0.1431226
0003d0 1d 92 5c 3d ff 33 58 3d b8 0f 1e be be 24 b2 3d
       0.053850282 0.052783962 -0.15435684 0.08698414
0003e0 3c 79 07 bc 7f 08 c9 3d 5e c4 88 3e c0 2b 61 bc
       -0.008268651 0.098160736 0.26712316 -0.013743341
0003f0 20 34 6d bd 91 70 80 3e 9b 5d 11 bd c2 a6 01 3e
       -0.05791104 0.2508588 -0.03548966 0.1266127

layer_1.bias f4 [400]
000000 9a b1 8b be 1e f1 16 be 11 e7 90 be 70 38 8f bc
       -0.27283937 -0.14740416 -0.2830129 -0.017482966
000010 7f 13 6d 3d d0 d1 96 3c 99 2d 0d 3d 45 fc 11 3e
       0.05787992 0.018410593 0.034467313 0.1425639
000020 1b bd 78 be bc 5c 4c 3e 39 28 51 be c1 0a 20 be
       -0.24290888 0.1995725 -0.204255 -0.15629102
000030 5a b4 85 be 97 02 2f be 8a 09 84 be c4 62 7e 3e
       -0.2611416 -0.17090832 -0.25788528 0.24842364
000040 ea cc 12 be 82 11 bf bd 60 37 38 be c7 5e 37 be
       -0.14335981 -0.09329511 -0.17989874 -0.17907248
000050 09 e6 51 bd 40 c7 1d bc 67 f5 47 be 49 29 3b 3e
       -0.05124477 -0.009630024 -0.19527207 0.18277468
000060 c4 82 54 bd a9 1f 54 be 20 dd 7e be 22 40 51 be
       -0.05188252 -0.20715202 -0.2488904 -0.20434621
000070 a5 bd 78 bd e2 7c 66 be 2f 30 7a be 55 1c 88 be
       -0.060727734 -0.22508577 -0.24432443 -0.26584116
000080 1d e5 33 bc a1 e9 38 3d ec 4c 6e 3e c5 bb 8d be
       -0.010979918 0.04514468 0.23271531 -0.2768232
000090 c5 b5 85 3e 9b cc 1c bc d0 9a 80 be 3e db 91 3e
       0.26115242 -0.009570266 -0.25118113 0.2848758
0000a0 2a aa 68 3e c5 8e db 3d 7a 3e 6b 3e 8e 5e 69 bd
       0.22721162 0.107205905 0.22973052 -0.05697494
0000b0 27 ac 8b be 26 da f5 bd 70 4f e4 3d 3f 96 d2 bd
       -0.2727978 -0.12004499 0.11147964 -0.102825634
0000c0 68 8b 8a 3d 88 2d 06 be c3 7c 03 be 0f f9 a2 3d
       0.06764871 -0.13103306 -0.12840562 0.079576604
0000d0 74 52 fd bd d1 3b f9 3d 8e 0e eb 3d 42 2d 05 3e
       -0.12369242 0.12169612 0.114773855 0.13005546
0000e0 d6 3b 5e be ca e1 d1 3c 64 51 a4 bd 08 d7 3b 3d
       -0.21702513 0.02562036 -0.080233365 0.045859367
0000f0 cd fb 88 be 29 b5 56 be 79 d7 4c be bb 8e 12 3d
       -0.2675461 -0.20967545 -0.20004071 0.03578065
000100 af 23 eb 3d 9d c7 75 3e c8 56 f2 39 ab 50 25 be
       0.114814155 0.24001928 0.00046222494 -0.16144054
000110 a8 47 89 3d a5 9b 66 3d 9f df 49 be b6 07 5b 3e
       0.067031205 0.056300778 -0.19714211 0.2138966
000120 0a 1e 65 be 5a 26 1f 3e f0 b5 43 bd fe b1 b7 bd
       -0.2237474 0.15541974 -0.04778093 -0.08969496
000130 02 af 3b be 1b 4c 33 be 36 06 96 3e 29 3e 0b be
       -0.18328479 -0.175095 0.29301614 -0.13597931
000140 06 bb 81 be cf 08 8b 3d 69 34 8a be 8e 38 3f 3e
       -0.25338 0.067887895 -0.2699311 0.18673918
000150 29 e4 64 be 9c 76 24 3e ce c7 04 3e 14 4a 93 3e
       -0.22352661 0.16060871 0.12966844 0.28767455
000160 38 c0 d5 3d 9e d3 d5 bc 62 4c 07 3e ad eb 41 be
       0.104370534 -0.026101884 0.13212731 -0.1893756
000170 02 a8 04 be 00 84 31 3b 7e f7 82 be 8b 7c 30 be
       -0.12954715 0.0027086735 -0.25579447 -0.1723501
000180 a7 d9 2a 3e 42 81 41 be 66 fc 13 bd 66 3f 1d 3e
       0.1668459 -0.18896964 -0.036129378 0.15356216
000190 34 85 27 be 14 ec 6a bd 67 9c 01 be 38 2d b5 3d
       -0.16359407 -0.057354048 -0.12657319 0.088465154
0001a0 08 77 95 be 17 5e 8f 3e 31 b5 95 be 74 3c 88 be
       -0.29192376 0.28001472 -0.292398 -0.26608622
0001b0 c6 8d c2 bd b2 a5 83 be 6d 47 22 3e eb 1c 8d be
       -0.094996974 -0.25712353 0.1584756 -0.27561125
0001c0 70 f7 2b bd 7e 6b 7a 3e 08 57 10 3e 09 ba 61 bd
       -0.04198402 0.24455068 0.140957 -0.055109058
0001d0 2d be 8c bd c7 04 98 3d 54 69 de 3d 63 66 88 be
       -0.06872211 0.07422786 0.108599335 -0.26640615
0001e0 96 ed 8e 3e 56 65 8b be d1 d3 47 be 04 08 71 be
       0.2791564 -0.2722575 -0.19514395 -0.23538214
0001f0 50 d5 46 3e 7d db cd bd 84 26 60 be 74 bf 31 3e
       0.1941731 -0.1005163 -0.21889693 0.1735819
000200 0b 6e 3d bb f8 5d 59 3e 10 0b 6a bd 76 ed 95 be
       -0.0028904702 0.21227252 -0.057139456 -0.2928273
000210 3a 73 7c 3e c6 48 ff 3d 33 11 08 3e 24 66 9c 3d
       0.2465333 0.12465052 0.13287811 0.07636669
000220 00 3b db bc 78 33 f3 bb b3 07 18 be cf d3 1d 3e
       -0.026761532 -0.007421907 -0.14846687 0.1541283
000230 b5 ac 04 be 60 36 63 3e 20 c7 8b 3e df a9 71 bb
       -0.12956508 0.22188711 0.27300358 -0.0036874933
000240 0b 0e 52 bb 10 7f f6 bd 09 8b 6e be c2 5c 16 be
       -0.0032051827 -0.12035954 -0.23295225 -0.14683822
000250 21 dd 03 bd 84 ae 82 3d 2a 64 d8 bd f4 49 87 be
       -0.032193307 0.063809425 -0.1056598 -0.2642361
000260 75 74 b1 3d 10 13 69 3d 38 14 c7 3d 5e a6 ee 3d
       0.086647905 0.056902945 0.09720653 0.11652826
000270 4c 3a 88 3e 9c c9 ee bb 4e 28 ee bd c0 86 cd 3b
       0.26606977 -0.0072872173 -0.11628781 0.006272167
000280 82 98 4e 3e 49 ec 4c 3e c7 d4 af bd 4a 84 43 3e
       0.20175365 0.2001201 -0.08585506 0.19093433
000290 7f 97 49 3d 04 fe 55 bd 89 2a a7 3d 15 1c 1a 3e
       0.049216744 -0.0522442 0.0816241 0.15049775
0002a0 62 fa 8a be 65 ae 05 be 89 c7 60 3e 57 1d 13 be
       -0.27144152 -0.13054807 0.21951117 -0.14366661
0002b0 bf fa 52 be 3a c4 55 bd 08 b9 4f 3e d9 48 93 be
       -0.20603465 -0.05218909 0.20285428 -0.28766516
0002c0 16 c2 0d be 85 b0 40 3e a8 c5 54 3e c8 eb 1d 3e
       -0.13843569 0.18817337 0.20778525 0.15421975
0002d0 31 93 63 3e 78 09 a8 bd 05 3d 75 be b5 af c1 3d
       0.22224118 -0.08204931 -0.23949058 0.094573416
0002e0 cf be 68 3e 76 35 8f 3e e4 f2 93 3d bc c3 22 3e
       0.22729038 0.27970475 0.07224062 0.15894979
0002f0 21 3a 36 be 60 40 84 3c 78 75 0b 3e d4 4c 84 be
       -0.17795612 0.016143978 0.1361903 -0.25839865
000300 20 22 2e 3c 1f 21 5b 3e a0 28 8c be d4 21 9a 3e
       0.010628253 0.21399353 -0.27374744 0.30103934
000310 96 8d 7d be 42 95 58 be 12 d2 7e be 7c 22 3b 3e
       -0.24761042 -0.21150687 -0.24884823 0.18274873
000320 3e bf 89 bd 66 2f 92 3e 80 7f 2a 3e 3d e3 a0 bd
       -0.0672593 0.28551787 0.166502 -0.07855842
000330 b0 a3 a9 bb a6 a9 bc bd 01 23 7e 3c b5 fe 39 3e
       -0.005176984 -0.09212045 0.015511275 0.1816357
000340 15 b9 df bd 60 5d fe bd 0b 74 8a be 08 8c bd bd
       -0.109239735 -0.124201536 -0.2704166 -0.092552245
000350 e4 9c 91 3e 76 9b 90 3e 48 0c 04 3e 4f 0e a5 3b
       0.2844001 0.28243607 0.1289531 0.005037106
000360 98 e7 3f be c7 c6 51 be d4 7e 44 3e c0 43 0a bd
       -0.1874069 -0.20485984 0.19189006 -0.033756018
000370 a0 94 0d be f9 af 19 3e cf 37 98 bd fd c2 99 3e
       -0.13826227 0.15008534 -0.0743252 0.30031577
000380 2f 15 72 3e ca 7b 41 3d a0 92 13 bd c6 d0 15 be
       0.23640893 0.047237195 -0.036028504 -0.14630422
000390 bd 9e 18 3e a0 a1 22 3e cf ae 98 be 4b 53 f3 3c
       0.14904304 0.15881968 -0.29820868 0.029702803
0003a0 c3 1e 64 3e cd 7c 3a 3e 64 f0 64 3e dd 25 70 3e
       0.2227736 0.1821167 0.22357327 0.23451944
0003b0 c8 90 21 be ba f7 0f 3e 72 34 96 be a4 a6 d9 bd
       -0.15777886 0.14059344 -0.29336888 -0.10627487
0003c0 ab b1 6c be 92 5f 96 3b f8 64 92 3e fc c8 ff 3b
       -0.2311465 0.0045890296 0.28592658 0.0078059416
0003d0 41 f3 83 be 11 bb 42 be 27 b1 36 3e 90 aa cb 3d
       -0.25771526 -0.19016673 0.17841016 0.099446416
0003e0 64 84 2f bc a1 b0 0a be 89 10 55 bd 60 a1 31 be
       -0.010712717 -0.13543941 -0.052017722 -0.17346716
0003f0 eb 59 80 3e f1 15 92 3e 2c 45 91 3e b0 1f 98 3e
       0.25068602 0.28532365 0.28373086 0.29711676

layer_2.weight f4 [300, 400]
000000 82 a2 3a bd 38 7e 2c bd 78 b8 cc 3c ac 69 32 3c
       -0.045565136 -0.04211256 0.024990305 0.010889452
000010 f8 47 63 bc 12 e5 89 3c a0 bf 4b bd fe 6d ec 3c
       -0.013872139 0.016832862 -0.049743295 0.028861042
000020 e7 e2 9f bc 14 94 58 3c 32 b3 e2 3c 0f b2 76 bc
       -0.019517375 0.013218898 0.027673338 -0.015057101
000030 0d 20 22 3d e7 9f bd bc 8d 06 4b bd f4 57 70 bc
       0.039581347 -0.023147536 -0.049566794 -0.014669407
000040 dd 7c ca bc e2 db 88 3c 7d 50 39 bc fd 87 09 bd
       -0.024717743 0.01670641 -0.011310694 -0.033576954
000050 cb 3a 0f 3d 09 92 21 3d 78 d1 13 3c 64 56 8d bc
       0.03496818 0.03944591 0.009022109 -0.017253108
000060 5b 66 24 bc b8 35 1f bd 33 0a a7 bc 41 24 31 3d
       -0.010034169 -0.03886959 -0.020390606 0.043247465
000070 9d 6d 10 bd fe 85 8d 3c 5a 7a b7 3c d8 46 25 3c
       -0.035260785 0.017275807 0.022397209 0.010087691
000080 e3 4e 78 3c 2e 21 f1 bc 71 8a 0c bd 2c 79 80 bc
       0.015155527 -0.029434767 -0.034311716 -0.01568278
000090 4a c0 12 3d 92 05 cc 3b 3a 25 8c bb d2 c8 e5 3c
       0.035827912 0.00622625 -0.0042768987 0.02804986
0000a0 af 05 15 3d 29 34 2b bd 58 ad 8b 3b 28 df a2 3c
       0.036382373 -0.04179779 0.0042626075 0.0198818
0000b0 15 9b 0b bd 65 fd fa bc 20 be 21 3c b3 c2 16 bd
       -0.034083445 -0.030638406 0.0098719895 -0.036806773
0000c0 20 b4 1f bc 0d 3d be bc f0 f5 3d bd d0 c1 bd 3b
       -0.009747535 -0.02322247 -0.046377122 0.0057909265
0000d0 d0 36 81 bc f9 af ef bc 80 64 32 ba 09 ea 8d bc
       -0.015773207 -0.029258715 -0.0006805137 -0.01732351
0000e0 b5 b2 c3 3c 08 be 35 3c bd 1e bc 3b 51 be 06 3d
       0.023888925 0.01109267 0.005740969 0.032896344
0000f0 8b c6 39 bc 93 d7 20 bd a6 7a 33 3d b0 d3 b5 3c
       -0.01133884 -0.039268088 0.04381814 0.022195667
000100 de 7e 26 bd 4a fa 96 bc 95 48 e4 bc 7d cc 3e 3d
       -0.040648334 -0.018429894 -0.027866641 0.046581734
000110 fe 36 92 3c 89 4b 80 3c 58 95 2d bd 19 7f c9 bc
       0.017848488 0.015661018 -0.042378753 -0.024596738
000120 55 fd 51 3c a0 7a db bc f7 89 11 3d 98 b2 39 bd
       0.012816747 -0.02679187 0.035531964 -0.045336336
000130 1c 74 a0 bc 6e 37 c2 bb 06 ec 25 bb b3 3c 27 3d
       -0.019586615 -0.005927018 -0.0025317683 0.04082937
000140 4e db 35 bd 00 4c c5 39 7d 4b 37 bd 9e 0f 42 3d
       -0.0443986 0.00037631392 -0.044749726 0.047378175
000150 6f 12 eb 3c ba 02 46 bd 25 79 38 bd 08 ac 72 bc
       0.028695313 -0.048342444 -0.045037407 -0.014811523
000160 11 f8 07 3d c3 f0 ed bc 8d 2d a7 3c 9b dc d2 bc
       0.03319556 -0.029045468 0.020407462 -0.025739959
000170 3a 3f a3 bc d0 cd f3 3b a5 75 1e 3d 7d a5 30 3d
       -0.01992761 0.0074403062 0.038686413 0.043126572
000180 4d 65 1e bd 66 0d d6 3c 03 36 c3 bc 74 85 ef bc
       -0.038670827 0.026129436 -0.023829466 -0.02923844
000190 aa dc 18 bc 50 79 0e 3c c3 f1 13 3d af a3 42 3d
       -0.009329954 0.008695915 0.036119234 0.047519382
0001a0 3f 9b 01 bb 8c 99 18 bb 22 8e bd 3c df 58 03 bd
       -0.0019776372 -0.002328488 0.023139063 -0.032067176
0001b0 75 63 86 bc b0 a0 c6 3b 01 dd 2b bd 0f fc f0 3c
       -0.016404847 0.006061636 -0.041958813 0.029417066
0001c0 17 b5 9d bc 9c 9d 92 bc ee 35 11 bd e0 80 4c 3b
       -0.01925139 -0.01789742 -0.035451822 0.0031204745
0001d0 b0 62 97 bb 21 11 41 3c c1 9b 27 3d 30 5e ae bc
       -0.0046199188 0.011783869 0.040920023 -0.021285146
0001e0 da 5f 9e 3c 94 39 1c bc d5 fd 61 3b 22 41 90 3c
       0.019332815 -0.009535212 0.003448357 0.017609183
0001f0 01 77 02 3d d8 99 b8 bc aa 9c b7 3c 72 12 f0 3c
       0.031851772 -0.022534296 0.02241357 0.02930567
000200 a0 61 0a bd f6 95 8b bc fe 81 a3 3c a7 10 ff bc
       -0.03378451 -0.01703928 0.019959446 -0.03113587
000210 d2 84 10 3c a1 ad f2 3c dc b8 c3 bc 7d 4a 26 bd
       0.008820729 0.029623808 -0.023891859 -0.04059838
000220 a6 a1 cc 3c f2 06 3a bd 46 7f 86 bc c8 2f 71 bc
       0.024979424 -0.04541678 -0.01641811 -0.014720865
000230 fd 7b cb bb d4 5a 47 bc a0 ab 98 bc 4f 23 4c bb
       -0.006209849 -0.012167651 -0.018636525 -0.0031148975
000240 19 13 84 bc ee f3 9a 3c f2 29 fa 3c e3 a5 2a bd
       -0.016122388 0.018915143 0.03053758 -0.04166211
000250 17 96 ca bc 80 65 23 3c 60 9d ad ba ca ab e3 3c
       -0.024729772 0.00997293 -0.0013245754 0.027791876
000260 d0 32 e3 3c eb d6 02 3d 9e 0d d5 3c 80 3c 2f bd
       0.02773419 0.031943243 0.02600747 -0.042782307
000270 98 f2 96 bb 2b 90 aa bc 3f 25 3c bd f8 d2 07 3c
       -0.004606556 -0.020820698 -0.04593396 0.008290045
000280 22 88 20 bd f4 71 18 bc 66 f0 ea bb b8 98 24 bc
       -0.039192326 -0.009304512 -0.007169771 -0.010046177
000290 6b bd 23 bd 21 27 06 3d 85 fe 41 bc 63 28 cc bc
       -0.039975565 0.03275216 -0.011840467 -0.024921602
0002a0 30 6e 83 bb 2f 85 e2 3b ee 2d d3 3c 4d bb dc bc
       -0.004010938 0.0069128494 0.025778737 -0.02694478
0002b0 a2 d7 ac bc 0f a6 20 3d 5d 45 ec bc a9 9a 9d bc
       -0.021098915 0.039220866 -0.028841669 -0.019238787
0002c0 b7 45 f0 3c fd 1f db bc 71 2d 0a bd e8 af cf 3b
       0.029330118 -0.026748652 -0.033734743 0.0063381083
0002d0 73 2b a4 3c 5a 86 b3 3c 10 c3 f4 3b af 5f 2e 3d
       0.02004025 0.02191465 0.0074695423 0.04257172
0002e0 bd 80 9b bc 70 b2 98 bb 94 2e 0d 3c e9 38 39 3d
       -0.018982286 -0.0046599433 0.008617062 0.04522029
0002f0 39 3b 0f bd 20 16 44 3c de 88 97 bc e5 b1 42 3d
       -0.03496859 0.011968166 -0.01849788 0.047532935
000300 80 1b 05 ba 64 be 6c 3c 5e 2f b3 3c 80 b6 63 3a
       -0.0005077645 0.01444969 0.021873172 0.00086865574
000310 54 8a 78 bc 60 ad 0c bb 58 78 88 3c d8 b7 56 bc
       -0.015169699 -0.0021465644 0.016658947 -0.013105355
000320 4d f7 ca bc f8 dc 4e bc 9d a4 48 3d 4d b9 32 3d
       -0.024776125 -0.012625925 0.048985112 0.043633748
000330 bf b9 11 3d 34 b0 48 bc 42 6a 14 bc 4c 1f 15 bd
       0.035577532 -0.012249041 -0.009058537 -0.0364068
000340 49 06 e7 bb 77 ff 4e bd 01 40 2d 3d 63 b2 11 bd
       -0.00705031 -0.0505366 0.042297367 -0.035570513
000350 20 33 15 bb 31 b9 00 bd 42 ba 42 bd fc 3b 84 bc
       -0.0022766069 -0.031426612 -0.04754091 -0.016141884
000360 05 40 12 3c 3d 32 c2 bc 81 20 fb 3c ac 36 3e bc
       0.008926396 -0.023705596 0.030655148 -0.0116097145
000370 0c a3 58 b9 2a 09 8a 3c 75 50 29 3d 64 ff 4e 3c
       -0.00020660105 0.016850073 0.041336495 0.012634132
000380 95 d3 bf 3b f6 14 a4 3c 2d f2 a3 bc 00 a0 ab 3a
       0.00585408 0.020029526 -0.02001294 0.0013093948
000390 fd 07 9d bc ad b9 f5 bc b0 3e 21 3b e1 75 10 3d
       -0.019168848 -0.029995764 0.0024604015 0.035268668
0003a0 d4 73 52 3c 74 f3 28 bc bf 6b 2d 3d 5f 04 84 3c
       0.012844998 -0.01031195 0.042339083 0.016115366
0003b0 e6 31 19 bd de c3 b6 3c d5 f9 24 3d 20 d6 50 3b
       -0.037401102 0.022310194 0.04027732 0.003186591
0003c0 e8 dc 75 bc c6 35 0e bd cc a6 1f 3c b9 17 4b bd
       -0.015006281 -0.03471925 0.009744357 -0.04958317
0003d0 b2 af ba 3c 0e c2 b1 ba fb bf 35 bd 73 20 fc bc
       0.022788856 -0.0013561861 -0.04437254 -0.030777192
0003e0 64 be 3d bd a0 18 d1 3a d8 38 14 3c 29 cf 3b 3d
       -0.04632415 0.0015952773 0.009046756 0.04585186
0003f0 4d 5c 43 3d f0 f0 61 3c 00 d1 f8 3b d8 ad 11 bc
       0.047695447 0.013790354 0.007593274 -0.008891545

layer_2.bias f4 [300]
000000 03 c2 43 bd fd f7 0f bd 40 26 df bc 99 27 30 3d
       -0.047792446 -0.03514861 -0.027239919 0.043006513
000010 90 51 94 3b ae 65 c0 bc 07 e0 9f bc 11 81 47 bd
       0.0045263246 -0.023485985 -0.019516004 -0.04870707
000020 ce 9f 9c 3c 6d 42 9b bc 7d 3d 34 3d a1 6a a0 3b
       0.01911917 -0.018952573 0.044003952 0.0048955237
000030 3a cf 41 bd 88 50 00 bd 40 66 10 bd 89 31 e8 3c
       -0.047316767 -0.0313268 -0.035253763 0.028343933
000040 28 f3 cd bb a7 49 57 bd c0 f4 74 bc 62 21 c3 bc
       -0.00628509 -0.052560475 -0.014950931 -0.02381963
000050 b3 bf 49 3c ce 1d 3b 3d 8c cf 65 bc 21 43 40 3d
       0.012313771 0.04568272 -0.014026534 0.04693902
000060 15 45 7e 3c d1 dd 11 3d a9 b1 80 3d 92 15 c8 bc
       0.0155194 0.03561193 0.06283886 -0.024424348
000070 65 75 c1 bc fb 3f 75 3c b4 de 88 bc 66 60 1b bc
       -0.023615548 0.014968867 -0.016707756 -0.009483432
000080 5f 57 9c bb da ef ed bc 02 e4 c9 3c 93 3b fa bc
       -0.0047711576 -0.029045034 0.024644855 -0.030545985
000090 e7 b1 83 3b a6 e7 8c 3c a5 f1 b3 bc e5 e3 04 bd
       0.0040190103 0.017200302 -0.021965811 -0.0324439
0000a0 ec 91 1f 3d d9 d1 ea bc 3f e8 40 3d a2 f1 a4 3c
       0.03895752 -0.028664516 0.047096487 0.02013475
0000b0 de 18 c1 bb cd 53 27 3d 27 38 fe 3c 33 ef 55 bd
       -0.005892857 0.040851403 0.031032635 -0.05223007
0000c0 c0 c2 a5 bc 75 32 f4 3b 83 b0 8c bc 0f 99 72 bc
       -0.020234466 0.007452304 -0.017174011 -0.014807
0000d0 f7 23 b5 bc 73 3e d2 bc 54 83 ea bc 45 2c 2d bd
       -0.022111876 -0.025664544 -0.028627075 -0.042278547
0000e0 4e b5 ac 3c 32 40 fa bb b7 0a 30 3d 17 9e a8 bc
       0.021082547 -0.007637047 0.04297897 -0.020583196
0000f0 c0 21 0d bd 44 e1 1a 3c 0e e3 2e 3d 3b 8f 0e 3d
       -0.034456015 0.009453122 0.042697005 0.034804564
000100 33 22 e8 3c fb fa 3c bc 48 ad 4b 3c b9 48 45 3d
       0.02833662 -0.011534448 0.01243145 0.048165057
000110 81 6b 1d 3d 15 d0 10 bd f1 ec 3d 3b e3 90 3a bd
       0.0384326 -0.035354692 0.002898034 -0.04554833
000120 3a f8 32 bd 8d 51 f4 bc 71 1c 88 3c 76 80 da bc
       -0.04369376 -0.029824043 0.016615124 -0.026672583
000130 f7 fe 20 3d eb 65 51 bd 90 51 1e 3b 98 e8 34 bc
       0.039305653 -0.051122587 0.0024157502 -0.011041783
000140 43 73 8f bc 92 bd 92 bc 13 ec d1 bc bf 51 3f bd
       -0.017511016 -0.01791266 -0.025625264 -0.04670882
000150 9c f0 40 bd e9 e7 47 3d 8e a1 d8 3c 3a c6 44 3d
       -0.047104463 0.04880515 0.026444223 0.048040606
000160 f6 06 40 bd 82 9e 15 bd 03 78 2d bb 6d 5f 8b 3c
       -0.04688164 -0.036528118 -0.0026469238 0.017013276
000170 00 43 bb 39 bf 01 2d bd 15 eb f7 bb 0a 1d ab 39
       0.00035717338 -0.042237993 -0.0075658658 0.00032637297
000180 32 e4 8e 3c 78 72 2f bd a7 aa 72 bc eb 04 d5 3c
       0.017442796 -0.042833775 -0.0148111945 0.026003322
000190 bf a9 34 3d cb a3 23 3d 9b 0a cc 3c 69 99 6b bb
       0.044107195 0.039951127 0.0249074 -0.0035949594
0001a0 e9 4b db bc 87 bb 58 bd ca 7a b3 3c 5d fa 63 bd
       -0.026769595 -0.052913215 0.021909136 -0.055658687
0001b0 3d 3b 12 3d a0 a5 93 bc 03 1d 2c 3d 01 8d 45 3b
       0.035701025 -0.018023312 0.042019855 0.003014386
0001c0 50 ef b0 3b 3f 0b 07 3d 86 75 11 bd 52 b6 80 3c
       0.005399622 0.03296971 -0.03551247 0.015711937
0001d0 24 4f 09 bc 8d 5b ec bc 7e 35 d4 bc 3c 71 a2 bc
       -0.008380685 -0.028852249 -0.025904413 -0.019829385
0001e0 d0 fa f1 bc d3 e9 aa bc 5b 88 21 bd 29 e6 04 3d
       -0.029538542 -0.02086345 -0.03943668 0.03244606
0001f0 7a 2d e9 3c 93 a6 25 bd a4 bb 48 bd 0a 36 e9 bc
       0.028464068 -0.04044206 -0.049007073 -0.02846815
000200 47 32 17 3d 2b c5 55 bc eb f1 57 bc bc 90 16 3d
       0.036913183 -0.013047497 -0.013180236 0.036759123
000210 53 3a 82 3c 79 62 03 3c 5a 16 f9 bc f6 78 3c bc
       0.015896952 0.008019083 -0.030406166 -0.011503449
000220 f3 b6 34 3d a8 73 eb bc 9a 8b e2 3c 82 ea dd bc
       0.044119786 -0.028741673 0.027654458 -0.027089361
000230 11 d4 10 3b 36 2e ef bc 69 b4 00 bc 8e 56 f6 bb
       0.0022099058 -0.02919684 -0.007855513 -0.0075176423
000240 51 01 8c 3c 70 90 b5 3a 69 a7 5c bd c2 7b 28 bd
       0.017090471 0.001385225 -0.053870592 -0.04113365
000250 39 a2 3a 3d 72 32 d1 3c e0 aa 8e bc 93 df fb bc
       0.045564864 0.02553675 -0.017415464 -0.030746257
000260 7d 9d fe bc e3 51 94 3c bb cc 4e bd fd eb 0f 3d
       -0.031080956 0.018105453 -0.050488215 0.035137165
000270 04 e7 0a bd 38 34 3b bd 78 ee 32 bd 68 e6 07 bd
       -0.03391172 -0.045704097 -0.043684453 -0.033178717
000280 59 12 08 bc 98 2f 10 bd d5 a7 c5 bc cb fc e1 bc
       -0.008305156 -0.03520164 -0.02412788 -0.027586361
000290 1b de d0 3a 84 9c 94 3c 56 50 da bc 91 d3 2c bd
       0.0015935333 0.018141039 -0.026649635 -0.042193953
0002a0 b7 ea d9 bc 76 c3 47 bd 2a 22 19 3d a3 6e 5b bc
       -0.026601179 -0.04877039 0.037386097 -0.013393077
0002b0 31 7e 2e bc dc 5c 4e bd 84 84 f8 bc 98 e0 a6 bc
       -0.010650204 -0.050381526 -0.030336626 -0.020370767
0002c0 5b d4 3c 3d 67 0a 98 3c ab 08 a0 3c 23 b8 a0 3c
       0.046100955 0.018559648 0.019535383 0.019619053
0002d0 9d 21 29 bd ab 3b 5d 3b 8d 8f 3c 3d 09 5a 4d bd
       -0.04129182 0.0033757489 0.04603534 -0.050134692
0002e0 18 bb 4b bd 96 5b 2b bd 4b ab f8 bb b4 07 63 3c
       -0.049738973 -0.04183539 -0.007588779 0.013856817
0002f0 fa 4b 29 3d 70 23 d7 bb ce b5 b0 3c e2 11 07 bc
       0.041332223 -0.006565504 0.021571066 -0.00824401
000300 c4 c6 1a 3d f9 ab 0d bc 2f 34 c8 3c b8 04 00 bd
       0.037787214 -0.0086469585 0.024438946 -0.0312545
000310 22 c3 33 3d 63 0d 45 bd 22 19 c1 bb fb f5 88 bc
       0.043887265 -0.04810847 -0.0058928886 -0.016718855
000320 5b 99 87 3b b8 2a 20 bd c5 49 1d 3d 21 1a df 3c
       0.0041381544 -0.03910324 0.03840043 0.027234139
000330 81 8a 5f bd 75 36 0c 3d 50 b4 b6 bb 89 63 d4 bc
       -0.054575447 0.03423162 -0.005575694 -0.025926368
000340 6d 21 66 bc 70 90 af 3b 89 34 4b 3d 90 61 af bc
       -0.014046055 0.0053577945 0.04961065 -0.021408826
000350 a5 6e 31 bc 4b 41 18 3d 3e 40 95 3c 8c 24 7b 3b
       -0.010829602 0.037171643 0.01821911 0.0038321344
000360 90 93 56 bd 3c 20 14 3c 90 65 83 bb a2 bc 21 bd
       -0.05238682 0.009040888 -0.00400991 -0.039486535
000370 e3 f0 13 3d 3e f1 2e bc d8 70 13 bd 55 f1 97 3a
       0.0361184 -0.010677634 -0.035996288 0.0011592308
000380 b5 7b 3e bd b7 3a f6 bc c0 b7 3a 3c fa f7 34 3d
       -0.046504695 -0.030057294 0.0113963485 0.0441818
000390 a0 50 f9 3a bb 7e c2 bb 8c a2 0b bd fd 09 00 3d
       0.001902122 -0.0059355176 -0.034090564 0.031259526
0003a0 9f 9c bf bc b4 25 4a 3c a2 6c 05 3d 79 f2 0d 3d
       -0.023390112 0.012338091 0.032574303 0.034655068
0003b0 6e 7c b3 bc 0a b7 c2 3c c5 2c 5e bc ab a1 47 3d
       -0.021909919 0.02376892 -0.013560479 0.048738163
0003c0 06 b8 f0 3b 76 d0 ea 3c 6b 33 14 3d 8f 0e db bb
       0.007346156 0.028663855 0.03618185 -0.006685085
0003d0 d5 bd 52 3c c4 97 9d 3c c6 e5 1e bd 78 e5 2b 3d
       0.012862642 0.019237407 -0.038793348 0.041966885
0003e0 e2 da c3 3c 03 c0 37 bd f0 b0 06 3d e5 9e 3f bd
       0.023908082 -0.04486085 0.032883584 -0.046782393
0003f0 9b 20 fa 3c 4c 5c 83 bc 49 b0 73 3b 99 ba ee 3c
       0.030533126 -0.016035222 0.0037183932 0.029141711

layer_3.weight f4 [106, 300]
000000 02 1f 48 3d 20 87 46 3b d0 90 a9 3c 2a 75 68 bd
       0.048857696 0.0030292943 0.020698935 -0.05675236
000010 56 1e 16 bd f6 1b 8b bc ce bc 12 3d 38 7e 63 3d
       -0.036650024 -0.016981106 0.03582459 0.055540293
000020 22 5f 68 bd 4d 1a 8a ba 72 53 21 bd f0 37 0f 3d
       -0.05673135 -0.0010536403 -0.03938622 0.034965456
000030 30 45 38 3d 6e 4e 28 bd ef eb 5e bd 1d 92 3c bd
       0.044987857 -0.04109042 -0.054424223 -0.046037782
000040 0b 99 1a bd 18 c2 80 3b 58 bd 01 bd 8a 5b 21 bd
       -0.03774361 0.003929388 -0.031674713 -0.03939394
000050 99 8c 02 bd 78 c8 02 3c e6 3c 07 3d b0 60 1d bc
       -0.031872366 0.007982366 0.03301706 -0.009605572
000060 04 91 34 bd 40 a8 f1 bb 96 cb 4b bd f4 66 b1 3c
       -0.04408361 -0.0073747933 -0.0497547 0.021655537
000070 5c 27 2f bd 1a b5 10 bd 56 33 8c bc 28 0c 37 3d
       -0.042762145 -0.035328962 -0.017114323 0.044689327
000080 38 7b 87 bb c0 0d 4d 3c c2 1b 19 3d 66 bc 83 bc
       -0.004134562 0.012515485 0.037379988 -0.016081046
000090 63 7e 27 bd d4 80 42 bd 0c cc fb 3c c8 bd 40 3c
       -0.040892016 -0.04748614 0.030736946 0.011763997
0000a0 1c b7 64 bc f0 1b 31 3c 78 ca 61 bd e0 b0 8e bc
       -0.013959672 0.0108098835 -0.05512473 -0.017418325
0000b0 54 1d 83 3c 78 f2 26 bd d5 d6 eb bc a0 a8 1a 3b
       0.016005196 -0.04075858 -0.028788963 0.0023599043
0000c0 22 9a 0c 3d 80 26 5b bb e0 d6 5f 3d 37 be 2f bd
       0.03432668 -0.0033439696 0.05464828 -0.042906012
0000d0 d6 21 14 bd f8 71 e1 bc b6 13 30 3d f8 c1 c9 bc
       -0.03616508 -0.027520165 0.042987548 -0.024628624
0000e0 20 05 a8 bc b0 52 4b 3b 61 e2 28 3b 90 f0 a2 3c
       -0.020510256 0.0031024627 0.0025769698 0.0198901
0000f0 12 5d 40 3d c6 ce 47 bd 40 99 a4 3b 82 cd 25 3d
       0.04696376 -0.04878118 0.0050231516 0.04047919
000100 94 64 3f 3d 38 5a 0d 3d 6e 29 2d 3d 2e 37 01 3d
       0.04672678 0.034509867 0.04227584 0.031546764
000110 ec e5 4e 3d d8 52 bd 3c a6 a2 4a 3d 8b b2 57 bd
       0.05051224 0.023110792 0.04947152 -0.052660506
000120 b0 a0 fc 3c 40 6f 19 ba 14 6b 35 3d 5f 60 f5 3c
       0.03083834 -0.00058530644 0.04429157 0.02995318
000130 7c 1b 95 3c 3c 71 b4 bc 6c 2c 3d 3d ee 7f 25 bd
       0.018201582 -0.02202665 0.046184942 -0.040405206
000140 58 9d 75 3c fa 6a bc bc ec 5e 1a 3d e6 8e 4b bd
       0.014991127 -0.02300023 0.03768818 -0.049696825
000150 50 08 18 bb f8 1b d3 bb 1a 2b 5c 3d 00 88 5d ba
       -0.0023198314 -0.006442543 0.053752042 -0.00084507465
000160 c4 34 bb 3c e8 22 99 3b 6a f8 64 3d ae da 02 3d
       0.022852309 0.0046733506 0.05590097 0.03194683
000170 b9 84 f8 bc 4e f3 30 bd 68 90 3a 3c b0 05 75 3c
       -0.030336725 -0.043200783 0.011386968 0.014954969
000180 bc 0e 45 bd f2 3a 23 3d c4 47 10 3d a4 93 9b 3c
       -0.048109755 0.039851137 0.03522469 0.018991299
000190 78 a6 53 3d 68 a9 6d bc a8 ed 29 3d 08 79 72 3c
       0.05167243 -0.014505722 0.041486412 0.014799364
0001a0 54 af e5 bc e8 e7 a3 3c db dd e8 bc a0 48 e7 3b
       -0.028037705 0.020008042 -0.028426101 0.007058218
0001b0 f0 58 34 3c 67 3f 58 bd 90 ac d0 bc e8 d6 c6 bc
       0.0110075325 -0.05279484 -0.02547291 -0.024272397
0001c0 0a 02 25 bd a0 5b 95 bc d8 25 0d 3c e0 a0 82 bb
       -0.040285148 -0.018232167 0.00861498 -0.003986463
0001d0 c8 26 28 3c 4c 3f 0c 3d 1e 80 37 bd 74 e2 4d bc
       0.010263152 0.034240052 -0.044799916 -0.012566198
0001e0 fb 2e 02 bc a0 35 7c 3c 38 13 26 3c a0 f3 91 3c
       -0.007945771 0.015393645 0.010136418 0.017816365
0001f0 81 30 de bc de 6f 0e bd 5c 86 2d 3d 44 3d e7 3c
       -0.027122738 -0.034774654 0.042364463 0.028227456
000200 07 36 3a bd f4 64 33 bd 28 60 a9 3c 12 2e 07 3d
       -0.04546168 -0.04379745 0.020675734 0.03300292
000210 45 9c 0b bd 5e ad 13 bc d4 62 00 3d 54 e5 86 3c
       -0.034084577 -0.009013502 0.03134425 0.016466774
000220 80 43 70 3d 95 62 7a 3d ca bf 10 bd 54 73 14 3d
       0.058658123 0.06112917 -0.035339154 0.036242798
000230 be f0 15 bd e6 d3 8c bc 00 ac d3 bc ce 76 89 3c
       -0.036606543 -0.017190885 -0.025838852 0.016780283
000240 e8 ca f8 bb 1e a6 40 3d dc dd c4 3c 64 25 27 bd
       -0.0075925477 0.04703342 0.024031572 -0.040807143
000250 5a 58 1d bd a5 75 51 bd 52 ff d6 bc 68 ad 5e 3c
       -0.038414337 -0.051137585 -0.026244793 0.013591148
000260 90 49 fa 3b 3f d7 1b 3d e0 d7 23 3c 9f 2a 3c 3c
       0.007638164 0.03804707 0.010000199 0.011484771
000270 57 2c 1d bd e8 17 d5 3c bc 02 ea 3c a8 bb c0 3c
       -0.038372364 0.026012376 0.028565757 0.023526981
000280 d2 a0 37 3c fd 8e 36 3d ef d0 c2 bc 7c 11 31 bd
       0.011207776 0.044569958 -0.023781268 -0.043229565
000290 84 18 ad bc 34 d5 4c bc 68 1e 7f bc 6a 67 4b 3d
       -0.021129854 -0.012502003 -0.015571214 0.04965917
0002a0 08 83 b5 3c 60 53 ab 3c 80 6d 80 3a 2e 7a b3 bc
       0.022157207 0.02091378 0.0009798259 -0.021908846
0002b0 80 89 35 ba ca 33 42 bd 53 3e 02 bd 76 40 54 bd
       -0.0006925091 -0.04741267 -0.03179772 -0.051819287
0002c0 e8 14 3c 3c ae 2d 58 3d 7c f2 20 bd a6 f9 ed bc
       0.011479594 0.05277794 -0.03929375 -0.029049706
0002d0 48 0e a1 3c 65 88 2f bd fc fd 42 bd 08 4c a1 bb
       0.01966013 -0.042854685 -0.0476055 -0.0049223937
0002e0 0c 3d 34 3d cf d9 f8 bc c4 bf a4 3c d0 1c 05 bd
       0.04400353 -0.030377297 0.020110972 -0.03249818
0002f0 02 d0 5b bd d0 15 4b 3d 08 70 fd bb f4 74 4b 3d
       -0.05366517 0.04958135 -0.0077343024 0.049672082
000300 88 68 38 3c 20 85 44 bb a0 b2 ec 3b 9e 5c 91 bc
       0.011255391 -0.0029986575 0.007223442 -0.017744359
000310 80 7c a4 3c 69 a0 45 bd 7c 7c 35 bd a4 be e3 3c
       0.020078897 -0.048248682 -0.04430817 0.027800865
000320 1c ee a3 3c 68 b8 04 bc 44 47 e3 3c 5e c2 30 bd
       0.020011 -0.0081006065 0.027743943 -0.043154113
000330 2c 0a 37 3d 38 6b ca bc cc b1 d1 bc e2 aa 2f 3d
       0.044687435 -0.024709329 -0.025597475 0.042887576
000340 95 4d 51 3c 00 53 97 3a d0 bd 7a bb 86 32 2e 3d
       0.012774845 0.0011545122 -0.003826011 0.04252865
000350 b3 c6 8f 3c b8 b0 a5 bb c4 cc 24 bc 0a aa f4 3c
       0.017550802 -0.005056467 -0.010058586 0.029866237
000360 24 de 04 3c 60 b2 0c 3d 76 55 3c 3d 48 25 25 3c
       0.008109603 0.0343498 0.04597994 0.010079689
000370 be 42 a4 bc bc 04 1f bd 20 3c 16 bc dc 0d 32 bc
       -0.020051356 -0.038822874 -0.009169608 -0.010867562
000380 a0 10 68 3d 64 6c 75 bc 20 e1 be 3c 9f 98 f9 3c
       0.05665648 -0.014979456 0.023300707 0.030468283
000390 16 4a f5 bc 3b da 24 3c bc e7 9c 3c e4 87 5e 3d
       -0.029942553 0.010061796 0.019153468 0.054328814
0003a0 9f 7b ac 3c 4e ff 05 3d 92 89 43 3d 2c aa 67 3d
       0.02105504 0.03271418 0.04773862 0.056558773
0003b0 41 01 fa bc 98 7d c2 bb 96 29 02 3d 70 44 b9 3b
       -0.030518176 -0.005935382 0.03177794 0.0056539103
0003c0 44 3c c0 bb 90 4c f0 bb 24 41 a0 bc 50 79 14 bd
       -0.005866559 -0.0073333457 -0.019562311 -0.036248505
0003d0 f0 d4 08 bc 3f b3 5c bc 02 d7 67 bd 52 c3 cc bc
       -0.0083515495 -0.01347047 -0.05660153 -0.02499548
0003e0 78 e2 4b 3c 0a ec 49 bd be f7 18 3d 50 ee 3e bd
       0.012444131 -0.04929737 0.03734564 -0.04661399
0003f0 9d 7b c9 3c e4 17 56 bc 0b 2b 98 3b 2d 57 ec bc
       0.024595076 -0.013067219 0.004643803 -0.028850162

layer_3.bias f4 [106]
000000 f8 db 70 3d 46 4c 50 3d 60 0d 5b bd 2c ff a8 3c
       0.05880353 0.05085399 -0.053479552 0.020629488
000010 d1 42 53 3c de e7 8a bc 86 18 02 bd bf e2 24 bc
       0.012894348 -0.016956266 -0.03176167 -0.010063826
000020 93 5d 4e 3b 81 0e aa 3c ca 28 be 3c 31 85 5a bd
       0.003148888 0.02075887 0.02321281 -0.053349677
000030 9d 3a d6 bc 6b 11 5c bd 5b 3f a0 3c 81 79 e3 3b
       -0.026150996 -0.05372755 0.01956146 0.0069419746
000040 7f 64 54 3d e8 51 4c bd 49 82 61 bd 1f a1 2c 3d
       0.051853653 -0.0498828 -0.05505589 0.042145845
000050 f6 84 b5 3b 84 83 0a 3d 9b e5 4f bd ee 1e 53 3d
       0.005539532 0.03381683 -0.05075608 0.05154317
000060 b8 91 17 3b 99 a7 ab bc de 4f a8 bb 0e f0 49 3d
       0.0023127627 -0.02095394 -0.005136474 0.0493012
000070 37 ed 17 bd 58 fd 19 bd a7 51 28 bd 8a 5e 42 3c
       -0.03709146 -0.037595123 -0.041093495 0.01186336
000080 ae f2 42 3c 1d 44 4c 3c f9 d1 61 bd 21 89 45 bd
       0.01189868 0.012467411 -0.055131886 -0.04822648
000090 9e ab 63 bd 94 55 f5 3c 14 4e 48 bd 78 7a 1d 3d
       -0.05558359 0.029948033 -0.048902586 0.038446873
0000a0 18 9c 0e bd cb 4e 1b 3d 51 6e 83 bc 6e ad 87 3c
       -0.03481683 0.03791694 -0.016043814 0.01656219
0000b0 2b e3 ef 3c 37 93 6e bd 48 53 7c bc c0 17 f2 3b
       0.029283127 -0.058245864 -0.015400715 0.007388085
0000c0 15 3c 48 3d 96 d7 04 3d e4 18 05 bd 6a ee 2b 3c
       0.048885424 0.03243216 -0.03249444 0.010493854
0000d0 f5 ec 80 bd f0 f1 50 3d 93 36 a1 bc d5 ae 6c bc
       -0.06295196 0.05101198 -0.019679343 -0.01444598
0000e0 d6 38 22 3d 31 ba 30 3d ae 92 20 3c 8e 85 64 3d
       0.039604984 0.043146316 0.009800596 0.05579143
0000f0 7b 95 43 bd d5 c6 0f bd 18 8e 24 3c 9f 16 5d bd
       -0.047749978 -0.03510173 0.010043643 -0.05397665
000100 a9 b5 11 bd 7d 0f 26 bd 8d 4c 26 bd 01 f0 ea bc
       -0.035573635 -0.040542115 -0.04060035 -0.028678896
000110 23 ad 4c 3d f9 d6 86 bb 04 f4 48 3c a7 12 29 bd
       0.049969804 -0.004114982 0.012265209 -0.041277554
000120 79 83 37 3d c6 9f 1c bd dc 44 6b 3d 67 6f 3a bd
       0.044803116 -0.03823831 0.057438716 -0.045516398
000130 7a 02 52 bd c8 b8 2f bd c2 6e af bc 73 78 05 3d
       -0.051271893 -0.04290083 -0.021415118 0.032585572
000140 89 b1 3d bc 50 1a 8f bc 5e 72 5e 3d ee 39 6a bc
       -0.011577972 -0.017468601 0.054308288 -0.014296038
000150 5d 16 ed bc 98 ae 7c 3d 31 7e b5 bc 93 7a 57 bd
       -0.028941328 0.061689943 -0.0221549 -0.05260713
000160 ef e6 00 bd 3e b0 23 bd f0 bc a3 3c e8 b1 0f bb
       -0.031470235 -0.039963 0.019987553 -0.0021926109
000170 a4 fe da 3b 94 11 f6 3c b9 d0 50 3d 34 aa 01 bd
       0.0066831876 0.030037679 0.050980303 -0.03165646
000180 9e 21 02 bd b3 ba 51 bd 89 5c 42 3c 85 39 06 3d
       -0.03177034 -0.05120344 0.011862882 0.0327697
000190 70 1a bd 3c 10 ba 4f 3c 81 c3 1a 3d 57 47 06 bd
       0.023083895 0.012678638 0.037784103 -0.03278288
0001a0 65 0f bf bc 07 03 4a 3c
       -0.02332277 0.012329823
