models/ddpg_model_episode_300_actor.pth (torch, 631313 bytes, 6 tensors)

layer_1.weight f4 [400, 11]
00000000: 4c40 b73d 7251 50be b05e 9fbd 5434 87be
00000010: cea6 233e e4e5 5c3e bf28 8cbe f601 37be
00000020: c8dd 97bd 7cfc 8a3d ccff 54be 0d6d 86be
00000030: 475c 943d 5541 19be f719 2d3e 5cab 67be
00000040: 5eb1 373e c650 2f3e 43f8 e23c 3a08 003e
00000050: f06a 5d3e ac3d 07be a849 c43e 8392 653e
00000060: 2d39 adbc 3451 09bc ae71 49bd 221d 1a3e
00000070: 6a49 823d 7275 cd3c 10bb 933e b9de 77be
00000080: ac73 babd 310a 71be f1a1 7dbe 7cca c0bd
00000090: d858 813e 8f0a 8fbe c0f3 a83c e8c9 eb3d
000000a0: cef0 443e 54b4 0cbe 1a21 8cbd 408e 19bd
000000b0: 8b38 433e ae3a 62be 23e9 2abe 9b2a fc3d
000000c0: ee91 dcbd d1ca 58bc 3013 67bd 151f 503d
000000d0: 4875 09be ba78 04bd ab7b 803e acd0 5cbd
000000e0: fc43 2dbe 3dfa 70be a2c0 7ebe a011 29bc
000000f0: 9a9a e4bd c88a 533d 1ed2 8dbe a4d5 343e
00000100: 50dd 883e fdfd 87be 7f44 503d 79ba 18bd
00000110: 6c2f 09bc ddf8 1e3e a1de 1fbd 5071 b63d
00000120: 3e55 5ebe 3863 9bbe 154e 6f3e 7f40 99bd
00000130: ce34 c43d e0c2 4dbe b30c 063e 9f17 22be
00000140: fa88 d63d 1ab6 65bd baf2 7c3c 4f8c 383d
00000150: 2cdc 10be eb27 09be 101c 5ebe b2d4 2bbe
00000160: 32bf 993b c112 6dbe 3d17 a6be 5db0 53be
00000170: e2b7 323e 42a2 383d f071 083c 178f 6c3e
00000180: 1467 7cbe acef 523e 1237 e9bd 7c9f b6bd
00000190: f092 92bc 78b6 e13d f1cb 63be 69de 8bbe
000001a0: b73d 2bbe 005e c4bc 04f4 743e 9d12 7ebe
000001b0: 5540 88be c8ed 87bd c3cb 4d3e 26b0 f8bb
000001c0: 6b9c 443e ee88 2abe 4b71 b2bd 4c82 0bbe
000001d0: c127 97be caf6 8b3e fc7d 823e 00b3 ca3d
000001e0: b9c3 d83d 96cc 70be e42f e93d 49ee 21be
000001f0: 9ffc 873d 06d3 68be 9ecb 823e 8a15 823e
00000200: 005a 2b3d ec55 843d f83e 233d 4ce2 54be
00000210: 9ef6 45be 3637 3abe 6a8a 11be faa3 61be
00000220: 70b9 763e 9d73 dfbd 170e a13d 1da1 5bbe
00000230: 2075 693c d0d0 4c3d 14bc 73bd 845b c5bd
00000240: 0068 1d3e 5337 203d 0bfe 7abe f803 65be
00000250: 19c4 aabd 541b 00bd 5c41 e5bd b038 ab3d
00000260: 4059 28bd 6fd3 083e 9a89 ad3e 2469 5f3e
00000270: c379 6dbb 887a 0dbe bdb0 213e 9f8b 9f3d
00000280: d523 54be 1cc1 223e 8f6f d93d 7567 893d
00000290: 9761 253e ecf4 183e 90ff 3fbe 86bc 94be
000002a0: d438 ff3d b876 81be 3485 b13d 7afd 1e3e
000002b0: 0eda 7ebe 3692 3a3e f6da 35be ee09 5ebe
000002c0: 6656 79be a93e 083e 817c 73be 6b17 963e
000002d0: d6ca 2cbe 0af0 933e 276c 71ba 6e6c 3cbe
000002e0: d8cd c03d 20ae 1d3d c046 42bd 77a4 0a3d
000002f0: 6227 bdbc ebe5 59be 5743 97be cb14 713d
00000300: 3b5d 49be 0a5c e8bd 7c37 e63d c1f2 8a3e
00000310: 54a1 79bd 0148 d03d 4182 c9bd 8449 8a3e
00000320: 32c1 183e 813a 4abe 96b1 19be bcd3 f53d
00000330: a48e b73d 1373 d2bc 678f 143d 309f 95be
00000340: 921c bfbd 19e5 b1bd 42ef ce3c 95ff 703e
00000350: a6e7 4fbe ae84 b13d 4d07 82be 150b 68be
00000360: 18f8 90be cec2 10be e851 2abd 34b3 fb3c
00000370: 70b8 92be a5f1 77be bed8 833e f070 73be
00000380: 4f6a 7a3e 64f8 003e 8109 e2bd d2be e43d
00000390: c1d6 1fbd ddff 06be 2f7d 6c3e 1895 22bd
000003a0: 377a 3ebe 1cc2 65be 5f97 8abe 4085 2dbd
000003b0: bb0d 06be a4f0 dbbd 317d 5abe b4c7 923e
000003c0: f82a 0c3d e4f0 6ebe 56c2 7e3e 8f1b 193e
000003d0: 0de3 dc3d 05e6 113d 8a1a 21be f20e ac3d
000003e0: aa28 38bc bbf2 c23d 7ed8 8e3e fc6f 16bb
000003f0: f569 29bd 07df ad3e d12f 1dbd 38ce 293e
0.089478105 -0.20343569 -0.07781732 -0.2640711 0.159816 0.21572071 -0.27374837 -0.17871842
-0.07415348 0.06786439 -0.20800704 -0.26255074 0.07244163 -0.14966328 0.16904436 -0.22623962
0.17938754 0.17120656 0.027706271 0.12503138 0.21622825 -0.1320712 0.38337445 0.22419171
-0.021145428 -0.008381177 -0.04918068 0.15050176 0.06361659 0.025080416 0.28853655 -0.24206056
-0.09104094 -0.23539044 -0.24768807 -0.09413621 0.25263095 -0.27937743 0.020624042 0.1151312
0.19232485 -0.13740665 -0.06842251 -0.037489176 0.19064538 -0.22092697 -0.16690497 0.12312814
-0.107700214 -0.013231949 -0.056414783 0.050810892 -0.13423645 -0.032341696 0.2509435 -0.053909943
-0.16920465 -0.23532958 -0.24878171 -0.0103191435 -0.111623004 0.051646024 -0.2769937 0.17659622
0.26731348 -0.26560965 0.050846573 -0.03728721 -0.008373123 0.15524621 -0.039030675 0.089083314
-0.21712205 -0.30349135 0.2336963 -0.07483005 0.09580384 -0.2009387 0.13090782 -0.15829323
0.10475345 -0.05608187 0.01543873 0.045055684 -0.14146489 -0.13394134 -0.21690392 -0.16780356
0.0046919817 -0.23151685 -0.32439604 -0.20672746 0.17452958 0.045076616 0.008327946 0.2310146
-0.24648696 0.2059924 -0.11387457 -0.08917138 -0.01789233 0.11021131 -0.22245766 -0.27318123
-0.16722761 -0.023970604 0.2392121 -0.24811788 -0.2661158 -0.0663715 0.2009726 -0.007589358
0.19200294 -0.16653797 -0.08713015 -0.13623923 -0.29522517 0.27336723 0.25486743 0.09897423
0.10584206 -0.23515543 0.113860875 -0.15813555 0.066399805 -0.22736749 0.25545973 0.25407058
0.041833878 0.06461701 0.039854974 -0.2078945 -0.19332358 -0.18185124 -0.14212957 -0.22035208
0.24094176 -0.10910723 0.078640155 -0.21448179 0.014249116 0.050003827 -0.059505537 -0.09636596
0.15371704 0.03911526 -0.24510972 -0.22364795 -0.08338184 -0.031276062 -0.11194107 0.08360422
-0.04110074 0.13361906 0.33894044 0.21817452 -0.0036235906 -0.13816273 0.15790077 0.077903025
-0.20716794 0.15893978 0.10616981 0.06709186 0.16150509 0.1493718 -0.18749833 -0.29050082
0.12462011 -0.25285888 0.086679846 0.15526381 -0.24887869 0.18219838 -0.17759308 -0.21683475
-0.24349365 0.13305153 -0.23777963 0.29314741 -0.16874251 0.28894073 -0.00092095364 -0.18400738
0.094142616 0.038496137 -0.047430754 0.033848252 -0.023090068 -0.21279113 -0.29543564 0.05885772
-0.19664471 -0.1134568 0.112410516 0.27138332 -0.06094487 0.10169984 -0.09839297 0.27009213
0.14917448 -0.1974888 -0.1500915 0.12003276 0.089627534 -0.025689637 0.03626957 -0.29223013
-0.09331621 -0.08686275 0.025260571 0.23534997 -0.2030321 0.08667885 -0.25396195 -0.22660477
-0.2831428 -0.14136812 -0.041582018 0.0307251 -0.2865634 -0.24213274 0.257513 -0.23773551
0.24454616 0.12594754 -0.11036969 0.111692086 -0.039023165 -0.13183542 0.23094629 -0.039692968
-0.18601309 -0.22437328 -0.27068612 -0.042363405 -0.13091175 -0.10739258 -0.21336819 0.28667986
0.034220666 -0.2333408 0.24878821 0.14951919 0.10785494 0.035619754 -0.1573278 0.08401288
-0.011240164 0.095189534 0.27899545 -0.0022954931 -0.041360814 0.3395922 -0.03837568 0.16582572

layer_1.bias f4 [400]
00000000: 9ab1 8bbe 3428 1ebe 9dbc 92be 7038 8fbc
00000010: 9c2f 4e3d d0d1 963c 4078 e93c 7d7c 163e
00000020: 0103 7dbe bc5c 4c3e fc6f 4dbe 96f4 1ebe
00000030: a486 7ebe 3176 36be 6439 89be c462 7e3e
00000040: 4e74 01be faa5 9fbd f48b 3dbe 7c48 41be
00000050: 8c25 fdbc 40c7 1dbc e0f3 4abe ecdb 303e
00000060: f5e4 6dbd 0370 5bbe 20dd 7ebe 299a 61be
00000070: 895d 95bd e27c 66be 1b19 82be 22f6 8fbe
00000080: 5e3f acbc 7850 183d 2ca8 5c3e 31a6 95be
00000090: 61f0 7c3e 752a fcbc ce55 8bbe 7464 923e
000000a0: e56a 5a3e d834 c03d cc82 6f3e 844f 7bbd
000000b0: c40a 92be ed61 02be 7434 243e d7ce d7bd
000000c0: 688b 8a3d 882d 06be 6260 02be bd92 8c3d
000000d0: 7452 fdbd 10e0 043e 7a5f eb3d eb02 fa3d
000000e0: c44c 69be 5c72 c63c 8dc2 acbd 08d7 3b3d
000000f0: 9bb6 8dbe 4c41 58be 8657 46be c10b f53c
00000100: 8074 ff3d bc00 733e 0654 15bb cd7b 1cbe
00000110: a847 893d f49b 6d3d c2b6 4dbe 76ef 4f3e
00000120: 7684 6ebe 29a8 193e f0b5 43bd feb1 b7bd
00000130: 495c 3ebe 46aa 41be 7f1e 8d3e 6409 1cbe
00000140: e8cb 82be 3734 813d 2af1 91be 95ab 393e
00000150: 39e8 75be 935d 173e cec7 043e 144a 933e
00000160: 3421 c03d a0c1 9e3c fcff 113e 9ee6 4ebe
00000170: 419c 02be 0084 313b 26cf 7cbe 8b7c 30be
00000180: ae53 253e 5fb0 42be 46d7 42bd e1ed 123e
00000190: 3485 27be 7167 55bd 5c56 e0bd e1c9 a93d
000001a0: 6597 9abe 0768 8d3e da87 96be 9523 8dbe
000001b0: 675d bfbd 29a5 83be 41fe 1f3e bffd 8cbe
000001c0: 70f7 2bbd dce8 7d3e 3984 043e d4ed 67bd
000001d0: 3882 a1bd 2301 5b3d 5469 de3d 94b0 8fbe
000001e0: 824b 903e b47b 84be 1afa 4abe d2a7 43be
000001f0: cb9b 483e 72a4 e9bd cae0 5abe d64c 243e
00000200: 29fb 62bc f85d 593e 79f9 83bd 76ed 95be
00000210: 879c 703e 74ae f23d 738d 163e 2466 9c3d
00000220: 003b dbbc 3bfd 88bc 79bd 2ebe 0b28 183e
00000230: a7f6 09be e954 4e3e 47cb 903e 28d1 0c3c
00000240: 8a3b 30bc 107f f6bd 412b 6cbe 2967 29be
00000250: fb06 f5bc 84ae 823d c2b2 d9bd 2e30 8dbe
00000260: 602c aa3d 1013 693d 3814 c73d 7f8a d73d
00000270: 4c3a 883e a900 44bc 4e28 eebd c086 cd3b
00000280: c637 4e3e 3a98 573e 00f1 a9bd 4a84 433e
00000290: 6416 7c3d 04fe 55bd a865 a13d ff22 243e
000002a0: 62fa 8abe 7f09 15be abca 573e 8eaa 19be
000002b0: 3d24 65be 5030 82bd 08b9 4f3e 9098 9abe
000002c0: e285 13be bdab 323e 4883 473e b0b3 3e3e
000002d0: 157b 593e 7809 a8bd 53bf 65be d66b c83d
000002e0: c4f7 603e 3ac4 8c3e e4f2 933d bcc3 223e
000002f0: 97d7 49be f1b6 853d 4321 f73d d44c 84be
00000300: 2022 2e3c c265 3f3e 0638 88be d421 9a3e
00000310: c56e 7dbe e6a0 5bbe 1e7b 87be 7c22 3b3e
00000320: 3ebf 89bd 662f 923e b228 213e 6dd2 b3bd
00000330: b395 7cbc 5dd3 c8bd f059 103c 5521 2e3e
00000340: ddfb e6bd f4b8 00be 9c40 91be fa9e c4bd
00000350: 84dc 893e a7d2 8f3e 480c 043e 8d00 b73c
00000360: 399f 36be 4870 56be 55ed 343e c16a 0cbd
00000370: 6fe1 15be d55d 163e 4d8f afbd d73a 9c3e
00000380: 040c 6a3e 3200 e53c 9ea7 0939 be1a 1bbe
00000390: a096 1c3e dc33 3a3e 364f 9fbe 6320 2a3d
000003a0: 85e4 623e 27cd 3f3e 64f0 643e a296 6c3e
000003b0: c890 21be 341a f03d ab3d 90be b1ab d9bd
000003c0: 41f1 2abe 3e68 b3bb f864 923e 43d1 5a3c
000003d0: 9b8c 8abe 3a0a 44be c422 3d3e 90aa cb3d
000003e0: 3e17 ecbb a1b0 0abe 72c9 83bd 553a 32be
000003f0: 1620 793e 0b0a 8f3e 2c45 913e be2b 8c3e
-0.27283937 -0.15445024 -0.28659526 -0.017482966 0.050338373 0.018410593 0.028499722 0.14695926
-0.24708177 0.1995725 -0.2006225 -0.1552299 -0.24856049 -0.17818524 -0.26801598 0.24842364
-0.12642023 -0.077953294 -0.18510419 -0.18875307 -0.030901693 -0.009630024 -0.19819593 0.17271394
-0.05807968 -0.21429448 -0.2488904 -0.22031464 -0.07293231 -0.22508577 -0.2540978 -0.28117472
-0.02102631 0.037186116 0.21548527 -0.29228356 0.24701072 -0.030781964 -0.272139 0.28592265
0.2132984 0.09385079 0.23389739 -0.06135513 -0.2852384 -0.12732668 0.16035634 -0.105374984
0.06764871 -0.13103306 -0.1273208 0.068639256 -0.12369242 0.12976098 0.1149282 0.12207588
-0.2278319 0.024224453 -0.08435545 0.045859367 -0.2767838 -0.21118659 -0.19369325 0.029912831
0.124733925 0.23730749 -0.0022785678 -0.15281601 0.067031205 0.058010057 -0.20089248 0.20306191
-0.23292717 0.15005554 -0.04778093 -0.08969496 -0.18589891 -0.1891261 0.2756233 -0.15237957
-0.25546193 0.06308787 -0.28504306 0.1813186 -0.24014367 0.1478179 0.12966844 0.28767455
0.09381333 0.019379437 0.14257807 -0.20205161 -0.12754919 0.0027086735 -0.24688396 -0.1723501
0.16145203 -0.19012593 -0.047568582 0.14348556 -0.16359407 -0.052100603 -0.10953972 0.082904585
-0.3019363 0.2761843 -0.29400522 -0.2756621 -0.09343987 -0.25711945 0.15624334 -0.27537343
-0.04198402 0.2479586 0.12941064 -0.056623295 -0.078861654 0.05346788 0.108599335 -0.28064406
0.28182608 -0.25875628 -0.19821969 -0.19106987 0.1959068 -0.114083186 -0.21374813 0.16044936
-0.013853827 0.21227252 -0.064440675 -0.2928273 0.2349721 0.118496805 0.14702396 0.07636669
-0.026761532 -0.016722312 -0.17064466 0.14859025 -0.13472997 0.20149578 0.28280088 0.008594789
-0.010756383 -0.12035954 -0.23063375 -0.16543259 -0.029910555 0.063809425 -0.106297985 -0.2757582
0.08309245 0.056902945 0.09720653 0.10524463 0.26606977 -0.011963048 -0.11628781 0.006272167
0.20138463 0.21054164 -0.0829792 0.19093433 0.06154479 -0.0522442 0.078807175 0.16028975
-0.27144152 -0.14554404 0.21073405 -0.15006468 -0.22377105 -0.06356871 0.20285428 -0.3019452
-0.14406541 0.17448325 0.19483674 0.18623233 0.21238358 -0.08204931 -0.22436266 0.09786193
0.21969515 0.2749346 0.07224062 0.15894979 -0.19711147 0.06529034 0.12066891 -0.25839865
0.010628253 0.18691161 -0.26605242 0.30103934 -0.24749286 -0.21448097 -0.26461118 0.18274873
-0.0672593 0.28551787 0.1573818 -0.0878037 -0.01541655 -0.09805939 0.008810505 0.17004903
-0.11278508 -0.12570554 -0.28369606 -0.09600635 0.26926053 0.28090402 0.1289531 0.02233913
-0.17834176 -0.2094127 0.1766866 -0.034281496 -0.14636777 0.14684232 -0.08572254 0.3051364
0.22856146 0.027954195 0.0001312778 -0.1514692 0.15291834 0.18183845 -0.3111512 0.041534793
0.22157486 0.18730603 0.22357327 0.23104337 -0.15777886 0.11723748 -0.2817205 -0.10628451
-0.16693594 -0.005475073 0.28592658 0.013355556 -0.27060398 -0.19144526 0.18470293 0.099446416
-0.007204919 -0.13543941 -0.06434907 -0.17405064 0.24328646 0.2793735 0.28373086 0.27377123

layer_2.weight f4 [300, 400]
00000000: 82a2 3abd 387e 2cbd 78b8 cc3c ac69 323c
00000010: f847 63bc 12e5 893c a0bf 4bbd fe6d ec3c
00000020: e7e2 9fbc 1494 583c 32b3 e23c 0fb2 76bc
00000030: 0d20 223d e79f bdbc 8d06 4bbd f457 70bc
00000040: dd7c cabc e2db 883c 7d50 39bc fd87 09bd
00000050: cb3a 0f3d 0992 213d 78d1 133c 6456 8dbc
00000060: 5b66 24bc b835 1fbd 330a a7bc 4124 313d
00000070: 9d6d 10bd fe85 8d3c 5a7a b73c d846 253c
00000080: e34e 783c 2e21 f1bc 718a 0cbd 2c79 80bc
00000090: 4ac0 123d 9205 cc3b 3a25 8cbb d2c8 e53c
000000a0: af05 153d 2934 2bbd 58ad 8b3b 28df a23c
000000b0: 159b 0bbd 65fd fabc 20be 213c b3c2 16bd
000000c0: 20b4 1fbc 0d3d bebc f0f5 3dbd d0c1 bd3b
000000d0: d036 81bc f9af efbc 8064 32ba 09ea 8dbc
000000e0: b5b2 c33c 08be 353c bd1e bc3b 51be 063d
000000f0: 8bc6 39bc 93d7 20bd a67a 333d b0d3 b53c
00000100: de7e 26bd 4afa 96bc 9548 e4bc 7dcc 3e3d
00000110: fe36 923c 894b 803c 5895 2dbd 197f c9bc
00000120: 55fd 513c a07a dbbc f789 113d 98b2 39bd
00000130: 1c74 a0bc 6e37 c2bb 06ec 25bb b33c 273d
00000140: 4edb 35bd 004c c539 7d4b 37bd 9e0f 423d
00000150: 6f12 eb3c ba02 46bd 2579 38bd 08ac 72bc
00000160: 11f8 073d c3f0 edbc 8d2d a73c 9bdc d2bc
00000170: 3a3f a3bc d0cd f33b a575 1e3d 7da5 303d
00000180: 4d65 1ebd 660d d63c 0336 c3bc 7485 efbc
00000190: aadc 18bc 5079 0e3c c3f1 133d afa3 423d
000001a0: 3f9b 01bb 8c99 18bb 228e bd3c df58 03bd
000001b0: 7563 86bc b0a0 c63b 01dd 2bbd 0ffc f03c
000001c0: 17b5 9dbc 9c9d 92bc ee35 11bd e080 4c3b
000001d0: b062 97bb 2111 413c c19b 273d 305e aebc
000001e0: da5f 9e3c 9439 1cbc d5fd 613b 2241 903c
000001f0: 0177 023d d899 b8bc aa9c b73c 7212 f03c
00000200: a061 0abd f695 8bbc fe81 a33c a710 ffbc
00000210: d284 103c a1ad f23c dcb8 c3bc 7d4a 26bd
00000220: a6a1 cc3c f206 3abd 467f 86bc c82f 71bc
00000230: fd7b cbbb d45a 47bc a0ab 98bc 4f23 4cbb
00000240: 1913 84bc eef3 9a3c f229 fa3c e3a5 2abd
00000250: 1796 cabc 8065 233c 609d adba caab e33c
00000260: d032 e33c ebd6 023d 9e0d d53c 803c 2fbd
00000270: 98f2 96bb 2b90 aabc 3f25 3cbd f8d2 073c
00000280: 2288 20bd f471 18bc 66f0 eabb b898 24bc
00000290: 6bbd 23bd 2127 063d 85fe 41bc 6328 ccbc
000002a0: 306e 83bb 2f85 e23b ee2d d33c 4dbb dcbc
000002b0: a2d7 acbc 0fa6 203d 5d45 ecbc a99a 9dbc
000002c0: b745 f03c fd1f dbbc 712d 0abd e8af cf3b
000002d0: 732b a43c 5a86 b33c 10c3 f43b af5f 2e3d
000002e0: bd80 9bbc 70b2 98bb 942e 0d3c e938 393d
000002f0: 393b 0fbd 2016 443c de88 97bc e5b1 423d
00000300: 801b 05ba 64be 6c3c 5e2f b33c 80b6 633a
00000310: 548a 78bc 60ad 0cbb 5878 883c d8b7 56bc
00000320: 4df7 cabc f8dc 4ebc 9da4 483d 4db9 323d
00000330: bfb9 113d 34b0 48bc 426a 14bc 4c1f 15bd
00000340: 4906 e7bb 77ff 4ebd 0140 2d3d 63b2 11bd
00000350: 2033 15bb 31b9 00bd 42ba 42bd fc3b 84bc
00000360: 0540 123c 3d32 c2bc 8120 fb3c ac36 3ebc
00000370: 0ca3 58b9 2a09 8a3c 7550 293d 64ff 4e3c
00000380: 95d3 bf3b f614 a43c 2df2 a3bc 00a0 ab3a
00000390: fd07 9dbc adb9 f5bc b03e 213b e175 103d
000003a0: d473 523c 74f3 28bc bf6b 2d3d 5f04 843c
000003b0: e631 19bd dec3 b63c d5f9 243d 20d6 503b
000003c0: e8dc 75bc c635 0ebd cca6 1f3c b917 4bbd
000003d0: b2af ba3c 0ec2 b1ba fbbf 35bd 7320 fcbc
000003e0: 64be 3dbd a018 d13a d838 143c 29cf 3b3d
000003f0: 4d5c 433d f0f0 613c 00d1 f83b d8ad 11bc
-0.045565136 -0.04211256 0.024990305 0.010889452 -0.013872139 0.016832862 -0.049743295 0.028861042
-0.019517375 0.013218898 0.027673338 -0.015057101 0.039581347 -0.023147536 -0.049566794 -0.014669407
-0.024717743 0.01670641 -0.011310694 -0.033576954 0.03496818 0.03944591 0.009022109 -0.017253108
-0.010034169 -0.03886959 -0.020390606 0.043247465 -0.035260785 0.017275807 0.022397209 0.010087691
0.015155527 -0.029434767 -0.034311716 -0.01568278 0.035827912 0.00622625 -0.0042768987 0.02804986
0.036382373 -0.04179779 0.0042626075 0.0198818 -0.034083445 -0.030638406 0.0098719895 -0.036806773
-0.009747535 -0.02322247 -0.046377122 0.0057909265 -0.015773207 -0.029258715 -0.0006805137 -0.01732351
0.023888925 0.01109267 0.005740969 0.032896344 -0.01133884 -0.039268088 0.04381814 0.022195667
-0.040648334 -0.018429894 -0.027866641 0.046581734 0.017848488 0.015661018 -0.042378753 -0.024596738
0.012816747 -0.02679187 0.035531964 -0.045336336 -0.019586615 -0.005927018 -0.0025317683 0.04082937
-0.0443986 0.00037631392 -0.044749726 0.047378175 0.028695313 -0.048342444 -0.045037407 -0.014811523
0.03319556 -0.029045468 0.020407462 -0.025739959 -0.01992761 0.0074403062 0.038686413 0.043126572
-0.038670827 0.026129436 -0.023829466 -0.02923844 -0.009329954 0.008695915 0.036119234 0.047519382
-0.0019776372 -0.002328488 0.023139063 -0.032067176 -0.016404847 0.006061636 -0.041958813 0.029417066
-0.01925139 -0.01789742 -0.035451822 0.0031204745 -0.0046199188 0.011783869 0.040920023 -0.021285146
0.019332815 -0.009535212 0.003448357 0.017609183 0.031851772 -0.022534296 0.02241357 0.02930567
-0.03378451 -0.01703928 0.019959446 -0.03113587 0.008820729 0.029623808 -0.023891859 -0.04059838
0.024979424 -0.04541678 -0.01641811 -0.014720865 -0.006209849 -0.012167651 -0.018636525 -0.0031148975
-0.016122388 0.018915143 0.03053758 -0.04166211 -0.024729772 0.00997293 -0.0013245754 0.027791876
0.02773419 0.031943243 0.02600747 -0.042782307 -0.004606556 -0.020820698 -0.04593396 0.008290045
-0.039192326 -0.009304512 -0.007169771 -0.010046177 -0.039975565 0.03275216 -0.011840467 -0.024921602
-0.004010938 0.0069128494 0.025778737 -0.02694478 -0.021098915 0.039220866 -0.028841669 -0.019238787
0.029330118 -0.026748652 -0.033734743 0.0063381083 0.02004025 0.02191465 0.0074695423 0.04257172
-0.018982286 -0.0046599433 0.008617062 0.04522029 -0.03496859 0.011968166 -0.01849788 0.047532935
-0.0005077645 0.01444969 0.021873172 0.00086865574 -0.015169699 -0.0021465644 0.016658947 -0.013105355
-0.024776125 -0.012625925 0.048985112 0.043633748 0.035577532 -0.012249041 -0.009058537 -0.0364068
-0.00705031 -0.0505366 0.042297367 -0.035570513 -0.0022766069 -0.031426612 -0.04754091 -0.016141884
0.008926396 -0.023705596 0.030655148 -0.0116097145 -0.00020660105 0.016850073 0.041336495 0.012634132
0.00585408 0.020029526 -0.02001294 0.0013093948 -0.019168848 -0.029995764 0.0024604015 0.035268668
0.012844998 -0.01031195 0.042339083 0.016115366 -0.037401102 0.022310194 0.04027732 0.003186591
-0.015006281 -0.03471925 0.009744357 -0.04958317 0.022788856 -0.0013561861 -0.04437254 -0.030777192
-0.04632415 0.0015952773 0.009046756 0.04585186 0.047695447 0.013790354 0.007593274 -0.008891545

layer_2.bias f4 [300]
00000000: 03c2 43bd 9e4b 13bd 7c0f edbc 49a0 2f3d
00000010: 9dd1 913b f20b 15bd 07e0 9fbc ac91 49bd
00000020: f2ca 733c add3 12bc d521 393d 3e2c 943b
00000030: 3acf 41bd 8850 00bd 4066 10bd ce0d ee3c
00000040: db6e 06bc 60d5 65bd c0f4 74bc 6221 c3bc
00000050: b3bf 493c ce1d 3b3d 708d 68bc 2143 403d
00000060: 1545 7e3c 43c1 db3c 46fd 7b3d 1aad d2bc
00000070: 6575 c1bc 174d da3c e298 a2bc 6c44 1ebc
00000080: 5f57 9cbb 0fea 00bd 02e4 c93c 933b fabc
00000090: 0c58 0c3c a6e7 8c3c a5f1 b3bc e5e3 04bd
000000a0: ec91 1f3d d9d1 eabc 03b2 373d a2f1 a43c
000000b0: de18 c1bb cd53 273d 088f 1c3d 33ef 55bd
000000c0: c0c2 a5bc 7532 f43b 58e9 96bc 0f99 72bc
000000d0: f723 b5bc 2994 debc 5483 eabc 452c 2dbd
000000e0: 4eb5 ac3c 6f77 ab39 18d5 eb3c 179e a8bc
000000f0: 6522 0dbd 44e1 1a3c 0ee3 2e3d f3a2 0d3d
00000100: 3322 e83c 77a4 40bc 3325 183c 37c8 253d
00000110: 816b 1d3d 15d0 10bd f1ec 3d3b e88a 4abd
00000120: 3af8 32bd 156c f5bc 9f53 4a3c 7183 b8bc
00000130: f7fe 203d eb65 51bd eed9 203c 98e8 34bc
00000140: 6fa8 96bc 92bd 92bc 8293 d1bc 1beb 3fbd
00000150: 4b36 2fbd e9e7 473d 8ea1 d83c 3ac6 443d
00000160: 6dff 40bd f341 f6bc 0378 2dbb 797d 1e3c
00000170: 0043 bb39 bf01 2dbd 49aa 0dbc 7987 6b3b
00000180: 32e4 8e3c fc95 2fbd c97f 98bc eb04 d53c
00000190: bb38 1b3d cba3 233d 71eb ba3c 6999 6bbb
000001a0: 55f8 17bd 87bb 58bd ca7a b33c 53d7 63bd
000001b0: 3d3b 123d a0a5 93bc 031d 2c3d 018d 453b
000001c0: 50ef b03b 3f0b 073d 8675 11bd 5ed8 a43c
000001d0: 244f 09bc 8d5b ecbc 7e35 d4bc 3c71 a2bc
000001e0: c727 0abd 098c b9bc 5b88 21bd 29e6 043d
000001f0: 7a2d e93c 93a6 25bd a4bb 48bd 0a36 e9bc
00000200: 4732 173d de13 80bc ebf1 57bc bc90 163d
00000210: 533a 823c 8319 633c 5a16 f9bc f678 3cbc
00000220: b15a 063d f647 10bd 9a8b e23c 8d2c 28bd
00000230: 11d4 103b 362e efbc 69b4 00bc 12ae 90bc
00000240: 5101 8c3c ac8f b53a 69a7 5cbd c9b7 28bd
00000250: 39a2 3a3d 9b96 bd3c e0aa 8ebc 93df fbbc
00000260: 1949 07bd a2f4 963c bbcc 4ebd 7175 163d
00000270: 04e7 0abd 3834 3bbd 78ee 32bd 68e6 07bd
00000280: 6814 3fbc 6ac9 0fbd 9874 aebc cbfc e1bc
00000290: d5d1 2bb9 849c 943c 5650 dabc 91d3 2cbd
000002a0: b7ea d9bc d1c8 47bd f7eb 183d 4b78 82bc
000002b0: 317e 2ebc e4cd 45bd 8484 f8bc 98e0 a6bc
000002c0: 3210 303d 670a 983c 9fd3 173c 25bc 753c
000002d0: 1a6d 3abd a265 6d3b 8d8f 3c3d 2176 22bd
000002e0: 18bb 4bbd 965b 2bbd 4bab f8bb b407 633c
000002f0: fa4b 293d 199a 37bc ceb5 b03c e211 07bc
00000300: c4c6 1a3d f9ab 0dbc 2f34 c83c 2feb 0dbd
00000310: fe45 303d 630d 45bd f1b8 13bc fbf5 88bc
00000320: a9a8 e83b b82a 20bd c549 1d3d 211a df3c
00000330: 818a 5fbd 7536 0c3d 50b4 b6bb cbe2 e4bc
00000340: 1f48 81bc 7090 af3b 8934 4b3d 81f6 b0bc
00000350: 34f9 b3bc 4b41 183d 3e40 953c 6d6d 473b
00000360: 0775 4dbd 3c20 143c ea12 3dba 3698 3abd
00000370: 9692 0e3d 3e5b d139 d870 13bd 5503 443b
00000380: b57b 3ebd a31f f2bc c0b7 3a3c 5a7a 453d
00000390: a6d2 ca3a 4547 b7bb 8ca2 0bbd ca9c f93c
000003a0: e14e 7cbc b425 4a3c a26c 053d 79f2 0d3d
000003b0: 6e7c b3bc 0ab7 c23c c52c 5ebc aba1 473d
000003c0: 2981 4f3a 76d0 ea3c 6b33 143d c6e9 01bc
000003d0: d229 2e3c 8022 033d 8d9c 24bd e64b 213d
000003e0: e2da c33c 341d 3abd dd2b 603d 051d 43bd
000003f0: f87b 9d3c 4c5c 83bc fd7b 733b 3a2a 0a3d
-0.047792446 -0.035960786 -0.028938048 0.04287747 0.0044500367 -0.036388345 -0.019516004 -0.04921119
0.014879929 -0.0089616 0.04519828 0.0045218756 -0.047316767 -0.0313268 -0.035253763 0.029059317
-0.008205141 -0.056111693 -0.014950931 -0.02381963 0.012313771 0.04568272 -0.014193878 0.04693902
0.0155194 0.026825553 0.061520837 -0.025717307 -0.023615548 0.026648087 -0.01984829 -0.009659868
-0.0047711576 -0.031473216 0.024644855 -0.030545985 0.008565914 0.017200302 -0.021965811 -0.0324439
0.03895752 -0.028664516 0.0448475 0.02013475 -0.005892857 0.040851403 0.038222343 -0.05223007
-0.020234466 0.007452304 -0.018421814 -0.014807 -0.022111876 -0.027170258 -0.028627075 -0.042278547
0.021082547 0.00032704647 0.028788134 -0.020583196 -0.03445663 0.009453122 0.042697005 0.03457923
0.02833662 -0.0117579615 0.009286213 0.040474143 0.0384326 -0.035354692 0.002898034 -0.049448878
-0.04369376 -0.029958764 0.012349038 -0.022523614 0.039305653 -0.051122587 0.0098175835 -0.011041783
-0.018390862 -0.01791266 -0.025583033 -0.046855073 -0.042776387 0.04880515 0.026444223 0.048040606
-0.047118593 -0.030060744 -0.0026469238 0.00967347 0.00035717338 -0.042237993 -0.008646556 0.0035938902
0.017442796 -0.042867646 -0.01861562 0.026003322 0.0378959 0.039951127 0.022817345 -0.0035949594
-0.037102062 -0.052913215 0.021909136 -0.05562527 0.035701025 -0.018023312 0.042019855 0.003014386
0.005399622 0.03296971 -0.03551247 0.020122703 -0.008380685 -0.028852249 -0.025904413 -0.019829385
-0.03372934 -0.022649782 -0.03943668 0.03244606 0.028464068 -0.04044206 -0.049007073 -0.02846815
0.036913183 -0.015634473 -0.013180236 0.036759123 0.015896952 0.013861063 -0.030406166 -0.011503449
0.032801334 -0.035224877 0.027654458 -0.041058112 0.0022099058 -0.02919684 -0.007855513 -0.017661128
0.017090471 0.0013852022 -0.053870592 -0.041190896 0.045564864 0.023143103 -0.017415464 -0.030746257
-0.033028696 0.018427197 -0.050488215 0.036733095 -0.03391172 -0.045704097 -0.043684453 -0.033178717
-0.01166258 -0.035104193 -0.02129583 -0.027586361 -0.00016386 0.018141039 -0.026649635 -0.042193953
-0.026601179 -0.048775498 0.03733441 -0.0159265 -0.010650204 -0.048292056 -0.030336626 -0.020370767
0.042984195 0.018559648 0.009266763 0.01499847 -0.045514204 0.0036223908 0.04603534 -0.039663438
-0.049738973 -0.04183539 -0.007588779 0.013856817 0.041332223 -0.011206173 0.021571066 -0.00824401
0.037787214 -0.0086469585 0.024438946 -0.034648117 0.0430355 -0.04810847 -0.009016261 -0.016718855
0.007100184 -0.03910324 0.03840043 0.027234139 -0.054575447 0.03423162 -0.005575694 -0.027940175
-0.01578146 0.0053577945 0.04961065 -0.021601917 -0.021969415 0.037171643 0.01821911 0.0030430213
-0.050160434 0.009040888 -0.0007212596 -0.045555316 0.034807764 0.00039931567 -0.035996288 0.0029909213
-0.046504695 -0.029556101 0.0113963485 0.048212387 0.0015474155 -0.005593213 -0.034090564 0.03047027
-0.015399666 0.012338091 0.032574303 0.034655068 -0.021909919 0.02376892 -0.013560479 0.048738163
0.00079156697 0.028663855 0.03618185 -0.007929271 0.010630088 0.032015324 -0.04018836 0.039379023
0.023908082 -0.045438007 0.05472933 -0.047635097 0.019224152 -0.016035222 0.003715276 0.033731677

layer_3.weight f4 [106, 300]
00000000: 021f 483d b55b 473b d090 a93c 2a75 68bd
00000010: 561e 16bd fc4f 88bc cebc 123d 4219 643d
00000020: 225f 68bd f704 0fba d9a8 20bd e24a 103d
00000030: 3045 383d 6e4e 28bd efeb 5ebd 2d21 3bbd
00000040: 0b99 1abd 18c2 803b 58bd 01bd 8a5b 21bd
00000050: 998c 02bd 78c8 023c e63c 073d b060 1dbc
00000060: 0491 34bd 40a8 f1bb 96cb 4bbd f466 b13c
00000070: 5c27 2fbd 1ab5 10bd 5633 8cbc 4d32 3a3d
00000080: 387b 87bb c00d 4d3c c21b 193d 66bc 83bc
00000090: 1522 24bd d480 42bd 0ccc fb3c c8bd 403c
000000a0: 1cb7 64bc f01b 313c 78ca 61bd e0b0 8ebc
000000b0: 541d 833c 78f2 26bd 788a e2bc a0a8 1a3b
000000c0: 229a 0c3d 8026 5bbb e0d6 5f3d 37be 2fbd
000000d0: d621 14bd f871 e1bc b613 303d f8c1 c9bc
000000e0: 2005 a8bc 3f52 503b b8cc 513b 90f0 a23c
000000f0: 125d 403d c6ce 47bd 4099 a43b 82cd 253d
00000100: 9464 3f3d 385a 0d3d 6e29 2d3d ca50 043d
00000110: ece5 4e3d d852 bd3c a6a2 4a3d 8bb2 57bd
00000120: b0a0 fc3c 406f 19ba 146b 353d a867 f93c
00000130: 7c1b 953c 3c71 b4bc 8158 413d ee7f 25bd
00000140: 589d 753c fa6a bcbc 9344 1e3d e68e 4bbd
00000150: ccb3 16bb f81b d3bb 1a2b 5c3d 0088 5dba
00000160: c434 bb3c e822 993b 6af8 643d b949 043d
00000170: b984 f8bc 4ef3 30bd 6890 3a3c b005 753c
00000180: bc0e 45bd f23a 233d c447 103d a493 9b3c
00000190: 6385 563d 68a9 6dbc a8ed 293d 0879 723c
000001a0: e29d e5bc e8e7 a33c dbdd e8bc a048 e73b
000001b0: f058 343c 673f 58bd 90ac d0bc e8d6 c6bc
000001c0: 0a02 25bd a05b 95bc d825 0d3c e0a0 82bb
000001d0: c826 283c 4c3f 0c3d 1e80 37bd 74e2 4dbc
000001e0: 6856 01bc a035 7c3c 3813 263c a0f3 913c
000001f0: 8130 debc de6f 0ebd 5c86 2d3d 443d e73c
00000200: 0736 3abd 4c63 33bd 2860 a93c 122e 073d
00000210: 459c 0bbd dcbe 0abc d462 003d 54e5 863c
00000220: e361 713d bc9e 7a3d cabf 10bd 5473 143d
00000230: bef0 15bd e6d3 8cbc 00ac d3bc 6251 8c3c
00000240: e8ca f8bb 1ea6 403d dcdd c43c 6425 27bd
00000250: 5a58 1dbd 4718 4fbd 52ff d6bc 68ad 5e3c
00000260: 9049 fa3b 1655 1f3d e0d7 233c 5eba 533c
00000270: 572c 1dbd e817 d53c bc02 ea3c a8bb c03c
00000280: d2a0 373c db6a 383d 86a2 b7bc 7c11 31bd
00000290: 8418 adbc 34d5 4cbc 681e 7fbc 6a67 4b3d
000002a0: 0883 b53c 6053 ab3c 806d 803a 4777 b3bc
000002b0: 8089 35ba ca33 42bd 533e 02bd 7640 54bd
000002c0: e814 3c3c ae2d 583d 648f 1fbd 2235 ebbc
000002d0: 480e a13c 4e76 2cbd fcfd 42bd 65bb a0bb
000002e0: 0c3d 343d cfd9 f8bc c4bf a43c d01c 05bd
000002f0: 02d0 5bbd 322f 4b3d 0870 fdbb f474 4b3d
00000300: 8868 383c 2085 44bb a0b2 ec3b cc47 8cbc
00000310: 807c a43c 69a0 45bd 7c7c 35bd a4be e33c
00000320: 1cee a33c 68b8 04bc 4447 e33c 5ec2 30bd
00000330: 2c0a 373d 386b cabc ccb1 d1bc e2aa 2f3d
00000340: 954d 513c 0053 973a d0bd 7abb 8632 2e3d
00000350: 4fba 953c b8b0 a5bb c4cc 24bc 0aaa f43c
00000360: 06dc 053c 60b2 0c3d 2859 3c3d 040c 263c
00000370: be42 a4bc 30dc 1cbd 203c 16bc dc0d 32bc
00000380: a010 683d 5772 62bc 20e1 be3c e57d 003d
00000390: 164a f5bc 77c6 303c bce7 9c3c e487 5e3d
000003a0: 1763 b13c 4eff 053d 9289 433d 2caa 673d
000003b0: 4101 fabc 987d c2bb 9629 023d 7044 b93b
000003c0: 112d aebb 904c f0bb 2441 a0bc 5079 14bd
000003d0: f0d4 08bc 24a5 45bc 02d7 67bd 52c3 ccbc
000003e0: 78e2 4b3c 0aec 49bd bef7 183d 50ee 3ebd
000003f0: d2c1 cd3c e417 56bc 3db0 9d3b 2e8f e6bc
0.048857696 0.0030419652 0.020698935 -0.05675236 -0.036650024 -0.016639702 0.03582459 0.05568815
-0.05673135 -0.0005455757 -0.039223526 0.035227664 0.044987857 -0.04109042 -0.054424223 -0.045685936
-0.03774361 0.003929388 -0.031674713 -0.03939394 -0.031872366 0.007982366 0.03301706 -0.009605572
-0.04408361 -0.0073747933 -0.0497547 0.021655537 -0.042762145 -0.035328962 -0.017114323 0.045458127
-0.004134562 0.012515485 0.037379988 -0.016081046 -0.040071566 -0.04748614 0.030736946 0.011763997
-0.013959672 0.0108098835 -0.05512473 -0.017418325 0.016005196 -0.04075858 -0.027653918 0.0023599043
0.03432668 -0.0033439696 0.05464828 -0.042906012 -0.03616508 -0.027520165 0.042987548 -0.024628624
-0.020510256 0.0031787304 0.003201289 0.0198901 0.04696376 -0.04878118 0.0050231516 0.04047919
0.04672678 0.034509867 0.04227584 0.03230361 0.05051224 0.023110792 0.04947152 -0.052660506
0.03083834 -0.00058530644 0.04429157 0.030444935 0.018201582 -0.02202665 0.047203545 -0.040405206
0.014991127 -0.02300023 0.038639616 -0.049696825 -0.002299535 -0.006442543 0.053752042 -0.00084507465
0.022852309 0.0046733506 0.05590097 0.03229687 -0.030336725 -0.043200783 0.011386968 0.014954969
-0.048109755 0.039851137 0.03522469 0.018991299 0.0523733 -0.014505722 0.041486412 0.014799364
-0.028029386 0.020008042 -0.028426101 0.007058218 0.0110075325 -0.05279484 -0.02547291 -0.024272397
-0.040285148 -0.018232167 0.00861498 -0.003986463 0.010263152 0.034240052 -0.044799916 -0.012566198
-0.007894136 0.015393645 0.010136418 0.017816365 -0.027122738 -0.034774654 0.042364463 0.028227456
-0.04546168 -0.04379587 0.020675734 0.03300292 -0.034084577 -0.008468356 0.03134425 0.016466774
0.058931243 0.061186537 -0.035339154 0.036242798 -0.036606543 -0.017190885 -0.025838852 0.01712865
-0.0075925477 0.04703342 0.024031572 -0.040807143 -0.038414337 -0.050560262 -0.026244793 0.013591148
0.007638164 0.038899504 0.010000199 0.012922851 -0.038372364 0.026012376 0.028565757 0.023526981
0.011207776 0.04502378 -0.022416364 -0.043229565 -0.021129854 -0.012502003 -0.015571214 0.04965917
0.022157207 0.02091378 0.0009798259 -0.021907462 -0.0006925091 -0.04741267 -0.03179772 -0.051819287
0.011479594 0.05277794 -0.038955107 -0.02871186 0.01966013 -0.04210501 -0.0476055 -0.0049051517
0.04400353 -0.030377297 0.020110972 -0.03249818 -0.05366517 0.049605556 -0.0077343024 0.049672082
0.011255391 -0.0029986575 0.007223442 -0.01712408 0.020078897 -0.048248682 -0.04430817 0.027800865
0.020011 -0.0081006065 0.027743943 -0.043154113 0.044687435 -0.024709329 -0.025597475 0.042887576
0.012774845 0.0011545122 -0.003826011 0.04252865 0.018277315 -0.005056467 -0.010058586 0.029866237
0.008170133 0.0343498 0.045983464 0.010134701 -0.020051356 -0.038295925 -0.009169608 -0.010867562
0.05665648 -0.013821206 0.023300707 0.031370062 -0.029942553 0.010789505 0.019153468 0.054328814
0.021653695 0.03271418 0.04773862 0.056558773 -0.030518176 -0.005935382 0.03177794 0.0056539103
-0.005315431 -0.0073333457 -0.019562311 -0.036248505 -0.0083515495 -0.012063298 -0.05660153 -0.02499548
0.012444131 -0.04929737 0.03734564 -0.04661399 0.025116835 -0.013067219 0.004812269 -0.028144445

layer_3.bias f4 [106]
00000000: 38e2 703d 464c 503d 600d 5bbd 4fde a83c
00000010: 1e1c 3d3c dee7 8abc 8b48 02bd 82cc 25bc
00000020: ee9b 243b 810e aa3c ca28 be3c 3185 5abd
00000030: 0005 d6bc 6b11 5cbd 5b3f a03c 8179 e33b
00000040: cfae 5b3d e851 4cbd b637 61bd a66a 2d3d
00000050: f684 b53b 0d19 bb3c d9ea 4fbd ee1e 533d
00000060: b891 173b 37a5 abbc 79e0 26bc 9d50 313d
00000070: 5fda 17bd 8942 0dbd a751 28bd 8a5e 423c
00000080: 9cdd 303c 1e44 4c3c 71d5 61bd 2189 45bd
00000090: 9eab 63bd 9455 f53c c44f 51bd 45b5 1f3d
000000a0: 189c 0ebd cb4e 1b3d 516e 83bc b5d8 853c
000000b0: 2be3 ef3c 3793 6ebd e884 7abc c017 f23b
000000c0: 196f 473d 96d7 043d 357f 07bd 4322 463c
000000d0: f5ec 80bd f0f1 503d b4aa 9fbc aaa4 a6bc
000000e0: de49 263d 31ba 303d 55dd 203c 8e85 643d
000000f0: 0ceb 4fbd d5c6 0fbd 188e 243c 9f16 5dbd
00000100: 84ee 16bd 802f 25bd b235 15bd 6b26 22bd
00000110: 6445 383d aa07 87bb 5088 8c3c a353 20bd
00000120: 8125 443d c69f 1cbd dc44 6b3d 676f 3abd
00000130: 7a02 52bd c8b8 2fbd c26e afbc 7378 053d
00000140: 89b1 3dbc 501a 8fbc 1d51 5e3d ee39 6abc
00000150: 5d16 edbc 98ae 7c3d 317e b5bc 937a 57bd
00000160: 3d0d 1bbd 3eb0 23bd a0db 3f3c 603b 85bb
00000170: a4fe da3b 9411 f63c b9d0 503d f5aa 01bd
00000180: 9e21 02bd bdba 51bd 895c 423c ae7a 123d
00000190: 701a bd3c af87 4f3c d4bb 1a3d 6744 06bd
000001a0: 271d d4bc 0703 4a3c
0.05880949 0.05085399 -0.053479552 0.020613817 0.011542348 -0.016956266 -0.031807464 -0.010119559
0.0025117355 0.02075887 0.02321281 -0.053349677 -0.026125431 -0.05372755 0.01956146 0.0069419746
0.053633507 -0.0498828 -0.05498477 0.042338036 0.005539532 0.022839094 -0.050761078 0.05154317
0.0023127627 -0.020952804 -0.010185354 0.04328977 -0.03707349 -0.03448728 -0.041093495 0.01186336
0.010795023 0.012467412 -0.055135194 -0.04822648 -0.05558359 0.029948033 -0.05110146 0.03899123
-0.03481683 0.03791694 -0.016043814 0.016338686 0.029283127 -0.058245864 -0.015290476 0.007388085
0.048689935 0.03243216 -0.0330803 0.01209313 -0.06295196 0.05101198 -0.019490577 -0.02034219
0.04059779 0.043146316 0.009818395 0.05579143 -0.050761268 -0.03510173 0.010043643 -0.05397665
-0.03684856 -0.040328503 -0.03642816 -0.03958742 0.04498805 -0.0041207867 0.017154843 -0.039142262
0.04788733 -0.03823831 0.057438716 -0.045516398 -0.051271893 -0.04290083 -0.021415118 0.032585572
-0.011577972 -0.017468601 0.054276574 -0.014296038 -0.028941328 0.061689943 -0.0221549 -0.05260713
-0.037854422 -0.039963 0.0117100775 -0.004065916 0.0066831876 0.030037679 0.050980303 -0.031657178
-0.03177034 -0.051203478 0.011862882 0.035761528 0.023083895 0.012666627 0.037776783 -0.032780077
-0.025892807 0.012329823
